models/rl_models/included_validation/best_policy_dqn_model_epoch_24.pt (torch, 74158 bytes, 6 tensors)

layer1.weight f4 [128, 6]
00000000: 6423 abbe 63a0 6f3e b786 5ebd 9d42 55be
00000010: 3fc6 5e3e a08e 1dbe 44ea 993e 6d9e 443e
00000020: 2aeb 5bbe 15c6 a33d 1d17 c1bd 0ffa 60bd
00000030: ca48 aabd 9649 aebe d10f b13d a06f aebe
00000040: 9b0f ab3e d839 42be 5d8e 97be 952f aabe
00000050: 1cea 903e 65dc 883e a3eb 0cbe 5615 5e3e
00000060: c763 c1be fcd1 b6bd 51ad 8abd 0614 bc3e
00000070: 4c20 71be 5ef2 3b3e e6ef 72be 25c1 6cbd
00000080: 8bff 0fbe 8ec9 bf3d 8b65 873e 4b5e 75be
00000090: 3d5a aabe c3da 063d 5916 bc3e b09d 69be
000000a0: 4b24 fbbd f0a8 4c3e 557f 5d3d dfee b53e
000000b0: 6bab ddbd 6c48 78be 75e9 9fbe da98 e53d
000000c0: 4534 b2bc 2e0d be3e 98ed 633e dd96 b8be
000000d0: a267 08be 512f b73d 3264 b9be 2d52 1fbd
000000e0: beeb 673e 0d01 9f3b f41d b3bd 29cc 90be
000000f0: 3b72 14bd cc79 69be 9e1e 57be 1355 82bd
00000100: 3bf0 43ba eb0b 9bbe 0bf8 8a3d 809f 403e
00000110: b725 8d3e f8d6 f0bd 67b1 78be 3f31 44be
00000120: 32ae 68be 198e 993e 1a7c 9bbc 623f a63e
00000130: 6637 56be 8521 55be bc14 99bd ed02 07be
00000140: 46b8 b13e f058 503c 96ad 343e 3c8a ba3e
00000150: 2f27 babe 4849 a6be 8a10 93bd a1f3 4abc
00000160: f8b5 bf3e d1a5 61bc fb98 e23d 5b46 09be
00000170: 0441 8ebe 6078 b9bd dc34 70be 4699 083e
00000180: 99da ff3d 85e0 683e 3560 5fbd 4fe9 ba3e
00000190: 1992 153e a7d0 9fbe 20ae e63e c641 0cbd
000001a0: 9e68 c63e 77c7 9dbc e0c7 cabe e1f0 0dbe
000001b0: 6d12 08be e7e2 213e 8226 a7be d1ae c6bd
000001c0: c7a4 853e 5d14 a33e 2d08 b93e 17cd 613d
000001d0: 9dbb 4e3d 4987 b5be 2f8b b13d d5e1 b13d
000001e0: 6f71 af3e 6d48 8f3c 1150 423e db9f 84be
000001f0: b537 c93e 0e66 2cbe 2fe1 36be 1066 7abe
00000200: 225a 0d3e 7995 cbbd 2573 3fbe 804e 7b3e
00000210: 7ae5 3abe 9ec9 8f3c e7aa 173c 7e2a ac3e
00000220: bb4b 8f3e 0e4c 81be 5e32 e2bd 2ced e8bd
00000230: cb29 97be fc19 17be e4f1 c83b 3065 8abe
00000240: e8e3 9abe 3d03 8a3e b58d 0cbe f48b 66be
00000250: 64b2 4abe dc7c c93d 9ae1 9abe 7151 313d
00000260: 9d69 85be 9dc8 a9bd 233e 74bd 54a3 b2be
00000270: afc6 8bbe 7cec 3dbe f672 7a3e 0c2a 8ebd
00000280: 5d40 3a3e d277 3cbe e1db b43e 309b 86bd
00000290: ae50 b33d a765 db3d 4853 a23d 47f3 95bd
000002a0: a5de b1be 9c9a 9cbe 2728 563e 177d a93e
000002b0: df56 083e c545 38be 608d fd3e d81c 2bbe
000002c0: 0890 cf3e 2c6d cf3e e1d5 31be 8a0e 903e
000002d0: 9e8b 3bbe 2839 093e b9d9 11be 691a 733e
000002e0: a6e9 943e c4b0 393c f5e9 69bd 6ee4 1c3c
000002f0: 0527 b53e 04d3 a73e f8d5 aa3e f1cb 523e
00000300: 855e a93e 24eb 2e3e cd2b 83be 8d8f 94bd
00000310: 0866 2abe e0b2 eb3d c95b 35bc d549 1d3c
00000320: 4919 843e 4bed 983e 97d8 353e 387c 0fbd
00000330: 7eff 1dbb 6352 773e 89df 78be 83b9 723e
00000340: 2ea3 903e f91a 0e3d df97 893e 5989 39be
00000350: df2e 993e a707 3d3e 86e6 713e cbc2 f63a
00000360: f906 8dbe 2df1 2abe 05ee abbe 23e2 5e3e
00000370: 06f5 bcbc 468b a73e 6bf3 c1bd cbc2 833e
00000380: 5f0f a7be 1234 303e 7aea b73e 0e31 c33e
00000390: c567 ad3e 0529 7abd 15fc 883d 854b 22be
000003a0: b142 a83e e740 1ebe ff90 813c 2724 05bd
000003b0: a78a 383b 2775 0dbe 77dc 80be 6486 6c3e
000003c0: 99c7 81be 57d5 023e 8d17 143e 27e8 b7be
000003d0: 9cea 70ba 964c 393e 23f9 0e3d ddd2 933e
000003e0: 067a 643e efc5 96bd fc19 b23e 2546 03be
000003f0: 80d9 fe3d c495 15be d170 7d3c eef0 d13e
-0.33425438 0.23401026 -0.054327693 -0.20826192 0.21755312 -0.15386438 0.30061543 0.1920106
-0.21476427 0.079967655 -0.09428237 -0.054925974 -0.08314665 -0.34040517 0.08645595 -0.34069538
0.33410344 -0.18967378 -0.29600802 -0.33239427 0.2830361 0.26730648 -0.13761763 0.21687827
-0.37771437 -0.0892677 -0.06771339 0.36734027 -0.23547477 0.18354174 -0.23724326 -0.057801384
-0.14062326 0.093646154 0.2644466 -0.23961751 -0.3327197 0.03292347 0.367358 -0.2281406
-0.12262782 0.1998632 0.05407651 0.35533807 -0.10823711 -0.24246377 -0.312328 0.11210795
-0.02175344 0.3711943 0.22258604 -0.360526 -0.13320783 0.08944572 -0.36209255 -0.03889673
0.22648522 0.00485242 -0.087459475 -0.28280762 -0.03624175 -0.22800368 -0.21007773 -0.06363883
-0.0007474457 -0.3028253 0.06785592 0.18810844 0.27567837 -0.11759752 -0.24286424 -0.19159411
-0.227227 0.29991224 -0.018980075 0.32470232 -0.2091957 -0.20813568 -0.07474658 -0.1318471
0.34710902 0.012716517 0.17644343 0.3643359 -0.3635802 -0.32477784 -0.07180889 -0.012387187
0.3744352 -0.013772444 0.11064335 -0.13405745 -0.27783978 -0.09056163 -0.23457664 0.13339719
0.12492866 0.22741897 -0.05453511 0.36506125 0.14606513 -0.31213877 0.45054722 -0.034242414
0.38751692 -0.019260151 -0.39605618 -0.1386142 -0.13288279 0.15809213 -0.32646567 -0.09701312
0.26102278 0.31851473 0.3613905 0.05512723 0.05047189 -0.35454777 0.08669125 0.08685652
0.3426623 0.01749059 0.18975855 -0.2590321 0.39300314 -0.16835806 -0.17859338 -0.24452996
0.13803914 -0.09940619 -0.18696268 0.24541664 -0.18251601 0.017552193 0.009257055 0.3362617
0.27987465 -0.25253338 -0.11044763 -0.11373362 -0.29524073 -0.14756006 0.0061323512 -0.27030325
-0.30252004 0.26955596 -0.13725932 -0.22514325 -0.19794613 0.09838268 -0.30250245 0.04329056
-0.2605714 -0.08290217 -0.05962957 -0.34890234 -0.2730002 -0.18547243 0.24457917 -0.069416136
0.18188615 -0.18405083 0.35324004 -0.065725684 0.08755623 0.10712748 0.07926041 -0.07321792
-0.34740177 -0.30586708 0.20913754 0.33103248 0.13314389 -0.17995365 0.49521923 -0.16710222
0.40539575 0.4051298 -0.17366745 0.28136092 -0.18314978 0.1340071 -0.14243211 0.23740543
0.2908451 0.011333648 -0.057107884 0.009575946 0.35381332 0.3277818 0.3336637 0.2058561
0.33079925 0.17081887 -0.25619355 -0.07253943 -0.16640484 0.11508727 -0.011069247 0.009600122
0.2580054 0.2986854 0.17758404 -0.035030574 -0.0024108584 0.24152522 -0.24304022 0.2370358
0.28249496 0.034693692 0.2687368 -0.181188 0.29918572 0.1845995 0.23623094 0.0018826363
-0.27544382 -0.16693564 -0.33580032 0.21765952 -0.023066055 0.32723445 -0.094702564 0.25734553
-0.32628915 0.17207363 0.3592108 0.38123363 0.33868232 -0.061074276 0.06688706 -0.15849121
0.32863382 -0.15454446 0.01581621 -0.03250518 0.0028158815 -0.13814221 -0.251682 0.23098141
-0.25347593 0.12776695 0.14462109 -0.35919306 -0.0009190233 0.18095621 0.034905564 0.28871813
0.22312173 -0.073619716 0.3478545 -0.12819727 0.124438286 -0.14607912 0.015468792 0.41004127

layer1.bias f4 [128]
00000000: c61e 1d40 aa3b 17be 6e1b 15be 13b2 2c40
00000010: 58ce 71be 50b0 9ebe adeb 1f40 ccad 7dbe
00000020: 83b5 813f beda a0be d989 c0be f551 1340
00000030: 27e1 29be 3b1f 41bc dfee bdbe 61b5 08be
00000040: cecf b43f ce1f 3ebe 7a8f febb 2d9d 68be
00000050: cd25 f13f 584e 9abe b788 8dbe 3aee 16bd
00000060: 1948 29be 32f5 cbbc 4214 9bbd f227 9dbe
00000070: acdb 71be b94d 3fbe 5182 f33f cd6c bd3f
00000080: 2815 8abe b350 c8b8 155b b7be be32 943f
00000090: b565 1ebd 32d0 943f 23d4 bd3e 4bb8 1ebe
000000a0: 2a40 3040 a2dd 473f 4fba a03f 4612 c13e
000000b0: 47bf 2740 1688 ba3e 904c e9bd ac4c 3940
000000c0: 4f32 3240 1a1b 293f e15e a0be aec9 5bb9
000000d0: f8b6 0fbe bb60 8abe 2f1b 2f40 821c 6abe
000000e0: ab57 1f40 1782 0dbe 4979 deb8 2b19 aebd
000000f0: 19cb a0be 5c40 17be 77b4 c2bd 35c8 b8b7
00000100: 7b0a 72bd 2d6e 2940 0ea1 c23f 069a 1840
00000110: ba06 2b40 65f9 9dbe 712d 1eb9 f901 67be
00000120: ed8e 7ebe 90ee 3940 fe26 2340 616b 0340
00000130: 4847 2640 86a8 453d 504b 863f 923d 713f
00000140: d8b8 1e40 4329 d23f 4ac8 45bc bb3a 2140
00000150: 92b5 3140 a5ae 09ba 94de 9cbe cf81 8db8
00000160: c0dd 5bbe c536 33bd e0df 89bd c180 b3bd
00000170: dc3c 6cbe e324 3040 7897 823e 24f9 f9bd
00000180: b198 15be e3f5 c5be 7da3 5dbc 2557 953c
00000190: 998f 9dbd caf2 3140 c00d cdbc 7dff 2b40
000001a0: a5b2 48be ae0f c93f a2ad 84be c042 3940
000001b0: 741b e0bd bbbf 723f 82df 3040 ae9d 31be
000001c0: 7d3d 33be 9f54 eb3e 52ce 40be b87d b9be
000001d0: cc66 c53e 5420 463f 9838 f23f 65fa 243f
000001e0: ad8d ab3f 67fa 9ebe 2fc7 50be aa96 e7bd
000001f0: 4efe 1f40 3354 b2be 63e2 2e40 28fd c7bd
2.4550033 -0.14768854 -0.14561245 2.6983688 -0.2361387 -0.3099389 2.4987595 -0.2477333
1.0133518 -0.31416887 -0.3760517 2.3018773 -0.16589795 -0.011787231 -0.37096307 -0.1335044
1.4125917 -0.1856682 -0.0077685686 -0.22716208 1.8839661 -0.30137897 -0.27643368 -0.036848284
-0.1653141 -0.024897192 -0.07572223 -0.30694538 -0.23618954 -0.18681993 1.9024144 1.4798828
-0.26969266 -9.5517746e-05 -0.35811678 1.1577985 -0.038671214 1.1626036 0.3707591 -0.1549999
2.7539163 0.7807256 1.2556857 0.37709254 2.6210496 0.3643195 -0.11391556 2.8953047
2.7843206 0.6605698 -0.31322387 -0.00020960599 -0.14034641 -0.27026924 2.7360342 -0.22862437
2.4897258 -0.13819157 -0.00010608376 -0.08500894 -0.3140495 -0.14770645 -0.09507077 -2.2027738e-05
-0.059092026 2.6473496 1.52054 2.3844008 2.6722856 -0.30854335 -0.00015084982 -0.22559346
-0.2485921 2.9051857 2.549255 2.053429 2.5981007 0.04825642 1.0491734 0.94234574
2.480032 1.6418842 -0.012071678 2.5192096 2.7767072 -0.00052521593 -0.30638564 -6.747583e-05
-0.2147131 -0.043753404 -0.06732154 -0.08764792 -0.23070091 2.7522514 0.25506186 -0.12205723
-0.14609028 -0.3866416 -0.013527748 0.01823003 -0.07693405 2.7804437 -0.02503097 2.6874688
-0.19599397 1.570791 -0.2591372 2.894699 -0.10942736 0.9482381 2.7636418 -0.17345306
-0.17503925 0.45962998 -0.18828705 -0.36228728 0.3855499 0.7739308 1.8923521 0.6444457
1.3402611 -0.31050417 -0.20388483 -0.11308034 2.4998965 -0.34829864 2.7325675 -0.097650826

layer2.weight f4 [128, 128]
00000000: ef65 183d cde7 e0bd da22 a5bc 7da4 c2bd
00000010: 2dba a33d 290c a93d e804 1d3d cc9d 6ebd
00000020: 2266 44bd 3406 e2bc bbda 38bb 1dea b43d
00000030: ef59 95bd bf63 663e cde7 ebbc 5b90 553b
00000040: 133c 423d 7caa 95bd 3c78 78bb 28ec e63c
00000050: b266 71bc b4eb 8abd f09e 513d 3644 113c
00000060: e1af a9bd 33d4 a53b 742c 00bd 9efa 80bd
00000070: 6588 733d 12e3 6dbe 2525 b63d 0597 7dbd
00000080: f367 4f3c 4134 c83b 0a56 fd3c 1982 e1bb
00000090: 8247 30bc 6c02 153d 8d5d 8a3c a37e 21bd
000000a0: 2990 b7bc ad83 f4bc 42df 27be 9cd7 16bd
000000b0: dfd7 953d 944c 333a 7f9e 8bbd 3ab2 213d
000000c0: 892a 0abd e441 acbc e7ac f0bb bc1c 9d3c
000000d0: a1a5 8fbd ebf8 8c3c 926e 273d 24a6 22ba
000000e0: d326 c23c 264e 0d3b 5f61 3b3d 08a5 3b3d
000000f0: 35c1 773c 83b1 1dbd 7813 2a3b 8db0 b03c
00000100: 0e09 0abd 6044 21bd 5b85 b43c f13d 6fbd
00000110: 9c4c 8cbd 2399 6dbd fd24 9e3c e5cc 83bd
00000120: 5939 2d3d b6bc a0bd 79a2 e23b a654 123e
00000130: 1484 623b decf 553b 6bc2 8dbc cb9e 5bbd
00000140: 1143 663d 6509 7bbd 91c5 0c3e d6bc 723d
00000150: 7a1b 01bd d20d 0abd 11cf 96bc f53e 6ebd
00000160: 0aaa 233d 5c7d b4bd fb35 54bd 33a7 923d
00000170: 0786 87bd 2dc2 843c 63e2 5a3d 0668 963c
00000180: ab3f 143e e7e2 be3c 0a5c 7dbc 4c97 a5bd
00000190: 6f6b e33c d175 0c3b dfc1 da3b c6bb 35bc
000001a0: c64e 2b3c e249 a83d 6216 bfbb 4e4a ba3d
000001b0: 5150 62bd 061e 71bc e396 b0bd 1881 ea3b
000001c0: 8187 763d f415 b0bd 676f 57bd 8999 86bd
000001d0: cc72 283c cdbf c5be ee46 0c3d 7297 803d
000001e0: 5335 7fbd 2ed5 1d3d 2faf fe3c e3f6 ab3d
000001f0: 04ac 9a3c da2f 9a3d 7caa ce3c cfe8 9dbd
00000200: a76a 0a3d f1e9 d3bd 8440 53bd 33ab 8fbd
00000210: cfe4 2b3d ea5a bb3d cd55 ed3d 3bff 9fbd
00000220: 73eb 8fbc c59c 073c da41 0a3a d8d1 cabc
00000230: 52bd edbc 8d32 213e 5b10 fa3c ae0b 8a3d
00000240: ef48 73ba 3bf9 cc3b cfb1 473c c61d 79bd
00000250: 9515 2abd 33fe 29bd 80ee db3c 6b84 21bc
00000260: a511 d13c ff54 2bbd 05a7 9fbc 68de 1dbe
00000270: 79ac ce3c f747 02be 5ad7 933d 1575 c83c
00000280: f90d 0e3d 8cde f23c 8931 18bd 387c 6bbd
00000290: bbef 7c3d 777c 5b3d 632e 18bc a371 91bd
000002a0: 4d79 ef3c 129c d63c 0d2c 09be f0dc dd3c
000002b0: 3318 f33c c74b 5cbc d749 93bd c8f2 b43c
000002c0: f5d7 c3bc 4cfc 983c 320c d93c 9148 52bd
000002d0: 710d 9abd 5ad1 d83c 4b77 12bd 2e0e 5e3d
000002e0: 997e 8abd 0602 92bd e13e 97bc da7f c13c
000002f0: d39e aabd bb27 49bc e5bc 553d 415a 3cbd
00000300: bfa2 90bc 130e 1c3d ea18 6f3d a88d 81bd
00000310: 82b1 8dbd 9538 843d 92e9 0cbd e4b9 163c
00000320: 47ca 293d 730b 75bc adc1 653d 4ded 333e
00000330: 23dc 84bd 3fd2 7a3d 18af e53c f600 443d
00000340: 06f1 963d 7b9b 66bd 209f de3d 36eb c93c
00000350: 738e 7e3d 1134 18bd 2d8d 723d a776 92bd
00000360: cff8 46bc ead7 71bd 200b ffbc 64ab 9d3d
00000370: d46b 9f3d 9d1b 89bd a6c3 6b3d 9da6 a13c
00000380: b919 053e f782 26bc e5d1 863d cd88 763b
00000390: 5db7 8c3d fce1 83bd 484b a33d 1568 92bd
000003a0: bf92 f33c 0a54 65bc 6f7c 0cbd 7df6 1a3d
000003b0: ef9c 5dbd b9ee 23bd dbd2 80bd 02ff 543d
000003c0: 3588 743d 7a75 08bd 967f a4bc 95a9 3f3d
000003d0: 7613 dd3c 530b 5ebe c6b8 05bd a817 6bbc
000003e0: c361 123d b7f4 8b3a ef28 c73c 6d66 59bd
000003f0: 6746 8139 70e9 4f3d 21ee 153c 854a d43c
0.037206586 -0.109817125 -0.02015822 -0.0950403 0.079944946 0.082542725 0.038334757 -0.058255956
-0.047948964 -0.027590849 -0.0028206545 0.08833716 -0.07292544 0.22498988 -0.028797055 0.0032587263
0.047420572 -0.07307908 -0.0037913462 0.02818878 -0.014733957 -0.06783238 0.051176965 0.00886636
-0.08285499 0.0050606965 -0.031292394 -0.062978014 0.059456248 -0.23231152 0.088938035 -0.0619116
0.012659061 0.006109745 0.030924816 -0.006881964 -0.010759236 0.036379263 0.016890312 -0.03942741
-0.022407608 -0.029847944 -0.1639376 -0.036826715 0.07316565 0.0006839719 -0.0681734 0.03947661
-0.03373197 -0.021027513 -0.0073448303 0.01917874 -0.07014013 0.017208537 0.040876932 -0.00062045665
0.023700153 0.0021561473 0.045747157 0.045811683 0.015121748 -0.038499366 0.0025951546 0.021568561
-0.03370004 -0.039371848 0.022036245 -0.05840868 -0.068505496 -0.05800737 0.019304747 -0.06435565
0.04229102 -0.07848494 0.006916341 0.14290103 0.0034563588 0.003262512 -0.01730462 -0.053618234
0.056216303 -0.061288256 0.1374724 0.05926212 -0.031520344 -0.033704586 -0.018409284 -0.05816551
0.039957084 -0.08812973 -0.051809292 0.07160797 -0.066173606 0.016205871 0.053438555 0.01836015
0.14477412 0.023301555 -0.015463838 -0.08085498 0.02776119 0.0021432529 0.0066759433 -0.011092132
0.010455793 0.08217217 -0.0058315257 0.09096204 -0.055252377 -0.014716631 -0.08622529 0.0071565025
0.06018782 -0.08597937 -0.052596476 -0.06572253 0.010281276 -0.38622895 0.03424733 0.06278886
-0.062306713 0.038533382 0.031089393 0.08396699 0.018880852 0.07528658 0.025227778 -0.0771042
0.033793118 -0.10347355 -0.0515752 -0.070150755 0.041966256 0.091482 0.11588631 -0.07812353
-0.017568326 0.008277123 0.0005274095 -0.024758264 -0.029020939 0.1574194 0.030525377 0.06740509
-0.00092805823 0.0062552965 0.012188389 -0.06081941 -0.04152449 -0.04150219 0.026847124 -0.009858231
0.025521109 -0.041829105 -0.01948882 -0.15416873 0.025228726 -0.12722765 0.072188094 0.024469892
0.034681294 0.029647134 -0.037156615 -0.05749151 0.061752062 0.053585496 -0.009288403 -0.071017526
0.029232645 0.026197467 -0.1339571 0.02708289 0.029674625 -0.013445801 -0.07191818 0.022088423
-0.023906687 0.018674992 0.026495073 -0.051338736 -0.07522095 0.026467014 -0.035758298 0.05421274
-0.06762428 -0.07129292 -0.0184626 0.023620535 -0.083310746 -0.012277539 0.052182097 -0.04598451
-0.017655728 0.03809936 0.05837337 -0.06325847 -0.069186226 0.06456105 -0.034402438 0.009199593
0.041452672 -0.014956343 0.056092907 0.17570992 -0.064873 0.061235663 0.028037593 0.04785248
0.0737019 -0.05630062 0.108701944 0.02464829 0.06214757 -0.03715903 0.059216667 -0.071515374
-0.0121442815 -0.059043802 -0.031133235 0.07698706 0.077842385 -0.0669472 0.05755963 0.019732768
0.12998094 -0.01016306 0.06583003 0.003761816 0.06870911 -0.064395875 0.07973343 -0.07148758
0.02973306 -0.013997087 -0.034298357 0.037832726 -0.05410474 -0.040022586 -0.062902175 0.052001007
0.05970021 -0.03331516 -0.020080369 0.046792585 0.026986819 -0.21684007 -0.032646917 -0.014348902
0.035737764 0.0010677789 0.02431151 -0.053076196 0.0002465725 0.050759733 0.009151013 0.02591444

layer2.bias f4 [128]
00000000: 5cd2 75bc a49c 3c3d 924f 3cbd 42dc 67bd
00000010: 71de 94bc a6dc 8a39 a0a6 8dbd 4244 cd3e
00000020: 1133 b8bd eb88 5c3e b145 01bd f0d3 2c3a
00000030: c459 563d 35d3 a5bd 5dce 12bd 6ec7 0dbd
00000040: 59d0 d83e 4773 ac3d 742e 0f40 5a07 8a3c
00000050: e039 b0bc 2942 1340 8228 8e3e 9f8e a33f
00000060: 7849 b43e addc 7c3e 98d7 27bd ee16 42bd
00000070: c220 aa3e 1bfb 863c 33c1 c93e 08fc d0bc
00000080: 59f2 46bd 1a5b 00bd d2cc 85bd 6869 65bd
00000090: 6c29 ca3c 6f56 2dbd 368f 373d fd87 1cbe
000000a0: f8b8 d53e 3dd5 59bd 1246 0e3d 23e7 823f
000000b0: af48 843d f016 34bc 6878 0bbe 410d 04bd
000000c0: 9a48 d33e 5246 0040 596e 7d3d c2c5 19bd
000000d0: 4b07 f93f 727a 7d3d be56 97bc 7072 08bd
000000e0: 6e20 9f3e 980b 823d 6c82 d73e ff23 a4bd
000000f0: 761b a63d aa31 be3e bd71 36bd e21b 903c
00000100: bec5 663e 6ad3 843f 6421 9a3e 4655 4b3d
00000110: cd97 513d bd9a 163d 06bb 4d3d fb40 c23e
00000120: 0c5e 8c3b c44e 253d 47f3 713d c566 3a3e
00000130: 7a96 293d 8cc3 37bd 2e5f 4cbd fb65 a43d
00000140: e7cf c1bd 7843 24bd d7a1 143f a28b fa3f
00000150: b5fd 693d 4508 8bbd c36b 80bd be5c 0b3e
00000160: 9a08 0d3c 6cd5 60bc 95f1 b03e 5b26 8b3e
00000170: 8479 1cbd e1b2 873d af8e b1bd c5e1 2840
00000180: f0a1 823c fbc3 d33e e89b d53e 14bb 86bd
00000190: a337 e43f b5bd 013d e40b a1bc 9137 30bd
000001a0: 6870 d03e a315 2b3b af9b ab3f 2def ef3f
000001b0: 9ab8 61bd ee47 7a3d 1473 1e3e f075 7d3d
000001c0: 8e2c e03f 66e9 28be ff67 d33e e528 1c40
000001d0: 0cf4 7dbd 43ed 4fbd b6bd 46bd d17c 6cbc
000001e0: c448 803e a671 8cbd db15 aa3f b7b8 10bd
000001f0: d56f 9fbd 851d 743d b70e 7b3f 711c de3e
-0.015003767 0.04604782 -0.04597432 -0.05660654 -0.018172475 0.00026485807 -0.06916547 0.4009114
-0.08994115 0.21536605 -0.031560604 0.00065928604 0.0523317 -0.08096925 -0.035841335 -0.03461402
0.42346457 0.08420425 2.2372103 0.016849209 -0.021511972 2.300913 0.2776528 1.27779
0.35212302 0.24693556 -0.04097709 -0.04738515 0.33228117 0.016477158 0.39405212 -0.025510803
-0.048570964 -0.03133688 -0.06533207 -0.056008726 0.024677955 -0.042318758 0.04481431 -0.1528625
0.41742682 -0.053181875 0.034734793 1.0226787 0.06459176 -0.010991797 -0.1362015 -0.032239202
0.41266328 2.004292 0.061872814 -0.037542112 1.9455351 0.06188435 -0.01847398 -0.03331226
0.3107943 0.063498676 0.42091691 -0.08014678 0.081107065 0.37147266 -0.044542063 0.01759142
0.2253637 1.0377018 0.301036 0.04964187 0.05117016 0.036768664 0.050227188 0.379402
0.004283672 0.04035832 0.059069898 0.18203266 0.04140327 -0.044864222 -0.049895458 0.08027264
-0.09463482 -0.040103406 0.5805945 1.9573863 0.05712672 -0.06788687 -0.06270554 0.13609597
0.008608008 -0.013722759 0.34559312 0.271777 -0.038201824 0.06625915 -0.08669793 2.6387799
0.015946358 0.4136046 0.4172051 -0.06578651 1.7829479 0.03167506 -0.01965899 -0.043021742
0.4071076 0.0026105426 1.3406886 1.8744866 -0.05510769 0.061103754 0.15473586 0.061880052
1.7513597 -0.16495284 0.4129028 2.439996 -0.06200032 -0.05076338 -0.048520766 -0.014434055
0.25055516 -0.06857614 1.328792 -0.035332408 -0.07785002 0.059598465 0.9806933 0.43381074

layer3.weight f4 [3, 128]
00000000: 647f 1d3e b055 9f3d debf 66bc 8729 8a3d
00000010: 202e 48bd 51f6 a4bd 19ad 873d c3fc 38be
00000020: d8f8 fa3b f572 a2bd e144 53bc c83a 303d
00000030: 9e2a 173d 10f8 793b cd6f 9f39 0057 923d
00000040: 00f6 3ebe 8028 1a3d 30c0 d0bf 8a2b 9abd
00000050: f700 283e 5ff8 a9bf 93fb 1bbd da42 9dbf
00000060: e6d7 03be 09b4 10be 2951 0c3c b6d9 67bd
00000070: 6036 35be 9658 503d 983e 1cbe eb33 433d
00000080: 0338 11bb b1fa ec3d b189 b73d fbae 0dbc
00000090: 79c0 51bc 8732 74bd 6d97 2a3d dee3 053e
000000a0: 38e3 f6bd de0c 1a3d f3d9 39bd fea9 8fbf
000000b0: d141 703d 215f a43d bfba 633d 2bef 863c
000000c0: 4872 bfbd d498 b0bf de88 8cbd 812b c63d
000000d0: 6447 bcbf 6566 a33d 69d7 cebc 4a50 f63b
000000e0: 3505 2bbe 87eb a73d abea 43be 92dc 953d
000000f0: e266 19be e4ca 42be d2ce 853d ce69 00bd
00000100: 94a8 f0bd e612 8ebf ab84 6fbe 451e 013e
00000110: 11eb 373e b80d e4bc 4fef 70bd c656 36be
00000120: 5703 2bbd 259f 103e 541d 8abd 2227 1abe
00000130: a8e0 663b 6e33 6c3d 5fe8 8ebd e4c5 9e3d
00000140: 9f30 783d 8d27 c33d bff9 83be 7ed2 b5bf
00000150: 6175 5cbb 0e0b 7b3d 420a e53d 70c1 46bd
00000160: fce7 d3bb ed3b a53d 26b3 26be bde8 41be
00000170: 5d17 3fbd 1b1d 64bc e141 ef3d 94b1 dbbf
00000180: 1ce2 ca3d 2c5f 22be d3c0 59be 1cb8 6e3c
00000190: d920 a2bf 5ad1 57bc f37c 403d 6a56 133e
000001a0: f729 50be 0834 ba3d 196a 94bf ce37 b5bf
000001b0: 2f21 533b e5c1 82bc 1b2f 04be be7b 9bbc
000001c0: 331c adbf f8ad 113e 4c71 54be 6415 d3bf
000001d0: 9a88 d83d d433 5c3d bf7c 00bd fc2b 17bd
000001e0: 7ec2 53be 8cfd 893d 5625 afbf b76f 62bd
000001f0: dad0 a3bc 802b 863d 29af 6abf 9db7 febd
00000200: 7c1d 0e3e f676 453d fc0d 01bd 7eb4 5abd
00000210: 31af 7fbd 35fd 8abd 8e30 38bd eea6 16be
00000220: 1722 2f3e 8865 6cbc 6f84 833c 4da0 77bd
00000230: a7f8 d03d 447d d13c 5c07 943d f42a e93d
00000240: 7fe7 5dbe 8471 7e3d 5791 afbf f12d 083d
00000250: 8b3b 263e 6ce8 ddbf 057c 20be dcae 82bf
00000260: cae6 5fbe b21e f2bd bafc 903d 9b82 8f3d
00000270: 7eb9 f9bd e17b 183d 0472 50be b2b9 38bc
00000280: b046 e4bc 0151 173e d06b a13d 9111 943d
00000290: 7c9d e2bc 49e3 11bd 5b64 bc3d a239 cf3d
000002a0: ba50 17be 467f 95bd aa21 4f3b 0ad1 64bf
000002b0: 38a2 a4bc d6d9 1b3d c93a fcbb f39e 99bd
000002c0: 5cfc 61be 9d54 c0bf 54bd 22bd 7036 da3d
000002d0: 90d1 c6bf 2662 e53c 888b 1a3d 68d3 d1bc
000002e0: db14 2bbe abe1 333d 63cd 3cbe de00 6c3d
000002f0: 0ae5 2abd 6ce9 3abe ac39 953d 221b a03d
00000300: 29bd f7bc 077a 69bf a17c 47be 404b a73d
00000310: 7bd9 b63d 75b0 0a3d 5093 3a3d 45f5 27be
00000320: 173c 4a3d 3c44 be3d bd2d 9cbd e7dc 18bd
00000330: 7bb5 1f3d f899 c3bc de1e 413d 3a63 90bd
00000340: 1c73 a83d 2bb4 b53d d177 e4be 52d3 b5bf
00000350: f8e3 92bd bad1 f03c 6d0f 0a3e dab7 9ebc
00000360: 723d e1bb 021b 603d 84c0 fcbd 27a7 a4bd
00000370: dda1 733d acaa 18bd 657c ae3d f949 03c0
00000380: e096 8c3d 4001 8dbe dfb6 27be 7c97 09bd
00000390: 1b13 9cbf f1f3 6cbd 6c08 b0ba 4ca6 283e
000003a0: 3986 3fbe 4691 f13d c9d7 88bf 314a 9dbf
000003b0: 0445 c93d a341 33bd 87fd 00be 42fb 9bbd
000003c0: 7803 9fbf 5d97 893e c50b 24be 1992 eebf
000003d0: 1b80 a83d 8c91 aa3d 685b 133d 4ccc 8cbd
000003e0: 6329 00be 565e 28bc e386 89bf 6364 11bd
000003f0: 3c6e cc3c 235a aabc 77af 61bf 0c85 4dbe
0.15380627 0.077800155 -0.014083831 0.06746202 -0.048872113 -0.080547936 0.06624813 -0.18065171
0.007659059 -0.079320826 -0.01289484 0.04302481 0.036905877 0.0038142242 0.0003041014 0.071455
-0.18648529 0.03763628 -1.6308651 -0.07527836 0.16406618 -1.3278922 -0.038081717 -1.2286026
-0.12875327 -0.14131178 0.008564272 -0.05660411 -0.17696524 0.050865732 -0.15258253 0.047656935
-0.002215863 0.11571253 0.089618094 -0.008647676 -0.012802237 -0.0596185 0.041648317 0.13075206
-0.12055057 0.037609927 -0.04537387 -1.1223752 0.058656517 0.08025957 0.055598017 0.016471466
-0.09347969 -1.379664 -0.06862043 0.096762665 -1.4709287 0.079785146 -0.0252492 0.0075168954
-0.16701205 0.0819922 -0.19132487 0.07317461 -0.14980653 -0.19022709 0.065335885 -0.031350903
-0.11750904 -1.1099517 -0.23390453 0.12609203 0.17960764 -0.027838573 -0.058821972 -0.17806539
-0.041751232 0.14123209 -0.06743875 -0.1505399 0.003522912 0.057666235 -0.06977915 0.077525884
0.060593244 0.09529028 -0.2577648 -1.4204862 -0.00336393 0.06128984 0.11183597 -0.04852432
-0.0064668637 0.080680706 -0.16279277 -0.18936439 -0.04665314 -0.013922955 0.11682487 -1.7163568
0.09906408 -0.15856618 -0.21264963 0.014570262 -1.2666274 -0.013172472 0.04699416 0.14388433
-0.20328508 0.090919554 -1.1594878 -1.4157655 0.0032215824 -0.015961597 -0.12908594 -0.018979903
-1.3524231 0.1422652 -0.20746344 -1.6490903 0.1057293 0.053760365 -0.031368967 -0.03690718
-0.20679662 0.06737813 -1.3683269 -0.05528232 -0.01999705 0.06551266 -0.91673523 -0.12437365
0.13878435 0.048209153 -0.031507477 -0.053394787 -0.062422935 -0.06786577 -0.04496818 -0.14712116
0.17102848 -0.014428504 0.01605436 -0.06045561 0.10203677 0.025572427 0.07227966 0.11385146
-0.2167034 0.062119976 -1.3716229 0.03324694 0.16233651 -1.7336555 -0.1567231 -1.0209613
-0.21865383 -0.11822261 0.07079454 0.07007333 -0.12193583 0.037227515 -0.20355994 -0.011274742
-0.027865738 0.14776994 0.07881892 0.07229913 -0.027662985 -0.035617147 0.09198829 0.101184145
-0.14776888 -0.07299666 0.0031605759 -0.8938147 -0.020096883 0.03804954 -0.0076974374 -0.0750102
-0.22068924 -1.5025822 -0.03973134 0.106549144 -1.5532703 0.028000902 0.037730724 -0.025613502
-0.16707174 0.043916386 -0.18437724 0.057618015 -0.041722335 -0.18253106 0.07286391 0.07817675
-0.030241566 -0.91201824 -0.19481136 0.0816865 0.089282 0.03385969 0.045550644 -0.16402157
0.049373712 0.092903584 -0.076259114 -0.037320044 0.038991433 -0.023877129 0.047148578 -0.07050176
0.0822508 0.08872255 -0.44622663 -1.4205115 -0.07172388 0.02939688 0.13482447 -0.019374777
-0.00687378 0.054713257 -0.12341407 -0.08039694 0.059480537 -0.03727214 0.0851982 -2.05139
0.068647146 -0.27540016 -0.16378354 -0.033591732 -1.219333 -0.05784983 -0.0013430244 0.16469687
-0.18703546 0.11795287 -1.0690852 -1.2288266 0.09827617 -0.043763768 -0.12596713 -0.07616283
-1.2422934 0.26873294 -0.16020115 -1.8638335 0.08227559 0.08328542 0.035975844 -0.06874904
-0.12515788 -0.010276398 -1.0744289 -0.035496127 0.024954908 -0.020794934 -0.88158363 -0.20070285

layer3.bias f4 [3]
00000000: dc1c 98be 0528 77be ce71 10be
-0.29709518 -0.2413636 -0.14105913
