models/rl_models/included_validation/best_policy_dqn_model_epoch_23.pt (torch, 74158 bytes, 6 tensors)

layer1.weight f4 [128, 6]
000000 12 84 ab be 03 2d 70 3e 8d 0a 5f bd a9 bd 55 be
       -0.334992 0.2345467 -0.05445342 -0.20873131
000010 15 4a 5f 3e 84 e6 1d be d3 cb 96 3e 16 3f 3d 3e
       0.21805604 -0.15419966 0.2945238 0.18481097
000020 5b a3 5c be 6b 2d 95 3d b9 77 d2 bd c3 3d 62 bd
       -0.2154669 0.072840534 -0.102767415 -0.05523468
000030 78 a9 aa bd 0e b3 ae be 49 79 b1 3d 18 d9 ae be
       -0.08333105 -0.34120983 0.086657114 -0.34150004
000040 49 70 ab 3e 1a ac 42 be 41 e6 97 be 43 90 aa be
       0.33484104 -0.19010964 -0.29667857 -0.33313188
000050 00 42 91 3e 7f 2b 89 3e bd 3a 0d be 2c 99 5e 3e
       0.28370667 0.26790997 -0.13791938 0.21738118
000060 09 d6 c1 be 74 3b b7 bd 6b fc 8a bd ef 82 bc 3e
       -0.37858608 -0.08946887 -0.06786426 0.36818644
000070 ec ac 71 be 79 5e 3c 3e 5e 66 74 be d1 c8 6f bd
       -0.2360112 0.18395413 -0.23867175 -0.058541123
000080 ed a6 10 be 41 68 be 3d 3f 65 87 3e 69 3a 76 be
       -0.14126177 0.092972286 0.26444432 -0.24045719
000090 eb ba aa be dd 29 07 3d 73 85 bc 3e 50 2a 6a be
       -0.33345732 0.03299891 0.36820564 -0.22867703
0000a0 b5 b9 fb bd fc 23 4d 3e a2 53 5b 3d 6f 11 b6 3e
       -0.1229128 0.20033258 0.053546555 0.35560176
0000b0 a6 49 df bd d6 da 78 be 23 4a a0 be b0 1c e6 3d
       -0.10902719 -0.2430223 -0.31306562 0.112359405
0000c0 59 02 b6 bc 43 58 be 3e 99 23 64 3e 55 00 b9 be
       -0.022217916 0.37176713 0.22279204 -0.36133066
0000d0 bc b6 08 be c9 98 b7 3d aa cd b9 be db b2 1f bd
       -0.13350958 0.08964688 -0.36289722 -0.03898893
0000e0 94 6f 68 3e bb 61 9f 3b 6c 87 b3 bd 0d 24 91 be
       0.22698814 0.0048639453 -0.08766064 -0.28347817
0000f0 1f ca 14 bd 6c 06 6a be aa 99 57 be 2d a4 82 bd
       -0.03632557 -0.22854012 -0.21054712 -0.0637897
000100 7d 62 44 ba cf 63 9b be f3 06 8b 3d c6 0f 41 3e
       -0.00074914825 -0.30349585 0.06788435 0.18853673
000110 09 74 8d 3e 98 63 f1 bd d1 46 79 be 81 a3 44 be
       0.2762759 -0.11786574 -0.2434342 -0.19202997
000120 56 44 68 be 9c e5 99 3e 8f 52 9d bc ab 17 a7 3e
       -0.22682318 0.3005799 -0.019204406 0.32635245
000130 04 bb 56 be 33 d5 55 be a0 6c 99 bd 07 52 07 be
       -0.20969778 -0.2088211 -0.07491422 -0.13214885
000140 be 21 b2 3e fc d3 50 3c 0e 17 35 3e b4 f3 ba 3e
       0.34791368 0.0127458535 0.17684576 0.36514056
000150 a7 90 ba be f6 a9 a6 be 6e 68 93 bd ef 67 4b bc
       -0.36438486 -0.32551545 -0.07197653 -0.012414916
000160 3a 28 c0 3e a7 29 62 bc d1 1c e3 3d 75 95 09 be
       0.3753069 -0.013803876 0.11089481 -0.1343592
000170 1e 90 8e be d8 e1 b9 bd 7c c1 70 be 60 e8 08 3e
       -0.27844328 -0.090762794 -0.23511308 0.13369894
000180 60 9d 00 3e 5a eb 68 3e a8 5c 62 bd 78 90 bb 3e
       0.12560034 0.2274603 -0.055264145 0.36633658
000190 4e 82 15 3e ad 78 a0 be 57 d1 e5 3e 2a 97 0a bd
       0.14600489 -0.31342068 0.44886276 -0.033835568
0001a0 16 e9 c6 3e 84 6a ae bc e7 78 ca be bf 14 0e be
       0.38849705 -0.021291025 -0.39545366 -0.13875102
0001b0 56 2f 08 be c9 fe 21 3e 2a 99 a7 be b2 b9 c6 bd
       -0.13299307 0.15819849 -0.32734042 -0.09703387
0001c0 26 d1 85 3e 2d 63 a3 3e 3d ac b9 3e 78 10 61 3d
       0.2613613 0.31911603 0.3626422 0.054947346
0001d0 96 18 4d 3d 44 a7 b5 be 8e 82 b1 3d 9a 65 b1 3d
       0.050072275 -0.35479176 0.086674795 0.08661957
0001e0 74 18 b0 3e b0 a8 8b 3c 6e 47 42 3e 79 a6 84 be
       0.34393656 0.01704821 0.18972561 -0.2590826
0001f0 6e 76 c9 3e b8 41 2d be a7 4a 37 be 7a fb 7a be
       0.39348167 -0.16919601 -0.17899571 -0.24509993
000200 3c a9 0d 3e 85 10 cc bd 67 e5 3f be ea e3 7b 3e
       0.13834089 -0.09964088 -0.18739854 0.24598661
000210 00 92 3a be 20 d6 8c 3c cc 57 11 3c 7e e9 ac 3e
       -0.18219757 0.017191947 0.00887103 0.3377189
000220 50 6f 8f 3e 8b d0 81 be 34 b6 e2 bd 84 71 e9 bd
       0.28014612 -0.25354418 -0.11069909 -0.113986045
000230 af 81 97 be e0 71 17 be 26 64 c9 3b 4a b4 8a be
       -0.29591128 -0.14789534 0.006145972 -0.27090675
000240 cc 3b 9b be 57 52 8a 3e cf dc 0c be ca 0f 67 be
       -0.3031906 0.27015945 -0.13756107 -0.22564617
000250 a6 24 4b be 1e ef c9 3d 7e 39 9b be e9 ba 31 3d
       -0.19838199 0.09860061 -0.303173 0.043391142
000260 b7 b8 85 be 4b 29 aa bd c3 ca 74 bd cc 0c b3 be
       -0.2611749 -0.08308657 -0.05976368 -0.349707
000270 c9 15 8c be be 5e 3e be 60 08 7b 3e 26 79 8e bd
       -0.2736037 -0.18590829 0.24514914 -0.06956701
000280 d5 a9 3a 3e 14 ea 3c be b8 f8 b1 3e 36 36 96 bd
       0.18228848 -0.18448669 0.3476007 -0.07334559
000290 c9 3c b3 3d 89 86 cd 3d c0 28 92 3d 67 ba 96 bd
       0.08751828 0.10035426 0.07136679 -0.07359772
0002a0 1d 48 b2 be 80 f2 9c be 33 a3 56 3e c5 dd a9 3e
       -0.34820643 -0.30653763 0.20960693 0.3317701
0002b0 f9 a5 08 3e 3d af 38 be 37 b3 fa 3e dc 0f 33 be
       0.13344564 -0.18035598 0.48964855 -0.17486519
0002c0 7f f3 cf 3e 71 39 cc 3e 04 72 3a be 81 53 90 3e
       0.4061546 0.39887574 -0.18207556 0.28188708
0002d0 14 56 3b be df a2 09 3e a7 65 12 be 0b 46 74 3e
       -0.18294555 0.13441037 -0.1429659 0.23854844
0002e0 cd 4e 95 3e 1d d9 36 3c 51 4e 67 bd e9 43 1d 3c
       0.29161683 0.011160162 -0.056471173 0.009598711
0002f0 8b 72 b5 3e eb 97 a8 3e d7 36 ab 3e 4a 0b 53 3e
       0.35438952 0.32928404 0.33440277 0.20609775
000300 95 a7 a9 3e 1e fa 2d 3e b8 a3 83 be 24 db 94 bd
       0.33135667 0.16989943 -0.25710845 -0.0726836
000310 99 e9 2b be a1 ae eb 3d 51 b4 2b bc c9 8e 1c 3c
       -0.16788329 0.11507917 -0.0104800025 0.009555527
000320 f4 3d 84 3e 76 9e 99 3e 5f 3a 36 3e 64 0c 11 bd
       0.25828516 0.3000371 0.17795704 -0.035412207
000330 00 57 e0 ba 44 7b 77 3e 8e e0 79 be a7 07 74 3e
       -0.0017115772 0.24168116 -0.24402067 0.23831044
000340 fc c8 90 3e 5d b9 0c 3d b8 78 89 3e af fa 3b be
       0.2827834 0.034356464 0.26849914 -0.18357347
000350 f4 58 99 3e ae d7 3c 3e cc bd 70 3e 43 61 cc 3a
       0.29950678 0.1844165 0.23509902 0.0015592951
000360 13 56 8d be db 51 2b be b3 4e ac be f9 65 5f 3e
       -0.27604732 -0.16730444 -0.33653793 0.21816243
000370 48 67 bd bc f4 eb a7 3e 4f 55 c1 bd 3d e6 83 3e
       -0.023120537 0.32797205 -0.094400994 0.25761595
000380 26 ad a7 be dc 2f 31 3e bb 27 b8 3e 15 65 c3 3e
       -0.3274929 0.17303413 0.35967812 0.38163057
000390 cf 42 ae 3e 9e 6b 7b bd bd db 88 3d 3a c4 21 be
       0.34035346 -0.06138193 0.06682537 -0.1579751
0003a0 dd 8b a8 3e 3a dd 1e be 19 e0 81 3c 41 73 05 bd
       0.32919207 -0.15514079 0.015853928 -0.032580618
0003b0 1f f4 38 3b 41 c4 0d be 91 2b 81 be 04 13 6d 3e
       0.002822168 -0.13844396 -0.2522855 0.23151785
0003c0 b3 16 82 be 71 24 03 3e 71 6f 14 3e 9f 51 b8 be
       -0.25407943 0.1280687 0.14495637 -0.35999772
0003d0 3c 77 71 ba 0e b6 39 3e 55 30 12 3d 6a 07 94 3e
       -0.0009211188 0.18135855 0.035690624 0.28911906
0003e0 a7 94 64 3e 75 9c 95 bd 80 5e b2 3e 7c 02 04 be
       0.22322331 -0.073052324 0.34837723 -0.12891573
0003f0 3c 96 f1 3d e3 ef 1d be 2f 0f 7b 3c 2f f7 ce 3e
       0.11796233 -0.15423541 0.015323444 0.4042296

layer1.bias f4 [128]
000000 02 3d 1b 40 da d8 17 be 52 73 15 be e1 d8 2a 40
       2.4255986 -0.14828816 -0.14594772 2.6694872
000010 f8 5a 72 be 54 35 9f be 75 12 1e 40 cf d0 7e be
       -0.23667514 -0.31095374 2.4698765 -0.24884342
000020 c1 71 7c 3f 6c 3b a1 be 1b fc c0 be a1 71 11 40
       0.98611075 -0.31490648 -0.3769234 2.2725604
000030 1b 83 2a be 7d 91 41 bc 21 61 be be 7b 04 09 be
       -0.16651575 -0.011814472 -0.37183478 -0.13380615
000040 78 f6 b3 3f ef 86 3e be 51 2a 02 bc 65 bb 69 be
       1.4059591 -0.1860616 -0.007944659 -0.22825392
000050 a5 25 ef 3f 3c a6 9a be b0 16 8e be 1e 46 17 bd
       1.8683363 -0.30204952 -0.27751684 -0.036932103
000060 c7 a8 29 be 3e 70 cc bc 26 6c 9b bd 6c a7 9d be
       -0.1656829 -0.024955865 -0.07588987 -0.30791795
000070 4c 68 72 be f8 fe 3f be e7 d0 ef 3f 34 16 bb 3f
       -0.23672599 -0.18749607 1.8735627 1.4616151
000080 4b 95 8a be 79 19 d5 b9 94 03 b8 be 20 7e 92 3f
       -0.27067026 -0.00040645504 -0.3594023 1.144474
000090 63 c6 1e bd 04 5b 93 3f e6 04 bd 3e f9 18 1f be
       -0.038763415 1.1512151 0.369178 -0.1553687
0000a0 b7 6f 2e 40 8d d4 44 3f fc 86 9e 3f 3d e8 c0 3e
       2.7255685 0.76886827 1.2384944 0.37677184
0000b0 b9 e6 25 40 04 ce b9 3e 44 d7 e9 bd 31 7c 37 40
       2.5922072 0.3628999 -0.11418012 2.866955
0000c0 d3 61 30 40 57 90 28 3f 15 d8 a0 be cf d2 08 ba
       2.7559707 0.65845245 -0.31414858 -0.0005219401
0000d0 cf a2 10 be 7a d2 8a be b6 4a 2d 40 25 1b 6b be
       -0.14124607 -0.27113706 2.707685 -0.22959574
0000e0 35 7b 1d 40 31 d1 0d be 26 bc a2 b9 77 13 af bd
       2.460645 -0.13849331 -0.0003103923 -0.085486345
0000f0 65 45 a1 be d2 da 17 be a1 a4 c3 bd 85 d0 66 b8
       -0.31498256 -0.14829567 -0.09552885 -5.5030472e-05
000100 c6 0d 75 bd 0a 95 27 40 2c 9b be 3f 4e bc 16 40
       -0.05982759 2.6184716 1.4891105 2.3552432
000110 85 2d 29 40 ce 8d 9e be 30 d9 bf b7 6d ac 67 be
       2.6434033 -0.30967563 -2.287011e-05 -0.22624369
000120 e6 a5 7f be fe 1d 38 40 88 51 21 40 25 81 01 40
       -0.24965629 2.8768306 2.5206013 2.0235074
000130 14 6e 24 40 7d 72 6c 3d ae 88 85 3f 0a d1 70 3f
       2.5692186 0.057726372 1.0432336 0.9406897
000140 e5 d9 1c 40 25 65 cf 3f a7 48 47 bc aa 61 1f 40
       2.4507992 1.6202742 -0.012163318 2.490336
000150 29 e5 2f 40 01 1b 96 ba 81 a3 9d be 7d 80 5c 36
       2.7483618 -0.001145214 -0.30788806 3.2857345e-06
000160 96 61 5c be 70 9a 34 bd fa 2e 8a bd 39 ea b3 bd
       -0.21521601 -0.044092596 -0.06747241 -0.08784909
000170 7c c9 6c be 73 54 2e 40 c3 4c 83 3e d1 5b fb bd
       -0.23123735 2.7239044 0.25644502 -0.12273372
000180 17 31 16 be 48 99 c6 be 53 27 5e bc dc 1d 69 3c
       -0.14667164 -0.3878882 -0.01355918 0.01422831
000190 7d e7 9d bd 52 22 30 40 01 f1 ce bc 49 26 2a 40
       -0.077101685 2.7520947 -0.025261404 2.6585867
0001a0 b8 97 49 be ba 4e c7 3f bc fc 84 be f2 71 37 40
       -0.19686782 1.55709 -0.2597407 2.8663297
0001b0 4a 9f e0 bd 32 9f 6f 3f 06 0f 2f 40 4f 66 32 be
       -0.10967882 0.9360229 2.735292 -0.1742184
0001c0 02 8f 34 be a8 98 ea 3e 94 40 41 be 30 e7 b9 be
       -0.17632678 0.45819592 -0.18872291 -0.36309195
0001d0 24 8b bd 3e 29 77 44 3f 31 63 ef 3f 3f ac 24 3f
       0.37020218 0.76744324 1.8702146 0.64325327
0001e0 82 28 aa 3f 18 67 9f be 3b 42 51 be 78 0f e9 bd
       1.3293612 -0.31133342 -0.20435421 -0.113799036
0001f0 36 25 1e 40 ab bd b2 be 5b 11 2d 40 6a 6f c8 bd
       2.4710212 -0.3491033 2.7041843 -0.097868755

layer2.weight f4 [128, 128]
000000 d3 bd 18 3d a3 6b e1 bd 88 83 a5 bc bf 16 c3 bd
       0.037290405 -0.11006858 -0.02020432 -0.09525823
000010 db 1a a4 3d d7 6c a9 3d cc 5c 1d 3d 6c 2a 6f bd
       0.08012935 0.08272713 0.038418576 -0.058390066
000020 64 d8 44 bd 0a 8a e2 bc 33 44 39 bb 95 53 b5 3d
       -0.04805793 -0.027653713 -0.002826941 0.08853833
000030 d3 b1 95 bd 95 e7 66 3e 6d 74 ec bc 67 0b 56 3b
       -0.07309308 0.22549279 -0.02886411 0.0032660605
000040 55 ae 42 3d 60 02 96 bd a3 0d 79 bb fe 6f e7 3c
       0.047529537 -0.07324672 -0.0038002513 0.028251644
000050 52 f3 71 bc ce 3a 8b bd fc 19 52 3d 1a 9c 11 3c
       -0.014767485 -0.067983255 0.051294312 0.008887315
000060 8f 10 aa bd e1 34 a6 3b 8e 7b 00 bd b8 49 81 bd
       -0.083039396 0.0050722216 -0.03136783 -0.06312889
000070 05 15 74 3d b2 6f 6e be 9d 8e b6 3d 6f 2c 7e bd
       0.05959036 -0.23284796 0.0891392 -0.062054094
000080 ff e2 4f 3c 83 a6 c8 3b 74 eb fd 3c ef 05 e2 bb
       0.012688397 0.0061233654 0.030996062 -0.00689768
000090 fa b0 30 bc 50 5a 15 3d a7 ac 8a 3c 51 df 21 bd
       -0.010784382 0.03646308 0.01692803 -0.03951961
0000a0 a1 f9 b7 bc 4d 10 f5 bc f0 3f 28 be 80 2f 17 bd
       -0.0224579 -0.029915 -0.1643064 -0.036910534
0000b0 c3 2f 96 3d 0c b6 33 3a 99 ed 8b bd e8 12 22 3d
       0.073333286 0.0006855435 -0.068324275 0.03956881
0000c0 a3 79 0a bd 92 a2 ac bc 87 39 f1 bb a0 74 9d 3c
       -0.033807408 -0.021073613 -0.007361594 0.01922065
0000d0 85 fd 8f bd 05 48 8d 3c 40 cf 27 3d d2 06 23 ba
       -0.07030777 0.017246256 0.040969133 -0.0006218973
0000e0 15 99 c2 3c 40 9d 0d 3b d7 ca 3b 3d 80 0e 3c 3d
       0.023754636 0.002160862 0.04584774 0.045912266
0000f0 d5 4d 78 3c 67 09 1e bd 26 74 2a 3b 05 1a b1 3c
       0.015155275 -0.038583186 0.0026009171 0.021618852
000100 28 58 0a bd 0e a5 21 bd d3 ee b4 3c 91 ca 6f bd
       -0.03377548 -0.03946405 0.022086537 -0.05854279
000110 b6 9b 8c bd c3 25 6e bd ab 85 9e 3c ff 1b 84 bd
       -0.06865637 -0.05814148 0.019350847 -0.06450652
000120 d1 a2 2d 3d 64 1d a1 bd 4f 26 e3 3b 8a ac 12 3e
       0.042391602 -0.07866934 0.006932057 0.14323631
000130 ea 07 63 3b ea 4a 56 3b 85 11 8e bc a1 22 5c bd
       0.0034642168 0.003269846 -0.017342338 -0.053743962
000140 e7 c6 66 3d cf 9e 7b bd ab 14 0d 3e 76 49 73 3d
       0.05634203 -0.06143075 0.13777415 0.05939623
000150 94 6a 01 bd ec 5c 0a bd f5 26 97 bc 95 cb 6e bd
       -0.03159578 -0.033780023 -0.018451193 -0.05829962
000160 b8 0a 24 3d d4 e6 b4 bd 07 b1 54 bd 17 ff 92 3d
       0.040049285 -0.088330895 -0.05192664 0.07177561
000170 21 d5 87 bd 47 11 85 3c 39 66 5b 3d ea bf 96 3c
       -0.06632448 0.01624359 0.053564284 0.018402059
000180 8f 97 14 3e 29 55 bf 3c 74 f1 7d bc fa f7 a5 bd
       0.1451094 0.023356037 -0.015499461 -0.081039384
000190 45 ef e3 3c eb c4 0c 3b b5 45 db 3b 3e 25 36 bc
       0.027824054 0.0021479677 0.0066916593 -0.011117278
0001a0 74 af 2b 3c 90 aa a8 3d a4 88 bf bb c6 b3 ba 3d
       0.010478843 0.08235657 -0.0058451463 0.0911632
0001b0 27 d4 62 bd a6 aa 71 bc 5b 00 b1 bd b8 0d eb 3b
       -0.055378105 -0.014750158 -0.08642646 0.0071732663
0001c0 21 14 77 3d 6c 7f b0 bd 73 ea 57 bd a3 e8 86 bd
       0.06032193 -0.08618054 -0.052713823 -0.06587341
0001d0 7a d3 28 3c 0f 32 c6 be 08 96 0c 3d 8c e6 80 3d
       0.010304326 -0.38710067 0.03432277 0.06293973
0001e0 bd ca 7f bd 91 2e 1e 3d 99 44 ff 3c 91 57 ac 3d
       -0.062449206 0.038618628 0.03116064 0.084151395
0001f0 e8 03 9b 3c be 87 9a 3d 88 25 cf 3c 29 44 9e bd
       0.018922761 0.07545422 0.025286451 -0.07727844
000200 c1 b9 0a 3d fd 64 d4 bd 90 bb 53 bd 17 03 90 bd
       0.033868555 -0.103708245 -0.051692545 -0.07031839
000210 7d 45 2c 3d 62 c4 bb 3d 6d e2 ed 3d e9 5f a0 bd
       0.042058457 0.091683164 0.11615453 -0.078307934
000220 57 43 90 bc df eb 07 3c f4 90 0a 3a 1a 44 cb bc
       -0.017610235 0.008295982 0.0005285882 -0.024812747
000230 f2 49 ee bc 3b 93 21 3e c5 a5 fa 3c c8 5a 8a 3d
       -0.029087994 0.1577882 0.030596623 0.067555964
000240 8f d5 73 ba 47 74 cd 3b 11 24 48 3c 30 b3 79 bd
       -0.0009301537 0.006269965 0.01221563 -0.060961902
000250 43 76 2a bd e1 5e 2a bd 56 72 dc 3c 19 e5 21 bc
       -0.04161669 -0.04159439 0.026909988 -0.009881281
000260 b1 8c d1 3c ad b5 2b bd b3 07 a0 bc b8 38 1e be
       0.025579782 -0.041921306 -0.019534921 -0.15451324
000270 85 27 cf 3c 11 97 02 be 3e 2f 94 3d 57 e7 c8 3c
       0.025287399 -0.1275294 0.07235573 0.024524374
000280 13 5d 0e 3d 2c 6b f3 3c 6d 89 18 bd d8 08 6c bd
       0.03475673 0.02971419 -0.037240434 -0.05762562
000290 25 85 7d 3d 4d 00 5c 3d 47 86 18 bc 87 c9 91 bd
       0.061894555 0.053711224 -0.009309358 -0.071185164
0002a0 ed 05 f0 3c 1e 17 d7 3c 27 7b 09 be c6 60 de 3c
       0.0292997 0.02625614 -0.13425885 0.027145755
0002b0 d3 a4 f3 3c 9d cf 5c bc bb a1 93 bd 40 5c b5 3c
       0.02974168 -0.013477233 -0.07208582 0.022138715
0002c0 37 4a c4 bc 30 54 99 3c 3e 87 d9 3c 9d c3 52 bd
       -0.02396117 0.018716902 0.026553746 -0.051456083
0002d0 55 65 9a bd 66 4c d9 3c 2f cf 12 bd 04 92 5e 3d
       -0.07538859 0.026525687 -0.035842117 0.05433847
0002e0 b3 cd 8a bd ea 59 92 bd c5 96 97 bc 1c f2 c1 3c
       -0.06777515 -0.07146056 -0.01850451 0.023675017
0002f0 81 ff aa bd fd 99 49 bc f1 37 56 3d 83 cc 3c bd
       -0.08349515 -0.01230478 0.052299444 -0.046093475
000300 a3 fa 90 bc f7 65 1c 3d 8a a5 6f 3d c2 dc 81 bd
       -0.017697638 0.03818318 0.05850748 -0.06340934
000310 9c 00 8e bd af 87 84 3d ac 38 0d bd c8 11 17 3c
       -0.0693371 0.06471192 -0.034477875 0.009220548
000320 f5 2a 2a 3d 13 98 75 bc 83 45 66 3d c5 56 34 3e
       0.041544873 -0.014989871 0.056218635 0.17611225
000330 3d 2b 85 bd a9 67 7b 3d ee 32 e6 3c 38 73 44 3d
       -0.06502388 0.061378155 0.028100457 0.047961444
000340 ea 48 97 3d 51 1f 67 bd f6 22 df 3d 78 5d ca 3c
       0.07386954 -0.05642635 0.1089534 0.024702772
000350 dd 23 7f 3d f5 8b 18 bd cd 19 73 3d 8b ce 92 bd
       0.06229006 -0.03724285 0.059350777 -0.07168301
000360 11 6b 47 bc 8a 64 72 bd 8a a0 ff bc 48 03 9e 3d
       -0.012171523 -0.059177913 -0.03120448 0.077154696
000370 82 cc 9f 3d b7 6a 89 bd 46 50 6c 3d 4b 07 a2 3c
       0.07802679 -0.06709807 0.057693742 0.019778868
000380 d3 68 05 3e a5 e3 26 bc ff 20 87 3d 6d 15 77 3b
       0.13028269 -0.010186111 0.065980904 0.003770198
000390 77 06 8d 3d 16 31 84 bd f6 ab a3 3d f9 bf 92 bd
       0.06885999 -0.06454675 0.07991783 -0.07165522
0003a0 5f 1f f4 3c e0 d7 65 bc 89 cb 0c bd 61 4e 1b 3d
       0.029800115 -0.014028519 -0.034373794 0.037916545
0003b0 c5 20 5e bd 67 4f 24 bd f5 21 81 bd 0e 7a 55 3d
       -0.05423047 -0.040114786 -0.06305305 0.052118354
0003c0 d5 14 75 3d 94 c4 08 bd 44 e0 a4 bc d7 1b 40 3d
       0.05983432 -0.033390597 -0.02012647 0.04690155
0003d0 4c 97 dd 3c 29 8f 5e be e0 07 06 bd 48 a4 6b bc
       0.027049683 -0.21734299 -0.032722354 -0.014382429
0003e0 a7 b9 12 3d d1 43 8c 3a 31 9b c7 3c 79 e1 59 bd
       0.035821583 0.0010701363 0.024365993 -0.053193543
0003f0 81 95 81 39 7c 64 50 3d 05 46 16 3c 91 c5 d4 3c
       0.00024716186 0.05087708 0.009171967 0.025973113

layer2.bias f4 [128]
000000 fc 5e 76 bc e6 0e 3d 3d d4 c1 3c bd 1a 0a 68 bd
       -0.0150372945 0.046156786 -0.046083286 -0.05665026
000010 55 36 95 bc c0 2b 8b 39 ba f5 8d bd 7f 31 cc 3e
       -0.018214384 0.00026544742 -0.06931634 0.39881513
000020 89 9c b8 bd 3e 19 5b 3e cb 94 01 bd 4c 35 2d 3a
       -0.09014232 0.21396348 -0.03163604 0.0006607368
000030 d0 d4 56 3d e3 33 a6 bd 41 26 13 bd 91 e8 0f bd
       0.052449048 -0.08115365 -0.035925154 -0.035133902
000040 c7 87 d7 3e b5 24 ab 3d dc 82 0d 40 74 56 8a 3c
       0.42095777 0.08356611 2.211112 0.016886927
000050 58 a3 b0 bc e0 93 11 40 38 79 8c 3e 7d 98 9f 3f
       -0.021562263 2.2746506 0.27436233 1.2468411
000060 09 2f b3 3e d6 32 79 3e 46 38 28 bd 30 89 42 bd
       0.34996822 0.24335799 -0.04106929 -0.047494113
000070 3d 9d a8 3e b2 dd 87 3c cc 8d c8 3e 1e 98 cd bc
       0.32932463 0.016585205 0.39170682 -0.02509695
000080 eb ef 49 bd 34 aa 00 bd ec 1b 86 bd c7 27 66 bd
       -0.04930107 -0.03141232 -0.065482944 -0.05619028
000090 be 1a cb 3c e7 bf 2d bd 2e b2 37 3d e1 df 1c be
       0.024793025 -0.04241934 0.04484766 -0.15319778
0000a0 a2 42 d4 3e 49 50 5a bd 2c 95 0e 3d 4b c5 7d 3f
       0.41457087 -0.053299222 0.03481023 0.9912917
0000b0 01 e6 85 3d 3a e9 37 bc 82 c7 0b be 5b 5c 04 bd
       0.065380104 -0.011225039 -0.13650325 -0.03231464
0000c0 db 62 d2 3e b3 15 fd 3f 06 08 7c 3d 7e 14 1a bd
       0.41091046 1.9772247 0.06153109 -0.0376172
0000d0 bf 88 f5 3f b1 28 7d 3d a2 ae 97 bc 8a c1 08 bd
       1.9182357 0.061806384 -0.018515889 -0.0333877
0000e0 d1 fc 9d 3e 6f ef 81 3d 67 1d d6 3e ad 84 a4 bd
       0.30856946 0.063444965 0.41819307 -0.080331184
0000f0 62 fe 95 3d a0 f3 bc 3e 96 aa 38 bd 83 be 8c 3c
       0.0732391 0.3690462 -0.04508456 0.017180687
000100 96 38 64 3e b8 d3 80 3f 43 db 98 3e 52 d0 4b 3d
       0.22287211 1.0064611 0.29854783 0.049759217
000110 d9 12 52 3d a1 f2 16 3d 8d 59 4e 3d 9f 26 c1 3e
       0.051287506 0.036852483 0.05037837 0.37724778
000120 5d 84 83 3b 72 af 25 3d e7 7f 72 3d a3 72 38 3e
       0.0040135817 0.04045052 0.05920401 0.1801248
000130 28 f7 29 3d df b1 39 bd 3a da 4c bd a9 c6 a4 3d
       0.041495472 -0.045335647 -0.050012805 0.08045704
000140 29 42 c2 bd 49 d4 27 bd c2 e2 13 3f c7 fd f6 3f
       -0.09485275 -0.040973935 0.5776788 1.9296197
000150 55 8a 6a 3d d6 6d 8b bd dd ba 80 bd 6f b5 09 3e
       0.05726083 -0.06808059 -0.06285641 0.13448118
000160 c0 09 fa 3b 30 a5 6b bc 7c ad af 3e f6 a7 89 3e
       0.007630557 -0.0143826455 0.34312046 0.26885957
000170 68 d1 1c bd fb 01 88 3d 5d ee b1 bd 8a 66 27 40
       -0.038285643 0.06641003 -0.08688042 2.6156335
000180 0a f1 82 3c e6 af d2 3e 30 84 d4 3e 2e 0a 87 bd
       0.015984077 0.41149825 0.415071 -0.065937385
000190 05 89 e0 3f cf 0c 02 3d 92 6c a1 bc 09 a1 30 bd
       1.7541815 0.031750496 -0.01970509 -0.043122325
0001a0 20 e7 ce 3e 51 76 2b 3b 38 a4 a7 3f 42 69 ec 3f
       0.4041071 0.0026163051 1.309699 1.8469622
0001b0 70 3c 62 bd 58 dd 7a 3d 08 a5 19 3e 5a 0b 7e 3d
       -0.05523342 0.061246246 0.1500436 0.062022544
0001c0 91 6a dc 3f 14 4a 29 be 1e 1c d2 3e 83 9e 1a 40
       1.7220021 -0.16532165 0.41037077 2.4159248
0001d0 76 89 7e bd 4f 8e 51 bd d0 ab 4b bd 71 09 6d bc
       -0.06214281 -0.051161107 -0.0497244 -0.014467583
0001e0 16 a7 7d 3e c0 c0 8c bd 7b 21 a6 3f de 33 1d bd
       0.2477077 -0.06872702 1.2978967 -0.038379543
0001f0 74 bf 9f bd 25 aa 74 3d 95 f2 72 3f bb 41 dd 3e
       -0.07800189 0.059732575 0.949014 0.4321421

layer3.weight f4 [3, 128]
000000 48 d7 1d 3e 5e b6 9f 3d b4 43 67 bc 95 6b 8b 3d
       0.15414155 0.07798456 -0.014115263 0.06807629
000010 62 a0 48 bd ff 56 a5 bd 33 fc 87 3d fe 3b 34 be
       -0.048981078 -0.08073234 0.066399 -0.1760101
000020 42 8e fb 3b 46 2a 9f bd ed bf 53 bc 40 a4 30 3d
       0.0076768706 -0.07771735 -0.012924177 0.04312539
000030 82 82 17 3d 7a 8d 7a 3b 7b d0 9f 39 9b 4e 93 3d
       0.036989696 0.00382313 0.00030482173 0.07192727
000040 57 5a 39 be 63 e9 1a 3d f3 9a ce bf 6e 83 9a bd
       -0.18100868 0.03782023 -1.6141037 -0.075445995
000050 a5 61 28 3e 87 b9 a7 bf fe 68 13 bd 9d f7 9a bf
       0.16443498 -1.3103493 -0.0359888 -1.2106816
000060 27 16 fe bd 42 f4 0d be 43 a0 0c 3c 8c 5d 68 bd
       -0.12406569 -0.13862708 0.008583131 -0.05672984
000070 6d bf 30 be ee a9 53 3d 16 dc 16 be 46 0f 47 3d
       -0.17260523 0.05167573 -0.14732394 0.04859855
000080 ab 14 11 bb 51 87 ed 3d 29 f3 b7 3d eb 65 0a bc
       -0.0022137563 0.11598075 0.08981926 -0.008447151
000090 65 67 52 bc 27 bf 74 bd 62 74 2c 3d f8 32 06 3e
       -0.012842034 -0.05975261 0.04210318 0.1310538
0000a0 53 d6 f1 bd c2 64 1a 3d 6b 43 3a bd bf 56 8d bf
       -0.11808457 0.037693746 -0.04547445 -1.1042098
0000b0 49 56 76 3d 68 f0 a4 3d 95 3e 64 3d 45 3e 87 3c
       0.06014088 0.08053666 0.055723745 0.016509185
0000c0 cf 1b b7 bd 87 61 ae bf b3 2c 83 bd c3 9d c6 3d
       -0.08940851 -1.3623513 -0.0640501 0.096980594
0000d0 17 10 ba bf 32 02 a4 3d 75 52 cf bc ea dc f6 3b
       -1.453616 0.08008231 -0.025307873 0.007533659
0000e0 4a fb 25 be 22 3d a9 3d fe 7d 3e be 76 34 96 3d
       -0.1620914 0.08263613 -0.1860275 0.07334225
0000f0 3f 2b 13 be de b2 3c be e2 81 86 3d 99 28 01 bd
       -0.14371966 -0.18427607 0.06567742 -0.031532858
000100 6c a3 ec bd 88 bd 8b bf a1 3b 6a be 5f 6d 01 3e
       -0.11554608 -1.0917215 -0.22874309 0.12639378
000110 89 54 38 3e 8e 91 e4 bc 2a 7c 71 bd 79 86 30 be
       0.18000998 -0.027901437 -0.058956303 -0.17238797
000120 bc 0b 2c bd 09 f7 10 3e 6e 6c 8a bd 1f 09 18 be
       -0.04200338 0.14156736 -0.067589626 -0.1484723
000130 7e 64 67 3b 1a 0a 6d 3d f7 3b 8f bd 92 26 9f 3d
       0.00353077 0.05787096 -0.06993859 0.077710286
000140 8c c1 78 3d 64 af c3 3d 7e 38 83 be d8 9a b3 bf
       0.060731456 0.095549375 -0.25629038 -1.403163
000150 37 f9 5c bb 79 79 7d 3d 18 8e e5 3d 34 ae 3f bd
       -0.003371788 0.061883423 0.11208743 -0.046796992
000160 5e b2 62 bb 7a e4 a5 3d 5d 77 24 be 3f 42 3f be
       -0.0034591178 0.08100219 -0.16061158 -0.18677615
000170 9f 89 3f bd f1 a0 64 bc 81 ce ef 3d ef 92 d9 bf
       -0.046762105 -0.013954387 0.11709309 -1.6997966
000180 11 55 cb 3d d8 69 1d be 54 26 55 be bc 44 6f 3c
       0.099283345 -0.15372407 -0.20815402 0.01460379
000190 9b e0 9f bf 66 4c 58 bc 35 ef 40 3d 4e ae 13 3e
       -1.2490419 -0.013201809 0.047103126 0.1442196
0001a0 0a 9a 4b be 80 9d ba 3d 5b 1f 92 bf 18 00 b3 bf
       -0.1988298 0.09112072 -1.1415819 -1.3984404
0001b0 3b 9c 53 3b ff 10 83 bc 97 ac 01 be a2 d3 9b bc
       0.0032289166 -0.015999315 -0.12663494 -0.019021813
0001c0 41 db aa bf dc 05 12 3e 6c ac 4f be fa f0 d0 bf
       -1.3348161 0.14260048 -0.20280617 -1.632354
0001d0 a6 03 d9 3d 12 62 5c 3d 63 87 fd bc e0 83 17 bd
       0.10596399 0.053804465 -0.030948346 -0.036991
0001e0 e3 91 4e be a6 4c 8a 3d 47 eb ac bf ee 62 5e bd
       -0.20172839 0.06752901 -1.3509301 -0.054293565
0001f0 9c 31 a4 bc 9a 7a 86 3d 75 ea 65 bf c9 73 f6 bd
       -0.020043187 0.06566353 -0.8981088 -0.12033803
000200 96 6c 0e 3e 38 e9 45 3d 16 5d 01 bd a6 6b 5c bd
       0.1390861 0.048318118 -0.031582914 -0.0538136
000210 52 24 80 bd 4f 4c 8b bd 06 9a 38 bd 81 df 11 be
       -0.062569275 -0.06801664 -0.045068763 -0.14245416
000220 8f 8b 2f 3e b3 91 49 bc 89 d3 83 3c ed 2c 78 bd
       0.17143081 -0.012302804 0.016092079 -0.06058972
000230 b3 73 d1 3d 50 f8 d1 3c 40 5f 94 3d bf 9a ea 3d
       0.10227146 0.0256311 0.0724473 0.11455297
000240 47 75 59 be 9c cd 7f 3d 53 4a ad bf 0b 7d 08 3d
       -0.21236144 0.062451944 -1.3538307 0.033322375
000250 39 9c 26 3e 10 c0 db bf 1e fa 1d be 1c 3e 80 bf
       0.16270532 -1.7167988 -0.15427443 -1.0018954
000260 4c 63 5b be 81 30 ea bd 9e 54 91 3d 7f da 8f 3d
       -0.21424598 -0.11435033 0.070962176 0.07024097
000270 f1 e9 ef bd 4f e3 19 3d ba df 4b be 92 d3 39 bc
       -0.11714543 0.037570294 -0.19909564 -0.011341946
000280 d0 76 e5 bc e5 a8 17 3e 7e cc a1 3d 9e c9 94 3d
       -0.028010756 0.14810522 0.07900332 0.07265018
000290 52 21 e3 bc 2d 3b 12 bd 9d cf bc 3d ae b4 cf 3d
       -0.02772585 -0.035700966 0.092192866 0.10141884
0002a0 e3 d4 14 be 2a d7 95 bd b6 9c 4f 3b 52 d0 5f bf
       -0.14534335 -0.0731643 0.00316791 -0.87427247
0002b0 e4 c0 9f bc 34 35 1b 3d 33 d0 fc bb d7 f6 99 bd
       -0.019501157 0.037892535 -0.007715249 -0.07517784
0002c0 09 94 5d be 66 13 be bf 68 26 15 bd b6 b7 da 3d
       -0.21638502 -1.484967 -0.03641358 0.10679571
0002d0 58 90 c4 bf 41 a1 e2 3c 6c e3 1a 3d 74 4e d2 bc
       -1.535655 0.027664782 0.037814543 -0.025672175
0002e0 9d 5f 26 be fb f4 33 3d 25 35 38 be 7e 8d 6c 3d
       -0.16247411 0.043934803 -0.17989023 0.057752125
0002f0 4b 26 13 bd 17 5f 36 be 16 df 94 3d a4 76 9f 3d
       -0.03592519 -0.17809711 0.07269113 0.07786301
000300 a8 14 e4 bc c3 79 64 bf 05 fa 42 be ee ab a7 3d
       -0.02784188 -0.89248294 -0.19040687 0.0818709
000310 f3 42 b7 3d 8f ff 0a 3d c8 fc 3a 3d ef 5b 23 be
       0.089483164 0.033935126 0.045651227 -0.15953039
000320 ac ac 4c 3d 7e b6 be 3d a1 85 9c bd ec 0c 0c bd
       0.04996936 0.09312151 -0.07642675 -0.03419201
000330 29 16 20 3d 64 4f ca bc 20 91 41 3d 1e bb 90 bd
       0.039083634 -0.02469606 0.047257543 -0.0706694
000340 ca d3 a8 3d 43 41 b6 3d d0 c5 e3 be 4f 86 b3 bf
       0.082435206 0.088991664 -0.44486856 -1.4025363
000350 dc 3b 93 bd 60 9a f2 3c 87 5e 0a 3e af fc 8f bc
       -0.07189152 0.029614627 0.13512622 -0.017576544
000360 39 86 a1 bb c6 90 61 3d 74 e0 f7 bd 0c dd 9c bd
       -0.0049293307 0.055069707 -0.12103358 -0.07659349
000370 7d 2e 74 3d 90 02 19 bd dd e5 ae 3d d7 45 02 c0
       0.059614647 -0.03735596 0.08539937 -2.0355127
000380 fa e5 8c 3d 51 d1 8a be 0c 1c 23 be 96 e6 09 bd
       0.06879802 -0.2711282 -0.15928668 -0.03366717
000390 89 b3 99 bf 91 80 6d bd e4 71 b0 ba fa 06 29 3e
       -1.2007915 -0.05798394 -0.0013461676 0.16506568
0003a0 63 d7 3a be e6 1d f2 3d 79 68 86 bf 7c eb 9a bf
       -0.18246226 0.11822109 -1.0500633 -1.2103114
0003b0 46 b7 c9 3d 1b ab 33 bd 1d 7d fa bd 26 53 9c bd
       0.0984941 -0.04386435 -0.12230895 -0.07633047
0003c0 db a5 9c bf 77 e6 89 3e 05 57 1f be e1 73 ec bf
       -1.2238115 0.26933643 -0.15560539 -1.8472863
0003d0 c9 e0 a8 3d 9b 3a aa 3d ae a0 16 3d 66 1b 8d bd
       0.08245999 0.08311959 0.03677433 -0.068899915
0003e0 21 a3 f6 bd 04 bf 28 bc 9a 18 87 bf 34 91 0a bd
       -0.12042833 -0.010299448 -1.0554383 -0.033829883
0003f0 48 e9 cc 3c d1 ba aa bc 91 ad 5c bf cb 0f 49 be
       0.02501358 -0.020841034 -0.8620234 -0.19634931

layer3.bias f4 [3]
000000 c4 70 96 be 22 70 74 be fd 22 10 be
       -0.29382908 -0.238709 -0.14075847
