models/rl_models/included_validation/best_policy_dqn_model_epoch_0.pt (torch, 74148 bytes, 6 tensors)

layer1.weight f4 [128, 6]
000000 90 45 ab 3e e9 23 bd 3e 4f 99 39 3e d0 8f 54 be
       0.3345151 0.3694146 0.18124889 -0.20757985
000010 1a 73 88 be a0 4e 4a be fc 9b 1a be 9e 73 29 be
       -0.26650316 -0.19756556 -0.15098566 -0.1654801
000020 87 e1 cc be af 36 6b 3e b2 66 69 3e fd 97 3e bd
       -0.40015814 0.22970079 0.22793081 -0.046531666
000030 6e 53 81 3e 2d 50 13 be 69 4d b4 bc a9 34 85 be
       0.25258964 -0.14386053 -0.022009568 -0.2601674
000040 f6 f3 6b be 27 62 c8 be f3 55 84 3e 8d 11 b0 bc
       -0.23042282 -0.39137384 0.25846824 -0.021492744
000050 14 8f 0b be d9 36 b9 3e 17 56 bf 3d 03 06 02 3e
       -0.13628799 0.36174658 0.09342592 0.12697606
000060 23 18 90 3e 0e 72 b9 3e 16 9e 7b 3e 3f 9f 35 be
       0.28143415 0.3621983 0.24572024 -0.17736529
000070 33 48 8e bd db 44 61 3e 13 12 c8 3e 01 0d be be
       -0.06947365 0.21998923 0.3907629 -0.37119296
000080 9b 6a 83 3e c0 cf f3 3c f4 e4 bc be 82 f3 cf bd
       0.2566727 0.029762149 -0.36893427 -0.10153867
000090 87 2f a4 3d a6 84 c2 be 4c 5d 83 3e e0 05 a5 3e
       0.080168776 -0.37991828 0.25657117 0.32231045
0000a0 06 5f 3f 3e ef c1 e2 3c 23 fe 02 be 65 ce b9 be
       0.18688592 0.027680365 -0.12792258 -0.3629028
0000b0 37 0e fa 3d ea 46 93 3e 93 e9 c6 3d 67 11 08 bd
       0.122097425 0.2876504 0.097125195 -0.03321972
0000c0 26 ee 98 be 99 8d c1 3e b9 a0 1e be fb 14 c4 3e
       -0.29869193 0.37803343 -0.15490998 0.38297257
0000d0 48 32 8b 3e 55 c9 89 be a6 ad 33 be b3 26 7a 3e
       0.271868 -0.26911417 -0.1754671 0.24428825
0000e0 ff ba d4 3d 81 a8 54 3e 01 7c 88 3b 43 51 0a 3d
       0.10387229 0.20767404 0.004165173 0.033768903
0000f0 f7 53 11 be 0a 69 c4 3e dd de 92 3e e6 b9 7f 3d
       -0.14192186 0.38361388 0.28685656 0.062433146
000100 6e 68 e4 bd a7 7a 6c 3d 7e 8e 10 3e 37 a4 99 be
       -0.11152731 0.057734158 0.14116856 -0.30008098
000110 1c a1 f7 bb 28 49 b0 be 2a 63 53 bd 35 5e 94 be
       -0.0075570475 -0.34430814 -0.051608242 -0.28978124
000120 ba 06 92 be 5e 53 ad be 9d c2 ab ba 1d ea 43 be
       -0.28520757 -0.33852667 -0.0013104264 -0.19132276
000130 99 26 65 3d 45 a1 61 3e 1b 59 b4 3d 3a bf 65 bd
       0.055945013 0.22034176 0.08806058 -0.05609057
000140 81 2e 5d bb 34 73 5a 3e e5 a3 d1 bd 52 e0 96 3e
       -0.0033749642 0.21333009 -0.102363385 0.29468018
000150 1e 10 2d 3e 9a 6e f6 3d ee 89 38 3e 4a 13 65 bb
       0.1690068 0.12032814 0.18021366 -0.0034954124
000160 1f ec aa 3e 5a 05 6c 3e 82 5f 5f 3e e0 68 26 3e
       0.3338327 0.23048916 0.21813777 0.16250944
000170 b3 f6 8c 3e cf 3f 8d be 03 1d 60 be 7d cc a6 bc
       0.27531967 -0.27587745 -0.21886067 -0.02036118
000180 f9 c0 da bc e0 b8 ae be 16 f6 d5 bd 33 a4 a5 be
       -0.026703345 -0.34125423 -0.10447328 -0.32351837
000190 00 48 9c 3e 27 cc a3 3e 8e cf d8 bd 9d d6 57 be
       0.30523682 0.31991693 -0.10586463 -0.21077962
0001a0 cf f7 c7 3e 84 ba 33 3e aa ff cc bd 78 68 b9 3e
       0.3905625 0.17551619 -0.100097016 0.36212516
0001b0 00 41 3b 3e 08 b1 3d 3d 63 24 90 bd 6a a5 d0 be
       0.18286514 0.04631141 -0.0703819 -0.407512
0001c0 39 81 95 3e 9e 88 21 bd 86 c2 80 3e 9b ac ea bd
       0.29200152 -0.03943693 0.2514841 -0.11458703
0001d0 87 6c 94 be 8a 46 68 3e e1 1e 9c be f8 8f 69 be
       -0.2898905 0.22683159 -0.3049231 -0.22808826
0001e0 79 7f 09 be bb 07 a3 be cd b3 02 be 39 c6 a9 bd
       -0.13427533 -0.31841835 -0.12763901 -0.08289761
0001f0 01 09 c9 be 19 8b e4 3d 41 f3 e9 3d 61 65 4d be
       -0.39264682 0.11159343 0.1142335 -0.20058204
000200 1b 8d cf be 70 18 b1 3e b3 e2 0a 3e a1 11 23 3e
       -0.40537342 0.34588957 0.13563041 0.15924694
000210 44 45 9d be c7 3d 7d be c3 be c3 3d 94 f5 35 3d
       -0.30716908 -0.24730597 0.09557869 0.044423655
000220 fb 54 c6 3e 25 39 a3 bd d0 6f 4c 3e ad 3a 00 3c
       0.3873671 -0.07969884 0.19964528 0.007826489
000230 c4 53 7a bd 5c d0 c7 39 33 a1 0a 3d 31 1e 41 be
       -0.06111504 0.00038111478 0.033845138 -0.18859173
000240 85 45 c5 be 6f 36 00 bc 3d f5 1e 3e 43 02 c5 be
       -0.38529602 -0.007825478 0.15523238 -0.38478288
000250 3a 0b ba 3e 1c 38 33 3e c4 6f 67 3e 25 90 b9 3e
       0.3633669 0.17501873 0.22601229 0.36242786
000260 83 4e b9 3e f4 10 83 be 61 ff 91 3e 97 63 0c be
       0.36192712 -0.25598872 0.2851515 -0.13709866
000270 ab 5a a0 be b5 af e4 bd 3f 4d c1 3e d8 8f b6 3e
       -0.31319174 -0.11166326 0.37754247 0.3565662
000280 df d4 f8 bd 6e ac 53 3e 81 c5 b6 be 62 5f 42 3e
       -0.12149977 0.20671245 -0.3569756 0.18981698
000290 1d dd ff 3d 8b fc 94 3e 90 fb 0f bd e8 9f 40 bd
       0.12493346 0.29098925 -0.035152018 -0.0470275
0002a0 45 03 4c 3e 5d 17 36 bd f7 bf 12 3d 5e 5c bc 3e
       0.19923122 -0.044455875 0.035827603 0.3678922
0002b0 a3 34 67 be c4 7c 48 be 1c 65 a1 be 91 e8 83 bd
       -0.22578673 -0.19578844 -0.31522453 -0.06440843
0002c0 14 d4 6d be cb ee b4 3e bf e6 92 3e ad 19 00 be
       -0.23225433 0.35338435 0.2869167 -0.12509795
0002d0 a1 13 c9 3d e4 34 54 be 9a 9b c3 be 46 bf 27 3d
       0.09818197 -0.20723301 -0.38204652 0.040953897
0002e0 8d 56 a1 3e 23 26 9b be 3b 66 21 be 7b 7b a8 be
       0.31511346 -0.30302534 -0.15761654 -0.32906708
0002f0 f7 74 ca be d4 be 7f 3e 2a 11 68 be 50 ea 2a be
       -0.39542362 0.24975139 -0.22662798 -0.16690946
000300 08 50 49 be f0 93 b0 bd d6 e6 97 3c 9f 15 8b be
       -0.19659436 -0.08621967 0.018542688 -0.27164933
000310 f9 da 9f 3d 46 33 19 be 7f 58 c5 bd 96 90 9b be
       0.078054376 -0.14960966 -0.0963602 -0.30383748
000320 f5 e6 24 3d 00 35 9c 3e a6 86 d1 bd 1e 29 ce 3e
       0.04025932 0.30509186 -0.1023076 0.40265745
000330 12 f3 b8 be 5f 69 7e bd 0b 45 7d 3e 1a a1 52 bd
       -0.36122948 -0.06211221 0.24733369 -0.05142317
000340 29 09 e6 3d c6 ea 4c 3e 98 02 79 be 7c 6f c6 be
       0.11232216 0.20011434 -0.24317396 -0.3875693
000350 4b 93 2e be 4a 0d 9b 3e cd d3 2a 3e b3 26 3f bd
       -0.17048375 0.30283576 0.16682358 -0.046667766
000360 94 97 28 3e d2 87 3a bc 4e 1c cb 3d 7d fd ce 3e
       0.16464072 -0.011384921 0.09917508 0.4042777
000370 72 8e 91 3e 96 ae c6 be 0b 4e bd be b0 d6 69 3c
       0.2842899 -0.38805073 -0.36973605 0.014272377
000380 05 10 bd 3e d3 a9 01 3e 68 41 a3 be f5 fe 67 3e
       0.36926284 0.12662439 -0.31885839 0.22655852
000390 6d e9 77 3d 64 8b 0b 3e b4 6d 94 be 40 2f 0b 3e
       0.060525347 0.13627392 -0.28989947 0.13592243
0003a0 9f d5 8e 3e c8 b3 57 be 23 07 c9 3d 3f 49 0a be
       0.27897355 -0.21064675 0.09815814 -0.13504504
0003b0 cf bb 79 3d 82 a2 cb bd 90 04 77 3c 06 ed bb 3e
       0.060970124 -0.09943105 0.015076771 0.36704272
0003c0 d4 c3 1a be 38 ce 97 3e 28 13 bb bb cd 6e a0 3e
       -0.15113765 0.2964952 -0.0057090707 0.31334534
0003d0 95 3e a9 be b0 5a 80 3e 18 a0 68 3e 7e 34 76 3e
       -0.3305556 0.2506919 0.22717321 0.24043462
0003e0 38 0b 12 be 4f 46 9e 3e 41 8e b7 be 71 7e 9e bd
       -0.14262092 0.30913016 -0.3585072 -0.077389605
0003f0 39 4a c6 3e 9b 63 a8 3e 2e a9 88 3d 67 82 0c be
       0.38728502 0.32888493 0.066728935 -0.1372162

layer1.bias f4 [128]
000000 57 d2 bd 3e b9 03 e4 3e 6d c9 a7 3e 43 83 95 3d
       0.3707454 0.4453409 0.32770863 0.07300427
000010 f6 a8 9f 3e e9 c1 bf be 0f f8 8a 3e 3d 91 18 3f
       0.31183594 -0.3745263 0.2714238 0.59596616
000020 91 e6 c3 bc f6 06 f0 3e 7d 5b 6d be f8 bf 56 be
       -0.023913654 0.4688031 -0.23179431 -0.20971668
000030 ed d6 31 be eb 98 d3 3e 44 54 02 be 56 88 b8 be
       -0.17367144 0.41327605 -0.12727457 -0.36041516
000040 28 50 f0 bd f4 d7 63 be f9 c9 c9 be e4 71 e3 bd
       -0.117340386 -0.22250348 -0.39411905 -0.11105707
000050 84 49 d9 3e f2 5c a6 be ee 63 15 be 97 cd c3 3d
       0.424389 -0.32492787 -0.14588901 0.095606975
000060 10 4c 60 be 66 4f c9 be b0 f2 23 3f 76 15 b5 3e
       -0.21904016 -0.3931839 0.64042187 0.35367936
000070 5b c4 90 3e f1 47 6c bd 89 03 c4 3e 48 a9 f2 bd
       0.28274807 -0.057685796 0.38283947 -0.11848694
000080 72 33 0b 3f fa 76 0d 3f 8b 7f 5e be c9 49 e8 3e
       0.54375374 0.5525967 -0.21728341 0.45368794
000090 11 01 a3 be 14 a7 e6 3e 24 ae 9d 3d 73 51 c0 bd
       -0.3183675 0.45049345 0.0769923 -0.09390535
0000a0 6b 1d cc be 98 8c c7 3e 28 23 d9 3b 81 18 9c be
       -0.39866194 0.38974452 0.0066265054 -0.30487445
0000b0 7e 5d 3c be 52 02 1b 3f 1b 6a 31 3f 39 78 78 be
       -0.1839504 0.60550416 0.6930253 -0.24264611
0000c0 79 36 1d 3e 61 45 be be 02 c3 fb 3e 4b b0 b5 3e
       0.15352811 -0.37162307 0.49172217 0.35486063
0000d0 54 28 ba 3e cd d2 45 3f fa bb eb 3e d9 3f a9 bb
       0.36358893 0.7727478 0.46041852 -0.005165082
0000e0 b0 d0 df bd 76 74 49 be 15 08 c3 bd 63 cd f7 bc
       -0.10928476 -0.19673333 -0.09523026 -0.030249303
0000f0 ff 53 28 be da 9e 01 3e 3c e9 75 be 53 36 da 3e
       -0.16438292 0.12658253 -0.24014753 0.4261957
000100 14 d6 92 3e 77 fb 0b be 07 b8 cb 3d bb 1d 46 bd
       0.28678954 -0.13670145 0.0994721 -0.048368197
000110 dc fc 63 ba 00 1a 40 be e9 e9 b6 be 05 bf 3e be
       -0.0008697042 -0.18759918 -0.35725334 -0.18627556
000120 4f bb 04 3c 97 d0 8a be 8c 45 bd be 9f f3 14 3f
       0.0081012985 -0.27112266 -0.36967123 0.58184236
000130 6b b1 87 bd ea 47 d9 3e 6a 85 c9 be 50 2c 8f 3d
       -0.06625637 0.4243768 -0.393596 0.06990874
000140 d5 24 04 3f 5d 17 01 3f a4 3f 8a 3e 50 51 2f 3f
       0.516187 0.50426275 0.2700168 0.6848345
000150 c2 2b c5 be 4f e2 f9 bd ac 76 ff 3e a1 d8 cb 3e
       -0.38509947 -0.12201368 0.49895227 0.39813712
000160 1a b9 b2 be b7 68 bf be 32 5c a9 be c1 ea 73 be
       -0.34906846 -0.3738458 -0.33078152 -0.2382002
000170 d8 26 5b be 5b 09 3c 3e 95 4e 29 bd 6f ca b2 be
       -0.21401536 0.18362944 -0.041334707 -0.3492007
000180 0f 65 d3 3e 55 09 a9 3e df bd 35 3f 9e 92 89 be
       0.4128804 0.33014932 0.70992845 -0.26869673
000190 b1 b5 18 bd bb a6 05 3f af 4f fd 3e 19 a7 b6 be
       -0.03728265 0.52207536 0.49474856 -0.3567436
0001a0 23 44 10 3f 9a bf 8c be c6 81 b6 be ad 53 bb bc
       0.5635397 -0.2748993 -0.35645884 -0.022867048
0001b0 db 29 4f be be 75 b1 3e 38 8b c3 be 7a f7 10 3f
       -0.2023081 0.34660143 -0.38192153 0.5662762
0001c0 5b 98 fc b9 d4 8c 1c 3f 97 7f 3f 3f 82 51 18 3f
       -0.000481787 0.61152387 0.7480406 0.5949937
0001d0 fe 90 a2 be 53 46 80 be 42 30 83 bd 80 24 d0 3e
       -0.31751245 -0.25053653 -0.06405689 0.40652847
0001e0 64 2e c9 be 79 51 7a be d4 aa ea 3e 56 56 43 bc
       -0.39293206 -0.24445142 0.45833457 -0.01192244
0001f0 2a c7 31 be c5 92 9e bd a0 f4 05 3f 44 5b b7 bd
       -0.17361131 -0.07742838 0.52326393 -0.089529544

layer2.weight f4 [128, 128]
000000 18 8b b1 3d 43 1f 2a bd a0 f4 8e 3d 46 fb 96 bd
       0.08669108 -0.04153372 0.06980252 -0.07372145
000010 98 0f d7 3c 04 11 b8 bb fa 74 98 3d 42 d2 74 3e
       0.026252553 -0.005617263 0.074441865 0.23908332
000020 41 54 10 3d 79 59 4b bd 08 88 98 3c 34 90 a3 3d
       0.0352366 -0.049645875 0.018619552 0.07986489
000030 25 28 7c 3d 05 81 ea 3c cd 19 f7 3a 6f 8f ab 3c
       0.061561722 0.028625974 0.0018852294 0.020942418
000040 b5 d3 b0 bd 32 26 d1 bb 23 17 35 3c d3 6a 06 bc
       -0.0863413 -0.006382727 0.0110528795 -0.00820418
000050 5b 58 74 3e 03 ca 71 3d 8b 6e 41 3a 84 b2 13 bd
       0.2386183 0.059030544 0.0007378838 -0.036058918
000060 93 3e 46 bc 94 5f cd 3b c3 5e 64 3e ad 28 41 bc
       -0.01209988 0.0062674973 0.22301774 -0.011789483
000070 c6 f6 92 3d 47 ca 9e 3d f2 ec 15 bd 26 67 19 ba
       0.071759745 0.07753425 -0.03660292 -0.0005851857
000080 84 01 ef 3d 67 1e 48 3e ab d4 29 3d ee 9f 3b 3e
       0.11670211 0.19542848 0.04146258 0.18322727
000090 57 7e 96 bd 75 f9 4f 3e 8b 1b 40 3d a1 aa 41 3d
       -0.07348316 0.20310004 0.046901267 0.047281865
0000a0 c5 4f 39 bd 83 87 56 3d 85 fd 9f 3d 80 a6 0b 3d
       -0.04524209 0.052375328 0.07812027 0.034094334
0000b0 b7 e5 fa 3c 46 4f 0e 3e c2 f5 11 3e 37 4d 7b bc
       0.030627115 0.13897428 0.14253905 -0.015338234
0000c0 28 bc 7b bd 52 92 97 bd 61 e1 01 bd 8e b4 3c 3d
       -0.061458737 -0.07400955 -0.03170908 0.046070628
0000d0 df a7 8c 3e 90 90 53 3e df 69 49 3e b5 83 a0 bd
       0.27471825 0.20660615 0.19669293 -0.07837621
0000e0 6f 9e 2e bd 6b 89 9a bd 8f 78 7c bc dd 8d 51 bd
       -0.042631563 -0.07545742 -0.015409603 -0.051160682
0000f0 7f ad 8d bd ce 65 ea bc 2a 72 81 bd 6b 0c 7a 3d
       -0.069178574 -0.028612997 -0.06320603 0.061047
000100 da a0 25 3d 0b cb c4 3d 0e fb 1c bd f5 dc 96 3d
       0.040436603 0.0960904 -0.038325362 0.07366363
000110 79 cf 89 3d 5a cd b4 bd e7 5a 02 bd 5a ba 2b 3d
       0.067290254 -0.0882823 -0.031824972 0.041925766
000120 7b 51 a4 3d 88 5e f5 3c e2 67 4a bd 5a 0c 8e 3d
       0.08023354 0.029952303 -0.049415477 0.069359496
000130 b7 4a 81 bd 57 3f a2 3d d4 61 3e 3c 84 93 a7 3c
       -0.06313079 0.07922237 0.011620004 0.020456083
000140 7a 91 5f 3e d9 5a 34 3e 4e 9f 9b 3c 33 8e b6 3d
       0.21832839 0.1761278 0.01899686 0.08913841
000150 38 95 b6 bd e6 be 71 3d e5 d0 45 3d 18 57 7e 3d
       -0.0891518 0.059019946 0.04829492 0.062094778
000160 a6 23 e5 bc 26 be 2d 3d c5 f0 40 3d 1d 1c b5 bc
       -0.0279711 0.042417668 0.047104616 -0.022108132
000170 c5 5c f7 bc 79 ad 82 bd e7 a1 bb ba 44 29 b9 3c
       -0.030195603 -0.063807435 -0.0014315218 0.022602685
000180 7d a4 da bc d6 04 91 3d 7f 7a 66 3e b1 ee 9c 3d
       -0.026689762 0.070810005 0.22507666 0.07662714
000190 fc 0c a5 3d a4 3b b7 3d 14 07 6a 3e 84 59 f1 38
       0.08059117 0.089469224 0.22854263 0.00011508449
0001a0 54 b1 c0 3d 70 fe 40 3d 16 3c 9d 3b 43 ad 39 bd
       0.09408823 0.04711765 0.0047984226 -0.04533125
0001b0 bf 80 01 bd 35 69 88 3a 87 58 e0 bd 59 68 db 3b
       -0.031616922 0.0010407331 -0.10954385 0.006695789
0001c0 d2 ef 5a 3d 93 dc 2e 3e 68 be 6c 3d e0 a1 4f 3d
       0.053451367 0.1707633 0.057798773 0.050691485
0001d0 a2 9e 51 3c 2f 51 44 3d 7f a3 0b 3d 5a 89 ff 3c
       0.012794169 0.047928985 0.03409147 0.031193424
0001e0 33 40 60 bd 5c 58 ae 3d 74 d7 3e bd b4 18 50 3d
       -0.054748725 0.08512947 -0.04659219 0.05080481
0001f0 2d 9c a5 3d 11 c4 f9 bc 23 47 89 bd 3a af 35 3d
       0.08086429 -0.030489 -0.067030214 0.044356562
000200 06 55 15 3c f2 da 0a bd 47 0d 04 bc 1f 2c 10 bd
       0.009114509 -0.03390021 -0.008059806 -0.035198327
000210 b2 57 8e 3d 56 19 a1 3d 79 29 60 bb d1 a6 65 3c
       0.0695032 0.078661606 -0.0034204407 0.014016823
000220 6a a7 0e bd ad 5d 79 3d 67 ce fc ba 54 4b 15 bd
       -0.034827627 0.06088035 -0.0019287587 -0.03644879
000230 4f fc 61 3d c9 dc e7 3c d0 3d 46 bd 53 ae 7b bd
       0.05517226 0.02830352 -0.048398793 -0.061445545
000240 15 0d e0 3c f7 cd 8d 3c cf a9 81 3b c0 8c 02 bd
       0.027349988 0.017310126 0.0039570103 -0.03187251
000250 9f 43 75 bd ff 58 91 3d ef 54 93 3d 0c 13 84 3d
       -0.05987894 0.07097053 0.07193934 0.064489454
000260 3a 86 6f 3d 97 c7 86 3c a7 82 5f 3d 1d da 45 bd
       0.058477618 0.016452594 0.05456796 -0.048303712
000270 2e 8d a1 3d f8 bc 87 3d 13 1e 9c 3d ab 7c bf 3c
       0.07888256 0.0662784 0.07622924 0.023374876
000280 a6 ea 0f 3c bd b3 2b bd fd db 99 3d e1 7e 9f bd
       0.008783972 -0.04191946 0.075126626 -0.07787872
000290 e8 fb 13 3d ce a4 33 3d 8e d7 60 bd ec 08 4e 3d
       0.03612891 0.043858342 -0.05489307 0.050301477
0002a0 e6 31 16 bc 42 36 ce 3b db 61 17 bd 4d c5 28 bd
       -0.00916717 0.006293089 -0.036958557 -0.041203786
0002b0 1a 3c 58 3c e2 a3 8e bc 80 0a 2d 3d e7 7f 61 bd
       0.013197923 -0.01741213 0.04224634 -0.055053618
0002c0 f6 c6 98 3b b2 d2 11 bd 41 1c 9b 3d bf be 10 bd
       0.00466239 -0.035601325 0.075737484 -0.03533816
0002d0 5b e0 88 bc b8 33 d7 bc b2 f5 50 bc 09 c5 db bb
       -0.016708544 -0.026269779 -0.012753891 -0.006706838
0002e0 08 31 3a bd 00 9b 9c bd 2c 33 83 3d c0 13 b1 3c
       -0.045456916 -0.076467514 0.06406245 0.021615863
0002f0 33 15 ab bd 71 ce 5f 3c 6d 4a 43 bd 6d 6c 7a bd
       -0.08353653 0.013660059 -0.0476784 -0.06113856
000300 34 02 80 bd 5a 04 34 3d cc a1 e9 3c 8c ba 19 3d
       -0.0625042 0.043949462 0.028519534 0.03753142
000310 70 35 6a bc c8 e9 02 bd 78 f5 2e bd cc 5f 44 bd
       -0.014294967 -0.031961232 -0.042714566 -0.04794292
000320 3c 76 73 bd 5a d4 0f 3d fb 4e b2 bd 68 4e 95 bd
       -0.05943893 0.035114624 -0.087064706 -0.072903454
000330 81 1b 2b bd 6c 99 b1 bd ec de 42 bd cf 33 8b 3b
       -0.041774277 -0.08671841 -0.047575876 0.0042481194
000340 fc 68 39 bd df df 8f 3d 5f 00 63 3d 20 c2 68 3d
       -0.045266137 0.07025122 0.055420276 0.056825757
000350 b7 3b 26 3d 49 3b 52 bd e2 bd 34 3d ef 35 94 bd
       0.040584292 -0.05132607 0.0441264 -0.072368495
000360 02 c6 9f 3d 1c 8b 59 3d 9d 03 44 3d 0c 03 19 3d
       0.07801439 0.05311118 0.04785501 0.03735642
000370 33 01 99 bd 94 5b a4 3d f6 70 98 3b b2 12 cc bb
       -0.07470932 0.0802528 0.004652138 -0.0062278146
000380 2f cf 3f bd b7 26 f9 3c 4a 18 55 bd 4e 9c 1b bd
       -0.046828445 0.030413968 -0.052025117 -0.03799086
000390 20 98 2c bc bd 95 5c bd 8a e0 35 3d 0d 73 78 bc
       -0.010534316 -0.05385374 0.04440359 -0.015164149
0003a0 eb 1f 7c bd 6c da 18 3d 3c 4f 32 bd 60 cf 40 bd
       -0.061553877 0.03731768 -0.043532595 -0.04707277
0003b0 57 68 06 3d fa 5b 35 3d 1f 2f 87 bd 8b a0 88 bc
       0.03281435 0.04427717 -0.066007845 -0.016678115
0003c0 eb e0 8a 3c 69 51 9f bd 06 68 45 bd 57 86 04 bc
       0.016952952 -0.077792 -0.048194908 -0.00808867
0003d0 53 5d 7c bd 39 20 75 bd 36 11 8b 3d 8d db a5 bb
       -0.06161244 -0.059845183 0.06790392 -0.005061573
0003e0 61 67 45 3d 41 50 0e bd f9 ec 5e bb e5 d7 82 bd
       0.048194293 -0.034744505 -0.0034015758 -0.06388835
0003f0 da 58 2d 3d e3 0c 9a 3d 96 f9 1f bd 7d af aa 3c
       0.042321064 0.07521989 -0.039056383 0.020835632

layer2.bias f4 [128]
000000 37 bb 3d 3d 46 53 1c 3b 26 c1 6f 3d 04 13 ba 3c
       0.04632112 0.0023853346 0.05853381 0.022714145
000010 80 15 66 3e 52 34 6b 3d 30 a2 6e bd 8c ca 07 3d
       0.22469139 0.057422943 -0.058260143 0.033152148
000020 f7 c2 d7 3c b7 ef 2e bd ce a6 97 bd 59 0e b4 3b
       0.026338084 -0.04270908 -0.07404862 0.0054948744
000030 c1 f6 d9 3d b9 0c 46 3c 82 aa 3d 3d 60 a6 8a 3e
       0.10642768 0.012087994 0.046305187 0.2708006
000040 40 20 53 bc cc 43 10 bc 24 10 91 3c 18 f8 be bc
       -0.012886107 -0.008805227 0.017707892 -0.02331166
000050 0c b8 cf bc 4d 61 dd 3c d2 78 bb 3e a7 52 86 bd
       -0.025356315 0.027023936 0.36615616 -0.065587334
000060 fb dd 65 3c b0 9e 6e bc be 7d 90 3c 5a 92 7f bc
       0.014029975 -0.014564201 0.017638084 -0.015598858
000070 a6 53 95 3a ed 27 7e bd 25 ea 1c 3c d7 0d a0 bb
       0.0011392727 -0.062049795 0.009577309 -0.0048844623
000080 bc 74 a9 3d a3 bc 2a 3e f0 11 ac 3b 37 79 04 bd
       0.082742184 0.16673522 0.0052511618 -0.032342162
000090 5b e8 8c 3c 3a b5 85 3e 70 d9 4f 3d 71 91 36 3b
       0.01720064 0.26114827 0.050744474 0.0027857686
0000a0 12 98 02 3d 11 7a 89 bb 7e 9f 9c bd 69 12 7d bd
       0.031883307 -0.0041954597 -0.07647608 -0.061785135
0000b0 02 89 5e 3d f3 67 8c bd 76 9f b5 3d 2a 9d 19 bc
       0.05432988 -0.06855764 0.088683054 -0.00937585
0000c0 f5 4f 1f 3d 6e 53 b3 3d 0a 5b a7 3e 03 ad 20 3d
       0.038894612 0.08756147 0.32686645 0.039227497
0000d0 54 95 dd 3c b4 eb 8b bd 77 c9 58 3d 38 7a 8c bd
       0.027048744 -0.06832066 0.052926507 -0.06859249
0000e0 23 ea 57 3d b7 84 3e 3d 48 8f 85 3d 75 8e 27 3d
       0.052713525 0.046513285 0.06521469 0.040907342
0000f0 3e 65 cf 3c a4 7d 80 bd db f7 23 3c de 9a e9 3c
       0.02531683 -0.06273964 0.010007824 0.02851623
000100 71 2e 20 3d e1 d9 3b 3c fb 8a a9 bd c1 bb 62 bc
       0.03910679 0.011465521 -0.082784615 -0.013838709
000110 3b b7 8c 3e ea fd 19 bc 77 36 20 3d 4d c7 18 3d
       0.27483544 -0.009398917 0.03911444 0.037299443
000120 57 b0 64 3d a7 ae cf bc d6 43 4b 3c 42 24 8c bc
       0.055832233 -0.025351835 0.01240631 -0.017107133
000130 b2 0f 74 bc ae 36 5d bd 1d 1e 87 3d 89 39 00 3d
       -0.01489632 -0.054007225 0.065975405 0.03130487
000140 f7 9c c0 3c cb 7c 16 bd 89 d8 1e bd 5b cd 03 bd
       0.023512347 -0.036740106 -0.038780723 -0.032178264
000150 e3 de 2c bd 66 c4 7f 3d 89 0d 9f bd 9f b4 a7 bd
       -0.04220475 0.06244316 -0.077662535 -0.081887476
000160 c4 e3 71 3d 1c 82 22 bd f4 7c 2d 3d e4 cd 19 bd
       0.059055105 -0.039674863 0.042355493 -0.03754987
000170 52 c6 5d 3e 04 7c 24 3d e2 73 57 3c 3f 59 31 3d
       0.21657684 0.040157333 0.013150187 0.043298002
000180 c3 52 1b bd bd e3 a9 3d b9 4e 5f 3c 1c b8 3b 3c
       -0.037920725 0.08295391 0.013629609 0.011457469
000190 b1 e2 42 3d 1c 9f 9a 3e c5 a0 8e 3d 50 aa 4d 3d
       0.04757947 0.30199516 0.06964258 0.05021125
0001a0 f2 2e 92 3d 56 87 a6 bd 20 5f a8 3d 38 3e af 3e
       0.0713786 -0.08131282 0.08221269 0.34227157
0001b0 ff 9f 03 3d 53 01 bd bd 45 e1 1f 3c 24 5c 12 3d
       0.032135006 -0.09228768 0.009758298 0.035732403
0001c0 d9 46 48 3d 07 f9 08 3e 1c bb 25 3d e5 9c 94 3e
       0.04889569 0.13376246 0.040461645 0.2902595
0001d0 df 9e f7 3d 49 4e 80 3d d4 62 83 bd 24 e1 1b 3d
       0.12090849 0.06264932 -0.06415334 0.038056508
0001e0 c0 e3 84 3e 6c de 51 bb d5 1d 22 bd 35 9c a7 3d
       0.2595501 -0.0032023443 -0.03957923 0.08184091
0001f0 d5 18 08 3c 77 74 2a 3d 0e e3 bb 3d 72 a8 96 bc
       0.008306702 0.041614976 0.091741666 -0.018390868

layer3.weight f4 [3, 128]
000000 86 ad bb 3c 3d 1c 82 bd 1c e7 2a bd e4 5f 0c bd
       0.02290989 -0.06353042 -0.04172431 -0.034271136
000010 c4 61 83 be b1 68 4e bd d6 d5 79 bd 35 b6 ac 3d
       -0.25660527 -0.05039281 -0.060994945 0.08433191
000020 47 9e 10 3d 49 2f 03 3d 2e f5 82 3d a8 be 0b bd
       0.035307195 0.032027517 0.063944206 -0.03411737
000030 05 21 cf bd a1 79 94 3b 79 26 ab 3d 4e dd f7 bd
       -0.1011372 0.004531101 0.083569475 -0.121027574
000040 4d ae d2 bd a0 04 0c 3d aa 9b 3c 3d bc 55 b6 bd
       -0.102871515 0.0341841 0.04604689 -0.08903071
000050 80 18 d0 bb f2 28 bd bd 72 0c 6b be ba 22 92 bd
       -0.006350577 -0.09236325 -0.22953966 -0.0713553
000060 0a 62 ad bd 17 28 62 bd 07 e5 8c 3d 50 11 8b bd
       -0.08465965 -0.055214014 0.06879621 -0.067904115
000070 cb 7f 98 bd 2a 4c 91 3c 6f d6 8c 3d ba b6 73 3d
       -0.074462496 0.017736513 0.068768375 0.059500434
000080 30 1c 66 bd e8 d1 ad bd fb 0e 25 3c 34 3c 40 3d
       -0.056179225 -0.08487302 0.010074372 0.046932414
000090 72 ae b3 bc 6e 71 79 bd 36 3e 0e bd 12 ff 64 3d
       -0.021933768 -0.06089919 -0.034727298 0.055907317
0000a0 27 a3 57 bd cd 56 90 bd f3 b5 90 3d c1 3a a7 bc
       -0.05264583 -0.07047806 0.07065954 -0.020413758
0000b0 5b 9c 1f 3d e7 e8 99 3d 78 4c ab bb 80 89 0d bd
       0.03896747 0.07515126 -0.0052276216 -0.03455496
0000c0 54 33 55 3d 6e 49 81 bd 50 77 92 be f2 7a 4d 3c
       0.052050903 -0.06312834 -0.28606653 0.0125415195
0000d0 73 ab f9 bd d1 4a 27 bd b7 42 3b bd 89 03 cb bd
       -0.121909045 -0.040842835 -0.04571792 -0.09912784
0000e0 f4 7b 89 3c cf e0 80 3b 3d 88 43 bd c1 44 95 3d
       0.016782738 0.0039330493 -0.04773735 0.072885044
0000f0 ee 25 c8 b9 3a 86 5d bd 62 d7 b0 bc 99 ea 60 bd
       -0.00038175232 -0.054083087 -0.021587078 -0.05491123
000100 48 12 1b 3d 48 fb 7c 3c 6f 05 65 bc d0 bd 38 3d
       0.03785923 0.0154407695 -0.013978346 0.045102894
000110 84 0c 80 be 6a 54 a9 bd 49 22 30 bd f6 09 9b bd
       -0.2500955 -0.08268054 -0.043001447 -0.07570259
000120 2b f7 8c bd 96 de ee bc 93 91 4a 3b 8c bb e7 3c
       -0.06883081 -0.029158872 0.0030909523 0.028287672
000130 87 8d 60 bb f4 46 94 bd 37 0d 9d bd 2c 3c 86 3d
       -0.0034264044 -0.07240096 -0.07668536 0.065544456
000140 94 7b 8f bd ea e9 c5 3c 51 a5 62 3d f6 03 9e 3d
       -0.070059925 0.02415939 0.05533344 0.07715599
000150 3c 05 1f bd 19 65 aa bc c2 7f ca bc cd 8f 9b 3c
       -0.03882335 -0.02080016 -0.024719123 0.018989468
000160 33 b7 a3 3d 71 31 32 3c 45 7b 92 bd 91 49 21 3d
       0.07993927 0.010876046 -0.07152418 0.0393768
000170 52 cc 34 be 6d 4c 78 bd 46 d7 93 bd b0 e3 06 3d
       -0.17656067 -0.06061976 -0.072187945 0.032931983
000180 3a 03 f4 bd f2 7c ae 3d 44 73 4f 3d e8 3c 9d 3d
       -0.11914678 0.08519925 0.050647035 0.076776326
000190 02 9e 4b 3b dd ac 0a be 63 15 9b bd 3f e7 65 bd
       0.0031069522 -0.13542505 -0.075724386 -0.056128737
0001a0 5c 44 83 bd 1d 6e a3 3c 60 ed 8f bd 9e c9 6f be
       -0.06409523 0.019949967 -0.070276976 -0.23416755
0001b0 b4 54 58 3d 23 8c 63 bc 64 b1 b3 bc 80 de 68 bd
       0.052815154 -0.013888392 -0.021935172 -0.056852818
0001c0 54 a6 82 3d 32 85 a3 bd b2 ce 05 bc 0f 5a 86 be
       0.06379381 -0.07984389 -0.008166956 -0.26240584
0001d0 1a 68 bf bd 18 d3 8d 3d c6 a6 8a bd 57 85 77 bd
       -0.09346028 0.069250286 -0.06770091 -0.060429897
0001e0 a9 81 8c bd f7 0d c5 bc 59 5b 47 3d 33 41 9b bd
       -0.06860668 -0.02405451 0.0486711 -0.07580795
0001f0 d1 99 3e 3c f7 ad 85 bd d8 eb 64 bc 26 64 a6 bb
       0.011633352 -0.06527322 -0.013972245 -0.0050778566
000200 ad 62 ae bd bb 44 c3 3c 15 67 de 3c fb 5e 51 3c
       -0.08514915 0.023836484 0.027148763 0.012778993
000210 3f 26 b4 be 4b 19 cf 3c 65 be 03 3d a1 a3 86 bc
       -0.3518543 0.025280615 0.032163996 -0.016435446
000220 f6 2a 48 bd 43 f0 bb 3c 47 82 7d bd 7f a6 35 3b
       -0.048869096 0.022941714 -0.06189182 0.0027717648
000230 11 ce 19 bd 3f 6f b0 bc 69 51 76 3d 99 4b 6b be
       -0.037550036 -0.021537421 0.060136233 -0.22978057
000240 0b 06 86 3c 73 00 ea 3b 6a f1 a0 3d 16 5b fd 3c
       0.016360303 0.007141167 0.07858546 0.030927222
000250 df 29 95 bd ec ec 29 3d 63 98 6e be d8 ca 8c 3d
       -0.07283377 0.041485712 -0.23300318 0.06874627
000260 b8 29 8c 3d 69 a3 82 bc 66 15 44 b9 9c 30 1b 3d
       0.06843895 -0.01594706 -0.00018699988 0.037888154
000270 d4 00 59 3d 0a 87 74 3d 34 90 1a bd 96 d0 27 bd
       0.052979305 0.059699096 -0.03773518 -0.040970407
000280 83 ca 36 3b 83 e2 df bc 53 fe 90 bc f2 ed e9 3c
       0.0027891702 -0.027329689 -0.017699396 0.028555844
000290 0a a3 83 3d f4 91 9c bd 7f 39 7e 3c 23 6b 18 bd
       0.064275816 -0.07645026 0.015516638 -0.03721155
0002a0 e6 61 b5 3d db d5 94 bd b2 7c 88 3d 05 06 2e bb
       0.08856563 -0.07267352 0.06664409 -0.002655388
0002b0 79 fa ff 3c 36 84 90 ba ed 09 9c bd b9 dc 61 bd
       0.031247364 -0.001102573 -0.07619081 -0.05514214
0002c0 c7 a8 82 3d ff fd 6a bd 0c 58 1e be ad 77 e1 3c
       0.06379848 -0.057371136 -0.15463275 0.027522886
0002d0 af cc c0 bd 61 64 86 bd 59 7d 88 bc 03 06 af bd
       -0.0941404 -0.065621145 -0.016661333 -0.085460685
0002e0 f5 a6 3d bd 05 49 df 3b 2c 03 70 bd c2 eb 2b bc
       -0.0463018 0.0068141245 -0.058596775 -0.010493221
0002f0 5e da 95 bd 59 a2 92 bd 1c be b4 3d 96 e9 b2 bd
       -0.07317041 -0.071598716 0.08825323 -0.08735959
000300 55 8a a2 3d bf df 73 3d 1b b3 41 3d 8a 19 f3 bb
       0.07936541 0.059539553 0.04728995 -0.007418816
000310 ce b3 4a be c1 5f 8d bd ba a6 3f 3d 9b ed bf bd
       -0.19795153 -0.06903029 0.046789862 -0.093714915
000320 c4 cf 94 3c b0 64 99 bc a6 4e 95 3d 95 47 5b bc
       0.018165477 -0.01872477 0.072903916 -0.013383766
000330 d5 d7 a2 3d 25 eb 97 3d e7 08 78 bc 46 56 32 bd
       0.07951323 0.07417897 -0.015138841 -0.043539308
000340 c1 95 46 3d 04 d0 99 3d 87 5b ba 3b b3 1a 9a bd
       0.04848266 0.07510379 0.0056871804 -0.07524624
000350 c8 1f 17 3d 03 be a8 3d 20 1b 83 bc 24 dd 88 3d
       0.036895543 0.08239367 -0.016004145 0.06682804
000360 a6 ed 8a bd 6b cb 5e 3d a4 de 9f 3d 97 51 0b bd
       -0.06783609 0.054393213 0.07806137 -0.034013357
000370 79 99 b1 be 84 dd 89 3d 38 01 a6 3d a7 bb fc 3b
       -0.34687403 0.06731704 0.08105701 0.0077127996
000380 71 b3 d0 bd ab 86 4a 3b 79 12 3f bd fe 8f b5 3b
       -0.10190476 0.0030903022 -0.046648476 0.005540847
000390 5a 4b 4d 3c b5 8c 6f bd 2d 3b 91 bd f5 12 95 3c
       0.012530172 -0.058483798 -0.07091365 0.018197516
0003a0 80 01 5d 3d 74 a5 11 3d 12 72 6c 3d 25 76 55 be
       0.05395651 0.03555818 0.057725973 -0.2084585
0003b0 58 2e b7 3c 43 2d 2a 3d 17 08 5a 3d 07 eb 03 bc
       0.022360966 0.04154707 0.05323037 -0.00805164
0003c0 54 e7 39 bc fe 0f 7e bc 55 61 05 be 10 a7 5f be
       -0.011346657 -0.0155067425 -0.1302541 -0.21841073
0003d0 ae aa 10 bd f5 2d d6 3b fc 76 a9 bb b3 81 b4 bc
       -0.035319023 0.00653624 -0.0051716547 -0.022034502
0003e0 61 c9 27 bd aa ca 80 bb cc a2 fd 3b 44 aa a7 3b
       -0.040963534 -0.0039304094 0.007740354 0.005116733
0003f0 64 c6 a0 3d 6a eb a3 3d 46 fd 2f 3b be 15 a8 3d
       0.0785034 0.08003886 0.0026853844 0.08207272

layer3.bias f4 [3]
000000 aa 08 85 bd 00 aa 7c 3d 32 ac 90 3d
       -0.06495793 0.061685562 0.07064094
