models/rl_models/included_validation/best_policy_dqn_model_epoch_22.pt (torch, 74158 bytes, 6 tensors)

layer1.weight f4 [128, 6]
0	0xbeabea56	-0.33577222
1	0x3e70c1c3	0.23511414
2	0xbd5f9601	-0.054586414
3	0xbe563fd1	-0.20922782
4	0x3e5fd589	0.21858801
5	0xbe1e4739	-0.15456857
6	0x3e942da6	0.28941077
7	0x3e36b6c4	0.17843157
8	0xbe5d2afd	-0.2159843
9	0x3d8a4c21	0.06752802
10	0xbde02de8	-0.10946256
11	0xbd62c775	-0.055366
12	0xbdab0fbc	-0.083526105
13	0xbeaf229e	-0.34206098
14	0x3db1e8d9	0.0868699
15	0xbeaf48a8	-0.3423512
16	0x3eabd68d	0.33562127
17	0xbe4324f6	-0.19057068
18	0xbe984339	-0.29738787
19	0xbeaaf687	-0.3339121
20	0x3e919ef8	0.28441596
21	0x3e897f2b	0.26854834
22	0xbe0d8e69	-0.13823856
23	0x3e5f24a0	0.21791315
24	0xbec24ee5	-0.37950817
25	0xbdb7ab04	-0.089681655
26	0xbd8b5017	-0.06802385
27	0x3ebcfbcb	0.36910853
28	0xbe7241ac	-0.23657864
29	0x3e3cd755	0.18441518
30	0xbe74ea85	-0.23917587
31	0xbd7003fe	-0.058597557
32	0xbe105fc5	-0.14099033
33	0x3dbf0276	0.09326641
34	0x3e87c42b	0.26516852
35	0xbe762b09	-0.24039854
36	0xbeab212f	-0.33423755
37	0x3d077d89	0.033078704
38	0x3ebcfe4f	0.36912772
39	0xbe6abf10	-0.22924447
40	0xbdfc57c1	-0.12321425
41	0x3e4da624	0.20082909
42	0x3d59de2a	0.053190388
43	0x3eb65263	0.3560973
44	0xbde08ecc	-0.10964736
45	0xbe7978e2	-0.2436252
46	0xbea0b067	-0.31384584
47	0x3de6a824	0.11262539
48	0xbcb70d34	-0.022345163
49	0x3ebed7e8	0.37274098
50	0x3e64bce7	0.22337686
51	0xbeb96fe5	-0.3621818
52	0xbe090a68	-0.13382876
53	0x3db80859	0.08985967
54	0xbeba3d3a	-0.36374837
55	0xbd20191f	-0.039086457
56	0x3e68fb08	0.22752011
57	0x3b9fc7ff	0.0048761363
58	0xbdb3f6fc	-0.08787343
59	0xbe918105	-0.28418747
60	0xbd152717	-0.036414232
61	0xbe6a9b2c	-0.22910756
62	0xbe581bd2	-0.21104363
63	0xbd82f7d9	-0.063949294
64	0xba44db59	-0.0007509492
65	0xbe9bc0c7	-0.30420515
66	0x3d8b25de	0.06794332
67	0x3e418eb6	0.18902096
68	0x3e8dcae9	0.2769387
69	0xbdf1f858	-0.11814946
70	0xbe79e4dd	-0.2440371
71	0xbe451c5d	-0.19249101
72	0xbe67b4f4	-0.22627622
73	0x3e9a5c24	0.30148423
74	0xbc9d0ec4	-0.01917208
75	0x3ea80399	0.32815245
76	0xbe572436	-0.21009907
77	0xbe565c9b	-0.20933764
78	0xbd99c998	-0.07509154
79	0xbe07a5b3	-0.13246803
80	0x3eb2914e	0.34876484
81	0x3c515624	0.012776885
82	0x3e35869e	0.17727134
83	0x3ebb6344	0.3659917
84	0xbebb0037	-0.365236
85	0xbea7103a	-0.32629567
86	0xbd93c566	-0.07215385
87	0xbc4bea17	-0.012445948
88	0x3ec0a116	0.376229
89	0xbc62b51b	-0.013837124
90	0x3de3a845	0.11116079
91	0xbe09e921	-0.13467838
92	0xbe8ee3ca	-0.27908164
93	0xbdba5168	-0.09097558
94	0xbe71563c	-0.23568052
95	0x3e093c0c	0.13401812
96	0x3e017865	0.12643583
97	0x3e691947	0.22763549
98	0xbd645b16	-0.05575093
99	0x3ebc50e3	0.36780462
100	0x3e159312	0.14606884
101	0xbea104eb	-0.31449065
102	0x3ee53692	0.44768196
103	0xbd0a2827	-0.0337297
104	0x3ec69595	0.38785997
105	0xbcbef785	-0.023311386
106	0xbecaa48a	-0.39578658
107	0xbe102901	-0.14078142
108	0xbe085ac9	-0.13315882
109	0x3e22390e	0.15842077
110	0xbea80570	-0.32816648
111	0xbdc6f084	-0.097138435
112	0x3e860a50	0.26179743
113	0x3ea3bf6c	0.3198198
114	0x3eba6769	0.3640702
115	0x3d60c1b5	0.054872233
116	0x3d4c6aa6	0.049906395
117	0xbeb5bb95	-0.35494676
118	0x3db1b7bd	0.086776234
119	0x3db16ccd	0.0866333
120	0x3eb0d9c2	0.34541136
121	0x3c89a35a	0.016801525
122	0x3e427752	0.1899083
123	0xbe84a1f6	-0.25904816
124	0x3ec9ce8a	0.3941539
125	0xbe2df5b3	-0.16988258
126	0xbe37ba37	-0.17942129
127	0xbe7b9986	-0.24570283
128	0x3e0dfce8	0.13866007
129	0xbdcc92ad	-0.09988914
130	0xbe405e43	-0.18785958
131	0x3e7c81f6	0.24658951
132	0xbe3a309c	-0.18182606
133	0x3c8a79cd	0.016903782
134	0x3c0e19a1	0.008673103
135	0x3eadbd84	0.3393365
136	0x3e8fa140	0.2805271
137	0xbe8240d7	-0.25440094
138	0xbde341a8	-0.11096507
139	0xbdea0644	-0.11426976
140	0xbe97dea7	-0.29662058
141	0xbe17ced8	-0.14824998
142	0x3bc9dd02	0.0061603794
143	0xbe8b07f6	-0.2715451
144	0xbe9b98c4	-0.30389988
145	0x3e8aa603	0.27079782
146	0xbe0d307b	-0.13788025
147	0xbe679b3e	-0.22617814
148	0xbe4ba3d5	-0.19886716
149	0x3dca67fa	0.09883113
150	0xbe9b9676	-0.3038823
151	0x3d322a79	0.043497536
152	0xbe860c63	-0.26181325
153	0xbdaa8f8f	-0.08328163
154	0xbd755f83	-0.05990554
155	0xbeb37c5c	-0.35055816
156	0xbe8c6975	-0.27424207
157	0xbe3ed79a	-0.18636933
158	0x3e7ba66c	0.24575204
159	0xbd8eccd2	-0.0697266
160	0x3e3b1965	0.18271406
161	0xbe3d62f0	-0.18494773
162	0x3eaf95ff	0.34294125
163	0xbda3d3c2	-0.07999374
164	0x3db36e85	0.08761314
165	0x3dc35b88	0.095389426
166	0x3d85fb68	0.065420926
167	0xbd97483f	-0.07386827
168	0xbeb2b7ad	-0.34905759
169	0xbe9d4f78	-0.30724692
170	0x3e57255b	0.21010344
171	0x3eaa4409	0.33255032
172	0x3e08f9a5	0.13376482
173	0xbe391ecd	-0.18078156
174	0x3ef86a24	0.4851848
175	0xbe3a5158	-0.18195093
176	0x3ed078c8	0.4071715
177	0x3ec9f790	0.39446688
178	0xbe416dac	-0.18889493
179	0x3e90b605	0.2826387
180	0xbe3aeab9	-0.18253602
181	0x3e0a3111	0.1349528
182	0xbe12a1b8	-0.14319503
183	0x3e75b5b6	0.23995098
184	0x3e95c90b	0.29254946
185	0x3c395721	0.011312277
186	0xbd64208c	-0.0556951
187	0x3c200197	0.009766004
188	0x3eb5e636	0.355272
189	0x3ea97553	0.33097324
190	0x3eabb01f	0.33532807
191	0x3e5395df	0.2066264
192	0x3eaa1f0e	0.33226818
193	0x3e2d8629	0.1694571
194	0xbe84104c	-0.25793684
195	0xbd94a560	-0.07258105
196	0xbe2d1335	-0.16901858
197	0x3debf1a1	0.115206964
198	0xbc1bb888	-0.009504445
199	0x3c20db06	0.009817844
200	0x3e84a4ff	0.25907132
201	0x3e9a83bc	0.3017863
202	0x3e36eae3	0.1786304
203	0xbd10c954	-0.03534825
204	0xba61f309	-0.0008619284
205	0x3e77d83d	0.24203582
206	0xbe7aa4c6	-0.24476919
207	0x3e757c5e	0.23973224
208	0x3e910542	0.28324324
209	0x3d0c517e	0.034257405
210	0x3e89abf6	0.26889008
211	0xbe3da540	-0.18520069
212	0x3e99ada8	0.30015302
213	0x3e3d421a	0.18482247
214	0x3e70369e	0.23458335
215	0x3ac8a2e7	0.0015307338
216	0xbe8da9bf	-0.27668568
217	0xbe2bb81f	-0.16769455
218	0xbeacb4f7	-0.33731815
219	0x3e5ff16d	0.2186944
220	0xbcbde024	-0.023178168
221	0x3ea85238	0.32875228
222	0xbdc023e8	-0.093818486
223	0x3e842fd9	0.25817755
224	0xbea81a23	-0.3283244
225	0x3e32789b	0.1742882
226	0x3eb88989	0.3604243
227	0x3ec3d3bb	0.38247475
228	0x3eaf2816	0.3421027
229	0xbd7c797c	-0.061639294
230	0x3d890adb	0.06691524
231	0xbe214275	-0.15748008
232	0x3ea8ddff	0.3298187
233	0xbe1f61a4	-0.1556459
234	0x3c8233c5	0.015893826
235	0xbd05c6ed	-0.032660414
236	0x3b3963af	0.0028288176
237	0xbe0e17ed	-0.13876314
238	0xbe817f3d	-0.25292388
239	0x3e6da7c4	0.23208529
240	0xbe826a5f	-0.2547178
241	0x3e03781d	0.12838788
242	0x3e14cc69	0.14531101
243	0xbeb8c12f	-0.36084887
244	0xba720bfc	-0.0009233353
245	0x3e3a259e	0.18178412
246	0x3d15dc42	0.036587007
247	0x3e945206	0.2896883
248	0x3e64f18f	0.22357772
249	0xbd944d52	-0.0724131
250	0x3eb2b712	0.34905297
251	0xbe048dc2	-0.12944701
252	0x3de7faab	0.11327108
253	0xbe246206	-0.16053018
254	0x3c7b646e	0.0153437685
255	0x3ecced93	0.40025005

layer1.bias f4 [128]
0	0x40193e5e	2.3944316
1	0xbe1843d4	-0.14869624
2	0xbe15d04a	-0.14630237
3	0x4028e35a	2.6388764
4	0xbe72efb8	-0.23724258
5	0xbe9f4516	-0.31107396
6	0x401c13bf	2.4387052
7	0xbe7fcc12	-0.2498019
8	0x3f750605	0.9571231
9	0xbea1a1b0	-0.3156867
10	0xbec174f7	-0.3778455
11	0x400f74e4	2.2415094
12	0xbe2ae70d	-0.16689701
13	0xbc420a59	-0.011843287
14	0xbebed9fd	-0.37275687
15	0xbe095827	-0.13412534
16	0x3fb318e1	1.3991967
17	0xbe40a934	-0.18814546
18	0xbc037753	-0.008024055
19	0xbe6aadb7	-0.2291783
20	0x3fed1319	1.8521453
21	0xbe9b0334	-0.3027588
22	0xbe8e9102	-0.27845007
23	0xbd17a316	-0.037020765
24	0xbe2a0f0b	-0.16607301
25	0xbcccf266	-0.025017928
26	0xbd9bc91e	-0.076067194
27	0xbe9e1d3b	-0.30881676
28	0xbe72fd0c	-0.23729342
29	0xbe408273	-0.18799762
30	0x3febf739	1.8434821
31	0x3fb8af45	1.4428488
32	0xbe8b0a8d	-0.27156487
33	0xb9ab8c80	-0.00032720342
34	0xbeb88ffa	-0.36047345
35	0x3f90c3bb	1.1309732
36	0xbd1f2ca7	-0.038860943
37	0x3f91dde4	1.1395841
38	0x3ebc39ae	0.36762756
39	0xbe1f7f3d	-0.15575881
40	0x402c800f	2.695316
41	0x3f419bef	0.7562856
42	0x3f9c412c	1.2207389
43	0x3ec0deea	0.3767007
44	0x4023f232	2.5616574
45	0x3eb91c4c	0.361544
46	0xbdea6c04	-0.114463836
47	0x40358fb4	2.836896
48	0x402e755d	2.7259133
49	0x3f280cc2	0.65644467
50	0xbea14112	-0.31494957
51	0xb98c1fca	-0.00026726566
52	0xbe11623b	-0.14197628
53	0xbe8b0d9d	-0.27158824
54	0x402b5573	2.6770904
55	0xbe6bc036	-0.23022541
56	0x401b7cde	2.4294963
57	0xbe0e24dd	-0.1388125
58	0xb9e5cc1b	-0.00043830354
59	0xbdafcb6b	-0.08583721
60	0xbea1b2f4	-0.31581843
61	0xbe183dda	-0.14867344
62	0xbdc3ef92	-0.09567179
63	0xb88ad9e1	-6.620936e-05
64	0xbd775c00	-0.060390472
65	0x40259f7d	2.5878594
66	0x3fba5341	1.4556657
67	0x4014c5a4	2.324563
68	0x402737e6	2.6127868
69	0xbe9f2add	-0.3108739
70	0xb888943f	-6.512598e-05
71	0xbe682242	-0.22669318
72	0xbe8048d1	-0.25055555
73	0x40363170	2.8467674
74	0x401f6043	2.4902503
75	0x3ffeefa1	1.9916879
76	0x40227881	2.538605
77	0x3d8b0c3e	0.067894444
78	0x3f84c2ea	1.0371983
79	0x3f707397	0.93926376
80	0x401adb38	2.41963
81	0x3fcc950e	1.5982988
82	0xbc42e861	-0.011896224
83	0x401d68e6	2.4595275
84	0x402df8c7	2.7183092
85	0xba6a055b	-0.00089271896
86	0xbe9e5d6a	-0.30930644
87	0xb93b22d1	-0.0001784668
88	0xbe5ced0a	-0.21574798
89	0xbd34d74b	-0.044150632
90	0xbd8a82a6	-0.067632005
91	0xbdb459c9	-0.08806188
92	0xbe6d5e3c	-0.23180479
93	0x402c646b	2.693629
94	0x3e843e83	0.25828943
95	0xbdfc2112	-0.12310995
96	0xbe165033	-0.14679031
97	0xbec72f13	-0.38903102
98	0xbc5eb2c7	-0.0135924285
99	0x3c21afb2	0.009868549
100	0xbd9e484b	-0.077286325
101	0x402e35f0	2.722042
102	0xbcc97256	-0.024590652
103	0x402830a7	2.6279695
104	0xbe4a68bf	-0.1976652
105	0x3fc585a4	1.5431409
106	0xbe855068	-0.26037908
107	0x40358593	2.8362777
108	0xbde12abe	-0.109944806
109	0x3f6c7c94	0.9237759
110	0x402d227a	2.7052293
111	0xbe33041c	-0.17482036
112	0xbe35c981	-0.17752649
113	0x3ee9eb66	0.45687407
114	0xbe41b970	-0.18918395
115	0xbeba56c0	-0.3639431
116	0x3eb63d4f	0.3559365
117	0x3f42c93d	0.76088315
118	0x3fec7da3	1.8475841
119	0x3f246c46	0.6422771
120	0x3fa8c0ce	1.3183839
121	0xbe9fdd60	-0.31223583
122	0xbe51c463	-0.20485072
123	0xbdea2c59	-0.1143424
124	0x401c26df	2.4398725
125	0xbeb32d3b	-0.34995446
126	0x402b1b8e	2.6735568
127	0xbdc8e846	-0.09809928

layer2.weight f4 [128, 128]
0	0x3d191acb	0.037379067
1	0xbde1f717	-0.11033457
2	0xbca5e9cc	-0.020253085
3	0xbdc38f9b	-0.09548875
4	0x3da4811f	0.080324404
5	0x3da9d31b	0.08292218
6	0x3d1db9c4	0.038507238
7	0xbd6fbf2c	-0.058531925
8	0xbd455140	-0.04817319
9	0xbce3157e	-0.02772021
10	0xbb39b3c3	-0.0028335906
11	0x3db5c325	0.088751115
12	0xbd960ecb	-0.0732704
13	0x3e677309	0.22602476
14	0xbced092d	-0.02893504
15	0x3b568d8f	0.0032738184
16	0x3d432731	0.047644798
17	0xbd965f58	-0.07342404
18	0xbb79abaf	-0.0038096716
19	0x3ce7fb72	0.02831814
20	0xbc728812	-0.0148029495
21	0xbd8b8e7a	-0.068142846
22	0x3d529c24	0.05141844
23	0x3c11f912	0.008909481
24	0xbdaa76d3	-0.08323445
25	0x3ba69b25	0.0050844126
26	0xbd00cf3a	-0.031447627
27	0xbd819d64	-0.06328848
28	0x3d74a9c5	0.059732217
29	0xbe6f0472	-0.2334154
30	0x3db6fe2d	0.08935199
31	0xbd7eca7b	-0.06220482
32	0x3c506527	0.012719429
33	0x3bc91f5f	0.006137773
34	0x3cfe8980	0.031071424
35	0xbbe29163	-0.006914304
36	0xbc31208a	-0.010810981
37	0x3d15b748	0.036551744
38	0x3c8b0053	0.016967928
39	0xbd224595	-0.03961714
40	0xbcb86931	-0.022511097
41	0xbcf5a50d	-0.029985929
42	0xbe28a634	-0.16469651
43	0xbd178c78	-0.036999196
44	0x3d968cbb	0.07351061
45	0x3a34259c	0.00068720593
46	0xbd8c4145	-0.06848387
47	0x3d22792c	0.03966634
48	0xbd0acd4f	-0.033887204
49	0xbcad08d6	-0.021122377
50	0xbbf1ce47	-0.0073793265
51	0x3c9dd198	0.019264981
52	0xbd905a7d	-0.07048509
53	0x3c8d9bb1	0.017286154
54	0x3d283584	0.04106666
55	0xba236d16	-0.00062342116
56	0x3cc311f1	0.023812266
57	0x3b0df0ec	0.0021658493
58	0x3d3c3a67	0.045954134
59	0x3d3c838d	0.046023894
60	0x3c78e937	0.0151923215
61	0xbd1e6d99	-0.03867874
62	0x3b2ada6a	0.0026070126
63	0x3cb18995	0.02167205
64	0xbd0aabd4	-0.033855274
65	0xbd220b52	-0.039561577
66	0x3cb55e63	0.022139734
67	0xbd705f51	-0.05868465
68	0xbd8cef62	-0.06881596
69	0xbd6eba83	-0.05828334
70	0x3c9eebef	0.019399611
71	0xbd846fab	-0.064666115
72	0x3d2e1261	0.042497996
73	0xbda183a8	-0.078864396
74	0x3be3b1c3	0.006948681
75	0x3e130982	0.14359096
76	0x3b63935e	0.003472529
77	0x3b56cd12	0.003277604
78	0xbc8e6531	-0.017382236
79	0xbd5cae15	-0.053876955
80	0x3d67525b	0.056475025
81	0xbd7c3cdb	-0.061581474
82	0x3e0d6857	0.13809334
83	0x3d73de36	0.05953809
84	0xbd01be40	-0.031675577
85	0xbd0ab098	-0.03385982
86	0xbc9783ed	-0.018495524
87	0xbd6f6055	-0.05844148
88	0x3d2470fc	0.040146813
89	0xbdb55664	-0.08854368
90	0xbd55332f	-0.052050766
91	0x3d935c0f	0.07195293
92	0xbd8828cd	-0.06648407
93	0x3c8564f3	0.016283488
94	0x3d5bf1ad	0.053697277
95	0x3c971ce2	0.01844639
96	0x3e14f487	0.14546405
97	0x3cbfce05	0.023413667
98	0xbc7e8f80	-0.015537143
99	0xbda65e3e	-0.08123444
100	0x3ce47ab9	0.02789055
101	0x3b0d1897	0.002152955
102	0x3bdbd129	0.0067082834
103	0xbc3694ce	-0.011143876
104	0x3c2c15b8	0.010503225
105	0x3da910d4	0.08255163
106	0xbbc00180	-0.005859554
107	0x3dbb2356	0.09137599
108	0xbd635f9b	-0.0555111
109	0xbc723f66	-0.014785623
110	0xbdb16feb	-0.08663925
111	0x3beba278	0.0071909986
112	0x3d77a8e1	0.06046379
113	0xbdb0eefc	-0.08639333
114	0xbd586c9b	-0.05283795
115	0xbd873c4f	-0.066033
116	0x3c2939be	0.010328708
117	0xbec6aaeb	-0.38802275
118	0x3d0ce9b4	0.034402564
119	0x3d813a38	0.063099325
120	0xbd803779	-0.062605806
121	0x3d1e94d5	0.038716156
122	0x3cffe2a5	0.031236002
123	0x3dacbdd5	0.08434645
124	0x3c9b60e0	0.018967092
125	0x3d9ae4b6	0.075631544
126	0x3ccfa7b0	0.025348514
127	0xbd9eaa6d	-0.0774735
128	0x3d0b0d6d	0.03394835
129	0xbdd4e725	-0.1039565
130	0xbd543db8	-0.051816672
131	0xbd90600f	-0.07049572
132	0x3d2cabc1	0.042155985
133	0x3dbc33f2	0.09189595
134	0x3dee772d	0.11643825
135	0xbda0c62d	-0.07850299
136	0xbc90a04f	-0.017654566
137	0x3c083f8b	0.008315931
138	0x3a0ae4a0	0.000529835
139	0xbccbc5b5	-0.024874547
140	0xbceedeb2	-0.029158924
141	0x3e21f97f	0.15817831
142	0x3cfb43d1	0.030671986
143	0x3d8aae74	0.067715555
144	0xba746a4f	-0.00093237025
145	0x3bcdf66f	0.0062854807
146	0x3c489ced	0.012244445
147	0xbd7a513c	-0.061112627
148	0xbd2adc87	-0.041714218
149	0xbd2ac525	-0.041691918
150	0x3cdcfdca	0.026976485
151	0xbc224b5d	-0.009905663
152	0x3cd20ed9	0.025641846
153	0xbd2c1bf1	-0.042018835
154	0xbca06df7	-0.019583685
155	0xbe1e9efc	-0.15490335
156	0x3ccfa9ad	0.025349462
157	0xbe02eabd	-0.12784858
158	0x3d948c36	0.072533056
159	0x3cc96033	0.024582004
160	0x3d0eb0bf	0.034836527
161	0x3cf3ffec	0.029785119
162	0xbd18e665	-0.037329096
163	0xbd6c9d98	-0.05776748
164	0x3d7e2331	0.06204528
165	0x3d5c8bc1	0.053844217
166	0xbc18e33f	-0.009331523
167	0xbd92267f	-0.07136249
168	0x3cf09aad	0.02937063
169	0x3cd79946	0.026318204
170	0xbe09ced3	-0.13457803
171	0x3cdeec3a	0.027212251
172	0x3cf43993	0.02981261
173	0xbc5d5b11	-0.013510481
174	0xbd93feb3	-0.072263144
175	0x3cb5cbd0	0.022191912
176	0xbcc4c313	-0.0240188
177	0x3c99b128	0.018761232
178	0x3cda0966	0.02661581
179	0xbd5345c5	-0.05158021
180	0xbd9ac24d	-0.07556591
181	0x3cd9ce8e	0.02658775
182	0xbd132c27	-0.03593078
183	0x3d5f1d78	0.054471463
184	0xbd8b215f	-0.067934744
185	0xbd92b6e2	-0.071637884
186	0xbc97f3bd	-0.01854884
187	0x3cc26af8	0.023732647
188	0xbdab65c5	-0.083690204
189	0xbc4a12d9	-0.012333595
190	0x3d56ba19	0.05242357
191	0xbd3d455f	-0.046208736
192	0xbc91579b	-0.017741969
193	0x3d1cc2ef	0.03827184
194	0x3d703a4a	0.05864934
195	0xbd82306e	-0.063568935
196	0xbd8e5448	-0.06949669
197	0x3d84db5b	0.06487151
198	0xbd0d8c58	-0.03455767
199	0x3c176ec0	0.009242713
200	0x3d2a9139	0.0416424
201	0xbc762cd3	-0.015025335
202	0x3d66d0f7	0.05635163
203	0x3e34c655	0.17653783
204	0xbd857ee9	-0.06518347
205	0x3d7c05b5	0.06152888
206	0x3ce6be62	0.028166953
207	0x3d44ec14	0.048076704
208	0x3d97a5e2	0.074046865
209	0xbd67aac5	-0.056559343
210	0x3ddfae6a	0.10921939
211	0x3ccad654	0.024760403
212	0x3d7fc1e9	0.062440787
213	0xbd18e8ed	-0.03733151
214	0x3d73ae8d	0.059492636
215	0xbd932b83	-0.071860336
216	0xbc47e3ed	-0.012200338
217	0xbd72f94a	-0.05931977
218	0xbd002122	-0.031281598
219	0x3d9e66de	0.07734464
220	0x3da032c6	0.07822184
221	0xbd89be63	-0.067257665
222	0x3d6ce506	0.0578356
223	0x3ca26d8f	0.019827632
224	0x3e05bc7f	0.13060187
225	0xbc2749e9	-0.010210493
226	0x3d8774ab	0.066140495
227	0x3b77aa2d	0.0037790642
228	0x3d8d5a23	0.06901958
229	0xbd8484c2	-0.06470634
230	0x3da4123a	0.08011289
231	0xbd931cf1	-0.071832545
232	0x3cf4b41f	0.029871045
233	0xbc666354	-0.014061768
234	0xbd0d1f35	-0.03445359
235	0x3d1bab59	0.038005207
236	0xbd5eac39	-0.054363463
237	0xbd24b5ab	-0.040212315
238	0xbd8175a1	-0.06321264
239	0x3d55fc36	0.05224248
240	0x3d75a995	0.05997618
241	0xbd091840	-0.033470392
242	0xbca54688	-0.020175233
243	0x3d4094b3	0.04701681
244	0x3cde22c0	0.02711618
245	0xbe5f1a9d	-0.21787496
246	0xbd065b8c	-0.03280215
247	0xbc6c3908	-0.014417894
248	0x3d13169f	0.035910245
249	0x3a8c977d	0.0010726299
250	0x3cc8140d	0.024423623
251	0xbd5a644b	-0.053318303
252	0x3981e92d	0.00024778527
253	0x3d50e6a4	0.051001206
254	0x3c16a2fd	0.009194133
255	0x3cd547b9	0.026035177

layer2.bias f4 [128]
0	0xbc76f3bc	-0.015072759
1	0x3d3d87c2	0.046272047
2	0xbd3d3ab0	-0.046198547
3	0xbd684f4c	-0.05671625
4	0xbc95934d	-0.018258715
5	0x398b7f6c	0.00026607083
6	0xbd8e4966	-0.069475934
7	0x3ecb3b7d	0.39693823
8	0xbdb90c19	-0.090355106
9	0x3e5a25e8	0.21303523
10	0xbd01e877	-0.031715836
11	0x3a2da4dc	0.0006623992
12	0x3d5756f8	0.052573174
13	0xbda69a27	-0.08134871
14	0xbd138339	-0.036013816
15	0xbd120d69	-0.03565732
16	0x3ed64851	0.41852048
17	0x3da9d2f8	0.08292192
18	0x400bd0c0	2.184616
19	0x3c8aaa20	0.016926825
20	0xbcb06de2	-0.021536771
21	0x400fdfbc	2.2480307
22	0x3e8a955d	0.2706708
23	0x3f9b7050	1.214365
24	0x3eb22a50	0.34797907
25	0x3e7549c0	0.23953915
26	0xbd289e8a	-0.04116682
27	0xbd43020c	-0.047609374
28	0x3ea71bfd	0.3263854
29	0x3c885a8a	0.016644735
30	0x3ec769f6	0.3894803
31	0xbcce28de	-0.025165971
32	0xbd4e513a	-0.050370432
33	0xbd00fde0	-0.031492114
34	0xbd866f98	-0.065642536
35	0xbd65c671	-0.05609745
36	0x3ccb992a	0.024853308
37	0xbd2e2f77	-0.042525735
38	0x3d3a70b5	0.045517642
39	0xbe1d3cd9	-0.15355243
40	0x3ed2cb80	0.41170883
41	0xbd5adb05	-0.05343153
42	0x3d0ee8d8	0.034890026
43	0x3f754a5f	0.95816606
44	0x3d8785dd	0.06617329
45	0xbc32837c	-0.010895606
46	0xbe0c1b2e	-0.13682243
47	0xbd04b007	-0.032394435
48	0x3ed19a3d	0.40937987
49	0x3ff98fcb	1.9497007
50	0x3d789a17	0.060693827
51	0xbd1a7176	-0.03770586
52	0x3ff1f897	1.8903989
53	0x3d7e975f	0.062156077
54	0xbc980b9a	-0.01856022
55	0xbd091536	-0.033467494
56	0x3e9cee14	0.3065039
57	0x3d82e23e	0.063908085
58	0x3ed4ba75	0.41548505
59	0xbda4eaf1	-0.08052624
60	0x3d869ff8	0.0657348
61	0x3ebbc386	0.3667261
62	0xbd37b5d8	-0.044851154
63	0x3c91701f	0.017753659
64	0x3e61ea8b	0.22062127
65	0x3f792c89	0.9733358
66	0x3e97ad6c	0.29624498
67	0x3d4c527a	0.049883343
68	0x3d529501	0.051411632
69	0x3d174f99	0.036941145
70	0x3d4edbb5	0.050502498
71	0x3ec02960	0.37531567
72	0x3b647e72	0.0034865406
73	0x3d2615b6	0.04054805
74	0x3d7314a7	0.059345867
75	0x3e36ed1a	0.17863885
76	0x3d2a5d6c	0.041593
77	0xbd386d48	-0.045026094
78	0xbd4d5c62	-0.05013693
79	0x3da52ced	0.080652095
80	0xbdc2bb05	-0.095083274
81	0xbd2b4eda	-0.041823246
82	0x3f13167b	0.5745618
83	0x3ff35f97	1.9013547
84	0x3d6b1f15	0.05740269
85	0xbd8c4b3f	-0.068502896
86	0xbd810e89	-0.063016005
87	0x3e08984d	0.13339348
88	0x3bdf6a22	0.006818072
89	0xbc74bad5	-0.014937122
90	0x3eae7c81	0.34079364
91	0x3e88372e	0.266046
92	0xbd1d2e60	-0.038374305
93	0x3d8855a7	0.06656962
94	0xbdb25ded	-0.08709321
95	0x4025e1ca	2.591906
96	0x3c8344b6	0.016023975
97	0x3ed1af95	0.4095427
98	0x3ed38a86	0.41316622
99	0xbd875dda	-0.06609698
100	0x3fdcce4b	1.7250456
101	0x3d02607b	0.031830292
102	0xbca1d2d6	-0.019753855
103	0xbd311099	-0.04322872
104	0x3ecd53d6	0.40103024
105	0x3b2bdc95	0.0026224006
106	0x3fa376d0	1.2770634
107	0x3fe8d9b0	1.8191433
108	0xbd62c7e4	-0.05536641
109	0x3d7b7b64	0.06139697
110	0x3e143376	0.14472756
111	0x3d7ea966	0.06217327
112	0x3fd897d3	1.6921333
113	0xbe29b058	-0.16571176
114	0x3ed0de15	0.40794435
115	0x40190f16	2.3915458
116	0xbd7edeee	-0.06222432
117	0xbd4f73f5	-0.050647695
118	0xbd4f99b6	-0.0506837
119	0xbc6d9e31	-0.014503048
120	0x3e7adb85	0.24497803
121	0xbd8d146c	-0.06888661
122	0x3fa2178d	1.2663437
123	0xbd2c41cc	-0.042054936
124	0xbda025b8	-0.07819694
125	0x3d753ee5	0.059874434
126	0x3f6a5bc4	0.91546273
127	0x3edc8aca	0.43074638

layer3.weight f4 [3, 128]
0	0x3e1e3677	0.15450464
1	0x3da01ca2	0.07817961
2	0xbc67cf28	-0.014148511
3	0x3d8bd957	0.06828564
4	0xbd49193e	-0.04909634
5	0xbda5bd43	-0.080927394
6	0x3d884fdf	0.06655859
7	0xbe2da2ac	-0.16956586
8	0x3bfc2c4e	0.007695711
9	0xbd9ad5e2	-0.07560326
10	0xbc544215	-0.012955208
11	0x3d3113d0	0.043231785
12	0x3d17df7a	0.03707836
13	0x3b7b2b86	0.0038325503
14	0x39a036bf	0.00030558367
15	0x3d94270e	0.072340116
16	0xbe321c20	-0.17393541
17	0x3d1b60d3	0.037934136
18	0xbfcc5dc7	-1.5966119
19	0xbd9ae066	-0.07562332
20	0x3e28c7e9	0.1648251
21	0xbfa560fd	-1.2920223
22	0xbd069718	-0.032858938
23	0xbf989215	-1.1919581
24	0xbdf09f04	-0.1174908
25	0xbe0924e4	-0.13392979
26	0x3c0cf3ef	0.00860308
27	0xbd68e900	-0.05686283
28	0xbe2a6245	-0.1663905
29	0x3d55da75	0.05221029
30	0xbe0fb7ae	-0.14034912
31	0x3d4901aa	0.049073853
32	0xbb2586ab	-0.002525727
33	0x3dee1c11	0.11626447
34	0x3db862b9	0.09003205
35	0xbc098c5f	-0.0083952835
36	0xbc52e98d	-0.012873066
37	0xbd7553e7	-0.05989447
38	0x3d2c6ddc	0.042096958
39	0x3e0686a4	0.13137299
40	0xbded15f8	-0.11576456
41	0x3d1ac1ba	0.03778241
42	0xbd3ab2fb	-0.045580845
43	0xbf8ae66a	-1.0851567
44	0x3d7ac68a	0.061224498
45	0x3da4f980	0.08055401
46	0x3d64ca09	0.05585674
47	0x3c8791f1	0.016549082
48	0xbdab14d8	-0.08353585
49	0xbfac0cc5	-1.3441397
50	0xbd76f261	-0.060289744
51	0x3dc7169f	0.097211115
52	0xbfb7bfc0	-1.4355392
53	0x3da3ddd7	0.08001297
54	0xbccfd49d	-0.025369937
55	0x3bf771aa	0.0075513916
56	0xbe1f1e80	-0.15538979
57	0x3da9c9bc	0.08290431
58	0xbe3753d2	-0.17903069
59	0x3d96916e	0.07351957
60	0xbe0d0896	-0.13772807
61	0xbe35277e	-0.17690846
62	0x3d864bb7	0.0655741
63	0xbd03c23c	-0.03216766
64	0xbde6f61a	-0.11277409
65	0xbf894d18	-1.0726652
66	0xbe634468	-0.22194064
67	0x3e01c10b	0.12671296
68	0x3e38c419	0.18043555
69	0xbce51d02	-0.027967934
70	0xbd7210ea	-0.05909816
71	0xbe2931f0	-0.16522956
72	0xbd2d2804	-0.04227449
73	0x3e115401	0.14192201
74	0xbd8ac01a	-0.06774922
75	0xbe1423ba	-0.14466754
76	0x3b67eff2	0.0035390821
77	0x3d6c5a7e	0.057703488
78	0xbd8f98ef	-0.07011592
79	0x3d9f8cd6	0.07790534
80	0x3d795f98	0.06088218
81	0x3dc42be7	0.09578686
82	0xbe8251e4	-0.25453103
83	0xbfb149f4	-1.3850694
84	0xbb5d84ab	-0.0033801
85	0x3d7f48cb	0.06232528
86	0x3de6198c	0.112353414
87	0xbd386eb7	-0.04502746
88	0xba9673c5	-0.0011478594
89	0x3da6a639	0.08137173
90	0xbe21e2a4	-0.15809113
91	0xbe3a7f07	-0.1821252
92	0xbd40027b	-0.046877366
93	0xbc652c65	-0.013987635
94	0x3df06341	0.11737681
95	0xbfd756cf	-1.6823367
96	0x3dcbd739	0.0995316
97	0xbe16a6d3	-0.14712076
98	0xbe4eb3a7	-0.2018572
99	0x3c6fd97c	0.014639255
100	0xbf9d83f7	-1.2305897
101	0xbc58ce8e	-0.01323284
102	0x3d416811	0.047218386
103	0x3e140b46	0.14457425
104	0xbe453487	-0.19258319
105	0x3dbb0d10	0.09133351
106	0xbf8fba69	-1.1228763
107	0xbfb0af29	-1.3803455
108	0x3b541e63	0.0032366745
109	0xbc8364ab	-0.016039213
110	0xbdfa6b53	-0.12227502
111	0xbc9c309a	-0.019066144
112	0xbfa8809e	-1.3164251
113	0x3e1262d4	0.14295512
114	0xbe49146f	-0.19636701
115	0xbfceb456	-1.6148784
116	0x3dd9853f	0.10621118
117	0x3d5b633f	0.053561445
118	0xbcfb376a	-0.030666072
119	0xbd17e0d8	-0.037079662
120	0xbe478d86	-0.1948758
121	0x3d8aa052	0.0676886
122	0xbfaa8fd4	-1.3325143
123	0xbd59abb5	-0.05314227
124	0xbca497e0	-0.02009195
125	0x3d86ce46	0.06582312
126	0xbf60ec55	-0.87860614
127	0xbdea8a63	-0.114521764
128	0x3e0ec042	0.13940528
129	0x3d466214	0.04843338
130	0xbd01b0c2	-0.03166271
131	0xbd5c295a	-0.053750373
132	0xbd8077fe	-0.06272887
133	0xbd8b9ffb	-0.06817623
134	0xbd390996	-0.045175157
135	0xbe0becf3	-0.13664608
136	0x3e2ffb1f	0.17185639
137	0xbc1bceb4	-0.009509731
138	0x3c842735	0.016131977
139	0xbd78c641	-0.060735945
140	0x3dd1f5db	0.10251971
141	0x3cd27a78	0.025693163
142	0x3d94bc38	0.072624624
143	0x3dec820c	0.11548242
144	0xbe53b317	-0.20673786
145	0x3d80afae	0.06283508
146	0xbfaac78e	-1.3342149
147	0x3d08d0b7	0.03340217
148	0x3e27027d	0.16309543
149	0xbfd962ed	-1.6983315
150	0xbe1acba0	-0.1511674
151	0xbf7b0c74	-0.98065877
152	0xbe55d978	-0.20883739
153	0xbde13606	-0.10996632
154	0x3d91b196	0.0711395
155	0x3d903777	0.07041829
156	0xbde451a3	-0.111483835
157	0x3d1d1018	0.038345426
158	0xbe46277b	-0.19350998
159	0xbc300069	-0.010742285
160	0xbce2a323	-0.02766568
161	0x3e1805dd	0.14845987
162	0x3da232c2	0.079198375
163	0x3d95f30c	0.07321748
164	0xbce3acc6	-0.027792346
165	0xbd129825	-0.035789628
166	0x3dbe7c67	0.093010716
167	0x3dd036d6	0.10166709
168	0xbe115922	-0.14194158
169	0xbd963422	-0.07334162
170	0x3b501ede	0.003175668
171	0xbf5a306e	-0.8523015
172	0xbc98758b	-0.018610736
173	0x3d1c01b2	0.038087554
174	0xbbfd6e3f	-0.0077340896
175	0xbd9a53cf	-0.075355165
176	0xbe5845a1	-0.21120311
177	0xbfbb9bc3	-1.465691
178	0xbd006e2c	-0.031355068
179	0x3ddb432a	0.1070617
180	0xbfc21ad7	-1.5164441
181	0x3ce42617	0.027850194
182	0x3d1b4064	0.037903205
183	0xbcd2d09c	-0.025734238
184	0xbe207c71	-0.1567247
185	0x3d36387c	0.04448746
186	0xbe326cfe	-0.1742439
187	0x3d6d223e	0.057893984
188	0xbcf424bd	-0.029802674
189	0xbe309ebe	-0.17248055
190	0x3d95ceca	0.073148325
191	0x3da04f3f	0.07827615
192	0xbcc8b7de	-0.024501737
193	0xbf5ed84e	-0.87048805
194	0xbe3d3501	-0.1847725
195	0x3da81232	0.082065955
196	0x3db7b283	0.08969595
197	0x3d0b533b	0.03401492
198	0x3d3b6c58	0.04575762
199	0xbe1d717e	-0.15375325
200	0x3d514487	0.051090743
201	0x3dbf2f5a	0.093352035
202	0xbd9ce299	-0.076604076
203	0xbcf895d4	-0.030344881
204	0x3d207c6d	0.03918116
205	0xbccc3dfb	-0.024931898
206	0x3d4209fc	0.047372803
207	0xbd911816	-0.07084672
208	0x3da93a0e	0.08263026
209	0x3db6eb02	0.08931543
210	0xbee2dfd5	-0.44311395
211	0xbfb102e5	-1.3829008
212	0xbd9398d4	-0.07206884
213	0x3cf64913	0.030064141
214	0x3e0ab233	0.1354454
215	0xbc79355d	-0.015210477
216	0xbb136cda	-0.00224953
217	0x3d63dd7e	0.055631153
218	0xbdf17be7	-0.117912106
219	0xbd93b199	-0.072116084
220	0x3d74c33d	0.059756506
221	0xbd195f88	-0.03744462
222	0x3daf556d	0.085612155
223	0xc00129ba	-2.0181718
224	0x3d8d39a6	0.06895761
225	0xbe8812dd	-0.26576892
226	0xbe1d4f08	-0.1536218
227	0xbd0a3a42	-0.033746965
228	0xbf971bdd	-1.1805378
229	0xbd6e1551	-0.058125798
230	0xbab0e174	-0.0013494925
231	0x3e296d3e	0.16545579
232	0xbe351048	-0.17681992
233	0x3df2b2a6	0.11850481
234	0xbf83b9e3	-1.0291103
235	0xbf985552	-1.1901038
236	0x3dca3022	0.09872462
237	0xbd341aab	-0.043970745
238	0xbdf236e6	-0.11826877
239	0xbd9cb01e	-0.07650779
240	0xbf9a0bec	-1.2034888
241	0x3e8a3a23	0.2699748
242	0xbe196bde	-0.14982554
243	0xbfea2525	-1.8292586
244	0x3da94c56	0.08266513
245	0x3daab216	0.083347484
246	0x3d1a21be	0.037629835
247	0xbd8d6f12	-0.069059506
248	0xbdeac874	-0.11464015
249	0xbc292548	-0.01032383
250	0xbf846d40	-1.034584
251	0xbd02784f	-0.031853016
252	0x3ccd6b70	0.025075644
253	0xbcab2115	-0.020889798
254	0xbf56fd5f	-0.83980364
255	0xbe4394fd	-0.19099803

layer3.bias f4 [3]
0	0xbe94c202	-0.29054266
1	0xbe714822	-0.23562673
2	0xbe106646	-0.14101514
