models/rl_models/included_validation/best_policy_dqn_model_epoch_7.pt (torch, 74148 bytes, 6 tensors)

layer1.weight f4 [128, 6]
-0.35214117 0.24639662 -0.057191968 -0.21931212 0.22902638 -0.16217363 0.22867945 0.106705405
-0.24974445 -0.0024943775 -0.19438493 -0.07916878 -0.08758044 -0.35865384 0.09101812 -0.35894406
0.3519765 -0.19963765 -0.31145445 -0.35011196 0.29824334 0.2811687 -0.14498922 0.22830653
-0.39751646 -0.093989715 -0.07127747 0.38708413 -0.24795265 0.19340298 -0.25018826 -0.0597495
-0.13460246 0.0982022 0.2792704 -0.23871978 -0.350467 0.034634285 0.38710332 -0.24030638
-0.12933153 0.21050826 0.012850529 0.33344018 -0.15464652 -0.25569484 -0.32905596 0.11806667
-0.0618311 0.3557223 0.19884878 -0.379702 -0.14008945 0.094182566 -0.3813991 -0.040987723
0.23855396 0.0051137945 -0.09203081 -0.29801485 -0.038142655 -0.24016947 -0.22125763 -0.067060456
-0.00078686955 -0.31895345 0.05489014 0.18496174 0.27708936 -0.123827726 -0.256131 -0.2017057
-0.24321721 0.30285832 -0.047697257 0.3416317 -0.22866915 -0.24314065 -0.07856943 -0.13857299
0.36545813 0.013499003 0.18583049 0.38392982 -0.38301072 -0.34180313 -0.0756107 -0.013050896
0.3942046 -0.014501214 0.11650443 -0.14103347 -0.29287237 -0.09539147 -0.2469984 0.14029986
0.119495064 0.21964583 -0.09050541 0.3771704 0.13879694 -0.35790467 0.36822078 -0.020503767
0.3097292 -0.111187264 -0.37633863 -0.23582166 -0.13928507 0.16688716 -0.34088033 -0.10225044
0.27455327 0.33740756 0.36865133 0.039294016 0.020351306 -0.37909445 0.07838619 0.06401199
0.35001007 -0.0027231968 0.16612048 -0.27991638 0.39640188 -0.20798512 -0.18804224 -0.2578947
0.14545757 -0.10472872 -0.19684738 0.25883353 -0.19400588 0.0036080552 -0.016880983 0.35254043
0.2804981 -0.29272914 -0.116295666 -0.11980072 -0.3106104 -0.15523887 0.006459495 -0.28449842
-0.3160374 0.28348535 -0.14471789 -0.23712252 -0.20854633 0.10363737 -0.31859833 0.045571644
-0.2742579 -0.08731374 -0.06281404 -0.36715102 -0.28749505 -0.19535713 0.2579468 -0.07316941
0.19160941 -0.19393553 0.29156014 -0.15838383 0.068342015 0.03443156 -0.004369212 -0.09839146
-0.36565045 -0.3222994 0.22025028 0.34862638 0.1400184 -0.18951587 0.4313931 -0.2722722
0.40576386 0.33716184 -0.2791011 0.2771898 -0.19232583 0.14097016 -0.16144748 0.25033233
0.3059327 0.0005286585 -0.06491432 0.002716632 0.34735692 0.33998597 0.34415996 0.19147933
0.3411429 0.16664913 -0.29338804 -0.079944946 -0.18496042 0.100335754 -0.014327144 0.004601819
0.2506624 0.31197223 0.1816883 -0.0581617 -0.003836855 0.24399222 -0.28016773 0.25156957
0.2905427 0.015057469 0.2692872 -0.20902893 0.28766212 0.18458848 0.23440671 -0.022619782
-0.2902102 -0.17586161 -0.35382766 0.22913986 -0.024301643 0.34448308 -0.112256706 0.25568888
-0.3739941 0.1730743 0.3661562 0.3748158 0.3584589 -0.07397206 0.04901158 -0.16273129
0.33867794 -0.18193118 0.016671617 -0.034215994 0.0029656333 -0.1455721 -0.26536852 0.24317846
-0.26716244 0.1346102 0.1522247 -0.37825796 -0.00096771505 0.19060197 0.030838637 0.29647148
0.21790591 -0.08229227 0.35961187 -0.15125431 0.0542302 -0.23971751 -0.003545957 0.35497597
00000000: d94b b4be 654f 7c3e 2042 6abd 5b93 60be
00000010: e485 6a3e d810 26be f22a 6a3e 5d88 da3d
00000020: 02bd 7fbe b678 23bb d80c 47be 3e23 a2bd
00000030: 605d b3bd 7aa1 b7be b567 ba3d 84c7 b7be
00000040: 4436 b43e d06d 4cbe f576 9fbe e041 b3be
00000050: 5ab3 983e 58f5 8f3e 0e78 14be 30c9 693e
00000060: 4787 cbbe ae7d c0bd ecf9 91bd e42f c63e
00000070: 4de7 7dbe 6e0b 463e ad18 80be e4bb 74bd
00000080: 3ad5 09be 3c1e c93d 88fc 8e3e f572 74be
00000090: 6970 b3be aedc 0d3d 6832 c63e e012 76be
000000a0: 7c6f 04be 7a8f 573e 068b 523c acb8 aa3e
000000b0: a85b 1ebe 6fea 82be 067a a8be f0cc f13d
000000c0: 9c42 7dbd 3c21 b63e 049f 4b3e 4d68 c2be
000000d0: 9c73 0fbe cae2 c03d be46 c3be bee2 27bd
000000e0: 7d47 743e 9e91 a73b a67a bcbd 6795 98be
000000f0: 793b 1cbd fcee 75be 5c91 62be fe56 89bd
00000100: ec45 4eba de4d a3be 7cd4 603d 9c66 3d3e
00000110: a8de 8d3e 6499 fdbd 9a23 83be f08b 4ebe
00000120: ef0d 79be 3f10 9b3e 335e 43bd 5aea ae3e
00000130: 3f28 6abe ddf9 78be 02e9 a0bd 14e6 0dbe
00000140: 541d bb3e ec2a 5d3c 594a 3e3e 7392 c43e
00000150: fb19 c4be d200 afbe c8d9 9abd 6dd3 55bc
00000160: 2fd5 c93e 8096 6dbc e099 ee3d 146b 10be
00000170: 5ef3 95be 9a5c c3bd 26ed 7cbe c4aa 0f3e
00000180: d4b9 f43d d6ea 603e e75a b9bd 7b1c c13e
00000190: c920 0e3e 483f b7be 6f87 bc3e 84f7 a7bc
000001a0: d394 9e3e 26b6 e3bd 75af c0be 3c7b 71be
000001b0: bfa0 0ebe 78e4 2a3e de87 aebe ae68 d1bd
000001c0: 3f92 8c3e afc0 ac3e debf bc3e c3f2 203d
000001d0: c8b7 a63c ab18 c2be f088 a03d b818 833d
000001e0: 8534 b33e a977 32bb 7d1b 2a3e 3351 8fbe
000001f0: 30f5 ca3e 0dfa 54be 258e 40be c60a 84be
00000200: d4f2 143e 037c d6bd 5c92 49be d485 843e
00000210: 7aa9 46be 1f75 6c3b fd49 8abc 2e80 b43e
00000220: 729d 8f3e 98e0 95be 6c2c eebd 145a f5bd
00000230: 5408 9fbe f0f6 1ebe 2caa d33b c7a9 91be
00000240: a7cf a1be fe24 913e ed30 14be 3fd0 72be
00000250: 2b8d 55be d43f d43d 521f a3be 55a9 3a3d
00000260: 886b 8cbe 8cd1 b2bd a6a4 80bd 38fb bbbe
00000270: 8d32 93be b30b 48be 9a11 843e d8d9 95bd
00000280: 4235 443e 0997 46be 5f47 953e 5f2f 22be
00000290: e6f6 8b3d 1c08 0d3d 9b2b 8fbb 7681 c9bd
000002a0: 8936 bbbe 6d04 a5be 4a89 613e 287f b23e
000002b0: fc60 0f3e 7310 42be 8edf dc3e 4367 8bbe
000002c0: 48c0 cf3e 7aa0 ac3e 57e6 8ebe d2eb 8d3e
000002d0: 10f1 44be 7b5a 103e 7d52 25be 8f2b 803e
000002e0: 36a3 9c3e ac95 0a3a cdf1 84bd 8609 323b
000002f0: c4d8 b13e a412 ae3e bc35 b03e 2813 443e
00000300: 48aa ae3e 12a6 2a3e f536 96be 2dba a3bd
00000310: 4466 3dbe d57c cd3d 66bc 6abc dbca 963b
00000320: d256 803e d3ba 9f3e 7f0c 3a3e f63a 6ebd
00000330: bf73 7bbb 19d9 793e 2572 8fbe bacd 803e
00000340: 03c2 943e 9ab3 763c 03e0 893e ae0b 56be
00000350: 7348 933e c304 3d3e 5008 703e 1f4d b9bc
00000360: 6e96 94be 1115 34be e628 b5be a4a3 6a3e
00000370: 3d14 c7bc 1660 b03e d8e6 e5bd a7e9 823e
00000380: 287c bfbe 643a 313e d378 bb3e dbe7 bf3e
00000390: ed87 b73e aa7e 97bd 5ec0 483d 08a3 26be
000003a0: 3267 ad3e 2b4c 3abe ea92 883c 1226 0cbd
000003b0: 125b 423b da10 15be 62de 87be c603 793e
000003c0: 84c9 88be 42d7 093e cbe0 1b3e 07ab c1be
000003d0: 42ae 7dba 2a2d 433e 4fa1 fc3c 1ccb 973e
000003e0: ba22 5f3e da88 a8bd 0c1f b83e 69e2 1abe
000003f0: 7c20 5e3d 8278 75be 4963 68bb 69bf b53e

layer1.bias f4 [128]
0.8384433 -0.18040258 -0.15321606 1.0939387 -0.24865809 -0.31262952 0.8831699 -0.30168277
-0.011414207 -0.33089682 -0.3958211 0.67778605 -0.20384671 -0.012304965 -0.39073247 -0.14041898
0.63380283 -0.29572138 -0.005342514 -0.2735177 0.7153639 -0.3173625 -0.31941578 -0.038763814
-0.1742518 -0.026227824 -0.07975586 -0.3485357 -0.24871211 -0.219415 0.34245026 0.47790137
-0.30863133 -0.0036707476 -0.40279996 0.36167535 -0.04076221 0.35389674 0.27262303 -0.16336387
1.1513219 0.34731805 0.4728685 0.2876217 0.99810266 0.12016732 -0.11999479 1.3017281
1.1848168 0.4562781 -0.3517771 0.0537593 -0.1820829 -0.31155738 1.1322392 -0.27646518
0.8394477 -0.14562693 -8.093316e-05 -0.117818534 -0.3529711 -0.17853005 -0.12303135 -0.0006932845
-0.10570465 1.0403292 0.2262844 0.73411566 1.0658675 -0.34682664 -6.743697e-05 -0.2584129
-0.26596606 1.3082364 0.95369846 0.5297663 0.98658013 0.42111412 0.5546764 0.62777734
0.8643037 0.54312944 0.0009888846 0.9077198 1.1779253 0.076975375 -0.3240207 -3.2291543e-06
-0.22611852 -0.06668581 -0.07084209 -0.092234954 -0.24288043 1.1510824 0.20375597 -0.15779933
-0.14416647 -0.40278924 -0.014240587 -0.0693515 -0.081088856 1.1792647 -0.0047913073 1.0826302
-0.25128606 0.56410515 -0.27282372 1.2744285 -0.115207374 0.37888467 1.1616716 -0.20921896
-0.23170449 0.22412193 -0.19817175 -0.38161004 0.14942014 0.4500665 0.6434158 0.42739677
0.5829308 -0.31557736 -0.21462236 -0.14504527 0.8554499 -0.36654732 1.1274462 -0.102849215
00000000: 38a4 563f 74bb 38be ace4 1cbe 2f06 8c3f
00000010: 3aa0 7ebe fa10 a0be 6c17 623f 2a76 9abe
00000020: a702 3bbc 4f6b a9be 10a9 cabe 6383 2d3f
00000030: 31bd 50be c49a 49bc 160e c8be fec9 0fbe
00000040: e740 223f cb68 97be 4110 afbb 830a 8cbe
00000050: 1722 373f 567d a2be 778a a3be cec6 1ebd
00000060: 106f 32be bcdb d6bc 0a57 a3bd 4573 b2be
00000070: 63ae 7ebe 53ae 60be a455 af3e 7daf f43e
00000080: ed04 9ebe ed90 70bb cc3b cebe 832d b93e
00000090: 46f6 26bd f431 b53e 3f95 8b3e dc48 27be
000000a0: 845e 933f acd3 b13e d21b f23e 2743 933e
000000b0: a883 7f3f 491a f63d d4bf f5bd 079f a63f
000000c0: 14a8 973f 489d e93e 211c b4be b632 5c3d
000000d0: f173 3abe 7384 9fbe 37ed 903f d88c 8dbe
000000e0: 0be6 563f 3a1f 15be a9ba a9b8 d84a f1bd
000000f0: a1b8 b4be 95d0 36be dcf7 fbbd 89bd 35ba
00000100: ae7b d8bd 8229 853f 19b7 673e 01ef 3b3f
00000110: 596e 883f 4393 b1be f36c 8db8 b24e 84be
00000120: b42c 88be 4a74 a73f 9525 743f c49e 073f
00000130: 8490 7c3f 459c d73e 46ff 0d3f 04b6 203f
00000140: 0243 5d3f 880a 0b3f 769d 813a 5360 683f
00000150: 42c6 963f 44a5 9d3d 0be6 a5be 73b4 58b6
00000160: 9d8b 67be 9292 88bd a815 91bd aee5 bcbd
00000170: a6b5 78be ab56 933f 68a5 503e 2696 21be
00000180: 60a0 13be 643a cebe 5a51 69bc 2908 8ebd
00000190: ea11 a6bd 25f2 963f 6600 9dbb a093 8a3f
000001a0: 91a8 80be 3269 103f 8daf 8bbe 7920 a33f
000001b0: d8f1 ebbd 2cfd c13e a8b1 943f 7f3d 56be
000001c0: f143 6dbe 3880 653e 89ed 4abe 6462 c3be
000001d0: 9801 193e 1e6f e63e e6b6 243f c0d3 da3e
000001e0: f43a 153f 5b93 a1be f7c5 5bbe bf86 14be
000001f0: c4fe 5a3f 17ac bbbe 2850 903f 9ca2 d2bd

layer2.weight f4 [128, 128]
0.050300535 -0.115623124 -0.021209538 -0.09161463 0.084126934 0.08692162 0.050233915 -0.061337132
-0.050471626 -0.029051453 -0.002970804 0.0930756 -0.07672725 0.23695892 -0.030317778 0.0034317165
0.049912237 -0.07688089 -0.003998438 0.029689247 -0.015512898 -0.07140969 0.053876046 0.009341586
-0.08726227 0.005325448 -0.033003207 -0.06639964 0.06261905 -0.2445917 0.093632996 -0.06529836
0.013324377 0.0064351493 0.0326165 -0.0072451355 -0.011329507 0.038280435 0.017777458 -0.041518405
-0.015494173 -0.03144409 -0.1725862 -0.038738485 0.077168874 0.00072033296 -0.071788594 0.049148545
-0.027238306 -0.022157362 -0.0077339043 0.020211965 -0.07394194 0.01813069 0.05163441 -0.00065312843
0.025399996 0.002271981 0.04820094 0.048270844 0.01594466 -0.040580004 0.0027334217 0.022709103
-0.035464678 -0.032337297 0.023194714 -0.061482277 -0.06294418 -0.06107301 0.020350244 -0.067777276
0.044572104 -0.07513153 0.0073635937 0.15050997 0.013599217 0.0034361265 -0.01823698 -0.056469146
0.06990587 -0.064637244 0.14482787 0.072915316 -0.02500913 -0.035469726 -0.019365564 -0.06124103
0.042048078 -0.09275691 -0.054553542 0.07540978 -0.06959523 0.025685526 0.056290302 0.019311516
0.15237774 0.024537142 -0.016309764 -0.085080445 0.02923315 0.010462495 0.0070323627 -0.0026181238
0.0110156955 0.086518124 -0.0061404225 0.096353166 -0.0581783 -0.015495179 -0.08264077 0.007536683
0.063442074 -0.09054154 -0.05539695 -0.06914416 0.010826858 -0.4066777 0.036073808 0.066210486
-0.065716684 0.04061742 0.032790758 0.08847536 0.02023162 0.07927664 0.034895387 -0.08127603
0.035568096 -0.10886736 -0.054302726 -0.07395256 0.044218875 0.096440926 0.12200956 -0.08230552
-0.018518778 0.008704826 0.00055507594 -0.026084444 -0.03051052 0.16579363 0.032193564 0.070934914
-0.00093798584 0.0065879547 0.012869182 -0.06410553 -0.043688837 -0.04371262 0.028315239 -0.01038098
0.026865838 -0.044069257 -0.020534318 -0.16242653 0.026559358 -0.13400106 0.076026216 0.02581419
0.036592625 0.031262275 -0.039067734 -0.060490392 0.06512969 0.05647646 -0.009737721 -0.074819334
0.030779775 0.027626896 -0.14084242 0.028558295 0.031249378 -0.01411692 -0.07571999 0.023249885
-0.02516736 0.019697119 0.027949188 -0.054013677 -0.07916545 0.027921462 -0.0376592 0.057111666
-0.07117846 -0.07509473 -0.019386034 0.024897527 -0.08771769 -0.012892703 0.054991145 -0.04841955
-0.01860618 0.04014 0.061496396 -0.06661816 -0.07291396 0.06801767 -0.036207754 0.0097180735
0.043703537 -0.01575858 0.059074864 0.18492204 -0.06829463 0.064621635 0.02956776 0.050418414
0.0775335 -0.059256077 0.114466585 0.02596601 0.065548465 -0.039069258 0.06239138 -0.07527501
-0.012789305 -0.06213357 -0.03283718 0.08114717 0.08202437 -0.07042615 0.06063678 0.020819606
0.13686898 -0.010660289 0.06925166 0.0039652167 0.07238383 -0.0678175 0.08394998 -0.07528939
0.03131508 -0.014700396 -0.03612947 0.0398467 -0.056956097 -0.04207242 -0.0663238 0.054796617
0.06289351 -0.034996517 -0.021125866 0.04926376 0.028454812 -0.2281616 -0.034316834 -0.015067211
0.03767663 0.0011576922 0.025603324 -0.05587648 0.00025993824 0.05342901 0.009626239 0.027287263
00000000: ef07 4e3d d1cb ecbd a0bf adbc 73a0 bbbd
00000010: be4a ac3d f603 b23d 14c2 4d3d a53c 7bbd
00000020: 56bb 4ebd 50fd edbc d2b1 42bb 6c9e be3d
00000030: 2d23 9dbd 5ca5 723e fd5c f8bc a6e6 603b
00000040: c670 4c3d ba73 9dbd 5405 83bb dd36 f33c
00000050: cf29 7ebc 3e3f 92bd 21ad 5c3d 740d 193c
00000060: 90b6 b2bd 1881 ae3b 5f2e 07bd 89fc 87bd
00000070: 6b3e 803d 3f76 7abe a8c2 bf3d 26bb 85bd
00000080: 7d4e 5a3c f2dd d23b e198 053d 9a68 edbb
00000090: 669f 39bc f2cb 1c3d 08a2 913c 340f 2abd
000000a0: 46db 7dbc 85cb 00bd 70ba 30be 3fac 1ebd
000000b0: b70a 9e3d bad4 3c3a e605 93bd fc4f 493d
000000c0: de22 dfbc 5b83 b5bc b16c fdbb 9093 a53c
000000d0: df6e 97bd d086 943c 9a7e 533d b536 2bba
000000e0: a713 d03c 84e5 143b 596e 453d a6b7 453d
000000f0: 609e 823c 3837 26bd 3523 333b 7108 ba3c
00000100: 6943 11bd 1d74 04bd d702 be3c d7d4 7bbd
00000110: e1e8 80bd b127 7abd 8eb5 a63c d0ce 8abd
00000120: 3d91 363d 8fde 99bd 4d4a f13b 491f 1a3e
00000130: 40cf 5e3c a330 613b b865 95bc 314c 67bd
00000140: cf2a 8f3d 8860 84bd c24d 143e a054 953d
00000150: f2df ccbc b448 11bd 88a4 9ebc e0d7 7abd
00000160: 9b3a 2c3d 56f7 bdbd 8973 5fbd 7170 9a3d
00000170: f287 8ebd 746a d23c a990 663d 2f33 9e3c
00000180: e908 1c3e 1e02 c93c 0e9c 85bc a83e aebd
00000190: 5c7a ef3c e26a 2b3c bc6f e63b d494 2bbb
000001a0: 2d7b 343c 6a30 b13d 9935 c9bb cf54 c53d
000001b0: 5e4c 6ebd 7edf 7dbc 903f a9bd 48f6 f63b
000001c0: ebed 813d d86d b9bd eae7 62bd 749b 8dbd
000001d0: 2263 313c 0f38 d0be 21c2 133d 5d99 873d
000001e0: 7896 86bd 745e 263d 9a4f 063d 9232 b53d
000001f0: c8bc a53c cb5b a23d 77ee 0e3d 0c74 a6bd
00000200: daaf 113d daf5 debd 896c 5ebd 7174 97bd
00000210: da1e 353d d282 c53d 26e0 f93d cc8f a8bd
00000220: b1b4 97bc b09e 0e3c 8482 113a 0baf d5bc
00000230: 33f1 f9bc cec5 293e 66dd 033d 5346 913d
00000240: 2ae3 75ba c5df d73b 43d9 523c c349 83bd
00000250: 11f3 32bd 010c 33bd 5cf5 e73c fc14 2abc
00000260: bf15 dc3c f781 34bd 9637 a8bc 2453 26be
00000270: 0393 d93c 9337 09be a2b3 9b3d 4878 d33c
00000280: 26e2 153d df0c 003d 7d05 20bd c6c4 77bd
00000290: b762 853d dc53 673d f68a 1fbc e13a 99bd
000002a0: de25 fc3c cd51 e23c ff38 10be 16f3 e93c
000002b0: b2fe ff3c a74a 67bc 1513 9bbd 8b76 be3c
000002c0: c82b cebc da5b a13c b2f5 e43c 723d 5dbd
000002d0: 7f21 a2bd 8dbb e43c 8940 1abd eced 693d
000002e0: 03c6 91bd 44cb 99bd 76cf 9ebc e6f5 cb3c
000002f0: 55a5 b3bd ea3b 53bc 653e 613d 9453 46bd
00000300: fd6b 98bc d769 243d a5e3 7b3d 1a6f 88bd
00000310: ea53 95bd d94c 8b3d 954e 14bd 8e38 1f3c
00000320: 7b02 333d 2318 81bc 7cf8 713d 345c 3d3e
00000330: 0ede 8bbd 5958 843d 1638 f23c 8a83 4e3d
00000340: e2c9 9e3d 80b6 72bd 756d ea3d abb6 d43c
00000350: 463e 863d 1607 20bd 1b8e 7f3d c929 9abd
00000360: 3c8a 51bc c57f 7ebd 4780 06bd 7d30 a63d
00000370: 65fc a73d 963b 90bd 465e 783d e18d aa3c
00000380: 6227 0c3e 7ea8 2ebc d0d3 8d3d a6ee 813b
00000390: f93d 943d e7e3 8abd f8ed ab3d 5331 9abd
000003a0: 3e44 003d eed9 70bc 7ffc 13bd 4b36 233d
000003b0: cc4a 69bd 2154 2cbd c6d4 87bd 6b72 603d
000003c0: 50ce 803d 8258 0fbd 2710 adbc ccc8 493d
000003d0: 111a e93c 32a3 69be cf8f 0cbd 77dc 76bc
000003e0: cf52 1a3d b4bd 973a 10be d13c bcde 64bd
000003f0: 5248 8839 61d8 5a3d 5fb7 1d3c 8a89 df3c

layer2.bias f4 [128]
-0.015271953 0.048556376 -0.048445497 -0.046148114 -0.019122927 0.00027881947 -0.07289089 0.2161547
-0.092266895 0.10963014 -0.033271417 0.00069480715 0.053062823 -0.0852051 -0.03774224 -0.042961836
0.21138167 0.08218395 0.8031232 0.017731436 -0.021054775 0.8457436 0.07841291 0.03198777
0.15033391 0.023987077 -0.042408735 -0.049873553 0.12684973 0.017474612 0.18521069 -0.020038888
-0.037895743 -0.03411617 -0.0687537 -0.0535705 0.026196275 -0.044599842 0.05544585 -0.1586973
0.0015663141 -0.056024164 0.036614403 -0.041499503 0.06205435 0.004696603 -0.14262463 -0.033950016
0.22470678 0.5303174 0.05612233 -0.03771764 0.47725794 0.08200907 -0.019436728 -0.035033748
0.119022645 0.07600599 0.20509346 -0.08432877 -0.026385551 0.16805342 -0.03077461 0.036416817
0.0752964 -0.04940803 0.10572817 0.0536426 0.054239873 0.038676232 0.053294588 0.19110751
0.004777159 0.040291224 0.062201943 0.046034764 0.04360471 -0.03126648 -0.050008934 0.084454626
-0.097404204 -0.047243636 0.016127594 0.46679297 0.060168166 -0.07294934 -0.06613731 0.03799697
0.0004039143 -0.018650612 0.15042928 0.08801045 -0.040252708 0.06968078 -0.08869566 1.2500772
0.017324317 0.21383119 0.23373932 -0.06920814 0.3303279 0.033385873 -0.020704487 -0.044984296
0.18851413 0.0030970348 0.06031702 0.43303064 -0.05644817 0.064443246 -0.03465059 0.06526521
0.2701366 -0.17298196 0.21204358 1.0342295 -0.072259046 -0.036778517 -0.06895141 -0.015196228
0.0539853 -0.07005556 0.016586974 -0.050115563 -0.08178202 0.06277905 -0.074263945 0.25374645
00000000: 3737 7abc 0de3 463d c96e 46bd ce05 3dbd
00000010: afa7 9cbc 842e 9239 d247 95bd a857 5d3e
00000020: 6df6 bcbd c485 e03d 9c47 08bd b823 363a
00000030: 6758 593d 0380 aebd 9b97 1abd c0f8 2fbd
00000040: 7074 583e 0f50 a83d 7b99 4d3f 8441 913c
00000050: 107b acbc a782 583f f396 a03d 9c05 033d
00000060: 22f1 193e 8c80 c43c c8b4 2dbd 3648 4cbd
00000070: e5e4 013e eb26 8f3c dfa7 3d3e 9828 a4bc
00000080: 9138 1bbd 66bd 0bbd bdce 8cbd be6c 5bbd
00000090: 9299 d63c 53ae 36bd 301b 633d 8c81 22be
000000a0: c84c cd3a 9879 65bd fcf8 153d 62fb 29bd
000000b0: b42c 7e3d f6e5 993b 310c 12be 2c0f 0bbd
000000c0: 8919 663e e2c2 073f 87e0 653d d07d 1abd
000000d0: 275b f43e 5ff4 a73d c639 9fbc 8c7f 0fbd
000000e0: 25c2 f33d 07a9 9b3d 0504 523e 90b4 acbd
000000f0: 8326 d8bc 3216 2c3e 091b fcbc cd29 153d
00000100: 0035 9a3d 1360 4abd 0388 d83d 58b8 5b3d
00000110: a12a 5e3d f86a 1e3d 6d4b 5a3d b0b1 433e
00000120: b789 9c3b 6908 253d 77c7 7e3d f38e 3c3d
00000130: da9a 323d 4811 00bd 2bd6 4cbd 8cf6 ac3d
00000140: db7b c7bd 8b82 41bd 041e 843c 7dff ee3e
00000150: e572 763d 7766 95bd ff72 87bd b6a2 1b3d
00000160: 76c4 d339 2bc9 98bc 220a 1a3e d33e b43d
00000170: 06e0 24bd ccb4 8e3d 12a6 b5bd 8802 a03f
00000180: baeb 8d3c 90f6 5a3e 5c59 6f3e ffbc 8dbd
00000190: bd20 a93e a0bf 083d 759c a9bc 7441 38bd
000001a0: d909 413e 9ff7 4a3b fb0e 773d 31b6 dd3e
000001b0: 3236 67bd d2fa 833d c7ed 0dbd c4a9 853d
000001c0: 584f 8a3e 2f22 31be f421 593e a261 843f
000001d0: 8dfc 93bd 12a5 16bd 6636 8dbd 9af9 78bc
000001e0: b11f 5d3d 4a79 8fbd 68e1 873c fa45 4dbd
000001f0: 557d a7bd 4d92 803d b217 98bd 0eeb 813e

layer3.weight f4 [3, 128]
0.1621097 0.08198916 -0.01483336 0.080118425 -0.0514749 -0.08474548 0.06966975 -0.08918367
0.008081372 -0.03509813 -0.013576796 0.045305893 0.036545075 0.0040226625 0.0003204373 0.076391056
-0.09067905 0.038686413 -0.62125516 -0.0792676 0.17263402 -0.31276673 0.015692383 -0.11417877
-0.035745166 -0.08112359 0.009022043 -0.059620146 -0.09583568 0.06509119 -0.058411438 0.06590322
-0.006915463 0.11954121 0.09436931 -0.0032578288 -0.013488786 -0.062801585 0.049504828 0.13759695
-0.028024023 0.039601624 -0.047796544 -0.020934924 0.07918084 0.08643562 0.05854698 0.017326873
-0.006228293 -0.33795208 0.04036545 0.09847429 -0.43717715 0.08869629 -0.026579833 0.007922854
-0.07163961 0.09553453 -0.09893045 0.07697642 -0.057924334 -0.09190195 0.07362323 -0.03516855
-0.070510805 -0.004584629 -0.14292628 0.1310647 0.18785118 -0.029315691 -0.06198879 -0.0797816
-0.046649933 0.14751844 -0.07097232 -0.09256839 0.0037104245 0.06439728 -0.07357276 0.08170787
0.061424796 0.098886594 -0.049834557 -0.37084085 -0.0035421397 0.072754234 0.117766775 -0.0045833844
0.036517248 0.08731876 -0.10170551 -0.1262244 -0.049124315 -0.014661759 0.12229789 -0.7310231
0.10354779 -0.06844567 -0.124038704 0.0153409485 -0.2081888 -0.013874259 0.049465336 0.15148795
-0.12278622 0.09268483 -0.050571922 -0.36768514 0.0025912474 -0.016817003 -0.08489459 -0.019993246
-0.28674045 0.14986882 -0.11784317 -0.6525215 0.10896616 0.056670353 -0.027871454 -0.0388286
-0.11714425 0.07550355 -0.28719044 -0.046877965 -0.021042617 0.068934284 0.09020629 -0.036432166
0.14628558 0.05075396 -0.03321829 -0.059425782 -0.06584003 -0.071446784 -0.04735705 -0.05229495
0.18015362 0.029416012 0.016909767 -0.06374334 0.107783616 0.026920822 0.07608147 0.12751812
-0.123834945 0.0678923 -0.166907 0.03496123 0.17053375 -0.57275224 -0.11665457 0.16203514
-0.12929551 -0.05957616 0.07459874 0.07387514 -0.035718467 0.05159599 -0.1127203 -0.0025778513
-0.031937078 0.15436292 0.083000906 0.08480082 -0.029128756 -0.03751805 0.10921412 0.10650666
-0.036422644 -0.07679847 0.003326905 0.16403909 -0.011032715 0.042544916 -0.008118372 -0.07897263
-0.13758041 -0.27900925 0.0602617 0.10987423 -0.33776104 0.03428536 0.039734498 -0.02696483
-0.06965764 0.05616558 -0.09406425 0.06065946 0.08386572 -0.08635354 0.08456788 0.09017692
0.017620407 0.15450138 -0.10321063 0.08459025 0.09139584 0.035642065 0.047985762 -0.065297335
0.07163027 0.096730545 -0.08034643 0.025336178 0.041082427 -0.025745226 0.04969553 -0.07430357
0.085074216 0.094036244 -0.0018448619 -0.18187512 -0.075525686 0.037646383 0.14187396 0.022912757
0.029197725 0.06311441 -0.055872176 -0.013455078 0.06264638 -0.039230056 0.08874681 -0.9230745
0.07159277 -0.19252874 -0.07243705 -0.035344332 0.0038549 -0.06090562 -0.0014143083 0.17341933
-0.105726905 0.12268578 0.10416003 0.007947427 0.103791736 -0.04605227 -0.088496245 -0.08024052
-0.019368678 0.28275365 -0.06754808 -0.70944107 0.08597837 0.09014837 0.052865017 -0.0724282
-0.030276762 -0.009504767 0.123210214 -0.023901885 0.026285602 -0.021904133 0.09294994 -0.11391596
00000000: 1600 263e efe9 a73d 9f07 73bc 2115 a43d
00000010: 58d7 52bd 0a8f adbd 04af 8e3d eea5 b6bd
00000020: bb67 043c 0fc3 0fbd 3671 5ebc ac92 393d
00000030: 4ab0 153d 8ad0 833b 5e00 a839 ea72 9c3d
00000040: f0b5 b9bd a575 1e3d 940a 1fbf 0d57 a2bd
00000050: f9c6 303e f622 a0be 508d 803c 8fd6 e9bd
00000060: 8669 12bd 2024 a6bd 31d1 133c 4134 74bd
00000070: 7f45 c4bd 884e 853d d540 6fbd 44f8 863d
00000080: 1c9b e2bb 06d2 f43d b244 c13d 4c81 55bb
00000090: 1200 5dbc 1e9e 80bd 93c5 4a3d 37e6 0c3e
000000a0: a392 e5bc 5035 223d 4fc6 43bd b87f abbc
000000b0: 9029 a23d 2905 b13d f5ce 6f3d 16f1 8d3c
000000c0: b516 ccbb 0e08 adbe 3e56 253d e3ac c93d
000000d0: afd5 dfbe 67a6 b53d f3bd d9bc dcce 013c
000000e0: cab7 92bd 9ca7 c33d 0c9c cabd d0a5 9d3d
000000f0: 1142 6dbd 1737 bcbd c7c7 963d e60c 10bd
00000100: f867 90bd a83a 96bb 445b 12be d335 063e
00000110: 0f5c 403e 7627 f0bc f5e7 7dbd 8964 a3bd
00000120: 0014 3fbd 130f 173e f059 91bd 7f94 bdbd
00000130: 982a 733b b9e2 833d 51ad 96bd 7556 a73d
00000140: 9198 7b3d 0e85 ca3d 521f 4cbd dade bdbe
00000150: 3e23 68bb 2c00 953d b52f f13d 3730 96bb
00000160: 1c93 153d 2ed4 b23d fa4a d0bd f840 01be
00000170: 9436 49bd e037 70bc 5177 fa3d 5424 3bbf
00000180: dd10 d43d 3e2d 8cbd 0108 febd 9a58 7b3c
00000190: 722f 55be dc50 63bc 2a9c 4a3d a81f 1b3e
000001a0: 5777 fbbd 8bd1 bd3d 8124 4fbd 3a41 bcbe
000001b0: ebd1 293b d0c3 89bc 37dd adbd e0c8 a3bc
000001c0: a5cf 92be 3677 193e c357 f1bd a60b 27bf
000001d0: a629 df3d 2c1f 683d ad52 e4bc bd0a 1fbd
000001e0: 53e9 efbd 9ba1 9a3d a00a 93be 1c03 40bd
000001f0: 9161 acbc 6b2d 8d3d 13be b83d e539 15bd
00000200: e3cb 153e 62e3 4f3d e70f 08bd 7368 73bd
00000210: 23d7 86bd b152 92bd 77f9 41bd 3b33 56bd
00000220: 317a 383e d9f9 f03c 5a86 8a3c de8b 82bd
00000230: a8bd dc3d 0e89 dc3c 9ad0 9b3d 1c94 023e
00000240: 2d9d fdbd 1e0b 8b3d abe9 2abe 8233 0f3d
00000250: 66a0 2e3e e49f 12bf 97e8 eebd 8aec 253e
00000260: 0b66 04be 2206 74bd 39c7 983d d94b 973d
00000270: 874d 12bd 5156 533d e7d9 e6bd 2bf1 28bb
00000280: 74d0 02bd 5011 1e3e 61fc a93d 0dac ad3d
00000290: 6e9f eebc 87ac 19bd a7ab df3d 2a20 da3d
000002a0: e92f 15bd 8448 9dbd 3408 5a3b ddf9 273e
000002b0: 90c2 34bc 9443 2e3d ec02 05bc 67bc a1bd
000002c0: e1e1 0cbe 4dda 8ebe f9d4 763d be05 e13d
000002d0: 04ef acbe ce6e 0c3d a4c0 223d 59e5 dcbc
000002e0: aaa8 8ebd e10d 663d c2a4 c0bd 0e76 783d
000002f0: cac1 ab3d 20da b0bd ed31 ad3d adae b83d
00000300: ac58 903c 9c35 1e3e 1860 d3bd a73d ad3d
00000310: be2d bb3d 6afd 113d b88c 443d 9cba 85bd
00000320: e4b2 923d aa1a c63d ab8c a4bd d18d cf3c
00000330: 0c46 283d a7e7 d2bc 8a8d 4b3d 782c 98bd
00000340: 643b ae3d 1396 c03d 4bcf f1ba 793d 3abe
00000350: 36ad 9abd 1833 1a3d 6847 113e 89b3 bb3c
00000360: 1130 ef3c 2142 813d 39da 64bd b072 5cbc
00000370: bf4c 803d b2af 20bd e3c0 b53d 9c4e 6cbf
00000380: 3b9f 923d 4126 45be e059 94bd 38c5 10bd
00000390: 7da2 7c3b 2c78 79bd 5060 b9ba d694 313e
000003a0: 5987 d8bd af42 fb3d db51 d53d ed35 023c
000003b0: c390 d43d 4ea1 3cbd 853d b5bd 2455 a4bd
000003c0: 10ab 9ebc 16c5 903e a656 8abd ee9d 35bf
000003d0: 6d15 b03d b59f b83d fd88 583d 3c55 94bd
000003e0: f906 f8bc e2b9 1bbc a355 fc3d e3cd c3bc
000003f0: e754 d73c 4c70 b3bc 8a5c be3d c54c e9bd

layer3.bias f4 [3]
-0.15155047 -0.05077334 -0.045811996
00000000: 0c30 1bbe b5f7 4fbd 5ca5 3bbd
