models/rl_models/03.03.24_without_punishments/best_target_dqn_model_epoch_21.pt (torch, 74158 bytes, 6 tensors)

layer1.weight f4 [128, 6]
0	0x3c918288	0.017762437
1	0xbdc2775e	-0.09495424
2	0xbdf86767	-0.121290974
3	0xbe91e06b	-0.2849153
4	0x3eb60836	0.3555314
5	0x3e9ba42d	0.30398694
6	0xbea04999	-0.3130615
7	0xbe86b02e	-0.2630629
8	0xbd361fea	-0.04446403
9	0xbe4211ad	-0.18952055
10	0x3d5b9791	0.053611342
11	0x3c9d1cdb	0.019178798
12	0xbe8e3fb1	-0.27782968
13	0xbeae48a0	-0.34039783
14	0xbe294b9b	-0.16532747
15	0x3d203974	0.03911729
16	0x3deee822	0.116653696
17	0x3e79808b	0.24365442
18	0xbba0c5d0	-0.0049063936
19	0xbd4f6b01	-0.050639156
20	0xbdeae993	-0.11470332
21	0x3e68d5b2	0.22737768
22	0x3e790f47	0.24322234
23	0x3d945f21	0.07244707
24	0xbc9c101e	-0.019050654
25	0xbdaae96a	-0.083453014
26	0xbe9e8c9f	-0.3096666
27	0x3e3a155b	0.18172209
28	0x3eaea302	0.3410874
29	0x3e3525fd	0.17690273
30	0x3da3f893	0.08006396
31	0x3d6bc2c0	0.057558775
32	0x3dc87e64	0.09789732
33	0xbe95dbe7	-0.29269335
34	0x3c2e9e8c	0.010657918
35	0x3ebf6fbe	0.3738994
36	0x3e74a59c	0.238913
37	0xbe64fb31	-0.22361447
38	0xbdb0eaa3	-0.086385034
39	0x3eae58b0	0.34052038
40	0xbe939fdb	-0.28832898
41	0x3eba0ed5	0.3633944
42	0xbe1204dd	-0.14259668
43	0x3e92756b	0.28605208
44	0xbd85f874	-0.06541529
45	0x3e881aed	0.26583043
46	0xbe653af3	-0.22385769
47	0xbdb22192	-0.08697809
48	0x3e9f8783	0.31158075
49	0xbe0801dc	-0.1328196
50	0xbea4ddd3	-0.32200488
51	0x3e425d57	0.18980919
52	0xbe744c72	-0.23857287
53	0xbdf8fded	-0.121578075
54	0xbd7c605e	-0.06161534
55	0xbda411b0	-0.08011186
56	0x3eb3153e	0.34977144
57	0xbd124c4e	-0.0357173
58	0x3d3d0162	0.046143897
59	0xbead58a8	-0.33856702
60	0xbe7c8b22	-0.2466245
61	0x3eac705b	0.3367947
62	0x3d6f7593	0.058461737
63	0x3de15f9a	0.11004563
64	0x3e1e75c4	0.15474612
65	0xbe89a022	-0.26879984
66	0x3e07323e	0.1320276
67	0x3cfaf7cb	0.030635735
68	0x3df97b39	0.12181706
69	0x3da6226e	0.08112036
70	0x3e54627e	0.20740697
71	0xbd979e9f	-0.074033014
72	0x3e503330	0.20332026
73	0x3e6d1d5d	0.23155732
74	0xbdde181c	-0.10844442
75	0x3d360cd1	0.044445816
76	0x3dbec566	0.093149945
77	0x3e2c1b7b	0.16807358
78	0x3e86f7b6	0.26360863
79	0x3d303915	0.043023188
80	0x3df3d040	0.11904955
81	0x3e9207e9	0.2852166
82	0x3d5251b4	0.05134745
83	0xbd9bb1c9	-0.07602269
84	0x3da925ed	0.08259187
85	0xbea1821f	-0.31544587
86	0xbc32caf1	-0.010912643
87	0x3e9e8f6b	0.30968794
88	0xbd1ff8a2	-0.039055474
89	0x3ebef848	0.372988
90	0xbd354e1e	-0.04426395
91	0xbe0ca19a	-0.13733521
92	0x3dfc3916	0.12315576
93	0x3dcb52a7	0.09927874
94	0xbea40d6b	-0.32041487
95	0xbec30df2	-0.38096577
96	0x3d8a8423	0.06763484
97	0x3e4686ab	0.19387309
98	0x3d8228b5	0.063554205
99	0xbe8bfce7	-0.27341387
100	0xbe4f67aa	-0.20254388
101	0xbe058b5e	-0.13041446
102	0xbe15931f	-0.14606903
103	0x3e85df64	0.26146996
104	0xbe153dfa	-0.14574423
105	0xbdba8f1d	-0.09109328
106	0x3e8fcbd9	0.2808521
107	0x3d65fb95	0.05614813
108	0x3d0420e1	0.03225792
109	0xbe8e88c5	-0.27838722
110	0x3daa2954	0.08308664
111	0x3e4fb046	0.20282087
112	0x3e8178fb	0.25287613
113	0xbe6530bb	-0.2238187
114	0x3e82a720	0.2551813
115	0xbe5edda1	-0.21764232
116	0xbe239906	-0.15976343
117	0x3eb33910	0.35004473
118	0x3e0182bb	0.12647526
119	0x3e321813	0.17391996
120	0xbeb98d5a	-0.36240655
121	0xbe65b04a	-0.2243053
122	0x3ebfb2c4	0.37441075
123	0xbd650edd	-0.055922378
124	0x3e9e7714	0.30950224
125	0x3e8a49dc	0.27009475
126	0xbebe2734	-0.37139285
127	0xbe9bca4d	-0.3042778
128	0x3bc7d07d	0.006097852
129	0xbead386c	-0.3383211
130	0x3e8d3441	0.2757893
131	0x3e1d6d3f	0.15373705
132	0xbe3cbc16	-0.18431124
133	0x3ea2b4dd	0.31778613
134	0x3ebab14b	0.3646339
135	0x3c86c1e4	0.016449876
136	0x3e65ff5b	0.22460692
137	0x3b4cb208	0.0031234045
138	0xbea1b5ef	-0.31584117
139	0x3e59e5fe	0.21279141
140	0x3e82c194	0.25538313
141	0xbe5c5d3e	-0.21519944
142	0xbdb9a45f	-0.090645544
143	0xbeb277d6	-0.34857053
144	0x3ead9508	0.33902764
145	0xbe84e94e	-0.25959247
146	0xbc8c880d	-0.017154718
147	0xbe0fde15	-0.14049561
148	0x3e7b4206	0.24536905
149	0xbeb37470	-0.35049772
150	0xbe7d76a4	-0.24752289
151	0xbeabb1ea	-0.33534175
152	0x3e3a5f66	0.18200454
153	0x3d8d9fa6	0.06915216
154	0xbe67c8bc	-0.22635168
155	0xbe245f37	-0.16051947
156	0x3dbc5caf	0.091973655
157	0x3e355708	0.17708981
158	0xbebdf9ad	-0.3710455
159	0xbe80a5cb	-0.2512649
160	0xbdd54f34	-0.104154974
161	0x3e9b1d05	0.30295578
162	0xbd3b322a	-0.045702137
163	0xbdbdb10a	-0.09262283
164	0xbdf5dedb	-0.12005397
165	0xbe1364f8	-0.14393985
166	0xbd97a927	-0.0740531
167	0x3e72d822	0.2371526
168	0x3e1cae90	0.15300965
169	0xbe365c10	-0.17808557
170	0xbdef0f91	-0.11672891
171	0x3e5830b1	0.21112324
172	0x3ea08fdc	0.31359756
173	0xbe8e46aa	-0.27788287
174	0xbe83cf63	-0.2574416
175	0xbe860a3c	-0.26179683
176	0xbebec33b	-0.37258324
177	0x3e4a113f	0.19733141
178	0x3d041ff4	0.032257035
179	0xbe4dd4f4	-0.20100766
180	0x3d803d18	0.06261653
181	0xbe971a07	-0.29512045
182	0xbd9621f1	-0.073306926
183	0x3e085cf8	0.13316715
184	0xbe3e54f5	-0.18587096
185	0x3ebf342e	0.37344497
186	0xbc340dbf	-0.010989605
187	0xbdb5569b	-0.08854409
188	0x3e5c786b	0.21530311
189	0xbddf9c63	-0.109185
190	0xbe44013d	-0.19141097
191	0x3c8d637a	0.017259348
192	0xbe9e4ab4	-0.3091637
193	0x3ebc1972	0.36738163
194	0x3e9871b8	0.2977426
195	0xbea7e5f9	-0.32792643
196	0x3db2168f	0.08695709
197	0xbb056444	-0.0020353952
198	0xbd5e8f4e	-0.054335885
199	0xbebce9be	-0.3689708
200	0x3e23ed1b	0.16008417
201	0xbe62199e	-0.22080085
202	0xbeb1d41c	-0.3473214
203	0xbaff1afe	-0.0019463
204	0x3df1773d	0.11790321
205	0x3e87f439	0.26553515
206	0x3e77a9ae	0.24185821
207	0x3e6eb9e2	0.23313096
208	0xbc69bcab	-0.014266173
209	0x3d3f7c3a	0.04674933
210	0x3dc6889b	0.09694024
211	0x3dffa5c2	0.12482788
212	0xbe87240a	-0.26394683
213	0x3e24a86f	0.16079877
214	0x3e73b733	0.23800354
215	0xbd2e4375	-0.0425448
216	0x3d396198	0.04525909
217	0x3e7f6247	0.24939834
218	0xbeb0243e	-0.3440265
219	0x3d458a65	0.048227686
220	0x3e6d5f82	0.23180965
221	0xbe1edaa1	-0.15513088
222	0xbec10734	-0.37700808
223	0xbe387ce3	-0.1801639
224	0x3e4ab0b6	0.19793972
225	0xbebccded	-0.3687586
226	0xbe1a1ae5	-0.15049322
227	0x3ebee644	0.37285054
228	0x3d5aa66f	0.05338138
229	0x3cb758a3	0.022381132
230	0x3ea42a02	0.320633
231	0x3e58c369	0.21168293
232	0x3c9ff581	0.019526245
233	0x3e81e8a6	0.2537281
234	0x3e3a7397	0.18208157
235	0xbe68feac	-0.227534
236	0x3e1c8ce8	0.15288126
237	0xbe1c41ec	-0.15259522
238	0x3e9d14b8	0.3067987
239	0xbea67217	-0.3250892
240	0x3dc5b4c2	0.096536174
241	0xbeb45a97	-0.35225365
242	0x3df798ea	0.12089713
243	0xbea494b1	-0.32144693
244	0x3d764d33	0.060132217
245	0x3ebe4ab6	0.37166375
246	0x3eba62ed	0.364036
247	0x3e1cd72d	0.15316458
248	0xbe8db113	-0.2767416
249	0xbe84b837	-0.25921795
250	0x3de768ea	0.11299308
251	0x3ba7389c	0.005103184
252	0x3d8b4bcb	0.06801566
253	0x3d8efa40	0.06981325
254	0xbdb525ac	-0.08845076
255	0xbebab747	-0.36467955

layer1.bias f4 [128]
0	0xbe817b8c	-0.2528957
1	0x3f758b40	0.95915604
2	0x3f5a0935	0.851703
3	0xbe2f8736	-0.17141423
4	0xbe35e6a6	-0.17763767
5	0x3f4347be	0.76281345
6	0xbc3d1b81	-0.011542202
7	0xbe7414aa	-0.23836008
8	0xbea377cd	-0.31927338
9	0x3f565649	0.8372541
10	0x3edf21e9	0.4358056
11	0xbeae7aef	-0.34078166
12	0x3f14ca79	0.5812145
13	0xbe3a3fb2	-0.1818836
14	0x3f0cbe73	0.549781
15	0xbd5744ba	-0.052555777
16	0xbda63f91	-0.08117593
17	0x3e03e919	0.12881888
18	0xbe81c10a	-0.2534259
19	0xbe2c6ffb	-0.16839592
20	0xbeb80932	-0.35944515
21	0x3f289159	0.6584678
22	0xbe3b338a	-0.1828138
23	0x3f486ba2	0.78289235
24	0x3f0b19af	0.54336065
25	0x3f602b38	0.87565947
26	0x3f01d00b	0.50708073
27	0xbec40d55	-0.38291422
28	0x3e832e94	0.25621474
29	0xbd7785cb	-0.06043033
30	0xbdc63c4d	-0.0967947
31	0x3f35fee9	0.7109209
32	0x3f2b4c99	0.66913754
33	0xbea7afb1	-0.3275123
34	0xbec049b7	-0.3755624
35	0xbe025daf	-0.1273105
36	0xbe8d7e05	-0.27635208
37	0xbc94f322	-0.018182341
38	0x3f077db6	0.52926195
39	0xbe801044	-0.2501241
40	0x3f7605f7	0.9610285
41	0xbeb71aa1	-0.35762504
42	0xbc8ff1d3	-0.017571365
43	0xbdd6d518	-0.10489863
44	0xbe0694e4	-0.13142735
45	0xbe87ecfd	-0.26547995
46	0xbe31d5d2	-0.17366722
47	0x3e57ec26	0.21086177
48	0xbeaaaf08	-0.33336663
49	0xbdcb3b94	-0.09923473
50	0xbb5a6a1a	-0.0033327402
51	0xbeaece8c	-0.34141958
52	0xbe947325	-0.28994098
53	0x3f565e1b	0.83737344
54	0x3f74ea89	0.9567037
55	0xbeb45ed4	-0.35228598
56	0xbeb4b2dd	-0.35292712
57	0x3ea772bf	0.32704732
58	0x3dd8fb5a	0.105948165
59	0xbd5b33d8	-0.05351624
60	0x3eea6c41	0.45785716
61	0x3f30755b	0.6892907
62	0xbeab9f2c	-0.33519876
63	0xbd68d04f	-0.056839284
64	0xbe158aba	-0.14603701
65	0xbea27010	-0.31726122
66	0xbc017e0b	-0.007903586
67	0xbd96919f	-0.07351994
68	0x3effdc54	0.49972785
69	0x3f21bfef	0.6318349
70	0x3ebe7cd1	0.37204602
71	0x3f22ad08	0.63545275
72	0xbe8c0bb9	-0.27352694
73	0xbec3d5bd	-0.38249007
74	0x3f4f41be	0.8095969
75	0x3f479920	0.77968025
76	0xbe2c338d	-0.1681654
77	0x3f6d3cb4	0.9267075
78	0xbe791f45	-0.24328335
79	0xbe7455fa	-0.23860922
80	0xbdd1c1c0	-0.10242033
81	0xbe7f976b	-0.24960105
82	0xbca8e95c	-0.020619087
83	0x3f6f9cc4	0.9359858
84	0x3f54e859	0.83167034
85	0xbe82a848	-0.25519013
86	0xbec6c90c	-0.38825262
87	0x3f2289c1	0.63491446
88	0x3f431aba	0.76212656
89	0x3f172deb	0.5905444
90	0xbddb4eec	-0.107084125
91	0xbe044b27	-0.12919293
92	0x3f3dea7c	0.7418592
93	0xbda3ea2a	-0.080036476
94	0x3f4c2fe1	0.7976056
95	0xbeb9a480	-0.36258316
96	0xbcaa283d	-0.02077114
97	0xbe228ee2	-0.15874818
98	0xbe8cb719	-0.27483442
99	0xbeb7b945	-0.35883537
100	0x3f2201e7	0.6328415
101	0xbe97f13f	-0.29676244
102	0xba59fdd8	-0.0008315719
103	0xbeaec948	-0.3413794
104	0x3f1c264e	0.6099595
105	0x3f0e8626	0.55673444
106	0x3f42e1a0	0.76125526
107	0xbde87f8c	-0.11352453
108	0x3f105a78	0.56388044
109	0xbc91c9c2	-0.017796401
110	0x3f62dd49	0.88618904
111	0xbebd43ec	-0.36965883
112	0xbe502813	-0.20327787
113	0xbe5c360c	-0.21504992
114	0xbbb0f54f	-0.005400337
115	0xbbaae2fd	-0.0052150474
116	0xbd5b3320	-0.053515553
117	0x3f425a3b	0.7591893
118	0xbd08c3af	-0.033389743
119	0xbe7aa6f8	-0.24477756
120	0xbea9aa16	-0.33137578
121	0x3ee6ec6b	0.45102248
122	0x3ea5b82c	0.32367074
123	0xbc234dc2	-0.009967269
124	0xbe8aa6ef	-0.27080485
125	0x3e71025f	0.23536061
126	0xbb57ecf2	-0.0032947627
127	0x3f48372a	0.78209174

layer2.weight f4 [128, 128]
0	0xbd06175a	-0.032737114
1	0x3da4cd49	0.080469675
2	0xbd26d6cb	-0.040732186
3	0xbca6c63d	-0.0203582
4	0x3cbadfe7	0.022811843
5	0x3c598835	0.013277103
6	0x3c186e84	0.009303693
7	0x3be2d94a	0.0069228755
8	0x3d9e9df4	0.07744971
9	0xbd0be372	-0.034152456
10	0x3d30adf5	0.04313465
11	0x3d9109cd	0.070819475
12	0x3d28f39d	0.041247953
13	0xbb8635e3	-0.0040957793
14	0x3c1b29ee	0.009470446
15	0xbd9f30e3	-0.07772996
16	0x3d203635	0.039114196
17	0xbc5c8f91	-0.013461963
18	0xbd080955	-0.033212025
19	0xbcdbc8dc	-0.026829176
20	0xbd0801a2	-0.033204682
21	0xbd9ff87e	-0.07811068
22	0x3d3efd49	0.04662827
23	0x3d3ca8b0	0.04605931
24	0x3d538a39	0.05164549
25	0xbd823d7e	-0.06359385
26	0xbd309031	-0.04310626
27	0xbd22afe4	-0.039718524
28	0xbd0eaf92	-0.034835406
29	0xbda5e812	-0.081009045
30	0x3c54d984	0.012991313
31	0x3d5a5a9f	0.05330908
32	0xbcd44cce	-0.02591553
33	0xbc54a540	-0.012978852
34	0x3c279fad	0.010230941
35	0x3d9381b2	0.07202472
36	0x3da3420f	0.07971584
37	0x3d453f49	0.048156057
38	0xbd0fd8f2	-0.035119005
39	0x3d99deb1	0.07513178
40	0x3ba0d53c	0.004908232
41	0xbd28869c	-0.041144
42	0x3cb1bf4e	0.021697666
43	0xbd2b7784	-0.041862026
44	0x3c5ca174	0.013466228
45	0xbd94f9c2	-0.072742
46	0x3c7019f8	0.014654629
47	0x3d278074	0.040893987
48	0x3d954dd6	0.07290237
49	0x3d983478	0.074318826
50	0x3d8b1194	0.06790462
51	0xbd4c8198	-0.049928278
52	0xbc9e2a5d	-0.01930731
53	0x3d956d3e	0.07296227
54	0x3d62c650	0.055364907
55	0xbc45ae7a	-0.012065524
56	0xbb818869	-0.003953029
57	0xbca5045d	-0.020143682
58	0xbd6ee55e	-0.05832421
59	0xbd47d75e	-0.048789375
60	0x3cfc914a	0.030830998
61	0xbd97380b	-0.07383736
62	0xbce79c04	-0.028272636
63	0xbd15b26b	-0.036547106
64	0xbd384c37	-0.04499456
65	0xbb3d24d2	-0.0028861058
66	0xbd165ae9	-0.036707792
67	0x3c2175f4	0.009854782
68	0x3b3d3590	0.0028871037
69	0x3c898439	0.016786681
70	0xbd5e1471	-0.054218713
71	0x3d6a0d3c	0.057141528
72	0xbceff2a0	-0.029290497
73	0xbd8227ff	-0.06355285
74	0xbda2cf9a	-0.07949753
75	0xbcca7453	-0.02471367
76	0x3c457a71	0.012053118
77	0xbd4265ca	-0.047460355
78	0xbd6eb7a2	-0.058280595
79	0x3b8b6f38	0.0042552017
80	0x3d3ed14e	0.046586327
81	0x3d7d2da6	0.061811112
82	0x3d57ffb4	0.052734092
83	0x3d9640b3	0.07336559
84	0x3b6b54d7	0.0035908723
85	0x3d50ff75	0.051024873
86	0x3b365458	0.002782127
87	0x3cbac27c	0.022797816
88	0xbda0a683	-0.078442596
89	0x3d92f996	0.07176511
90	0x3d7cf93a	0.06176112
91	0x3d63a848	0.055580407
92	0xbd6f8370	-0.058474958
93	0x3d81ffca	0.06347616
94	0x3db3eca9	0.08785374
95	0xbc4ecdd9	-0.01262232
96	0x3cd28c94	0.025701798
97	0x3d96d816	0.07365434
98	0xbd71af44	-0.059005037
99	0xbd79cbe6	-0.06098547
100	0x3bc6d1c5	0.006067487
101	0xbd3e645e	-0.046482436
102	0x3cbc51cb	0.02298822
103	0xbda98012	-0.082763806
104	0xbb98affb	-0.0046596504
105	0x3ce3b5fe	0.027796742
106	0x3d62c8ba	0.05536721
107	0x3d2b8c74	0.041881993
108	0xbd86e20e	-0.06586085
109	0x3b065744	0.0020498792
110	0xbc24339e	-0.010022072
111	0x3d35bbf7	0.04436871
112	0x3ab30e96	0.0013660963
113	0x3d26d97c	0.040734753
114	0x3d9b41a6	0.07580881
115	0x3ce3047f	0.027712105
116	0x3da30376	0.079596445
117	0xbd50bdcc	-0.050962254
118	0xbd96d42a	-0.07364686
119	0xbd8c2cbe	-0.068444714
120	0xbc0bbd4a	-0.008529017
121	0x3c963d46	0.018339764
122	0xbd82b19f	-0.06381535
123	0xbd9b620a	-0.07587059
124	0xbd146ea6	-0.036238335
125	0x3ba47743	0.0050191
126	0xbc39caf6	-0.011339894
127	0xbc65023f	-0.013977586
128	0x3d470beb	0.04859535
129	0x3efb93d5	0.49136224
130	0x3efa48cb	0.48883662
131	0xbdb3568c	-0.08756742
132	0xbda3da62	-0.080006376
133	0xbcd11c97	-0.025526328
134	0xbd141600	-0.036153793
135	0xbc010e55	-0.007876952
136	0x3d87955d	0.06620286
137	0x3ed842f0	0.4223857
138	0xbd7fdab2	-0.062464423
139	0xbd39f092	-0.04539544
140	0xbbfddd94	-0.0077473614
141	0xbb81965c	-0.003954692
142	0x3dc34b08	0.095357955
143	0x3c71a062	0.014747711
144	0x3c699154	0.01425584
145	0x3c639e28	0.013892688
146	0xbd546d3c	-0.051861987
147	0x3d92257d	0.071360566
148	0x3d249330	0.04017943
149	0x3ed3b015	0.41345277
150	0xbd5961b7	-0.053071704
151	0x3f01e79a	0.5074402
152	0x3995242d	0.00028446448
153	0x3ee34114	0.44385588
154	0x3c90c696	0.017672818
155	0xbc9bf2cf	-0.019036679
156	0xbc878796	-0.016544145
157	0x3c39903e	0.011325894
158	0xbd267438	-0.04063818
159	0x3ef13b71	0.47115663
160	0x3c57c9d3	0.013170677
161	0x3cfbb8b7	0.030727727
162	0xbd97929a	-0.07401009
163	0x3d736c3e	0.0594294
164	0xbccab05c	-0.024742298
165	0x3cba254a	0.022722859
166	0x3bc846c6	0.0061119525
167	0xbd7a149b	-0.061054807
168	0x3ef6939a	0.48159486
169	0xbd0632be	-0.032763235
170	0x3d6eed26	0.05833163
171	0xbc9e4997	-0.0193222
172	0xbd4556bb	-0.048178416
173	0xbc428368	-0.01187215
174	0x3d87c526	0.066294
175	0x3d6627ea	0.05619041
176	0xbd9fd880	-0.07804966
177	0x3d9904a7	0.074715905
178	0x3d2cb9ec	0.042169496
179	0xbc4c25c6	-0.012460178
180	0xbbc60f23	-0.006044285
181	0x3ec7dc9d	0.39035502
182	0x3ed719f1	0.4201198
183	0x3c8b99f4	0.017041184
184	0xbd49aff2	-0.04924006
185	0xbd8724ba	-0.06598802
186	0x3c7cc8df	0.015428751
187	0xbc93baca	-0.018033404
188	0xbd19ea0e	-0.037576728
189	0x3a4a573d	0.0007718688
190	0x3d8e89b3	0.06959858
191	0x3daa3240	0.08310366
192	0xbba930c3	-0.0051632836
193	0xbca6ecbe	-0.02037656
194	0x3cdb6c7e	0.026785132
195	0xbd5066d4	-0.050879315
196	0x3d9c42cf	0.0762993
197	0x3f0084a4	0.50202394
198	0x3d861d80	0.065485954
199	0x3ed61142	0.41810042
200	0xbd8ae0d6	-0.06781165
201	0x3cb74e9f	0.022376357
202	0x3eddd4ef	0.43326518
203	0x3d27428c	0.04083495
204	0xbd775d48	-0.060391694
205	0x3eef0e6f	0.466907
206	0xbb71e6c3	-0.0036911226
207	0x3c22dd44	0.009940449
208	0xbd8e340b	-0.0694352
209	0x3d2833f7	0.041065183
210	0x3d8bfadf	0.06834959
211	0x3d77cbb4	0.060497
212	0x3d8e9109	0.06961257
213	0x3c92ae1e	0.017905291
214	0xbdb57002	-0.088592544
215	0x3d8ade50	0.06780684
216	0x3ee31202	0.44349676
217	0x3eea566a	0.45769054
218	0xbd062aae	-0.032755546
219	0x3d8186ab	0.06324514
220	0xbd806348	-0.062689364
221	0x3d999c80	0.07500553
222	0x3e80f838	0.25189376
223	0xbd809634	-0.06278649
224	0x3d9d0054	0.07666078
225	0xbd16b37e	-0.03679227
226	0x3d8dd902	0.069261566
227	0xbd9a46da	-0.07533045
228	0x3ed54139	0.41651323
229	0x3d7dbc4b	0.06194715
230	0x3d23d0a3	0.039993893
231	0x3d8ebeab	0.06969961
232	0x3c8cdf69	0.017196374
233	0xbd2077cc	-0.039176747
234	0x3ec584da	0.3857792
235	0xbbcdbcea	-0.006278624
236	0xbd09ad62	-0.033612616
237	0xbd910e92	-0.07082857
238	0x3eeae560	0.45878124
239	0xbda59490	-0.08084977
240	0xbd804854	-0.062637955
241	0x3daabdc1	0.08336974
242	0xbb37f7ba	-0.002807124
243	0xbd9251ac	-0.07144484
244	0xbd0a4908	-0.033761054
245	0x3eddb303	0.43300638
246	0x3d49af91	0.0492397
247	0x3d92f1f0	0.07175052
248	0x3b9d1ee7	0.0047949436
249	0xbd6ef8f9	-0.058342908
250	0xbda47587	-0.08030229
251	0x3cb6d488	0.02231814
252	0x3cada3a6	0.021196198
253	0xbd7445bd	-0.05963682
254	0xbd333423	-0.043750893
255	0x3ef8da87	0.48604223

layer2.bias f4 [128]
0	0xbd96428c	-0.073369116
1	0x3ed46d50	0.4148965
2	0x3d6687e5	0.056281943
3	0x3cb7ab7b	0.022420635
4	0x3d0a527f	0.03377008
5	0xbd3a4ac4	-0.04548146
6	0x3d649d65	0.055814166
7	0x3eb6c829	0.35699585
8	0x3d649846	0.05580928
9	0xbd418d70	-0.047254026
10	0x3b826bc4	0.003980132
11	0x3c3ac922	0.011400493
12	0x3da2db7c	0.079520196
13	0xbd475d3a	-0.048672892
14	0x3cdef537	0.027216537
15	0x3ce67e7f	0.02813649
16	0x3d9361b6	0.07196371
17	0x3f1362ae	0.5757245
18	0xbd849416	-0.06473558
19	0x3d439d26	0.04775729
20	0x3d7c4126	0.061585568
21	0x3c4cefce	0.012508346
22	0xbc5996f2	-0.013280617
23	0x3d9bb8b9	0.076035924
24	0x3d9e7dd4	0.077388436
25	0x3c6c9a3a	0.014441067
26	0xbca4237f	-0.020036457
27	0x3d1f537c	0.038897976
28	0x3d6ff58f	0.058583792
29	0x3ef642c0	0.480978
30	0x3eefa1de	0.46803182
31	0x3df4338e	0.11923896
32	0x3cb7139b	0.022348216
33	0xbd4aed1a	-0.049542524
34	0x3e2bdaac	0.16782635
35	0xbd7191d3	-0.05897696
36	0x3c3b424a	0.011429379
37	0x3d1e9775	0.03871866
38	0x3da35d23	0.07976749
39	0x3c94c5a0	0.018160641
40	0xbd4d3032	-0.05009479
41	0x3eda18ee	0.42597145
42	0xbd98046c	-0.074227184
43	0x3e23c1e5	0.15991934
44	0xbd281704	-0.041037574
45	0x3f09bdf4	0.5380547
46	0x3d310bf3	0.043224286
47	0x3c9d4214	0.019196548
48	0xbc906a39	-0.017628776
49	0x3d1cd85a	0.038292266
50	0xbd731e19	-0.059354875
51	0x3edb5ecc	0.42845762
52	0xbd320e33	-0.043470573
53	0x3d1a34ad	0.03764789
54	0x3e3742ba	0.17896548
55	0x3c93e2a2	0.018052403
56	0x3f14f9dc	0.58193755
57	0x3dabe8d5	0.083940186
58	0xbd693468	-0.056934744
59	0x3bc657e4	0.006052958
60	0x3df6a216	0.12042634
61	0x3b58117b	0.0032969404
62	0xbcf57fbb	-0.029968133
63	0x3d6030df	0.054734107
64	0x3df9c238	0.121952474
65	0x3d81ff93	0.06347575
66	0x3cf503e3	0.02990908
67	0xbc447ae3	-0.011992189
68	0xbc2d022e	-0.010559602
69	0x3d995fee	0.07489
70	0x3d80b0d5	0.06283728
71	0x3b23ed9c	0.0025013452
72	0x3ed11b1d	0.40840998
73	0x3d697ec4	0.05700566
74	0xbd6b2675	-0.057409722
75	0xbd71d832	-0.05904407
76	0xbd097791	-0.033561293
77	0xbd83f4ed	-0.064432
78	0x3f181e0b	0.5942084
79	0x3bf07ac3	0.007338853
80	0x3cb2c171	0.021820756
81	0xbd630624	-0.055425778
82	0x3da1d7d2	0.079024926
83	0x3b097428	0.0020973776
84	0xbc91a33d	-0.017778033
85	0x3dcc3053	0.099701546
86	0x3db88dd7	0.09011429
87	0x3dd884a0	0.10572171
88	0x3e004273	0.12525348
89	0x3cece182	0.028916124
90	0x3e3a7ec2	0.18212417
91	0x3d875791	0.06608499
92	0xbd325377	-0.04353663
93	0x3eb6e449	0.35721043
94	0x3d12271d	0.035681833
95	0x3d3713d0	0.04469663
96	0xbd8068ef	-0.062700145
97	0x3d09c06d	0.033630777
98	0xbd2fd070	-0.04292339
99	0x3d5c422e	0.05377405
100	0x3da3cf7a	0.079985574
101	0x3e26b981	0.16281702
102	0xbd28741b	-0.04112635
103	0x3de2bdc8	0.11071354
104	0x3e0d008a	0.13769737
105	0xbd1a7477	-0.037708726
106	0x3e97b81d	0.29632655
107	0xbda030a9	-0.07821781
108	0x3dd22001	0.102600105
109	0xbcac93de	-0.021066602
110	0xbc77c3b3	-0.015122342
111	0x3e176728	0.14785445
112	0xbd99dacd	-0.07512436
113	0x3caf244a	0.021379609
114	0x3c26c569	0.010178902
115	0xbd8cf119	-0.06881923
116	0xbd8b7f89	-0.06811435
117	0xbda65cc7	-0.081231646
118	0x3d2dc544	0.042424455
119	0x3da5dfe5	0.08099345
120	0x3ddc6b91	0.10762704
121	0x3dbaec7c	0.09127137
122	0xbc0d8bd5	-0.008639296
123	0xbd816f50	-0.06320059
124	0x3d6af161	0.057359103
125	0x3ee079cb	0.4384292
126	0x3b20fc52	0.0024564457
127	0x3da34f31	0.07974089

layer3.weight f4 [3, 128]
0	0xbcbb9a96	-0.02290086
1	0x3dce3ab6	0.10069792
2	0xbcc8db4a	-0.024518628
3	0x3d10c180	0.035340786
4	0xbd327418	-0.043567747
5	0x3c7e5c53	0.0155249415
6	0x3d3c4b1d	0.04597007
7	0x3d8ea0dd	0.06964276
8	0xbd296c72	-0.041363187
9	0x3d0e3f27	0.034728196
10	0x3baf8d7c	0.0053574424
11	0x3d4e2104	0.050324455
12	0xbd52b921	-0.051446084
13	0x3ba9bd0c	0.005180007
14	0xbc880208	-0.016602531
15	0x3d2be249	0.04196385
16	0xbda2b49d	-0.079446055
17	0x3ef11404	0.47085583
18	0x3da9dd64	0.0829418
19	0xbd2e42c1	-0.04254413
20	0xbd696a4e	-0.056986146
21	0xbc74928b	-0.014927517
22	0x3d609165	0.05482616
23	0x3d309820	0.043113828
24	0x3bde23ec	0.0067791846
25	0x3db93623	0.09043529
26	0x3c47400a	0.012161264
27	0xbcd81404	-0.026376732
28	0x3d995a95	0.0748798
29	0x3dc54ef7	0.09634202
30	0x3edea8da	0.434882
31	0x3da1124f	0.0786482
32	0xbd8de907	-0.06929212
33	0x3d8f9cec	0.07012352
34	0x3cf74892	0.030185971
35	0x39b6a0ef	0.0003483365
36	0x3d9d3107	0.07675367
37	0xbd51621f	-0.051118966
38	0x3cee77ae	0.029109802
39	0x3ca71fe7	0.020400954
40	0xbd9168b0	-0.07100046
41	0x3ebe1a50	0.3712945
42	0x3da23db1	0.07921923
43	0x3c9d6882	0.019214872
44	0x3d6fab46	0.05851295
45	0x3ef79b4d	0.48360673
46	0x3cf10a13	0.02942375
47	0x3db49415	0.08817307
48	0x3d6e858c	0.05823283
49	0x3d5ed52e	0.054402523
50	0x3d443b1f	0.047907945
51	0x3ef7ab69	0.48372963
52	0xbd82d4b8	-0.06388229
53	0x3da06d98	0.07833403
54	0x3cce0bca	0.025152106
55	0x3d9c7eed	0.07641397
56	0x3ed9b30c	0.42519414
57	0xbd820173	-0.06347933
58	0x3d7a932d	0.061175514
59	0xbd01dbea	-0.031703867
60	0xbd8968e6	-0.06709461
61	0x3d19c110	0.037537634
62	0x3d9d644c	0.07685146
63	0x3d2ed69b	0.042685132
64	0xbb8d8488	-0.0043187775
65	0x3bc21e66	0.005924034
66	0xbd5eaf74	-0.054366544
67	0x3cb7fb22	0.022458617
68	0x3ca0be0a	0.019621868
69	0x3d0ebf6a	0.034850515
70	0x3da07d6d	0.07836423
71	0xbd8ed267	-0.06973725
72	0x3d9efa6c	0.07762608
73	0x3d272c50	0.040813744
74	0xbc4919fe	-0.012274263
75	0xbd5736b8	-0.05254242
76	0xbd9e2ef1	-0.07723797
77	0x3c5afa1a	0.013365293
78	0x3ec03ef8	0.3754804
79	0x3d2812ba	0.041033484
80	0x3c3f1627	0.011662996
81	0x3d3cdd80	0.046109676
82	0x3cdace11	0.026709588
83	0xbcb1d03e	-0.021705743
84	0x3d64020d	0.05566602
85	0x3d7a90db	0.0611733
86	0x3d1a53c1	0.03767753
87	0xbd963e7b	-0.07336136
88	0xbad759d9	-0.0016429975
89	0xbba72cd5	-0.00510178
90	0x3dccd0f3	0.100007914
91	0x3c12884d	0.008943629
92	0x3c4e3d0c	0.012587797
93	0x3da9eec3	0.08297493
94	0xbca56966	-0.02019186
95	0x3d3e1e29	0.04641548
96	0x3cb2c657	0.021823091
97	0xbbfdec7d	-0.007749139
98	0x3d9aaabb	0.075520955
99	0xbcec72ea	-0.028863389
100	0x3d0ee9e3	0.03489102
101	0x3c93efa8	0.018058613
102	0x3d936537	0.071970396
103	0x3cdfd3a6	0.027322602
104	0xbd5fa87e	-0.054604046
105	0xbd4043db	-0.046939712
106	0x3b3fcb9c	0.0029265648
107	0xbd66ed9c	-0.056378946
108	0x3da99635	0.08280603
109	0x3c5d3757	0.013501964
110	0x3d517bf4	0.0511436
111	0x3d8d7d14	0.069086224
112	0x3d78ed15	0.060772974
113	0x3cc5b991	0.024136337
114	0xbcbc2237	-0.022965534
115	0x3d354992	0.044259615
116	0x3d580fe2	0.052749522
117	0xbb812580	-0.003941238
118	0xbd6b0e57	-0.057386722
119	0x3d2d7a8c	0.042353198
120	0x3c1f0e93	0.009708065
121	0x3d958b1c	0.07301924
122	0xbbae5c5c	-0.0053210687
123	0x3d9537b1	0.07286013
124	0x3d419854	0.047264412
125	0x3e4e8454	0.20167667
126	0xbd9cea26	-0.07661848
127	0x3d0ec02e	0.034851246
128	0x3d89c4b1	0.06726969
129	0x3d9fec97	0.07808798
130	0xbd997b52	-0.074942246
131	0xbd862546	-0.06550078
132	0xbcb55406	-0.022134792
133	0xbcbce953	-0.023060476
134	0xbce4c3c9	-0.027925389
135	0x3d873f54	0.06603876
136	0xbd36044a	-0.044437684
137	0x3da83d38	0.082148015
138	0xbda2c7d3	-0.0794827
139	0x3d905a9c	0.07048532
140	0xbd7874bc	-0.0606582
141	0xbd89f839	-0.06736798
142	0xbd50f4cb	-0.051014703
143	0xbd843a31	-0.06456412
144	0x3d99b067	0.07504349
145	0x3f105819	0.56384426
146	0x3d00afb1	0.031417552
147	0x3d9590a7	0.07302981
148	0xbb867e94	-0.0041044448
149	0xbb806724	-0.0039185453
150	0xbcd9a46a	-0.026567657
151	0xbd945bf6	-0.07244103
152	0xbd5dcc26	-0.05414977
153	0x3b0c6664	0.0021423334
154	0xbd84daad	-0.064870216
155	0x3c910269	0.017701345
156	0xbc96b3ad	-0.018396223
157	0x3caa116a	0.020760257
158	0x3f0d0d56	0.55098474
159	0x3ce68770	0.028140754
160	0xbd9f27c7	-0.07771259
161	0x3db25352	0.08707298
162	0x3d3bf940	0.045892
163	0x3a9023e2	0.0010997022
164	0xbd7024a9	-0.05862871
165	0x3d457c24	0.048214093
166	0xbca427b1	-0.020038458
167	0xbbdd7aa5	-0.006759005
168	0xbd0e9784	-0.034812465
169	0x3f0da46f	0.5532903
170	0xbc0678d2	-0.008207517
171	0x3d8f1d28	0.06987983
172	0xbbe6151f	-0.007021561
173	0x3f0c1315	0.54716617
174	0xbd7366bb	-0.059424143
175	0x3dc5c999	0.09657592
176	0xbd52897f	-0.051400658
177	0x3be3071e	0.0069283387
178	0xbd7be229	-0.06149498
179	0x3f082117	0.5317549
180	0x3d2ee280	0.042696476
181	0xbd433df2	-0.047666498
182	0x3d81436a	0.06311686
183	0xbd8a53f1	-0.06754292
184	0x3f00abbf	0.50262064
185	0xbd3b9a1a	-0.04580126
186	0xbd2f9896	-0.042870127
187	0xbd3b0852	-0.04566223
188	0x3db29469	0.08719713
189	0xbd92587c	-0.07145783
190	0xbd422b93	-0.047404837
191	0xbd8b72b4	-0.06808987
192	0x3d8e2549	0.06940705
193	0x3d50d2fd	0.050982464
194	0x3d2cf649	0.042227063
195	0xbcb7f8f4	-0.022457577
196	0xbb831246	-0.003999981
197	0x3c9a7776	0.018855792
198	0x3da9f3aa	0.08298428
199	0xbbd26ad4	-0.0064214263
200	0x3e7397b8	0.23788345
201	0x3d7c3e56	0.061582886
202	0x3c64a1ab	0.01395456
203	0xbd23e3b7	-0.040012088
204	0x3cf28902	0.029606346
205	0x3d8426c8	0.064527094
206	0x3f000904	0.50013757
207	0xbd635ec6	-0.055510305
208	0xbc0c4c0c	-0.008563053
209	0xbc9da57f	-0.019243954
210	0x3d34c0e1	0.044129256
211	0x3cbba278	0.02290462
212	0xbd94611a	-0.07245083
213	0x3da2a5da	0.0794179
214	0x3d7d6b92	0.061870165
215	0x3d5a69ee	0.05332368
216	0x3cc5e4a5	0.024156878
217	0xbca35561	-0.019938173
218	0x3dba2f2d	0.09091029
219	0x3d89adcf	0.067226045
220	0xbc0d2095	-0.008613725
221	0x3dcbbb51	0.09947837
222	0x3b8427b7	0.0040330547
223	0xbd68cfbd	-0.05683874
224	0xbd1939f9	-0.037408803
225	0xbcbd1dad	-0.02308544
226	0x3caa4eca	0.020789523
227	0xbd233d6a	-0.03985349
228	0xbb8ff212	-0.0043928707
229	0x3d66fe9d	0.056395162
230	0x3d418753	0.047248196
231	0xb7e4cb14	-2.7274284e-05
232	0x3d2c0b63	0.042003047
233	0x3b519b6e	0.0031983512
234	0x3d9a30a3	0.07528808
235	0xbca7a5da	-0.020464826
236	0x3b5b0aa8	0.00334231
237	0x3d0fbcc2	0.035092123
238	0x3cd68d06	0.026190292
239	0x3d3bb272	0.045824476
240	0x3db4c671	0.08826912
241	0xbd622154	-0.055207565
242	0xbc8ff4ce	-0.017572787
243	0xbd874917	-0.06605738
244	0x3d87ec73	0.06636896
245	0xbd95c18d	-0.073123075
246	0x3da6b7df	0.081405394
247	0x3d8ede79	0.06976027
248	0x3d9d87f9	0.0769195
249	0x3d9c9af4	0.076467425
250	0xbd16cc23	-0.036815774
251	0x3cf90ddd	0.030402118
252	0x3bcc5f24	0.0062369276
253	0x3e877ea7	0.26463816
254	0x3c599ffa	0.01328277
255	0xbd8db164	-0.069186

layer3.bias f4 [3]
0	0xbd4441ce	-0.04791432
1	0x3e0a4ac9	0.13505091
2	0xbd1cb48d	-0.038258124
