models/rl_models/03.03.24_without_punishments/best_policy_dqn_model_epoch_19.pt (torch, 74158 bytes, 6 tensors)

layer1.weight f4 [128, 6]
0.018077232 -0.09526378 -0.121092096 -0.28617564 0.35748082 0.30625957 -0.31469113 -0.26439622
-0.044686243 -0.19048351 0.05388913 0.019271381 -0.279163 -0.34217566 -0.16614228 0.039320994
0.11724628 0.24491371 -0.004812514 -0.05073836 -0.11524912 0.22864762 0.2446414 0.07286425
-0.018954512 -0.083637334 -0.31124267 0.18279986 0.3430876 0.17784591 0.08039685 0.05778297
0.098306865 -0.2941748 0.010713477 0.37582538 0.23999657 -0.22487015 -0.08723866 0.34219706
-0.28995594 0.36476392 -0.14343797 0.28736082 -0.066228636 0.26713595 -0.22506534 -0.08783331
0.313057 -0.13368094 -0.3242655 0.1906723 -0.23989478 -0.12278514 -0.061930165 -0.08051927
0.35154915 -0.035902493 0.046384644 -0.34034485 -0.24775767 0.33861488 0.059020437 0.110739805
0.15573929 -0.2698553 0.13264662 0.030683985 0.12173061 0.08158174 0.2084463 -0.07502639
0.20461196 0.23302834 -0.10862213 0.044834707 0.093827665 0.1691866 0.26501745 0.043311093
0.1199808 0.28674626 0.051640898 -0.07608369 0.08295023 -0.31710473 -0.0102999 0.31126818
-0.039287966 0.37558022 -0.044486165 -0.13800187 0.12378541 0.099797204 -0.3220445 -0.38289168
0.06867563 0.19550921 0.06456076 -0.2747472 -0.20358092 -0.13108112 -0.1465978 0.2630712
-0.14597954 -0.09136057 0.28256536 0.05690041 0.032337964 -0.27988708 0.08299333 0.20377138
0.25408706 -0.2254303 0.2565278 -0.21877389 -0.16035913 0.35182044 0.12710418 0.17501406
-0.36418426 -0.22541638 0.37633672 -0.056200154 0.31113192 0.27142808 -0.37331882 -0.30575928
0.006127944 -0.3400989 0.27712262 0.1544844 -0.18500571 0.31971827 0.36688006 0.016767586
0.22598408 0.003577474 -0.3174708 0.21387084 0.25671646 -0.21631058 -0.09108998 -0.35034823
0.3410432 -0.26065356 -0.016714465 -0.14103971 0.2468563 -0.35179332 -0.24878219 -0.33697137
0.1828934 0.06948549 -0.22746272 -0.16133428 0.09286377 0.17836607 -0.37258255 -0.25259823
-0.1046735 0.30443713 -0.04592435 -0.093104325 -0.12064655 -0.14468065 -0.07442345 0.23833771
0.15394804 -0.17871831 -0.11701824 0.2123579 0.3154824 -0.2789125 -0.25877494 -0.26313016
-0.37450922 0.19829439 0.0324237 -0.20204474 0.06294986 -0.2966019 -0.07367725 0.13383381
-0.18683395 0.37537095 -0.01104516 -0.08898853 0.21641418 -0.10974056 -0.19237393 0.017342681
-0.31056142 0.3695048 0.29944205 -0.32955605 0.08740152 -0.0020458119 -0.054613657 -0.3708968
0.16089898 -0.2219119 -0.34909928 -0.0019563155 0.11867637 0.26705915 0.24364313 0.2344349
-0.014215132 0.047491133 0.09759453 0.12569743 -0.26466474 0.16175503 0.23936567 -0.04217646
0.045668196 0.25093675 -0.34537944 0.048608128 0.23318043 -0.15556571 -0.378934 -0.18105276
0.19893143 -0.37068456 -0.1512339 0.3747765 0.05404148 0.022935208 0.32270095 0.21309222
0.020066064 0.255494 0.18301907 -0.2286929 0.15379639 -0.15328723 0.3082768 -0.32654437
0.09701765 -0.3540314 0.12150007 -0.32307655 0.06042851 0.37358972 0.36585242 0.15392531
-0.27823883 -0.26052117 0.1135587 0.004952687 0.06868229 0.07050733 -0.08856933 -0.36645725
00000000: b416 943c a819 c3bd 22ff f7bd 9d85 92be
00000010: ba07 b73e 0ece 9c3e 321f a1be f15e 87be
00000020: ec08 37bd 1c0e 43be d9ba 5c3d 04df 9d3c
00000030: 74ee 8ebe a631 afbe 3421 2abe 0d0f 213d
00000040: d11e f03d a9ca 7a3e 4bb2 9dbb 07d3 4fbd
00000050: bb07 ecbd 9a22 6a3e 4683 7a3e da39 953d
00000060: 7e46 9bbc 0d4a abbd 335b 9fbe e32f 3b3e
00000070: 2ea9 af3e 3d1d 363e 1ba7 a43d d6ad 6c3d
00000080: 1c55 c93d 149e 96be 9487 2f3c 2f6c c03e
00000090: a9c1 753e 5c44 66be 2faa b2bd 7434 af3e
000000a0: 1b75 94be 56c2 ba3e 67e1 12be f520 933e
000000b0: e1a2 87bd 0bc6 883e 8777 66be f3e1 b3bd
000000c0: 0249 a03e a8e3 08be 2106 a6be 993f 433e
000000d0: faa6 75be c776 fbbd 7caa 7dbd 49e7 a4bd
000000e0: 40fe b33e 7e0e 13bd d3fd 3d3d ae41 aebe
000000f0: 30b4 7dbe ee5e ad3e 6abf 713d 8dcb e23d
00000100: 1f7a 1f3e 792a 8abe 84d4 073e fb5c fb3c
00000110: e64d f93d 5414 a73d f272 553e 70a7 99bd
00000120: cc85 513e fb9e 6e3e 4775 debd 99a4 373d
00000130: b828 c03d 413f 2d3e 5eb0 873e f966 313d
00000140: 7eb8 f53d 68d0 923e 6885 533d c4d1 9bbd
00000150: cfe1 a93d 8d5b a2be e9c0 28bc 8b5e 9f3e
00000160: 6bec 20bd 0d4c c03e 2037 36bd 5d50 0dbe
00000170: 3483 fd3d 7a62 cc3d 04e3 a4be 610a c4be
00000180: cfa5 8c3d 9133 483e 6f38 843d aaab 8cbe
00000190: 8477 50be 213a 06be bc1d 16be 45b1 863e
000001a0: a97b 15be 401b bbbd 68ac 903e 6810 693d
000001b0: d074 043d 5c4d 8fbe 68f8 a93d 72a9 503e
000001c0: b317 823e 33d7 66be 9d57 833e 4306 60be
000001d0: 2f35 24be cf21 b43e 9927 023e e336 333e
000001e0: 5c76 babe 8dd3 66be 35af c03e 2232 66bd
000001f0: af4c 9f3e 9ff8 8a3e a523 bfbe 7b8c 9cbe
00000200: eccc c83b 7121 aebe 04e3 8d3e 2931 1e3e
00000210: 2372 3dbe 1db2 a33e b4d7 bb3e 2d5c 893c
00000220: 5f68 673e 0e74 6a3b 888b a2be f500 5b3e
00000230: 5770 833e 8580 5dbe 628d babd d860 b3be
00000240: 379d ae3e 6274 85be c6ec 88bc b76c 10be
00000250: e6c7 7c3e 411e b4be c2c0 7ebe 8387 acbe
00000260: 6848 3b3e 694e 8e3d fdeb 68be d034 25be
00000270: 5c2f be3d 98a5 363e 24c3 bebe 8e54 81be
00000280: 0f5f d6bd 2fdf 9b3e 2c1b 3cbd 7bad bebd
00000290: 8a15 f7bd 2a27 14be 526b 98bd cd0e 743e
000002a0: 8ea4 1d3e ef01 37be 42a7 efbd 5974 593e
000002b0: e986 a13e 9fcd 8ebe 267e 84be ffb8 86be
000002c0: acbf bfbe af0d 4b3e b7ce 043d d1e4 4ebe
000002d0: dbeb 803d 34dc 97be 19e4 96bd bb0b 093e
000002e0: 6651 3fbe 9f30 c03e c2f6 34bc 9e3f b6bd
000002f0: ae9b 5d3e a9bf e0bd acfd 44be 3d12 8e3c
00000300: e801 9fbe bc2f bd3e 7850 993e 92bb a8be
00000310: 91ff b23d 0713 06bb 92b2 5fbd 2fe6 bdbe
00000320: b4c2 243e e03c 63be 24bd b2be 8735 00bb
00000330: 990c f33d fabb 883e 967d 793e b40f 703e
00000340: 96e6 68bc 1086 423d a4df c73d d4b6 003e
00000350: 2382 87be 1ca3 253e 461c 753e 39c1 2cbd
00000360: 930e 3b3d c87a 803e 93d5 b0be 5119 473d
00000370: dac6 6e3e 9e4c 1fbe a303 c2be e565 39be
00000380: aeb4 4b3e 5eca bdbe 0fdd 1abe b5e2 bf3e
00000390: 995a 5d3d 9ee2 bb3c 0f39 a53e d934 5a3e
000003a0: 9661 a43c 1cd0 823e 5a69 3b3e 792e 6abe
000003b0: cd7c 1d3e 54f7 1cbe 75d6 9d3e d330 a7be
000003c0: 31b1 c63d 9b43 b5be 07d5 f83d 4a6a a5be
000003d0: e383 773d 2747 bf3e 0251 bb3e 999e 1d3e
000003e0: 5275 8ebe 0863 85be 7791 e83d 264a a23b
000003f0: 4da9 8c3d 2666 903d d663 b5bd 49a0 bbbe

layer1.bias f4 [128]
-0.25342157 0.9740937 0.8661876 -0.17226161 -0.17847319 0.7765648 -0.012010839 -0.24002245
-0.32151997 0.8515609 0.444849 -0.3432597 0.5899367 -0.18244769 0.56284183 -0.052815035
-0.08090993 0.13230266 -0.2552573 -0.1690036 -0.36122286 0.67186725 -0.18321986 0.79687685
0.55568564 0.89015377 0.51919305 -0.38484013 0.26506495 -0.06073067 -0.09727618 0.724591
0.68247586 -0.3291419 -0.37693176 -0.12736839 -0.2772569 -0.018274944 0.5422366 -0.25127926
0.9758778 -0.35955027 -0.017333819 -0.10559253 -0.1316701 -0.26764604 -0.17421277 0.21613874
-0.33499625 -0.09995582 -0.0033501016 -0.34319738 -0.29168594 0.8516631 0.971543 -0.3541481
-0.35426113 0.33526158 0.097104855 -0.05379403 0.47047564 0.7018139 -0.33676696 -0.057125837
-0.14677763 -0.31889084 -0.007946039 -0.07389028 0.5117736 0.6453125 0.38310072 0.64893866
-0.27447867 -0.38441598 0.8238495 0.7932706 -0.16897304 0.94151825 -0.24454263 -0.23977941
-0.10259796 -0.25077885 -0.02070755 0.95028096 0.8456118 -0.25643897 -0.38973668 0.6461851
0.776066 0.60380554 -0.10771486 -0.1283692 0.7560762 -0.07980399 0.81240064 -0.36420423
-0.020923782 -0.15949315 -0.27549946 -0.36046183 0.6463008 -0.29825658 -0.0009746238 -0.34315723
0.62332207 0.56879073 0.775425 -0.11380357 0.57526803 -0.017889004 0.90076303 -0.3715848
-0.20486175 -0.2161611 -0.0052123466 -0.00582874 -0.053316668 0.77313215 -0.033245955 -0.24647157
-0.33173642 0.45943817 0.3320462 -0.00989241 -0.27211666 0.2444286 -0.0031333189 0.7960558
00000000: 79c0 81be 345e 793f 78be 5d3f 5965 30be
00000010: adc1 36be f3cc 463f 1cc9 44bc 72c8 75be
00000020: 449e a4be e5ff 593f 40c3 e33e bcbf afbe
00000030: 1706 173f 91d3 3abe 6716 103f 9454 58bd
00000040: 1bb4 a5bd 597a 073e 16b1 82be 480f 2dbe
00000050: 34f2 b8be 7eff 2b3f fd9d 3bbe 1f00 4c3f
00000060: 6a41 0e3f 1ee1 633f d6e9 043f c409 c5be
00000070: 98b6 873e b9c0 78bd bc38 c7bd cc7e 393f
00000080: bdb6 2e3f 4a85 a8be 33fd c0be dc6c 02be
00000090: 9ef4 8dbe 56b5 95bc 05d0 0a3f ada7 80be
000000a0: 21d3 793f f916 b8be a7ff 8dbc e540 d8bd
000000b0: 87d4 06be e708 89be d564 32be 7953 5d3e
000000c0: a184 abbe a3b5 ccbd 618d 5bbb 91b7 afbe
000000d0: dc57 95be 9806 5a3f 0bb7 783f e652 b5be
000000e0: b761 b5be 68a7 ab3e e9de c63d 2157 5cbd
000000f0: 2fe2 f03e 13aa 333f b86c acbe c8fc 69bd
00000100: e04c 16be a945 a3be 1a30 02bc ca53 97bd
00000110: 9803 033f 3333 253f c725 c43e d820 263f
00000120: 7888 8cbe 2cd2 c4be cde7 523f c813 4b3f
00000130: 4507 2dbe 5707 713f 6269 7abe bc88 75be
00000140: e11e d2bd 1666 80be e1a2 a9bc 9d45 733f
00000150: 047a 583f f84b 83be 918b c7be 636c 253f
00000160: 43ac 463f 0093 1a3f 9c99 dcbd 3773 03be
00000170: 368e 413f 4670 a3bd 7df9 4f3f fa78 babe
00000180: 5a68 abbc 2c52 23be 440e 8dbe 748e b8be
00000190: f873 253f 16b5 98be e57d 7fba 4eb2 afbe
000001a0: 0992 1f3f 459c 113f 4182 463f d911 e9bd
000001b0: c444 133f f68b 92bc 6898 663f 5d40 bebe
000001c0: 47c7 51be 5659 5dbe 55cc aabb 04ff bebb
000001d0: 9462 5abd fdeb 453f e92c 08bd 0b63 7cbe
000001e0: 5bd9 a9be 7b3b eb3e f601 aa3e c613 22bc
000001f0: e052 8bbe 7e4b 7a3e 5e58 4dbb 50ca 4b3f

layer2.weight f4 [128, 128]
-0.033282842 0.08087708 -0.04093589 -0.020355549 0.023036081 0.013569374 0.009142919 0.0070766984
0.07785613 -0.03431912 0.04350564 0.07130794 0.04158157 -0.004014913 0.00916896 -0.07813738
0.039602794 -0.013361243 -0.03330012 -0.02689344 -0.033371348 -0.07851809 0.04702532 0.046300057
0.05199361 -0.06392718 -0.04304912 -0.039922226 -0.03490421 -0.08141645 0.013056128 0.053586584
-0.025826726 -0.013043667 0.010400918 0.072514616 0.080260485 0.048396796 -0.035211686 0.07561399
0.004933695 -0.04119254 0.022072833 -0.041986074 0.013632571 -0.07302457 0.01492164 0.04120813
0.07327274 0.074801736 0.06823795 -0.050187547 -0.019312186 0.07333269 0.05564268 -0.01200378
-0.0038784393 -0.020164141 -0.058810886 -0.049030114 0.030770794 -0.074068904 -0.028204182 -0.036732268
-0.045216776 -0.0029011525 -0.036824573 0.009905708 0.002851922 0.016870014 -0.054422673 0.05743783
-0.029425615 -0.06388618 -0.079904936 -0.02463546 0.011989629 -0.047701094 -0.058576893 0.004385347
0.047113135 0.062173843 0.05300313 0.07393502 0.0038963305 0.051401816 0.0029250532 0.022973293
-0.07885 0.072135545 0.062383775 0.05593929 -0.05864612 0.06394163 0.087913744 -0.012559596
0.025959898 0.07414049 -0.059040956 -0.06107753 0.0060975794 -0.046631925 0.023207674 -0.08317121
-0.004502415 0.02809103 0.055391155 0.042210106 -0.066099934 0.0020602958 -0.010072998 0.044590928
0.0014458043 0.040938456 0.07629733 0.027746113 0.08014751 -0.051221512 -0.07395071 -0.06850642
-0.009015114 0.018570468 -0.06402953 -0.07607693 -0.036264848 0.0051390063 -0.011228054 -0.0140470285
0.04883609 0.50419426 0.50156856 -0.088011876 -0.08041378 -0.025193034 -0.036338985 -0.007675083
0.06684687 0.43473238 -0.062448166 -0.04534403 -0.0074653854 -0.0036986205 0.097442575 0.01482178
0.014581761 0.014225626 -0.052121244 0.07177409 0.040383134 0.42552245 -0.053103 0.5202449
0.00087222597 0.45629683 0.0180903 -0.01912927 -0.016560148 0.011381447 -0.04084188 0.48359066
0.013653633 0.03088514 -0.074114844 0.0599875 -0.024601715 0.022833966 0.0065228166 -0.06136963
0.49433917 -0.03265291 0.058861826 -0.019424055 -0.04826799 -0.011645345 0.06689505 0.05676542
-0.07845708 0.075346425 0.042381726 -0.012524994 -0.0060743773 0.40252393 0.43252382 0.017397594
-0.049295742 -0.065975174 0.016107371 -0.018126015 -0.037323106 0.0011712826 0.07022254 0.08351106
-0.0051887464 -0.02047841 0.026924022 -0.051138572 0.07699066 0.51465034 0.06617924 0.43018177
-0.068144985 0.022487465 0.44564635 0.04150109 -0.0608481 0.47952953 -0.0037096406 0.01026628
-0.06951863 0.041268885 0.068682924 0.0626476 0.07034515 0.018269688 -0.08876625 0.06849541
0.4558369 0.46995002 -0.03264419 0.06354991 -0.062409878 0.075637855 0.25584328 -0.0628515
0.07712619 -0.036715932 0.06982072 -0.075488426 0.42857516 0.062261973 0.04046733 0.070052944
0.018261774 -0.038821112 0.39114448 -0.0060215453 -0.033430886 -0.07119896 0.47136736 -0.08125717
-0.06289048 0.083777145 -0.002573632 -0.071443126 -0.03392772 0.44534943 0.04948044 0.07238713
0.004790895 -0.058316965 -0.08041522 0.022700524 0.021524765 -0.05976213 -0.043699034 0.49869758
00000000: 9753 08bd e2a2 a53d 64ac 27bd aec0 a6bc
00000010: 2ab6 bc3c 1452 5e3c 2fcc 153c a6e3 e73b
00000020: 0973 9f3d 3592 0cbd f832 323d e609 923d
00000030: 7051 2a3d 888f 83bb 6839 163c 7e06 a0bd
00000040: 8a36 223d 1de9 5abc b565 08bd a24f dcbc
00000050: 65b0 08bd 18ce a0bd 9f9d 403d 21a5 3d3d
00000060: 40f7 543d 41ec 82bd 4654 30bd 7d85 23bd
00000070: b8f7 0ebd abbd a6bd 5fe9 553c 9b7d 5b3d
00000080: 9292 d3bc 1bb5 55bc 9d68 2a3c 8b82 943d
00000090: 9c5f a43d b83b 463d 213a 10bd 82db 9a3d
000000a0: d5aa a13b 82b9 28bd 16d2 b43c 97f9 2bbd
000000b0: 265b 5f3c e88d 95bd e579 743c dbc9 283d
000000c0: 0510 963d a731 993d 57c0 8b3d 7591 4dbd
000000d0: 9734 9ebc 732f 963d 94e9 633d 81ab 44bc
000000e0: 6a2d 7ebb 452f a5bc afe3 70bd cdd3 48bd
000000f0: 0813 fc3c 70b1 97bd 750c e7bc 9374 16bd
00000100: 3a35 39bd 4321 3ebb 5dd5 16bd 8d4b 223c
00000110: 50e7 3a3b fc32 8a3c 4fea 5ebd ee43 6b3d
00000120: fd0d f1bc c2d6 82bd 33a5 a3bd 4ed0 c9bc
00000130: 2670 443c 3962 43bd 53ee 6fbd f5b2 8f3b
00000140: b4f9 403d 00aa 7e3d cf19 593d 3e6b 973d
00000150: 9459 7f3b b68a 523d 40b2 3f3b 7d32 bc3c
00000160: 1c7c a1bd cdbb 933d 2186 7f3d 9920 653d
00000170: ea36 70bd d4f3 823d 1f0c b43d c4c6 4dbc
00000180: daa9 d43c f8d6 973d eed4 71bd 6f2c 7abd
00000190: 34ce c73b 1e01 3fbd 051e be3c ab55 aabd
000001a0: ff88 93bb 291f e63c d6e1 623d 81e4 2c3d
000001b0: 675f 87bd 0706 073b 3709 25bc faa4 363d
000001c0: 2481 bd3a 15af 273d c641 9c3d d14b e33c
000001d0: 6124 a43d a6cd 51bd 7873 97bd 184d 8cbd
000001e0: 21b4 13bc 1821 983c ea21 83bd 39ce 9bbd
000001f0: 738a 14bd 1c65 a83b dff5 37bc 8225 66bc
00000200: 5a08 483d e012 013f cc66 003f 923f b4bd
00000210: fbaf a4bd 9f61 cebc 30d8 14bd 437f fbbb
00000220: 03e7 883d 3e95 de3e a6c9 7fbd a9ba 39bd
00000230: 31a0 f4bb 8e64 72bb f98f c73d 0dd7 723c
00000240: 57e8 6e3c 9a12 693c 167d 55bd 4bfe 923d
00000250: c968 253d 14de d93e 8882 59bd c52e 053f
00000260: 18a6 643a bd9f e93e 1c32 943c fdb4 9cbc
00000270: 26a9 87bc 4079 3a3c d149 27bd 3299 f73e
00000280: 7db3 5f3c d502 fd3c 86c9 97bd 74b5 753d
00000290: 8989 c9bc 4c0e bb3c 5abd d53b b95e 7bbd
000002a0: 061a fd3e 0fbf 05bd 1919 713d 321f 9fbc
000002b0: a8b4 45bd 1ecc 3ebc 4600 893d db82 683d
000002c0: 1bae a0bd 3a4f 9a3d 7698 2d3d a235 4dbc
000002d0: 920b c7bb 9e17 ce3e c373 dd3e 6685 8e3c
000002e0: 55ea 49bd fe1d 87bd 9bf3 833c 027d 94bc
000002f0: 1de0 18bd b985 993a d6d0 8f3d d907 ab3d
00000300: 5c06 aabb 57c2 a7bc c48f dc3c ae76 51bd
00000310: 47ad 9d3d 20c0 033f fb88 873d c940 dc3e
00000320: 998f 8bbd a237 b83c c22b e43e 0cfd 293d
00000330: db3b 79bd e584 f53e 711d 73bb e633 283c
00000340: c95f 8ebd 9009 293d a2a9 8c3d 634d 803d
00000350: 1e11 903d 50aa 953c 14cb b5bd 5247 8c3d
00000360: 7463 e93e 4a9d f03e eab5 05bd 7526 823d
00000370: 80a1 7fbd 05e8 9a3d e4fd 823e 4ab8 80bd
00000380: 56f4 9d3d 7263 16bd 2afe 8e3d ad99 9abd
00000390: 346e db3e 6906 7f3d 12c1 253d eb77 8f3d
000003a0: b799 953c e302 1fbd 1744 c83e 6250 c5bb
000003b0: d3ee 08bd c3d0 91bd 1057 f13e 296a a6bd
000003c0: b9cc 80bd 5a93 ab3d 61aa 28bb c650 92bd
000003d0: cbf7 0abd d704 e43e 00ac 4a3d b43f 943d
000003e0: f1fc 9c3b c5dd 6ebd bcb0 a4bd 73f6 b93c
000003f0: b454 b03c 23c9 74bd c2fd 32bd 4a55 ff3e

layer2.bias f4 [128]
-0.07361862 0.4279911 0.05655971 0.022531744 0.033828046 -0.04531237 0.056664046 0.3670496
0.055524897 -0.047494765 0.004000965 0.011456046 0.07941536 -0.04891363 0.027402036 0.028364338
0.07694063 0.5902206 -0.06494418 0.051683925 0.061900392 0.012573162 -0.01320087 0.07640629
0.077795856 0.01451514 -0.020138308 0.04256485 0.05893645 0.4801803 0.4830199 0.12051307
0.022459323 -0.04979488 0.17276694 -0.059273247 0.011742084 0.03846208 0.076495744 0.018253248
-0.050354056 0.44100004 -0.07436745 0.16445245 -0.042650282 0.5526595 0.0434465 0.019404013
-0.01743743 0.038843386 -0.059395462 0.44282705 -0.04369279 0.038423166 0.18712142 0.018145014
0.59656155 0.08407659 -0.057227667 0.005578516 0.12654714 0.0035457022 -0.030116273 0.055372722
0.12844011 0.068151504 0.030057222 -0.011549766 -0.010614226 0.07792096 0.06317061 0.0020022523
0.42259875 0.057301976 -0.058067717 -0.059340343 -0.03372796 -0.06475014 0.6086355 0.007375888
0.021755751 -0.055703547 0.08288668 0.0016813008 -0.017392764 0.10357035 0.09527378 0.11022585
0.13109569 0.029064262 0.18671815 0.07206612 -0.043758843 0.3691642 0.03586699 0.044943325
-0.06303348 0.03382061 -0.04282246 0.054051824 0.08039298 0.16912647 -0.040831752 0.11018807
0.14101808 -0.038486745 0.30450988 -0.07928721 0.1023652 -0.021171069 -0.015198352 0.15028666
-0.074989066 0.021900218 0.010229828 -0.069152564 -0.06795866 -0.08351755 0.047945578 0.0863713
0.11333376 0.09604014 -0.008680962 -0.0629534 0.05795952 0.451634 0.0024691771 0.080148295
00000000: 5cc5 96bd a621 db3e 28ab 673d 7e94 b83c
00000010: 478f 0a3d 7799 39bd 8f18 683d eded bb3e
00000020: 136e 633d df89 42bd 871a 833b 24b2 3b3c
00000030: 85a4 a23d a959 48bd 3c7a e03c 545c e83c
00000040: 0d93 9d3d b218 173f 7401 85bd 86b2 533d
00000050: 448b 7d3d aaff 4d3c 7648 58bc e77a 9c3d
00000060: 6f53 9f3d e9d0 6d3c 18f9 a4bc 7b58 2e3d
00000070: 5967 713d 31da f53e 624e f73e 8ecf f63d
00000080: 9dfc b73c b7f5 4bbd d1e9 303e 81c8 72bd
00000090: df61 403c 6a8a 1d3d cda9 9c3d d687 953c
000000a0: 0e40 4ebd c2ca e13e f64d 98bd 3966 283e
000000b0: 10b2 2ebd 187b 0d3f f5f4 313d 2af5 9e3c
000000c0: f1d8 8ebc 3e1a 1f3d a848 73bd 3aba e23e
000000d0: 36f7 32bd 9c61 1d3d c29c 3f3e daa4 943c
000000e0: 42b8 183f 5930 ac3d 8f67 6abd fccb b63b
000000f0: 9395 013e 035f 683b 67b6 f6bc 82ce 623d
00000100: ce85 033e 0493 8b3d 903a f63c 3b3b 3dbc
00000110: 4ae7 2dbc 0695 9f3d 985f 813d 3838 033b
00000120: dd5e d83e 7ab5 6a3d 6ad8 6dbd dc0e 73bd
00000130: 5426 0abd b99b 84bd 89cf 1b3f 6fb1 f13b
00000140: 1e39 b23c 6729 64bd 7ec0 a93d 185f dc3a
00000150: 457b 8ebc b11c d43d e61e c33d 17be e13d
00000160: f33d 063e 2d18 ee3c 0b33 3f3e 6797 933d
00000170: 793c 33bd 1703 bd3e 44e9 123d 7e16 383d
00000180: b217 81bd 7b87 0a3d 9b66 2fbd 7265 5d3d
00000190: 13a5 a43d 7d2f 2d3e 323f 27bd 48aa e13d
000001a0: 0b67 103e 47a4 1dbd b8e8 9b3e 5561 a2bd
000001b0: d9a4 d13d f36e adbc 8202 79bc bfe4 193e
000001c0: de93 99bd 1668 b33c 029b 273c dc9f 8dbd
000001d0: e92d 8bbd 400b abbd 9562 443d 70e3 b03d
000001e0: 881b e83d b1b0 c43d 983a 0ebc b6ed 80bd
000001f0: f666 6d3d 923c e73e ebd1 213b ca24 a43d

layer3.weight f4 [3, 128]
-0.022913072 0.10009556 -0.024638997 0.035525985 -0.04370276 0.015718678 0.046341397 0.0657532
-0.041524585 0.03489486 0.005385222 0.05058372 -0.0516402 0.0052054697 -0.016890451 0.0423458
-0.07980246 0.455521 0.08334866 -0.042716194 -0.057282206 -0.015001588 0.055192184 0.043336056
0.006813907 0.09087972 0.012221449 -0.026441501 0.0756829 0.093135685 0.419863 0.07911023
-0.06962545 0.070493914 0.03040524 0.0003500726 0.07727954 -0.051303424 0.02912666 0.020502806
-0.071370885 0.35582274 0.079854004 0.019366466 0.05891061 0.4685138 0.029571887 0.08885693
0.05866955 0.05455727 0.048314318 0.46889007 -0.06421562 0.07888074 0.02434337 0.07678431
0.4095671 -0.06375267 0.06149034 -0.03182364 -0.06733455 0.03791389 0.07722336 0.04299703
-0.004287273 0.0059939697 -0.054644316 0.022669531 0.019723719 0.035120554 0.078771636 -0.07006074
0.07226475 0.041017447 -0.012337951 -0.052801676 -0.07764539 0.013547876 0.3596331 0.041237187
0.012004746 0.046350423 0.026879087 -0.021795934 0.056120466 0.061563607 0.037930578 -0.07370782
-0.0016201944 -0.0051272428 0.10178519 0.009090519 0.012652613 0.082192525 -0.02029371 0.04682384
0.021934202 -0.007787751 0.07590593 -0.029011533 0.035072267 0.018221617 0.07244654 0.027503539
-0.055071626 -0.047154345 0.0021025056 -0.05662422 0.08321064 0.013571408 0.051402863 0.069495924
0.06123254 0.024397712 -0.023084864 0.04448183 0.053158846 -0.003841587 -0.05768364 0.042642303
0.0093971435 0.07353072 -0.0053488477 0.073428005 0.047308095 0.19233552 -0.07698879 0.035028074
0.06773869 0.08460282 -0.075312555 -0.06583411 -0.022188954 -0.023222558 -0.0280089 0.079490684
-0.04457973 0.08255542 -0.0798901 0.07085576 -0.06093268 -0.06770131 -0.051547546 -0.06489548
0.07560903 0.58492184 0.031571098 0.07374576 -0.004125278 -0.0039393785 -0.026539857 -0.07281145
-0.05442755 0.00215275 -0.06520355 0.01790929 -0.018438995 0.036943752 0.57139844 0.028971324
-0.07812001 0.08751741 0.04655158 0.0011054899 -0.058880717 0.04862665 -0.0187585 -0.0067937276
-0.034984984 0.5738505 -0.008185721 0.070934534 -0.006678761 0.5678277 -0.059720427 0.097082
-0.051658783 0.007813502 -0.061823253 0.55204815 0.042918704 -0.047842044 0.06854517 -0.06787625
0.52335876 -0.045932148 -0.043092348 -0.045938812 0.08792972 -0.07184098 -0.047645576 -0.06837247
0.07020149 0.051917944 0.042444527 -0.022551097 -0.0040208143 0.019295866 0.08339169 -0.006381677
0.2559197 0.061897706 0.0142099075 -0.04021579 0.029754484 0.06494419 0.52085507 -0.055788066
-0.008449471 -0.01934004 0.04486373 0.023058191 -0.07269423 0.08006444 0.062680684 0.054130968
0.02466746 -0.020040024 0.09596542 0.068014786 -0.008655392 0.1066519 0.004053888 -0.057056148
-0.037593983 -0.023206001 0.02138923 -0.040057193 -0.0044160155 0.057032373 0.047540817 0.0004604463
0.04341283 0.0032955979 0.080078155 -0.020479586 0.0044996184 0.035277322 0.026319921 0.046660352
0.0887982 -0.05542288 -0.017665379 -0.06639071 0.066781424 -0.07343478 0.08226607 0.07069888
0.08103547 0.077460505 -0.037000943 0.03034947 0.008892078 0.28367192 0.01334904 -0.06951933
00000000: 32b4 bbbc e7fe cc3d b9d7 c9bc b283 113d
00000010: aa01 33bd 75c4 803c 7ad0 3d3d 9da9 863d
00000020: af15 2abd eaed 0e3d 8476 b03b e030 4f3d
00000030: ad84 53bd a592 aa3b d85d 8abc ca72 2d3d
00000040: 796f a3bd 0c3a e93e b4b2 aa3d 2df7 2ebd
00000050: bfa0 6abd 38c9 75bc 3311 623d 2681 313d
00000060: 3247 df3b 261f ba3d 793c 483c d99b d8bc
00000070: a3ff 9a3d ecbd be3d 48f8 d63e 8b04 a23d
00000080: ca97 8ebd 1d5f 903d 6914 f93c f389 b739
00000090: bc44 9e3d 8a23 52bd 099b ee3c 80f5 a73c
000000a0: e62a 92bd 662e b63e 7f8a a33d 6ca6 9e3c
000000b0: 404c 713d 0ae1 ef3e be40 f23c 9ffa b53d
000000c0: 7b4f 703d 7277 5f3d 3ce5 453d 5c12 f03e
000000d0: 7b83 83bd 3a8c a13d bf6b c73c 1841 9d3d
000000e0: c7b2 d13e c390 82bd 4bdd 7b3d 8159 02bd
000000f0: b2e6 89bd 984b 1b3d 4827 9e3d a71d 303d
00000100: 417c 8cbb 1069 c43b b8d2 5fbd 74b5 b93c
00000110: a393 a13c 92da 0f3d 0653 a13d 017c 8fbd
00000120: 8bff 933d e901 283d 1e25 4abc 9246 58bd
00000130: 8c04 9fbd e9f7 5d3c d421 b83e 53e8 283d
00000140: 8eaf 443c f1d9 3d3d 8831 dc3c 638d b2bc
00000150: 93de 653d 1f2a 7c3d 185d 1b3d 20f4 96bd
00000160: b45c d4ba 6e02 a8bb c174 d03d 66f0 143c
00000170: e84c 4f3c 8e54 a83d ff3e a6bc 5bca 3f3d
00000180: 5baf b33c 6430 ffbb 9174 9b3d 98a9 edbc
00000190: f0a7 0f3d 8045 953c da5e 943d 1a4f e13c
000001a0: c992 61bd ea24 41bd 31ca 093b ccee 67bd
000001b0: 576a aa3d 9c5a 5e3c cf8b 523d e153 8e3d
000001c0: f9ce 7a3d b6dd c73c 781c bdbc 9432 363d
000001d0: 17bd 593d 23c3 7bbb ae45 6cbd b2a9 2e3d
000001e0: 7af6 193c 4697 963d 6345 afbb 6c61 963d
000001f0: 22c6 413d 9af3 443e 4cac 9dbd 9979 0f3d
00000200: 95ba 8a3d 3e44 ad3d 783d 9abd 09d4 86bd
00000210: 9cc5 b5bc 3c3d bebc ec72 e5bc 03cc a23d
00000220: 3c99 36bd d112 a93d 6c9d a3bd d31c 913d
00000230: 8c94 79bd fca6 8abd 8523 53bd ece7 84bd
00000240: e8d8 9a3d 70bd 153f b250 013d 0408 973d
00000250: 572d 87bb e715 81bb 1d6a d9bc 2b1e 95bd
00000260: 6cef 5ebd 2715 0d3b 7089 85bd 81b6 923c
00000270: 600d 97bc 5552 173d 2b47 123f 4555 ed3c
00000280: 62fd 9fbd 543c b33d dfac 3e3d 16e6 903a
00000290: e82c 71bd bd2c 473d 6dab 99bc eb9d debb
000002a0: 6a4c 0fbd dee7 123f 671d 06bc 2046 913d
000002b0: 82d9 dabb 285d 113f 689d 74bd edd2 c63d
000002c0: 2998 53bd 3404 003c 613a 7dbd 0753 0d3f
000002d0: 86cb 2f3d 05f6 43bd 6961 8c3d b402 8bbd
000002e0: d7fa 053f 5923 3cbd 9a81 30bd 562a 3cbd
000002f0: 7f14 b43d 5d21 93bd 0228 43bd de06 8cbd
00000300: ccc5 8f3d e9a7 543d 50da 2d3d 14bd b8bc
00000310: 09c1 83bb 5d12 9e3c 43c9 aa3d 631d d1bb
00000320: e807 833e 7388 7d3d acd0 683c 50b9 24bd
00000330: adbf f33c 7601 853d c256 053f 0782 64bd
00000340: a66f 0abc 016f 9ebc 08c3 373d 88e4 bc3c
00000350: b6e0 94bd d3f8 a33d bb5e 803d 6fb8 5d3d
00000360: 6a13 ca3c fa2a a4bc 8589 c43d 564b 8b3d
00000370: 58cf 0dbc 506c da3d 7ad6 843b b5b3 69bd
00000380: 26fc 19bd 831a bebc 7738 af3c 0313 24bd
00000390: 39b4 90bb c79a 693d 29ba 423d 0e68 f139
000003a0: a7d1 313d f5fa 573b 0400 a43d cec4 a7bc
000003b0: 8971 933b f47e 103d e09c d73c ed1e 3f3d
000003c0: d5db b53d 1a03 63bd fcb6 90bc daf7 87bd
000003d0: b3c4 883d f964 96bd 1d7b a83d 93ca 903d
000003e0: edf5 a53d 9da3 9e3d 4d8e 17bd 749f f83c
000003f0: 14b0 113c 723d 913e efb5 5a3c 2760 8ebd

layer3.bias f4 [3]
-0.048730507 0.14211227 -0.03953893
00000000: a499 47bd e185 113e 93f3 21bd
