models/rl_models/03.03.24_without_punishments/best_target_dqn_model_epoch_24.pt (torch, 74158 bytes, 6 tensors)

layer1.weight f4 [128, 6]
0	0x3c73d2f7	0.014881841
1	0xbdc60d57	-0.09670513
2	0xbdfd780b	-0.12376412
3	0xbe920af5	-0.28523985
4	0x3eb33e3a	0.35008413
5	0x3e989b36	0.29805917
6	0xbe9eec20	-0.31039524
7	0xbe859241	-0.26088145
8	0xbd34a2ae	-0.044100456
9	0xbe4074ac	-0.18794507
10	0x3d59c5a8	0.053167015
11	0x3c9bdf29	0.01902731
12	0xbe8d21c4	-0.27564824
13	0xbeacd38b	-0.33755144
14	0xbe27ee24	-0.16399437
15	0x3d1edbfb	0.03878401
16	0x3decebd2	0.11568417
17	0x3e7774ba	0.24165621
18	0xbba1d63c	-0.004938869
19	0xbd4e5ca5	-0.05038132
20	0xbde8f601	-0.113750465
21	0x3e66e5d6	0.22548613
22	0x3e76df3f	0.24108599
23	0x3d932048	0.071838915
24	0xbc9ace17	-0.0188971
25	0xbda9ac9c	-0.08284876
26	0xbe9d2976	-0.30695695
27	0x3e389880	0.18026924
28	0x3ead1f1e	0.33812803
29	0x3e33e12f	0.1756637
30	0x3da2fc41	0.0795827
31	0x3d6a8518	0.057255834
32	0x3dc740b1	0.09729136
33	0xbe949e35	-0.29026952
34	0x3c2d2266	0.010567283
35	0x3ebdd2bd	0.37074843
36	0x3e72cf26	0.23711833
37	0xbe62e69c	-0.22158283
38	0xbdadf2f2	-0.08493604
39	0x3eacf3c1	0.3377972
40	0xbe924632	-0.2856918
41	0x3eb8f04c	0.36120832
42	0xbe10969a	-0.1411995
43	0x3e915d80	0.28391647
44	0xbd82fec0	-0.06396246
45	0x3e8705a8	0.26371503
46	0xbe63343d	-0.22187896
47	0xbdaf04b6	-0.085458204
48	0x3e9e4262	0.3091002
49	0xbe06a39d	-0.13148351
50	0xbea2f5dd	-0.31828204
51	0x3e40dbf4	0.18833905
52	0xbe7226b1	-0.23647572
53	0xbdf4fcda	-0.1196229
54	0xbd7a4449	-0.061100278
55	0xbda2b439	-0.07944531
56	0x3eb19802	0.34686285
57	0xbd110e9c	-0.035414323
58	0x3d3b74ff	0.045765873
59	0xbeabf793	-0.33587322
60	0xbe7ac9cf	-0.24491046
61	0x3eaadc57	0.3337123
62	0x3d6b380a	0.05742649
63	0x3ddebd44	0.10875943
64	0x3e1cbb4b	0.15305822
65	0xbe88cedc	-0.2672032
66	0x3e067f05	0.13134392
67	0x3cfd5340	0.030923486
68	0x3dfac514	0.12244621
69	0x3da54a20	0.08070779
70	0x3e53089b	0.20608751
71	0xbd934283	-0.071904205
72	0x3e4e3caf	0.20140336
73	0x3e6ada37	0.22934805
74	0xbddd3366	-0.10800819
75	0x3d342f21	0.043990258
76	0x3dbcdfea	0.09222396
77	0x3e2a6257	0.16639076
78	0x3e85bba6	0.26119727
79	0x3d2dd516	0.042439543
80	0x3df06575	0.117381014
81	0x3e90b1a8	0.2826054
82	0x3d4fde0c	0.05074887
83	0xbd9bccb2	-0.07607402
84	0x3da7dad3	0.08196034
85	0xbea02c9e	-0.3128404
86	0xbc48fd7b	-0.012267466
87	0x3e9d4b4f	0.30721518
88	0xbd1ed978	-0.038781613
89	0x3ebc9d93	0.3683897
90	0xbd33d0e2	-0.043900378
91	0xbe0b83ad	-0.13624449
92	0x3dfa1d02	0.12212564
93	0x3dc9b518	0.09848994
94	0xbea2aff4	-0.31774867
95	0xbec170f1	-0.3778148
96	0x3d876726	0.06611471
97	0x3e43f451	0.19136168
98	0x3d7e4a13	0.06208236
99	0xbe8adefa	-0.27123243
100	0xbe4daae4	-0.20084721
101	0xbe046d71	-0.12932374
102	0xbe14a2e4	-0.14515263
103	0x3e848d18	0.25888896
104	0xbe14e17b	-0.14539139
105	0xbdb9916d	-0.09060941
106	0x3e8e7048	0.2782004
107	0x3d60ccbb	0.054882746
108	0x3d036cc1	0.032086138
109	0xbe8d5736	-0.276056
110	0x3daa8c22	0.083275095
111	0x3e4e0df9	0.20122518
112	0x3e806eae	0.25084442
113	0xbe6273f3	-0.22114544
114	0x3e817ec1	0.25292018
115	0xbe5d05b6	-0.2158421
116	0xbe22b203	-0.15888219
117	0x3eb1b4f1	0.3470836
118	0x3e0067c9	0.12539591
119	0x3e302a9a	0.17203751
120	0xbeb8101e	-0.35949796
121	0xbe63d3bf	-0.22248743
122	0x3ebe15c3	0.37125978
123	0xbd633252	-0.05546791
124	0x3e9d3153	0.30701694
125	0x3e892bef	0.2679133
126	0xbebc8a33	-0.36824188
127	0xbe9a8c9b	-0.30185398
128	0x3bc6337c	0.006048618
129	0xbeabda06	-0.33564776
130	0x3e8c1654	0.27360785
131	0x3e1c2f8d	0.15252514
132	0xbe3b9c51	-0.18321349
133	0x3ea11ea9	0.31468704
134	0x3eb8dc60	0.36105633
135	0x3c828c99	0.015936183
136	0x3e63ba72	0.22239092
137	0x3b21441d	0.002460725
138	0xbea05878	-0.31317496
139	0x3e582938	0.21109474
140	0x3e81a3a7	0.2532017
141	0xbe5a80b3	-0.21338157
142	0xbdb82723	-0.0899184
143	0xbeb0fa9a	-0.34566194
144	0x3eac13f0	0.3360896
145	0xbe83eddb	-0.25767407
146	0xbc919d3e	-0.017775174
147	0xbe0ed095	-0.13946755
148	0x3e78f196	0.24310908
149	0xbeb253d9	-0.34829596
150	0xbe7b5a90	-0.24546266
151	0xbeaa5473	-0.33267555
152	0x3e38e22a	0.18055025
153	0x3d8c81b9	0.0686068
154	0xbe65ec31	-0.22453381
155	0xbe2301c0	-0.15918636
156	0x3db9d6b1	0.09074152
157	0x3e335c17	0.17515598
158	0xbebc9ba2	-0.36837488
159	0xbe7f1d14	-0.24913436
160	0xbdd3926e	-0.103306636
161	0x3e99df53	0.30053195
162	0xbd39b4ee	-0.045338564
163	0xbdbc1723	-0.091841005
164	0xbdf3e28b	-0.11908444
165	0xbe122746	-0.14272794
166	0xbd966b75	-0.073447146
167	0x3e70dbd2	0.23521355
168	0x3e1b4d76	0.15166268
169	0xbe351ae0	-0.17686033
170	0xbdedd7c2	-0.11613418
171	0x3e565085	0.20929153
172	0x3e9f1449	0.31070164
173	0xbe8d59f6	-0.27607697
174	0xbe82b176	-0.25526017
175	0xbe84ec4f	-0.2596154
176	0xbebd263a	-0.36943227
177	0x3e48743f	0.19575594
178	0x3d030207	0.031984355
179	0xbe4c182e	-0.19931099
180	0x3d7e574f	0.062094983
181	0xbe95dc55	-0.29269662
182	0xbd94e43f	-0.07270097
183	0x3e073f0b	0.13207643
184	0xbe3cb7f4	-0.18429548
185	0x3ebd972d	0.370294
186	0xbc329083	-0.010898712
187	0xbdb3d95f	-0.087816946
188	0x3e5a9be0	0.21348524
189	0xbdddbfd8	-0.10827607
190	0xbe42643c	-0.18983549
191	0x3c8c458d	0.017123008
192	0xbe9d2a9d	-0.30696574
193	0x3eba7c6b	0.36423048
194	0x3e971445	0.29507652
195	0xbea68882	-0.32526022
196	0x3db09953	0.08622994
197	0xbb044657	-0.0020183527
198	0xbd5cb2c3	-0.053881418
199	0xbebb5f2b	-0.36596045
200	0x3e228fa4	0.15875107
201	0xbe603d13	-0.21898298
202	0xbeb056e0	-0.3444128
203	0xbafcfee9	-0.0019302043
204	0x3deed145	0.11661009
205	0x3e86aa44	0.26301777
206	0x3e74aeda	0.23894826
207	0x3e6c7f78	0.230955
208	0xbc6bb6b3	-0.014386821
209	0x3d3a4827	0.045478966
210	0x3dc43de7	0.095821194
211	0x3dfcba5a	0.12340231
212	0xbe869bdf	-0.26290795
213	0x3e2300d8	0.1591829
214	0x3e7160ea	0.23572126
215	0xbd3146c6	-0.043280385
216	0x3d36addd	0.044599403
217	0x3e7ce262	0.24695733
218	0xbeaf0867	-0.34186098
219	0x3d42fcd7	0.047604408
220	0x3e6b11eb	0.22956054
221	0xbe1e2faa	-0.1544787
222	0xbebf6a31	-0.37385705
223	0xbe36ffa7	-0.17870961
224	0x3e4913b6	0.19636425
225	0xbebb457f	-0.3657646
226	0xbe18dd33	-0.14928131
227	0x3ebd4943	0.36969957
228	0x3d585b26	0.0528213
229	0x3cb3d3d1	0.021951588
230	0x3ea2a24a	0.31764442
231	0x3e56eade	0.20988032
232	0x3c9cc4f1	0.019136878
233	0x3e80a2bc	0.25124156
234	0x3e38fe22	0.18065694
235	0xbe66ff0d	-0.22558232
236	0x3e1b262d	0.15151282
237	0xbe1afc6e	-0.15135357
238	0x3e9be8a7	0.30450937
239	0xbea52909	-0.3225787
240	0x3dc417c1	0.09574843
241	0xbeb2dd5b	-0.34934506
242	0x3df59c9a	0.1199276
243	0xbea3373a	-0.31878072
244	0x3d7450e3	0.059647452
245	0x3ebcadb5	0.36851278
246	0x3eb8d490	0.36099672
247	0x3e1b8151	0.15186049
248	0xbe8c691a	-0.27423936
249	0xbe83ac4b	-0.25717387
250	0x3de558d7	0.111985855
251	0x3bb036eb	0.0053776405
252	0x3d897904	0.06712535
253	0x3d8d2a37	0.068928175
254	0xbdb45a64	-0.08806303
255	0xbeb93a0b	-0.36177096

layer1.bias f4 [128]
0	0xbe822b42	-0.25423628
1	0x3f6ef6eb	0.93345517
2	0x3f53bfe8	0.827147
3	0xbe2e0aba	-0.1699628
4	0xbe3431a8	-0.17597067
5	0x3f3d03ed	0.73834115
6	0xbc2fbb82	-0.010725858
7	0xbe712ae5	-0.23551519
8	0xbea191a6	-0.31556433
9	0x3f50025f	0.8125362
10	0x3ed831d0	0.42225504
11	0xbeac3354	-0.3363291
12	0x3f111343	0.56670016
13	0xbe39757a	-0.1811122
14	0x3f06cae0	0.5265331
15	0xbd5587f4	-0.052131608
16	0xbda6ccae	-0.08144508
17	0x3e015c14	0.12632781
18	0xbe80332d	-0.25039044
19	0xbe2b846f	-0.16749738
20	0xbeb68bf6	-0.35653657
21	0x3f229f99	0.63524777
22	0xbe3a68fb	-0.1820411
23	0x3f42436c	0.7588413
24	0x3f0590d2	0.52174103
25	0x3f59cbc2	0.85076535
26	0x3ef8b0d6	0.48572415
27	0xbec27054	-0.37976325
28	0x3e74e2f8	0.23914707
29	0xbd75897b	-0.059945565
30	0xbdc49f4c	-0.09600696
31	0x3f2feca8	0.68720484
32	0x3f2552c0	0.6457939
33	0xbea6523a	-0.3248461
34	0xbebf2b34	-0.3733765
35	0xbe026a78	-0.12735927
36	0xbe8cc2c4	-0.27492344
37	0xbc93b570	-0.018030852
38	0x3f0182ce	0.5059022
39	0xbe7e2a82	-0.24820903
40	0x3f6f801b	0.9355485
41	0xbeb57627	-0.35441706
42	0xbc917c6e	-0.017759528
43	0xbdd479d3	-0.103747986
44	0xbe060de0	-0.1309123
45	0xbe863a27	-0.26216242
46	0xbe30beec	-0.17260331
47	0x3e5358f7	0.20639406
48	0xbea95191	-0.33070043
49	0xbdc7c275	-0.097538866
50	0xbb58ac48	-0.0033061672
51	0xbead5150	-0.338511
52	0xbe92f935	-0.28705755
53	0x3f5008e0	0.8126354
54	0x3f6e665e	0.9312495
55	0xbeb2d458	-0.3492763
56	0xbeb385fe	-0.35063165
57	0x3ea01834	0.31268466
58	0x3dfaab71	0.12239731
59	0xbd596894	-0.05307825
60	0x3edecb1d	0.43514338
61	0x3f2aedda	0.6676918
62	0xbeaa543a	-0.33267385
63	0xbd66f3c4	-0.056384817
64	0xbe144d08	-0.1448251
65	0xbea11299	-0.314595
66	0xbc0033f5	-0.0078248875
67	0xbd9553ed	-0.07291398
68	0x3ef5332d	0.47890607
69	0x3f1bcec8	0.608624
70	0x3eb58cc1	0.3545895
71	0x3f1cb79a	0.61217654
72	0xbe8b3beb	-0.2719415
73	0xbec238bc	-0.3793391
74	0x3f49037a	0.7852093
75	0x3f4186dc	0.75596404
76	0xbe2ac4de	-0.16676661
77	0x3f66c039	0.9013706
78	0xbe77192b	-0.24130695
79	0xbe7232a7	-0.23652135
80	0xbdd087c1	-0.10182143
81	0xbe7d6408	-0.2474519
82	0xbca8488a	-0.020542402
83	0x3f693e8b	0.9111106
84	0x3f4ea003	0.8071291
85	0xbe81a989	-0.25324658
86	0xbec56e23	-0.3856059
87	0x3f1d3a9a	0.61417544
88	0x3f3cf0ef	0.73805135
89	0x3f114b24	0.5675528
90	0xbdd8f347	-0.105932765
91	0xbe05cb2f	-0.1306579
92	0x3f378697	0.7168974
93	0xbda48f96	-0.08035199
94	0x3f45a565	0.772055
95	0xbeb85499	-0.36002043
96	0xbca7ca42	-0.020482186
97	0xbe21d15d	-0.15802522
98	0xbe8c12f2	-0.27358204
99	0xbeb65b58	-0.35616565
100	0x3f1c124b	0.6096541
101	0xbe96adbb	-0.2942942
102	0xba0b2ac7	-0.00053088035
103	0xbead4c0c	-0.33847082
104	0x3f160f80	0.586174
105	0x3f09226d	0.53568155
106	0x3f3c6719	0.73594815
107	0xbde79b4f	-0.1130892
108	0x3f0b5254	0.544225
109	0xbc908c10	-0.017644912
110	0x3f5c6d5e	0.8610438
111	0xbebbb26b	-0.3665956
112	0xbe4d5ba8	-0.20054495
113	0xbe5a59d8	-0.21323335
114	0xbbb46cae	-0.0055061197
115	0xbb83d909	-0.0040236753
116	0xbd5ccaeb	-0.053904455
117	0x3f3c289d	0.7349947
118	0xbd0a899d	-0.033822645
119	0xbe77f4c1	-0.2421446
120	0xbeaa592d	-0.3327116
121	0x3ee10ef3	0.43956718
122	0x3e9d73c7	0.30752394
123	0xbc18d92d	-0.0093291225
124	0xbe899644	-0.26872456
125	0x3e5f973f	0.2183504
126	0xbb680b1c	-0.0035407012
127	0x3f420ed4	0.75803876

layer2.weight f4 [128, 128]
0	0xbd02b4be	-0.03191065
1	0x3da36fd2	0.079803124
2	0xbd257954	-0.04039891
3	0xbca6a62b	-0.020342907
4	0x3cb80db2	0.022467468
5	0x3c53aea4	0.012920056
6	0x3c1d8f2b	0.009616653
7	0x3bdba61d	0.006703152
8	0x3d9d739e	0.07688068
9	0xbd0ac585	-0.033879776
10	0x3d2e458f	0.042546805
11	0x3d8f736b	0.07004436
12	0x3d26d690	0.040731966
13	0xbb89a8e7	-0.004201043
14	0x3c24f216	0.010067483
15	0xbd9dda3b	-0.0770764
16	0x3d1d93d0	0.038471043
17	0xbc5ef2af	-0.013607665
18	0xbd075a73	-0.033045243
19	0xbcdabe0a	-0.026701946
20	0xbd06e3b5	-0.032932002
21	0xbd9e9b06	-0.07744412
22	0x3d3c69c4	0.045999303
23	0x3d3b231f	0.04568779
24	0x3d515166	0.05110302
25	0xbd811f91	-0.06304849
26	0xbd30594d	-0.043053914
27	0xbd21526d	-0.039385248
28	0xbd0e2319	-0.03470144
29	0xbda48a9b	-0.080342494
30	0x3c531cbe	0.012885271
31	0x3d589d90	0.05288464
32	0xbcd475ec	-0.025935136
33	0xbc52e87a	-0.01287281
34	0x3c2388e9	0.009981372
35	0x3d91ea21	0.07124735
36	0x3da17cb2	0.07885112
37	0x3d43a248	0.047762185
38	0xbd0f2136	-0.03494378
39	0x3d9849a8	0.07435924
40	0x3b9f77c3	0.0048665716
41	0xbd280b12	-0.041026182
42	0x3cadd920	0.021221697
43	0xbd2a8cae	-0.04163807
44	0x3c589605	0.013219361
45	0xbd93f81c	-0.072250575
46	0x3c6987dc	0.014253583
47	0x3d258090	0.04040581
48	0x3d941024	0.07229641
49	0x3d96a448	0.07355553
50	0x3d89f3a7	0.06735926
51	0xbd4ace6e	-0.049513273
52	0xbc9e0513	-0.019289529
53	0x3d942f8c	0.07235631
54	0x3d60e9c5	0.05491044
55	0xbc46c96c	-0.012132984
56	0xbb84bdc0	-0.0040509403
57	0xbca478c3	-0.020077115
58	0xbd6b65a4	-0.05746998
59	0xbd463a5d	-0.048395503
60	0x3cfb567c	0.030680887
61	0xbd965cbe	-0.07341908
62	0xbce79bc9	-0.028272526
63	0xbd1474b9	-0.036244128
64	0xbd36cefb	-0.044630986
65	0xbb3b95b3	-0.0028623163
66	0xbd157bea	-0.036495127
67	0x3c20187d	0.009771463
68	0x3b433991	0.002978895
69	0x3c88664c	0.016650341
70	0xbd5c9d58	-0.053860992
71	0x3d682677	0.056677308
72	0xbcede6a7	-0.029040648
73	0xbd810a12	-0.06300749
74	0xbda17223	-0.07883098
75	0xbcca942b	-0.024728855
76	0x3c46985d	0.012121287
77	0xbd40c8c9	-0.047066484
78	0xbd6cbb52	-0.05779583
79	0x3b85492a	0.0040675597
80	0x3d3be982	0.045876987
81	0x3d7ade7e	0.06124734
82	0x3d5657f5	0.052329976
83	0x3d947f4a	0.07250841
84	0x3b54943e	0.0032436992
85	0x3d4e9cbb	0.05044244
86	0x3b28f061	0.0025778043
87	0x3cb8c0b6	0.02255283
88	0xbd9f490a	-0.07777603
89	0x3d91bbe4	0.071159154
90	0x3d796f0b	0.060896914
91	0x3d613c41	0.054989103
92	0xbd6e4553	-0.05817158
93	0x3d808073	0.062745
94	0x3db3fefd	0.087888695
95	0xbc500783	-0.012697103
96	0x3ccf3f78	0.025298819
97	0x3d9542e2	0.072881475
98	0xbd70dd8d	-0.058805037
99	0xbd78aefb	-0.06071375
100	0x3bc534c4	0.006018253
101	0xbd3d5574	-0.046224073
102	0x3cb9cd6c	0.02268096
103	0xbda8229b	-0.082097255
104	0xbbad5860	-0.005290076
105	0x3ce09195	0.027413169
106	0x3d659766	0.056052588
107	0x3d298be1	0.041393165
108	0xbd860511	-0.06543935
109	0x3b053957	0.0020328367
110	0xbc22d627	-0.009938753
111	0x3d343ebb	0.044005137
112	0x3aa56ac3	0.0012620318
113	0x3d257c05	0.040401477
114	0x3d99b3f2	0.07505025
115	0x3ce3013d	0.027710551
116	0x3da13292	0.07870974
117	0xbd4f0106	-0.050538085
118	0xbd95c47a	-0.073128656
119	0xbd8baeb2	-0.0682043
120	0xbc0161f1	-0.007896886
121	0x3c9361f1	0.017991038
122	0xbd81d967	-0.06340294
123	0xbd9a9cfe	-0.07549475
124	0xbd142b5f	-0.036174174
125	0x3b9ec5f1	0.004845374
126	0xbc3c3770	-0.011487827
127	0xbc6325b4	-0.01386397
128	0x3d456eea	0.04820148
129	0x3ef4e349	0.47829655
130	0x3ef3a8c4	0.47589695
131	0xbdb1d950	-0.08684027
132	0xbda27ceb	-0.079339825
133	0xbcd4b0c2	-0.025963191
134	0xbd12d84e	-0.035850815
135	0xbc0769ff	-0.0082650175
136	0x3d855919	0.06511135
137	0x3ed1ec54	0.41000617
138	0xbd7fd518	-0.06245908
139	0xbd3a7acf	-0.045527276
140	0xbc068ff7	-0.008213035
141	0xbb90af9e	-0.0044154665
142	0x3dbece34	0.09316674
143	0x3c6fa412	0.01462652
144	0x3c60411b	0.013687397
145	0x3c5a3d49	0.013320276
146	0xbd52b076	-0.051437818
147	0x3d90c85c	0.070694655
148	0x3d2335b9	0.039846156
149	0x3ecd7367	0.40127108
150	0xbd596660	-0.053076148
151	0x3efd0e55	0.49424997
152	0xb9dfa8b3	-0.00042659565
153	0x3edcc5f6	0.43119782
154	0x3c8b54b2	0.01700816
155	0xbc9ab51d	-0.01888519
156	0xbc86e373	-0.016465878
157	0x3c381302	0.011235001
158	0xbd2516c1	-0.040304903
159	0x3eeab584	0.4584161
160	0x3c4cb5be	0.012494503
161	0x3cf99ca2	0.030470196
162	0xbd975251	-0.073887475
163	0x3d6f7f70	0.058471143
164	0xbcccea38	-0.025014028
165	0x3cb8a80e	0.022541072
166	0x3bb5fd21	0.005553857
167	0xbd780013	-0.060546946
168	0x3eefef6d	0.46862355
169	0xbd0720a7	-0.032990124
170	0x3d6b36ee	0.057425432
171	0xbc9d07f5	-0.019168833
172	0xbd44b9ee	-0.04802888
173	0xbc493d7d	-0.012282726
174	0x3d85a7f3	0.065261744
175	0x3d623232	0.05522365
176	0xbd9e7b09	-0.07738311
177	0x3d96d26f	0.07364356
178	0x3d2b5c75	0.04183622
179	0xbc4a792b	-0.01235799
180	0xbbc47222	-0.005995051
181	0x3ec1a54e	0.3782143
182	0x3ed0b66c	0.40764177
183	0x3c86706c	0.016411029
184	0xbd4960fd	-0.04916476
185	0xbd872b40	-0.06600046
186	0x3c6cbbe9	0.014449098
187	0xbc927d18	-0.017881915
188	0xbd1a3d55	-0.037656147
189	0x39369f29	0.00017416164
190	0x3d8c6a0b	0.068561636
191	0x3da8d4c9	0.082437105
192	0xbba7d34c	-0.005121624
193	0xbca58f47	-0.020209922
194	0x3cd99d72	0.026564334
195	0xbd4eaa0e	-0.050455146
196	0x3d9a71b8	0.075412214
197	0x3efa6e44	0.4891225
198	0x3d840978	0.064471185
199	0x3ecfd941	0.4059544
200	0xbd89c2e9	-0.06726629
201	0x3cb5d163	0.02219457
202	0x3ed770e9	0.4207833
203	0x3d237320	0.039904714
204	0xbd74954a	-0.059712686
205	0x3ee872cf	0.45400092
206	0xbb6fea72	-0.0036608246
207	0x3c197298	0.0093657
208	0xbd8e030d	-0.06934176
209	0x3d26d680	0.040731907
210	0x3d8adcf2	0.06780423
211	0x3d6e870f	0.05823427
212	0x3d8c489c	0.06849787
213	0x3c8d6f75	0.01726506
214	0xbdb4f1f6	-0.08835213
215	0x3d889590	0.06669152
216	0x3edca439	0.43094042
217	0x3ee40554	0.44535315
218	0xbd071417	-0.032978144
219	0x3d807335	0.06271974
220	0xbd80c8f6	-0.0628833
221	0x3d976586	0.07392411
222	0x3e7d6b56	0.24747977
223	0xbd807858	-0.06272954
224	0x3d9b6103	0.07586863
225	0xbd1764ab	-0.03696124
226	0x3d8be08c	0.06829938
227	0xbd99da61	-0.075123556
228	0x3ecf0965	0.40436855
229	0x3d7ba036	0.061432086
230	0x3d20708c	0.039169833
231	0x3d8da0be	0.06915425
232	0x3c84be6d	0.016204083
233	0xbd21affb	-0.03947447
234	0x3ec22d14	0.37925017
235	0xbbdcc0b1	-0.006736838
236	0xbd0ad8b9	-0.03389809
237	0xbd8fd0e0	-0.070222616
238	0x3ee4638d	0.446072
239	0xbda43719	-0.080183215
240	0xbd7ef101	-0.062241558
241	0x3da9604a	0.08270319
242	0xbb545650	-0.003240008
243	0xbd925e5c	-0.07146904
244	0xbd092b1b	-0.033488374
245	0x3ed75550	0.42057276
246	0x3d48128f	0.048845824
247	0x3d90b4b8	0.07065719
248	0x3b9d3ddc	0.004798634
249	0xbd6f2da1	-0.058393124
250	0xbda41546	-0.0801187
251	0x3cb155e4	0.021647401
252	0x3ca8d71d	0.020610387
253	0xbd7354fd	-0.059407223
254	0xbd33bf50	-0.04388362
255	0x3ef24863	0.47320852

layer2.bias f4 [128]
0	0xbd956783	-0.07295134
1	0x3ecd8d83	0.40147027
2	0x3d64ab5a	0.055827476
3	0x3cb62e3f	0.022238849
4	0x3d0a9101	0.033829693
5	0xbd3b6d59	-0.04575858
6	0x3d5ed28f	0.054400023
7	0x3eb1e39b	0.34743962
8	0x3d66db2b	0.05636136
9	0xbd3ff06d	-0.046860147
10	0x3b814dd7	0.003946047
11	0x3c394be6	0.0113095995
12	0x3da3765a	0.07981558
13	0xbd45c039	-0.04827902
14	0x3cdd32de	0.027001794
15	0x3ce38892	0.027775083
16	0x3d82e2bf	0.06390905
17	0x3f0c271c	0.54747176
18	0xbd83d493	-0.0643703
19	0x3d227d93	0.03967054
20	0x3d7a2512	0.06107051
21	0x3c4b34cd	0.012402725
22	0xbc5d1ef4	-0.013496149
23	0x3d9a7b07	0.07542997
24	0x3d9d3775	0.07676593
25	0x3c6a9dea	0.014319876
26	0xbca2c608	-0.01986982
27	0x3d1b16d2	0.03786356
28	0x3d6d6575	0.057958085
29	0x3ef2d0f8	0.47425056
30	0x3ee1f6f3	0.4413372
31	0x3dec8669	0.11549074
32	0x3cb5965f	0.02216643
33	0xbd49501a	-0.049148656
34	0x3e23d987	0.16000949
35	0xbd6f9582	-0.05849219
36	0x3c31d6c6	0.010854429
37	0x3d20698a	0.03916315
38	0x3da7ab73	0.08186998
39	0x3c9387ee	0.018009152
40	0xbd4b736c	-0.04967062
41	0x3ecc0e4d	0.3985466
42	0xbd97c4cb	-0.07410582
43	0x3e1b016f	0.15137266
44	0xbd1fde4e	-0.039030366
45	0x3f02de5d	0.5112055
46	0x3d2f8eb6	0.04286071
47	0x3c9abc02	0.018888477
48	0xbc9368c2	-0.017994288
49	0x3d23de69	0.04000703
50	0xbd72f787	-0.05931809
51	0x3ece656e	0.4031176
52	0xbd3090f7	-0.043107
53	0x3d14d411	0.036335055
54	0x3e29b7f7	0.16574083
55	0x3c92a4f0	0.017900914
56	0x3f0df4dc	0.5545175
57	0x3dabce89	0.08389003
58	0xbd6757dd	-0.056480277
59	0x3be243b4	0.0069050435
60	0x3de62129	0.112367935
61	0x3b3dcdbe	0.0028961743
62	0xbcf3836b	-0.02972575
63	0x3d5be843	0.0536883
64	0x3de800e8	0.11328298
65	0x3d632012	0.055450507
66	0x3cf30793	0.029666698
67	0xbc50809a	-0.0127259735
68	0xbc2ba4b7	-0.010476283
69	0x3d925dfa	0.07146831
70	0x3d7f31ed	0.062303472
71	0x3b63ffd2	0.0034789932
72	0x3ec4b9e7	0.38423082
73	0x3d67a0e9	0.05654994
74	0xbd66be32	-0.056333728
75	0xbd6fdbe2	-0.058559306
76	0xbd0859a4	-0.033288613
77	0xbd830e5b	-0.063992225
78	0x3f10c6bb	0.5655324
79	0x3bee7e72	0.007278257
80	0x3cb34f3e	0.021888372
81	0xbd612999	-0.05497131
82	0x3d937faa	0.07202084
83	0x3b36f121	0.002791472
84	0xbc96ca60	-0.018407047
85	0x3dbdd4cd	0.09269104
86	0x3da9dbbf	0.08293866
87	0x3dc91f14	0.09820381
88	0x3df01118	0.117220104
89	0x3ceae532	0.028673742
90	0x3e325558	0.17415369
91	0x3d6c4b46	0.057688974
92	0xbd30d63b	-0.043173056
93	0x3eacde1b	0.33763203
94	0x3d10e96b	0.035378855
95	0x3d353e7c	0.044249043
96	0xbd7eaa1e	-0.062173955
97	0x3d08d3ba	0.033405043
98	0xbd36b86d	-0.044609476
99	0x3d5a65a4	0.05331959
100	0x3da27203	0.07931902
101	0x3e1e0de5	0.15434988
102	0xbd2b0a0a	-0.04175762
103	0x3dddc975	0.108294405
104	0x3e05a0c8	0.13049614
105	0xbd14a698	-0.03629169
106	0x3e9086ee	0.28227943
107	0xbd9c6f18	-0.07638377
108	0x3dcf621b	0.10126134
109	0xbcab3667	-0.020899964
110	0xbc75c763	-0.015001151
111	0x3e11bd33	0.1423233
112	0xbd9a7c1c	-0.07543203
113	0x3ca88d3b	0.020575156
114	0x3c2567f2	0.010095583
115	0xbd8bd32c	-0.06827387
116	0xbd8c3e13	-0.06847777
117	0xbd94e719	-0.07270641
118	0x3d141c1d	0.036159623
119	0x3d988756	0.07447688
120	0x3dc785e9	0.09742338
121	0x3db11f23	0.08648517
122	0xbc0c6de8	-0.008571126
123	0xbd823e01	-0.063594826
124	0x3d6d4a93	0.057932448
125	0x3ed5031a	0.4160393
126	0x3b1f9ed9	0.0024356155
127	0x3da1f1ba	0.07907434

layer3.weight f4 [3, 128]
0	0xbcbb7cb3	-0.02288661
1	0x3dd1c632	0.10242881
2	0xbcc73e49	-0.024321692
3	0x3d0f83ce	0.035037808
4	0xbd31a58c	-0.04337077
5	0x3c783dfd	0.015151498
6	0x3d39d7ec	0.045371935
7	0x3d9fed3d	0.078089215
8	0xbd27da24	-0.04097952
9	0x3d0d213a	0.034455515
10	0x3bae1040	0.0053119957
11	0x3d4c643e	0.049900286
12	0xbd514945	-0.051095266
13	0x3ba85f95	0.0051383474
14	0xbc8293e1	-0.015939655
15	0x3d296bf6	0.041362725
16	0xbda18ea3	-0.07888534
17	0x3f0121a8	0.5044198
18	0x3da88480	0.08228397
19	0xbd2d1f5e	-0.042266242
20	0xbd678d7a	-0.056531407
21	0xbc72963b	-0.014806326
22	0x3d5fbb52	0.054622002
23	0x3d2f1ae4	0.042750254
24	0x3bdc4761	0.006722376
25	0x3db7b8e7	0.08970814
26	0x3c45a309	0.012062796
27	0xbcd71500	-0.02625513
28	0x3d96d798	0.0736534
29	0x3dd41f4d	0.10357533
30	0x3eef627d	0.46754828
31	0x3d9f9b60	0.07793307
32	0xbd8ccb1a	-0.06874676
33	0x3d8e70d2	0.069551125
34	0x3cf47b1a	0.029843856
35	0x39b523b3	0.00034549608
36	0x3d9b617c	0.07586953
37	0xbd500815	-0.050788958
38	0x3cf0c097	0.029388709
39	0x3ca5c270	0.020234317
40	0xbd902afe	-0.0703945
41	0x3ecf3717	0.40471718
42	0x3d9feffe	0.07809447
43	0x3c9b751c	0.01897674
44	0x3d6d5ba7	0.057948735
45	0x3f0437ea	0.5164782
46	0x3cef0dc2	0.029181365
47	0x3db24b3f	0.08705758
48	0x3d6b75ad	0.05748527
49	0x3d5e3220	0.05424702
50	0x3d414889	0.047188316
51	0x3f041a39	0.5160251
52	0xbd81b6cb	-0.06333693
53	0x3d9e935b	0.077429496
54	0x3cd85c72	0.026411269
55	0x3d9b413b	0.07580801
56	0x3eeb1f13	0.45922145
57	0xbd811225	-0.06302289
58	0x3d787771	0.060660783
59	0xbd01096d	-0.03150313
60	0xbd8898b0	-0.06669748
61	0x3d175107	0.036942508
62	0x3d9c269a	0.0762455
63	0x3d2cf4c1	0.042225603
64	0xbb8f48e1	-0.0043727015
65	0x3bbdf0e8	0.0057965405
66	0xbd5cd2e9	-0.053912077
67	0x3cb50c71	0.02210066
68	0x3c9f6091	0.019455226
69	0x3d0d20c5	0.03445508
70	0x3d9f1ff4	0.077697664
71	0xbd8de821	-0.06929041
72	0x3db66531	0.089060195
73	0x3d25ced9	0.04048047
74	0xbc44e687	-0.012017853
75	0xbd5579f2	-0.05211825
76	0xbd9cefbd	-0.07662914
77	0x3c559682	0.013036372
78	0x3ed1d658	0.40983844
79	0x3d26b543	0.04070021
80	0x3c356462	0.011071296
81	0x3d3b53df	0.045734283
82	0x3cd868cf	0.026417164
83	0xbcafcc24	-0.021459647
84	0x3d6107b0	0.054938972
85	0x3d77eeba	0.0605304
86	0x3d18d383	0.03731109
87	0xbd9518b7	-0.072801046
88	0xbada9a9a	-0.0016678155
89	0xbba5cf5e	-0.0050601205
90	0x3dc570bf	0.09640645
91	0x3c0ef31a	0.008724952
92	0x3c4c8046	0.012481755
93	0x3dae05a3	0.08497169
94	0xbca40bef	-0.020025222
95	0x3d3b91cb	0.045793336
96	0x3cb1491b	0.021641305
97	0xbc08f6da	-0.008359635
98	0x3d9992b1	0.07498682
99	0xbcea769a	-0.028621007
100	0x3d0dcbf6	0.03461834
101	0x3c920a4d	0.017827177
102	0x3d91e3b1	0.07123507
103	0x3cdd75af	0.027033655
104	0xbd5cc528	-0.05389896
105	0xbd3ebfec	-0.04656975
106	0x3ba26838	0.0049562715
107	0xbd6503c1	-0.055911783
108	0x3da85930	0.08220136
109	0x3c5b5acc	0.013388347
110	0x3d4fbf2e	0.050719433
111	0x3d8c10d6	0.06839149
112	0x3d75b99a	0.059991457
113	0x3cc21191	0.023690017
114	0xbcbaa4fa	-0.022783745
115	0x3d33cc56	0.04389604
116	0x3d554308	0.05206588
117	0xbb84392a	-0.004035135
118	0xbd68f821	-0.05687726
119	0x3d2baa9f	0.041910764
120	0x3c2be159	0.010490739
121	0x3d93b324	0.07211903
122	0xbbace5a3	-0.0052763983
123	0x3d937cea	0.0720156
124	0x3d4245a9	0.047429714
125	0x3e634303	0.22193532
126	0xbd9bac74	-0.07601252
127	0x3d0da241	0.034578566
128	0x3d88394c	0.066515535
129	0x3d8dcd7c	0.06923959
130	0xbd983da0	-0.07433629
131	0xbd850759	-0.06495542
132	0xbcb4901a	-0.02204137
133	0xbcbb7ce8	-0.022886708
134	0xbce3c9a0	-0.027806103
135	0x3d43ba84	0.047785297
136	0xbd34213a	-0.043977
137	0x3da6dfc1	0.081481464
138	0xbda16a5c	-0.078816146
139	0x3d8f1cea	0.06987937
140	0xbd7682c1	-0.06018329
141	0xbd88da4c	-0.06682262
142	0xbd4c4a11	-0.049875323
143	0xbd83233e	-0.06403206
144	0x3d97f35e	0.074194655
145	0x3f08f696	0.5350126
146	0x3cff5c60	0.031171978
147	0x3d9359a1	0.0719483
148	0xbb8560a7	-0.0040703597
149	0xbb7ea6bb	-0.0038856703
150	0xbcd6b90e	-0.026211288
151	0xbd931e44	-0.07183507
152	0xbd5bef9b	-0.053695302
153	0x3b0b4877	0.002125291
154	0xbd83bcc0	-0.064324856
155	0x3c8ecc48	0.017431393
156	0xbc962d69	-0.0183322
157	0xbac96c29	-0.0015367317
158	0x3f05e51d	0.52302724
159	0x3cdc18be	0.026867267
160	0xbd9dd1f3	-0.0770606
161	0x3db0d616	0.08634584
162	0x3d37e2ed	0.044894148
163	0x3a8eea4b	0.0010903565
164	0xbd6e8705	-0.058234233
165	0x3d42df24	0.047576085
166	0xbcb46b03	-0.022023683
167	0xbbdb9e1a	-0.006702197
168	0xbd0d7997	-0.034539785
169	0x3f067339	0.52519566
170	0xbc098439	-0.008393341
171	0x3d8be792	0.06831278
172	0xbbf6726e	-0.0075209653
173	0x3f04cce8	0.5187516
174	0xbd716a6b	-0.05893938
175	0x3dc415fa	0.09574504
176	0xbd50e62a	-0.05100075
177	0x3bb917ea	0.0056486027
178	0xbd79f0ff	-0.061020847
179	0x3f00f263	0.5036985
180	0x3d2d6544	0.042332903
181	0xbd421796	-0.047385775
182	0x3d641705	0.055686016
183	0xbd893604	-0.06699756
184	0x3ef2cac2	0.47420317
185	0xbd3a6d8e	-0.045514636
186	0xbd2e1b5a	-0.042506553
187	0xbd38bc9a	-0.04510174
188	0x3db03a5a	0.0860488
189	0xbd911337	-0.07083743
190	0xbd408e92	-0.047010966
191	0xbd8a6561	-0.06757618
192	0x3d8bbb99	0.06822891
193	0x3d4ae968	0.049539
194	0x3d2b98d2	0.041893788
195	0xbcb69f92	-0.022292886
196	0xbb81f459	-0.003965896
197	0x3c9515d7	0.01819889
198	0x3da89633	0.08231773
199	0xbbd2edb7	-0.006437029
200	0x3e5ab074	0.21356374
201	0x3d7a2240	0.06106782
202	0x3c6151e4	0.013752434
203	0xbd228640	-0.039678812
204	0x3cf08cb2	0.029363964
205	0x3d82ab46	0.06380324
206	0x3ef19328	0.47182584
207	0xbd61823b	-0.055055838
208	0xbc0fd3ad	-0.008778495
209	0xbc9c67cd	-0.019092465
210	0x3d304402	0.043033607
211	0x3cbad684	0.022807367
212	0xbd939772	-0.0720662
213	0x3da09514	0.078409344
214	0x3d7868e0	0.06064689
215	0x3d558384	0.052127376
216	0x3cc01d6d	0.023451531
217	0xbca1f7ea	-0.019771535
218	0x3da6390f	0.08116352
219	0x3d872000	0.065979004
220	0xbc0c02a8	-0.008545555
221	0x3db7cb42	0.08974315
222	0x3b8309ca	0.0039989697
223	0xbd6745d2	-0.05646307
224	0xbd17fc47	-0.037105825
225	0xbcbecf6c	-0.023292266
226	0x3ca39af0	0.01997134
227	0xbd21dff3	-0.039520215
228	0xbb8ebd6b	-0.0043560765
229	0x3d6315a1	0.05544055
230	0x3d3ff961	0.046868686
231	0xba4c215c	-0.00077869534
232	0x3d24118e	0.040055804
233	0x3b4af66b	0.003096963
234	0x3d8da84b	0.06916865
235	0xbca699f4	-0.020337082
236	0x3ad4cce3	0.0016235377
237	0x3d0e8d79	0.034802888
238	0x3cd4d040	0.025978208
239	0x3d365193	0.04451139
240	0x3db2d2e7	0.08731633
241	0xbd60c823	-0.054878365
242	0xbc8ebfe7	-0.01742549
243	0xbd862b2a	-0.06551202
244	0x3d868a23	0.06569316
245	0xbd94e1df	-0.07269644
246	0x3da43d83	0.08019545
247	0x3d8c187b	0.06840607
248	0x3d921b37	0.07134097
249	0x3d9966dd	0.07490323
250	0xbd158e71	-0.036512796
251	0x3cf9ce79	0.030493962
252	0x3b1c5071	0.0023851658
253	0x3e7467b5	0.23867686
254	0x3c57e334	0.013176728
255	0xbd8c9377	-0.06864064

layer3.bias f4 [3]
0	0xbd3c7a46	-0.046015047
1	0x3dffa228	0.12482101
2	0xbd25f0f8	-0.04051301
