models/rl_models/03.03.24_without_punishments/best_policy_dqn_model_epoch_20.pt (torch, 74158 bytes, 6 tensors)

layer1.weight f4 [128, 6]
000000 79 32 96 3c 61 f9 c1 bd 6e 6f f7 bd c7 f4 91 be
       0.018334614 -0.094713934 -0.120818004 -0.28507063
000010 8f b0 b6 3e cb 5f 9c 3e 4c ac a0 be ef 00 87 be
       0.3568158 0.30541834 -0.31381452 -0.263679
000020 94 8b 36 bd 52 86 42 be 2b 1e 5c 3d 90 76 9d 3c
       -0.044566706 -0.18996552 0.053739708 0.019221574
000030 72 90 8e be 4e b4 ae be 4e ae 29 be 27 9c 20 3d
       -0.27844578 -0.34121937 -0.16570398 0.03921142
000040 b1 77 ef 3d 17 19 7a 3e b7 88 9f bb d9 a0 4f bd
       0.11692751 0.24423634 -0.0048685926 -0.050690506
000050 28 77 eb bd 45 69 69 3e b8 b9 79 3e d9 ba 94 3d
       -0.114973366 0.22794063 0.24387252 0.07262201
000060 84 8f 9b bc 95 0b ab bd da ea 9e be 45 9c 3a 3e
       -0.018989332 -0.083518185 -0.31038553 0.18223675
000070 bf 1e af 3e 8e 9a 35 3e e2 4f a4 3d f9 3c 6c 3d
       0.34203145 0.17734739 0.08023049 0.057675336
000080 5d e8 c8 3d a0 35 96 be 3c 0a 2f 3c 65 e4 bf 3e
       0.09809945 -0.29337788 0.010683592 0.3747894
000090 53 29 75 3e 87 91 65 be 06 ac b1 bd 76 be ae 3e
       0.23941545 -0.22418796 -0.08675389 0.34129685
0000a0 8d 01 94 be 2b 65 ba 3e d6 65 12 be d0 c6 92 3e
       -0.28907433 0.3640531 -0.1429666 0.28667307
0000b0 30 a5 86 bd 7e 6b 88 3e 43 cb 65 be 92 dc b2 bd
       -0.06574476 0.2664451 -0.2244082 -0.08733477
0000c0 f3 e3 9f 3e 6a 63 08 be 9c 5e a5 be 9e ca 42 3e
       0.312286 -0.13319173 -0.32298744 0.19022605
0000d0 66 e7 74 be 8d 04 fa bd ea f8 7c bd 63 74 a4 bd
       -0.23916396 -0.12207899 -0.06176082 -0.080300115
0000e0 e8 80 b3 3e 0a a6 12 bd 09 76 3d 3d 56 c4 ad be
       0.35059285 -0.03580288 0.046255145 -0.33938855
0000f0 a1 20 7d be 53 d6 ac 3e 87 42 70 3d 29 ee e1 3d
       -0.24719478 0.33757266 0.058657195 0.110317536
000100 25 e0 1e 3e 88 e8 89 be f5 8b 07 3e 40 c2 fb 3c
       0.15515192 -0.2693522 0.13236983 0.030732274
000110 47 9c f9 3d f5 aa a6 3d 33 f1 54 3e 06 5e 98 bd
       0.12188011 0.08138076 0.20795135 -0.074398085
000120 3f ce 50 3e c8 ce 6d 3e d1 4e de bd d6 cc 36 3d
       0.20391177 0.23223412 -0.10854877 0.04462894
000130 f0 6c bf 3d 16 9e 2c 3e 7b 4b 87 3e 47 b8 30 3d
       0.0934695 0.1685718 0.26424775 0.04314449
000140 46 a4 f4 3d 58 63 92 3e d3 d6 52 3d 95 cc 9b bd
       0.11945395 0.28591418 0.051474404 -0.0760738
000150 5f 8e a9 3d d8 e1 a1 be 4e 7e 2e bc 82 f3 9e 3e
       0.08279108 -0.31617618 -0.010650231 0.31045157
000160 14 43 20 bd 9b 92 bf 3e c8 b9 35 bd 5b f2 0c be
       -0.03912647 0.3741654 -0.044366628 -0.13764326
000170 a2 d1 fc 3d 3e d0 cb 3d 1e 70 a4 be 97 82 c3 be
       0.12344672 0.099518284 -0.3211679 -0.3818557
000180 7b 5e 8b 3d 43 3c 47 3e 88 fb 82 3d a8 4d 8c be
       0.0680513 0.19456582 0.06395632 -0.27402997
000190 48 e5 4f be 1f dc 05 be f3 d4 15 be bd 3e 86 3e
       -0.20302308 -0.13072251 -0.14632015 0.2621974
0001a0 16 64 15 be b6 d1 ba bd 96 32 90 3e 17 45 67 3d
       -0.14588961 -0.091220304 0.28163594 0.056462374
0001b0 3c 4c 04 3d c7 df 8e be 96 24 aa 3d 91 24 50 3e
       0.032299265 -0.27905104 0.083077595 0.20326449
0001c0 7b c3 81 3e 09 eb 65 be 6e fc 82 3e 84 5d 5f be
       0.25344452 -0.2245294 0.25583214 -0.21813017
0001d0 5a db 23 be 97 a8 b3 3e b4 d8 01 3e 01 a3 32 3e
       -0.16001645 0.3508956 0.12680322 0.17444994
0001e0 04 f9 b9 be df 36 66 be 6b 27 c0 3e 74 95 65 bd
       -0.36322796 -0.22481869 0.37530074 -0.056050733
0001f0 c9 d9 9e 3e 9d 9a 8a 3e db 9b be be 07 24 9c be
       0.31025532 0.27071086 -0.37228283 -0.30496237
000200 22 45 c8 3b 19 a4 ad be 02 85 8d 3e f9 c6 1d 3e
       0.006111757 -0.3391426 0.2764054 0.15407933
000210 0f 1c 3d be ae 22 a3 3e 99 31 bb 3e cd 9c 87 3c
       -0.18467735 0.31862396 0.36561278 0.01655426
000220 89 98 66 3e c2 bb 56 3b a2 18 a2 be 47 64 5a 3e
       0.22519125 0.003276572 -0.31659418 0.21327315
000230 55 12 83 3e d7 e3 5c be 0a 10 ba bd 80 e3 b2 be
       0.25599924 -0.21571289 -0.090850905 -0.34939194
000240 2d 10 ae 3e 92 28 85 be bc ff 8a bc bd 1c 10 be
       0.33996716 -0.26007515 -0.016967647 -0.14073463
000250 24 f9 7b 3e 8a c4 b3 be 30 0f 7e be 9d 14 ac be
       0.24606758 -0.35110885 -0.24810481 -0.33609477
000260 10 cb 3a 3e 67 f0 8d 3d 4f 4f 68 be ea c1 24 be
       0.18241525 0.06930619 -0.22686504 -0.16089597
000270 2b 23 bd 3d 63 e9 35 3e e8 5a be be 8c f6 80 be
       0.092352234 0.17764811 -0.3717873 -0.251881
000280 d3 cc d5 bd bb 76 9b 3e d4 9d 3b bd b1 25 be bd
       -0.10439458 0.30364022 -0.045804814 -0.09284533
000290 6a 6e f6 bd b6 be 13 be de 02 98 bd ad 67 73 3e
       -0.120327786 -0.14428219 -0.07422422 0.23770018
0002a0 ad 20 1d 3e b5 a7 36 be 8e 5e ef bd b0 c6 58 3e
       0.15344496 -0.17837413 -0.11687957 0.21169543
0002b0 7b 02 a1 3e 40 87 8e be 24 20 84 be fd 5a 86 be
       0.31447205 -0.27837563 -0.2580577 -0.26241294
0002c0 e2 37 bf be e5 85 4a 3e b5 70 04 3d 95 52 4e be
       -0.37347323 0.19777639 0.03233405 -0.2014869
0002d0 d9 8d 80 3d c0 73 97 be a5 7b 96 bd b9 ad 08 3e
       0.06277055 -0.29580498 -0.07347802 0.1334752
0002e0 9c c9 3e be d5 a8 bf 3e 6a 79 34 bc 46 c2 b5 bd
       -0.18631595 0.37433496 -0.0110152755 -0.08874945
0002f0 00 ff 5c 3e fb 22 e0 bd e2 75 44 be 3b b4 8d 3c
       0.2158165 -0.10944172 -0.19185594 0.017297855
000300 75 a1 9e be 98 96 bc 3e ad d6 98 3e ac 48 a8 be
       -0.30982557 0.36833644 0.29851285 -0.32867944
000310 39 82 b2 3d 05 b5 05 bb e4 15 5f bd 65 5e bd be
       0.08716244 -0.0020402086 -0.054464236 -0.3698608
000320 ce 4f 24 3e 32 a0 62 be cc 3f b2 be 8a b3 ff ba
       0.16046068 -0.22131422 -0.34814298 -0.0019508463
000330 91 27 f2 3d 67 4c 88 3e 7f 71 78 3e fa 53 6f 3e
       0.11823953 0.2662079 0.24262045 0.23371878
000340 c1 c4 69 bc 40 bb 40 3d 92 23 c7 3d de 37 00 3e
       -0.014268101 0.047053576 0.097235814 0.12521312
000350 63 54 87 be 55 1b 25 3e fe 59 74 3e 9d b6 2d bd
       -0.2643157 0.16123708 0.23862454 -0.04241048
000360 65 17 3a 3d 30 09 80 3e e4 7a b0 be e8 36 46 3d
       0.045432467 0.2500701 -0.34468758 0.048392206
000370 e9 00 6e 3e 90 17 1f be d9 7b c1 be 8d e8 38 be
       0.23242535 -0.15536332 -0.377898 -0.18057461
000380 5c 25 4b 3e 94 42 bd be 9b 74 1a be eb 5a bf 3e
       0.1983847 -0.36964858 -0.15083544 0.37374052
000390 20 e8 5b 3d e6 98 b9 3c 31 a3 a4 3e 00 6f 59 3e
       0.05368817 0.022655915 0.32155755 0.2123375
0003a0 c1 2c a2 3c a5 4f 82 3e 0c ed 3a 3e f7 7e 69 be
       0.019796731 0.2545139 0.18254489 -0.2280234
0003b0 e7 04 1d 3e d6 8d 1c be 49 72 9d 3e a9 c5 a6 be
       0.15333901 -0.15288481 0.30751255 -0.32572678
0003c0 67 29 c6 3d 43 c6 b4 be 75 28 f8 3d 64 f7 a4 be
       0.096758656 -0.35307512 0.121170916 -0.32219994
0003d0 c3 dc 76 3d 5d bf be 3e af d0 ba 3e 7c 30 1d 3e
       0.06026913 0.37255374 0.36487338 0.15350527
0003e0 af 08 8e be 4f 07 85 be 40 ec e7 3d 14 b8 a5 3b
       -0.27741 -0.2598214 0.11324358 0.005057344
0003f0 4b e0 8b 3d f9 94 8f 3d 27 4f b5 bd f1 22 bb be
       0.0682989 0.07010836 -0.08852988 -0.36550096

layer1.bias f4 [128]
000000 97 69 81 be 36 1e 77 3f 30 8f 5b 3f 8f f2 2f be
       -0.2527587 0.96530473 0.8576536 -0.17182373
000010 b8 49 36 be 4e b6 44 3f 44 3d 40 bc e2 d1 74 be
       -0.17801559 0.76840675 -0.011733357 -0.23908189
000020 e4 f7 a3 be b3 d7 57 3f 57 0d e1 3e b2 03 af be
       -0.32025063 0.84313506 0.4395549 -0.34182507
000030 35 b0 15 3f 5e 8a 3a be 9f 15 0e 3f 58 c2 57 bd
       0.58471996 -0.18216845 0.5550174 -0.052675575
000040 33 20 a6 bd 00 7e 05 3e 8b 2b 82 be 71 b3 2c be
       -0.0811161 0.13036346 -0.25423846 -0.16865326
000050 dc 74 b8 be 21 f7 29 3f 4e 74 3b be 9c e1 49 3f
       -0.36026657 0.66392714 -0.18306085 0.7885988
000060 36 5e 0c 3f 78 b2 61 3f 0f 17 03 3f fa 81 c4 be
       0.54831254 0.88162947 0.5120706 -0.38380414
000070 17 fd 84 3e 58 15 78 bd f2 b0 c6 bd 07 6d 37 3f
       0.25974342 -0.06056723 -0.097017184 0.7165074
000080 64 ac 2c 3f 64 12 a8 be 5a a2 c0 be 30 6e 02 be
       0.6745055 -0.3282653 -0.37623864 -0.12737346
000090 9b b9 8d be e2 4c 95 bc fd d4 08 3f 9c 51 80 be
       -0.27680668 -0.018225137 0.53449994 -0.25062263
0000a0 57 95 77 3f 4c 8c b7 be 9b 42 8f bc 95 6f d7 bd
       0.9671225 -0.35849226 -0.017487815 -0.105193295
0000b0 0a ba 06 be bd 68 88 be e7 14 32 be af fe 59 3e
       -0.13156906 -0.2664241 -0.17390786 0.2128856
0000c0 bb 11 ab be b6 d6 cb bd b3 f0 5a bb 39 3a af be
       -0.33411965 -0.09953062 -0.0033407628 -0.34224108
0000d0 7d dd 94 be c4 de 57 3f 68 7b 76 3f ac c7 b4 be
       -0.29075232 0.8432429 0.96282053 -0.35308588
0000e0 83 03 b5 be 30 2b a9 3e f1 f5 d1 3d 73 ba 5b bd
       -0.35354242 0.33040762 0.10251988 -0.05364461
0000f0 ec 09 ed 3e 3b c4 31 3f 8e fa ab be e4 56 69 bd
       0.46296632 0.6944005 -0.33589596 -0.05696763
000100 6c e4 15 be c3 d2 a2 be bc 1d 02 bc 56 eb 96 bd
       -0.14637917 -0.31801423 -0.00794166 -0.073691055
000110 5e 2f 01 3f d7 27 23 3f de c3 c0 3e 4d 15 24 3f
       0.504629 0.63732666 0.37649435 0.64095
000120 74 4a 8c be 62 4a c4 be 87 c1 50 3f 15 04 49 3f
       -0.27400553 -0.38338 0.815453 0.78521854
000130 86 98 2c be 6a cd 6e 3f d0 b7 79 be 29 de 74 be
       -0.16855058 0.93282187 -0.24386525 -0.23912872
000140 36 f6 d1 bd 22 12 80 be 37 56 a9 bc b4 1d 71 3f
       -0.10252039 -0.25013834 -0.020670993 0.9418595
000150 8c 5c 56 3f 33 f9 82 be 9c 24 c7 be 72 b3 23 3f
       0.83734965 -0.2558075 -0.38895118 0.63945687
000160 67 91 44 3f 01 8f 18 3f ad e0 db bd d5 eb 03 be
       0.76784366 0.59593207 -0.10736213 -0.12882932
000170 74 6a 3f 3f 5e c8 a3 bd ff bd 4d 3f 34 03 ba be
       0.7477181 -0.079972014 0.80368036 -0.3633057
000180 ff ca aa bc 35 da 22 be 90 e7 8c be 86 1d b8 be
       -0.02084875 -0.15903552 -0.27520418 -0.35960025
000190 89 69 23 3f d3 49 98 be fc f3 6c ba f6 34 af be
       0.6383291 -0.29743823 -0.0009039042 -0.34220093
0001a0 d2 85 1d 3f 11 c4 0f 3f 53 5d 44 3f e4 ca e8 bd
       0.6153232 0.5615855 0.767049 -0.11366823
0001b0 99 90 11 3f 82 23 92 bc 9e 66 64 3f 93 b8 bd be
       0.56861264 -0.017839197 0.8921908 -0.3705488
0001c0 ad e5 50 be a8 bc 5c be f0 88 ad bb f9 e1 b1 bb
       -0.20400114 -0.21556342 -0.0052958652 -0.0054285494
0001d0 6e dc 5a bd 3a d0 43 3f e0 9a 08 bd 3a 68 7b be
       -0.053432874 0.76489604 -0.033350825 -0.24551478
0001e0 4a 97 a9 be 66 c1 e8 3e be 66 a7 3e 90 27 22 bc
       -0.33123237 0.4546005 0.32695574 -0.009897128
0001f0 05 fc 8a be aa ec 74 3e fe 35 52 bb e7 ac 49 3f
       -0.271454 0.23918405 -0.003207564 0.78779453

layer2.weight f4 [128, 128]
000000 f4 52 07 bd fc 2f a5 3d 7e 39 27 bd 48 d4 a6 bc
       -0.033038095 0.08065793 -0.040826313 -0.020364895
000010 f8 a5 bb 3c 27 7a 5b 3c e5 44 17 3c 16 df e4 3b
       0.022906289 0.013395823 0.009232734 0.0069846017
000020 41 fe 9e 3d 33 34 0c bd 68 57 31 3d 88 7b 91 3d
       0.07763339 -0.03422947 0.043296248 0.0710364
000030 1c 8b 29 3d dc 43 85 bb 30 0c 19 3c 98 93 9f bd
       0.04139243 -0.0040669274 0.009341285 -0.07791823
000040 29 0d 21 3d b2 f9 5b bc 7b 3b 08 bd 09 16 dc bc
       0.03931919 -0.013426231 -0.03325985 -0.026865976
000050 63 52 08 bd 32 5b a0 bd f2 b2 3f 3d 57 1d 3d 3d
       -0.033281695 -0.07829894 0.046801515 0.04617056
000060 44 2b 54 3d 3f 8e 82 bd b1 89 30 bd 97 12 23 bd
       0.051799074 -0.063747875 -0.043100063 -0.03981265
000070 cd d8 0e bd c5 4a a6 bd 23 57 55 3c ed e0 5a 3d
       -0.034874726 -0.0811973 0.013021263 0.053437162
000080 01 18 d4 bc df 22 55 bc 3b c2 28 3c be f3 93 3d
       -0.025890352 -0.013008802 0.010300214 0.072242245
000090 04 c1 a3 3d ee b3 45 3d 19 0e 10 bd 27 4f 9a 3d
       0.07995799 0.048267297 -0.035169695 0.07534628
0000a0 ef 37 a1 3b 95 a9 28 bd 3b 02 b3 3c 51 bb 2b bd
       0.004919998 -0.04117735 0.02185165 -0.041926686
0000b0 ce c2 5d 3c 55 42 95 bd 85 e9 71 3c 82 0f 28 3d
       0.013535215 -0.072880425 0.014765148 0.041030414
0000c0 91 a7 95 3d 25 a5 98 3d 55 62 8b 3d 39 ff 4c bd
       0.073073514 0.07453374 0.06805865 -0.050048087
0000d0 dd 3e 9e bc ff c6 95 3d e6 4c 63 3d 75 5e 45 bc
       -0.019317085 0.07313346 0.055493258 -0.012046446
0000e0 1d ab 80 bb f6 29 a5 bc 85 ce 6f bd 03 4c 48 bd
       -0.0039266483 -0.02016161 -0.05854656 -0.048900615
0000f0 cf 9a fc 3c 98 75 97 bd 71 7d e7 bc 1f 0c 16 bd
       0.030835537 -0.07395476 -0.028258057 -0.036632653
000100 e2 b7 38 bd 79 99 3d bb d0 9a 16 bd a7 d8 21 3c
       -0.04509724 -0.0028930588 -0.036768734 0.009878314
000110 10 ff 3b 3b fa d4 89 3c f9 7e 5e bd ce 9c 6a 3d
       0.0028685965 0.016825188 -0.05432031 0.057278447
000120 8e 7d f0 bc c0 78 82 bd 4d 32 a3 bd d4 47 ca bc
       -0.029356744 -0.063706875 -0.079685785 -0.024692453
000130 26 1e 45 3c 6f da 42 bd 33 47 6f bd e8 1d 8d 3b
       0.012031114 -0.047571596 -0.05841751 0.0043065436
000140 5c bb 3f 3d e0 d8 7d 3d b7 7f 58 3d 71 c4 96 3d
       0.04680954 0.061974406 0.052856173 0.07361687
000150 ea 34 73 3b 37 ac 51 3d 8d 0a 3a 3b 59 5d bb 3c
       0.0037110397 0.051189627 0.0028387636 0.02287166
000160 36 09 a1 bd 59 53 93 3d 50 0f 7e 3d fc 3f 64 3d
       -0.07863085 0.07193632 0.062026322 0.055725083
000170 33 df 6f bd 4f 6b 82 3d b0 00 b4 3d 95 7c 4e bc
       -0.05856247 0.06368124 0.08789194 -0.012602945
000180 f1 73 d3 3c 47 49 97 3d df d4 71 bd e5 09 7a bd
       0.025812121 0.073870234 -0.0590409 -0.061044592
000190 6a 46 c7 3b c0 b5 3e bd 57 12 bd 3c c5 e2 a9 bd
       0.006081392 -0.04656005 0.023080034 -0.08295206
0001a0 cc e5 94 bb 43 ba e4 3c a3 08 63 3d 5c 21 2c 3d
       -0.0045439955 0.027920848 0.05542816 0.042024
0001b0 1f 20 87 bd 05 a8 06 3b 51 96 24 bc a2 27 36 3d
       -0.065979235 0.0020546925 -0.010045604 0.04447139
0001c0 19 ff b6 3a 2f 3c 27 3d aa b2 9b 3d 17 22 e3 3c
       0.0013961523 0.04082888 0.07602437 0.027726216
0001d0 23 84 a3 3d 6a 3b 51 bd 70 21 97 bd d9 45 8c bd
       0.079841875 -0.051082052 -0.073794246 -0.0684926
0001e0 d3 91 0f bc 6e 07 97 3c 07 ea 82 bd 34 9a 9b bd
       -0.008762795 0.01843616 -0.063922934 -0.07597771
0001f0 63 86 14 bd df 06 a6 3b 91 22 39 bc d4 88 65 bc
       -0.036260974 0.005066737 -0.011299745 -0.014009673
000200 90 80 47 3d 18 47 fe 3e 19 f8 fc 3e 3a c2 b3 bd
       0.04870659 0.49663615 0.49408033 -0.0877728
000210 15 3d a4 bd f6 2c d0 bc bc 6f 14 bd 35 f6 ff bb
       -0.08019463 -0.025412064 -0.03623937 -0.0078113326
000220 37 21 88 3d 22 d8 da 3e 3f f5 7f bd be f5 39 bd
       0.0664696 0.4274302 -0.062489744 -0.045400374
000230 ec a4 fa bb 2f 52 7d bb 49 0f c5 3d ed 2f 72 3c
       -0.0076490548 -0.0038653722 0.09622056 0.014781934
000240 05 98 6b 3c 60 ad 65 3c da ea 54 bd 41 88 92 3d
       0.014379506 0.014018387 -0.051981784 0.071548946
000250 e3 f5 24 3d 68 39 d6 3e 25 8c 59 bd 30 42 03 3f
       0.04027356 0.41840672 -0.053112168 0.5127287
000260 0e 61 06 3a 58 df e5 3e 33 19 92 3c 89 4c 9c bc
       0.00051261566 0.4489696 0.017834282 -0.019079464
000270 0b a0 87 bc e8 fb 39 3c eb d6 26 bd 77 da f3 3e
       -0.016555807 0.011351563 -0.040732305 0.47627613
000280 c1 d0 5a 3c 43 51 fc 3c cd ba 97 bd 7d 5d 74 3d
       0.013355435 0.030800467 -0.07408676 0.05965947
000290 df 62 ca bc f4 90 ba 3c b4 6e cd 3b 27 ad 7a bd
       -0.024705349 0.022774197 0.0062693004 -0.061200287
0002a0 f1 40 f9 3e b9 1b 06 bd ea d3 6f 3d 4c ac 9e bc
       0.4868236 -0.032741282 0.058551706 -0.019369267
0002b0 e6 8f 45 bd 80 45 41 bc b9 47 88 3d 14 1f 67 3d
       -0.048232935 -0.011796355 0.06654305 0.056426123
0002c0 35 3b a0 bd 23 8f 99 3d 9f 1c 2d 3d 66 a3 4c bc
       -0.07823793 0.07498004 0.042263623 -0.012490129
0002d0 c8 83 c6 bb 4d 67 ca 3e 3a b2 d9 3e 11 b7 8c 3c
       -0.00605819 0.39531937 0.4251879 0.017177137
0002e0 ba dd 49 bd 52 33 87 bd 87 9c 80 3c 8e 14 94 bc
       -0.04928372 -0.066015854 0.015699638 -0.018076207
0002f0 38 8c 19 bd bc 15 71 3a 2a 0d 8f 3d f3 94 aa 3d
       -0.03748724 0.0009196659 0.06984933 0.08329191
000300 76 93 a9 bb 71 4f a7 bc 16 f3 db 3c 72 e4 50 bd
       -0.0051750494 -0.020423623 0.02684931 -0.050999112
000310 ab df 9c 3d 45 da 01 3f f4 b6 86 3d c4 98 d8 3e
       0.07659849 0.5072368 0.06577864 0.4230405
000320 97 31 8b bd 4a ba b7 3c 2e 70 e0 3e 15 5c 28 3d
       -0.06796568 0.022427697 0.43835586 0.04110344
000330 b7 2f 78 bd d4 b7 f1 3e 51 76 72 bb d8 dc 24 3c
       -0.06059238 0.47210562 -0.0036996792 0.010062419
000340 06 56 8e bd aa 96 28 3d a0 4b 8c 3d 75 67 7b 3d
       -0.069500014 0.04115931 0.06850362 0.06137796
000350 3b 2c 8f 3d 08 d3 93 3c e7 a8 b5 bd 6a 73 8b 3d
       0.06990858 0.018044963 -0.08870106 0.06809123
000360 1d ab e5 3e dd eb ec 3e 9b 12 06 bd aa cc 81 3d
       0.44857112 0.462737 -0.032732587 0.06337865
000370 9e 38 80 bd 04 27 9a 3d 2b d2 81 3e f1 b4 80 bd
       -0.06260799 0.07526973 0.25355658 -0.06284512
000380 1e 6b 9d 3d 33 ab 16 bd 31 53 8e 3d d4 79 9a bd
       0.076864466 -0.036784362 0.06949461 -0.07542768
000390 a9 c8 d7 3e d7 54 7e 3d 02 98 24 3d 77 0f 8f 3d
       0.4214528 0.06209263 0.04018403 0.069853716
0003a0 f0 64 90 3c d9 f9 1f bd bc af c6 3e 40 d3 ca bb
       0.017626256 -0.039056633 0.3880595 -0.0061897337
0003b0 12 78 09 bd 4f 68 91 bd d2 8c ed 3e 43 f7 a5 bd
       -0.033561774 -0.070999734 0.463965 -0.08103802
0003c0 d1 88 80 bd 74 20 ab 3d 39 af 32 bb 0f 63 92 bd
       -0.06276096 0.08355799 -0.0027265085 -0.071478
0003d0 c9 99 0a bd 3f 4c e0 3e 36 24 4a 3d 75 7d 93 3d
       -0.033838067 0.4380817 0.04935094 0.072016634
0003e0 df f5 9c 3b c1 0d 6f bd fa 9f a4 bd 74 0b b8 3c
       0.0047900523 -0.058362726 -0.080383256 0.022466399
0003f0 5b ac ae 3c 55 92 74 bd 58 39 33 bd 99 86 fb 3e
       0.02132242 -0.059709866 -0.04375586 0.49126127

layer2.bias f4 [128]
000000 c6 86 96 bd 52 2e d7 3e 7a 0e 67 3d 26 17 b8 3c
       -0.07349925 0.42027527 0.05641029 0.022471976
000010 10 90 0a 3d 37 f5 39 bd 1e 28 66 3d f2 dc b8 3e
       0.033828795 -0.04539987 0.056190602 0.36106068
000020 45 39 64 3d 15 02 42 bd 85 bc 82 3b cc 34 3b 3c
       0.05571868 -0.047365267 0.0039897584 0.011426162
000030 91 da a2 3d df d1 47 bd d8 e7 df 3c 46 46 e7 3c
       0.079518445 -0.048784133 0.027332231 0.028231751
000040 63 03 98 3d b0 df 14 3f e5 cc 84 bd fd 97 4a 3d
       0.07422521 0.5815382 -0.06484393 0.049461354
000050 b2 d9 7c 3d 6e 6d 4d 3c b9 2c 59 bc 73 12 9c 3d
       0.061731048 0.012538297 -0.013255292 0.076207064
000060 89 e0 9e 3d c9 29 6d 3c 32 86 a4 bc 64 79 26 3d
       0.077576704 0.014475294 -0.02008352 0.04064311
000070 2b 97 70 3d 55 aa f5 3e 1b bf f2 3e 72 08 f5 3d
       0.058737915 0.47981516 0.47411427 0.119645014
000080 45 7f b7 3c 7b 63 4b bd d0 f6 2d 3e 61 21 72 bd
       0.022399554 -0.04965542 0.16988683 -0.059113864
000090 da 7b 3d 3c a0 24 1e 3d 1c 13 a0 3d 62 1f 95 3c
       0.011565173 0.038609147 0.07816145 0.018203441
0000a0 d2 ad 4d bd d6 3a dd 3e 55 33 98 bd ed b5 25 3e
       -0.050214596 0.4320895 -0.07431666 0.1618268
0000b0 17 9e 2b bd ea 3e 0b 3f 9d 77 31 3d 7c f1 9d 3c
       -0.041898813 0.54392874 0.043326963 0.019280188
0000c0 d2 bd 8f bc 1d 7e 1d 3d 7a 31 73 bd ec 52 de 3e
       -0.017546568 0.03845035 -0.059373356 0.4342264
0000d0 de 79 32 bd f9 98 1b 3d 84 ac 3a 3e 66 3c 94 3c
       -0.043573253 0.037987683 0.18229872 0.018095206
0000e0 81 7b 16 3f b8 20 ac 3d 6f c0 69 bd 65 70 c0 3b
       0.587822 0.08404678 -0.057068285 0.0058727735
0000f0 3d 51 fc 3d 7e 13 60 3b 47 0f f6 bc e8 68 61 3d
       0.123201825 0.0034191306 -0.030036582 0.055031687
000100 54 95 ff 3d 87 0f 86 3d 70 93 f5 3c 90 44 41 bc
       0.12479654 0.0654593 0.02997753 -0.011796132
000110 f2 69 2d bc 4f d6 9b 3d 96 01 81 3d a5 a0 17 3b
       -0.010584341 0.076092355 0.062991306 0.0023136523
000120 4e 1e d4 3e 5a 0e 6a 3d a1 62 6c bd bc 67 72 bd
       0.4142937 0.057142593 -0.057711247 -0.05918096
000130 52 c8 09 bd e7 51 84 bd 34 9a 19 3f 4f 0a f1 3b
       -0.033638306 -0.06460934 0.6000092 0.007355965
000140 8c 87 b2 3c b9 8c 63 bd 85 16 a5 3d d5 e5 fa 3a
       0.02179315 -0.055554125 0.08060936 0.0019141982
000150 96 38 90 bc f3 6c cf 3d 9e ff bc 3d 78 bd dc 3d
       -0.017605107 0.10128202 0.092284426 0.10778326
000160 8d e1 02 3e 0d 71 ed 3c 8d 70 3c 3e fc 9f 8c 3d
       0.12781353 0.02898457 0.1840231 0.06866452
000170 21 bf 32 bd a7 5a b9 3e d0 80 12 3d 70 8e 37 3d
       -0.043639306 0.36201975 0.035767376 0.044813573
000180 b0 b9 80 bd 79 29 0a 3d 69 4d 30 bd c4 c8 5c 3d
       -0.06285417 0.033730958 -0.043042574 0.053902403
000190 2d 32 a4 3d 34 85 29 3e a8 13 28 bd 6b 02 e2 3d
       0.08017383 0.16554719 -0.04103437 0.110356174
0001a0 1e 82 0e 3e a7 c9 1b bd 9f 95 99 3e 65 1d a1 bd
       0.13916823 -0.038034108 0.29996964 -0.07866935
0001b0 d7 95 d1 3d 91 f6 ac bc 43 53 78 bc 80 5a 18 3e
       0.10233658 -0.021113666 -0.01515657 0.14878273
0001c0 ef ce 99 bd ef 24 b1 3c 1c 28 27 3c da 41 8d bd
       -0.075101726 0.021624057 0.010202434 -0.06897326
0001d0 bd 70 8b bd b4 e9 a9 bd b7 10 38 3d 80 8f aa 3d
       -0.068086125 -0.082965285 0.044937816 0.08328152
0001e0 d5 53 e1 3d a2 12 bf 3d 96 dc 0d bc 1d 27 81 bd
       0.11002318 0.09329726 -0.008658549 -0.063062884
0001f0 8b d4 6b 3d 0c 34 e3 3e 05 5f 21 3b e4 b1 a3 3d
       0.057575744 0.44375646 0.0024623286 0.07992914

layer3.weight f4 [3, 128]
000000 9b ac bb bc 60 6c cd 3d ef 4f c9 bc 3e 1b 11 3d
       -0.022909453 0.100304365 -0.024574248 0.03542637
000010 da b8 32 bd 0b c1 7f 3c 33 fa 3c 3d ee 48 8a 3d
       -0.04363332 0.01560999 0.046137046 0.067521915
000020 26 bb 29 bd e8 8f 0e 3d 2c f9 af 3b a4 9e 4e 3d
       -0.041438244 0.03480521 0.00537028 0.05044426
000030 1f 1b 53 bd bf 1f aa 3b 94 18 89 bc 98 87 2c 3d
       -0.051539537 0.0051917727 -0.016735353 0.0421215
000040 b7 0c a3 bd cb c1 ec 3e b2 3e aa 3d 7f a0 2e bd
       -0.079614095 0.46241602 0.083127394 -0.04263353
000050 9f f9 69 bd 18 22 75 bc a1 51 61 3d ce 03 31 3d
       -0.057122823 -0.014961742 0.055009488 0.04321652
000060 84 aa de 3b ce a1 b9 3d af b4 47 3c 27 54 d8 bc
       0.0067952294 0.09064065 0.012189074 -0.026407314
000070 3a 09 9a 3d 57 ac c1 3d d5 74 da 3e 82 7c a1 3d
       0.07521291 0.09456699 0.4266726 0.07885076
000080 c8 39 8e bd a9 f6 8f 3d 82 15 f8 3c 9b 0c b7 39
       -0.06944615 0.070294686 0.030283693 0.00034913872
000090 ee ad 9d 3d 6a bd 51 bd 32 9d ee 3c 9a 82 a7 3c
       0.0769919 -0.05120603 0.029127691 0.020448018
0000a0 72 c2 91 bd f0 c6 b9 3e 29 d8 a2 3d 91 dc 9d 3c
       -0.071171656 0.3628459 0.079513855 0.019270213
0000b0 13 69 70 3d 60 5a f3 3e 9e 99 f1 3c ce 2a b5 3d
       0.058693957 0.47529888 0.029492196 0.08846055
0000c0 1f 54 6f 3d be 13 5f 3d 03 06 45 3d cd 7c f3 3e
       0.058429834 0.054462187 0.048101436 0.47556153
0000d0 79 25 83 bd 42 f0 a0 3d 90 73 ca 3c a4 d8 9c 3d
       -0.06403632 0.078583255 0.024713308 0.076585084
0000e0 d5 4e d5 3e ca 43 82 bd b9 2b 7b 3d 54 13 02 bd
       0.41661707 -0.06360586 0.061320994 -0.031756714
0000f0 8a a8 89 bd 78 76 1a 3d fe bd 9d 3d e9 6d 2f 3d
       -0.067215994 0.037710637 0.07702254 0.042829428
000100 5a 6b 8d bb 8f 00 c3 3b 0a 36 5f bd 3d ce b8 3c
       -0.004315776 0.0059509943 -0.054494895 0.02255928
000110 bd 20 a1 3c b4 37 0f 3d 20 e0 a0 3d be 26 8f bd
       0.019668931 0.034965232 0.078552485 -0.06989811
000120 9a 04 99 3d 03 8f 27 3d 5a 82 49 bc 56 b4 57 bd
       0.07471581 0.04090787 -0.012299145 -0.052662216
000130 a6 91 9e bd 28 61 5c 3c f8 d1 bb 3e 6d 75 28 3d
       -0.07742624 0.013450898 0.3668363 0.04112761
000140 37 76 41 3c 27 52 3d 3d be 61 db 3c 58 2d b2 bc
       0.01180797 0.046220925 0.026780006 -0.021750137
000150 f0 df 64 3d bc 48 7b 3d a1 cc 1a 3d 7a 94 96 bd
       0.055877626 0.06134866 0.037792806 -0.073525384
000160 fa 96 d7 ba 88 8f a7 bb 72 72 ce 3d 28 90 13 3c
       -0.0016448193 -0.005113546 0.100804225 0.0090065375
000170 ac ba 4e 3c 0c f1 a8 3d 19 cc a5 bc fa e0 3e 3d
       0.012617748 0.08249101 -0.020238923 0.046601273
000180 03 32 b3 3c d2 7e fe bb 51 06 9b 3d 78 02 ed bc
       0.021874433 -0.007766583 0.07569564 -0.028931841
000190 7c 3f 0f 3d fa 7f 94 3c 86 da 93 3d 07 6a e0 3c
       0.034972653 0.01812743 0.072194144 0.027394308
0001a0 f3 a6 60 bd d1 ad 40 bd 18 84 25 3b 95 6f 67 bd
       -0.054846715 -0.047040764 0.0025255736 -0.056502897
0001b0 cc ef a9 3d ee bd 5d 3c 93 f9 51 3d 0f db 8d 3d
       0.08297691 0.013534052 0.051263403 0.06926548
0001c0 2d c9 79 3d 1f a8 c6 3c ae 94 bc bc 3c b5 35 3d
       0.06098287 0.024250088 -0.023020115 0.04436229
0001d0 63 d2 58 3d 10 99 7f bb b2 9f 6b bd ea f8 2d 3d
       0.052935015 -0.0039001144 -0.057525344 0.04247371
0001e0 4c 87 1b 3c cc 04 96 3d 0b c8 ae bb c7 af 95 3d
       0.0094927065 0.07325134 -0.0053339056 0.073089175
0001f0 cb cc 41 3d 6e 4c 49 3e d8 43 9d bd 25 11 0f 3d
       0.047314446 0.19658062 -0.07678956 0.03492846
000200 00 33 8a 3d b0 bb a5 3d 04 d5 99 bd 07 76 86 bd
       0.06748009 0.08092439 -0.07511333 -0.06565481
000210 2b 9d b5 bc 0b 88 bd bc 96 26 e5 bc 25 36 93 3d
       -0.02216967 -0.02313616 -0.0279725 0.071880616
000220 e4 66 36 bd eb 9f a8 3d 86 2a a3 bd 5f b4 90 3d
       -0.044531718 0.08233627 -0.07967095 0.07065653
000230 26 0d 79 bd fa 48 8a bd be 23 52 bd 20 8c 84 bd
       -0.060803555 -0.067522004 -0.051303618 -0.06472039
000240 6a 33 9a 3d 22 b5 12 3f 5c fa 00 3d 6e 35 96 3d
       0.07529338 0.57307637 0.03148876 0.0733441
000250 55 cf 86 bb e5 b7 80 bb 8f e1 d9 bc b7 b5 94 bd
       -0.0041140714 -0.003928172 -0.026596813 -0.07261222
000260 be 52 5e bd 25 b7 0c 3b 6e 2b 85 bd 00 a5 91 3c
       -0.054278128 0.0021471467 -0.06502424 0.017778873
000270 c2 ed 96 bc b6 f2 e3 3c 79 52 0f 3f 78 84 e9 3c
       -0.018423919 0.027825695 0.5598522 0.028505549
000280 7c 8a 9f bd fc be b2 3d 23 2b 3d 3d a2 7d 90 3a
       -0.07790086 0.08727834 0.046183717 0.001102377
000290 aa a8 70 bd 2c 37 46 3d 15 63 9f bc 3d 01 de bb
       -0.0587546 0.04839246 -0.019456426 -0.00677505
0002a0 45 e8 0e bd 40 ef 0f 3f 3b 4e 06 bc 01 14 90 3d
       -0.03488948 0.5622444 -0.008197363 0.070350654
0002b0 05 50 e1 bb 0a 60 0e 3f 48 f6 73 bd 83 43 c6 3d
       -0.006875994 0.55615294 -0.059561044 0.096808456
0002c0 98 10 53 bd 47 94 ef 3b 72 89 7c bd e3 66 0a 3f
       -0.051529497 0.007311377 -0.061654516 0.5406324
0002d0 2e 4e 2f 3d b5 9c 43 bd 3c 2b 86 3d b2 a4 8a bd
       0.042799167 -0.04775687 0.06551215 -0.067696944
0002e0 ad fe 02 3f 60 e7 3b bd 42 04 30 bd d2 a1 3b bd
       0.51169854 -0.045874953 -0.04297281 -0.04580862
0002f0 2a 3d b3 3d 5f bb 92 bd 38 a0 42 bd ce be 8b bd
       0.087519005 -0.071646444 -0.047516078 -0.068235025
000300 47 da 8e 3d 2a 8b 52 3d f8 5c 2d 3d a4 63 b8 bc
       0.06975227 0.05140225 0.04232499 -0.02250845
000310 07 63 83 bb c6 03 9c 3c 5d 56 aa 3d 7b 63 d2 bb
       -0.0040096077 0.019044768 0.08317254 -0.0064205504
000320 65 9c 7b 3e e1 d6 7c 3d 77 15 66 3c 6a 46 24 bd
       0.24571379 0.061728362 0.014043204 -0.040106215
000330 8d 18 f3 3c af 8b 84 3d 3c 5b 02 3f 59 e5 63 bd
       0.029674793 0.06471955 0.5092046 -0.055638645
000340 f2 8b 0b bc 32 ff 9d bc e9 15 36 3d 74 0b bc 3c
       -0.008517252 -0.019286726 0.04445449 0.02295468
000350 0c a1 94 bd 29 3b a3 3d f0 e2 7e 3d 0c e1 5b 3d
       -0.0725728 0.07970268 0.062228143 0.05368142
000360 dd af c7 3c 14 b8 a3 bc 94 3f be 3d f5 66 8a 3d
       0.02437585 -0.019985236 0.0928947 0.06757919
000370 56 71 0d bc b4 23 d2 3d 78 78 84 3b 22 47 69 bd
       -0.008632978 0.10260716 0.0040426813 -0.056952603
000380 b2 93 19 bd b9 92 bd bc 45 65 ac 3c 1d a0 23 bd
       -0.03749437 -0.023141252 0.021044383 -0.039947618
000390 c5 4b 90 bb 79 22 68 3d 7a 0e 42 3d f4 f9 40 39
       -0.0044035637 0.0566735 0.047377087 0.00018403662
0003a0 05 8d 2e 3d 37 6d 53 3b c9 72 9e 3d ed e5 a7 bc
       0.042614955 0.0032261142 0.07736737 -0.02049538
0003b0 96 97 7c 3b 80 16 10 3d a4 0a d7 3c 46 38 3d 3d
       0.00385425 0.035177708 0.026250191 0.046196245
0003c0 f8 45 b5 3d c0 94 62 bd 88 4e 90 bc d8 99 87 bd
       0.08851236 -0.05531764 -0.017615572 -0.0662114
0003d0 be 4d 88 3d 68 12 96 bd 53 7d a7 3d 17 b8 8f 3d
       0.06655453 -0.073277295 0.081782006 0.07017534
0003e0 10 34 a1 3d e5 82 9d 3d d9 25 17 bd e5 b9 f8 3c
       0.07871258 0.07690982 -0.03690133 0.030362079
0003f0 db 1f f2 3b cb bc 8b 3e 98 1d 5a 3c 25 02 8e bd
       0.0073890514 0.27292475 0.01331272 -0.06934003

layer3.bias f4 [3]
000000 9c 61 46 bd 66 71 0d 3e 2b 66 1f bd
       -0.04843293 0.1381279 -0.038915794
