models/rl_models/03.03.24_without_punishments/best_target_dqn_model_epoch_2.pt (torch, 74148 bytes, 6 tensors)

layer1.weight f4 [128, 6]
0	0x3d3d9265	0.04628219
1	0xbda7e6ae	-0.081982955
2	0xbdc7448c	-0.09729871
3	0xbe8b7bab	-0.2724279
4	0x3ec8ac95	0.3919417
5	0x3eb3442c	0.3501295
6	0xbea8b0df	-0.32947442
7	0xbe8d9050	-0.27649164
8	0xbd3f8bf4	-0.04676433
9	0xbe4c0dfe	-0.19927213
10	0x3d670d1f	0.056408998
11	0x3ca56a62	0.020192329
12	0xbe95cc52	-0.29257447
13	0xbeb77378	-0.35830283
14	0xbe321c1c	-0.17393535
15	0x3d28a0ba	0.041168906
16	0x3dfb4bcb	0.12270316
17	0x3e836f7c	0.25670993
18	0xbad4de7d	-0.0016240623
19	0xbd4dc0a3	-0.05023254
20	0xbdec1e6e	-0.115292415
21	0x3e78990c	0.24277133
22	0x3e84c545	0.25931755
23	0x3da73de3	0.08166101
24	0xbc873814	-0.016506232
25	0xbdabb615	-0.08384339
26	0xbea428f0	-0.32062483
27	0x3e47649d	0.19471975
28	0x3eb9b47c	0.3627051
29	0x3e443382	0.19160274
30	0x3dbbb1b1	0.09164751
31	0x3d8a9f3b	0.06768652
32	0x3de1821f	0.11011147
33	0xbe9d7f9b	-0.30761418
34	0x3c37c964	0.011217449
35	0x3ec95e2a	0.39329654
36	0x3e7eca29	0.24881805
37	0xbe72553f	-0.23665331
38	0xbdc92dfb	-0.09823223
39	0x3eb653b3	0.35610732
40	0xbe9bddc1	-0.30442622
41	0x3ec02952	0.37531525
42	0xbe18f09a	-0.14935532
43	0x3e9abc13	0.30221614
44	0xbd94b422	-0.0726092
45	0x3e8fe684	0.28105557
46	0xbe6ed3b4	-0.23322946
47	0xbdc132df	-0.09433531
48	0x3ea74a60	0.3267393
49	0xbe0fa6b7	-0.1402844
50	0xbeb03e6a	-0.34422618
51	0x3e4bb9d7	0.19895111
52	0xbe808997	-0.25104973
53	0xbe082d29	-0.13298477
54	0xbd84f50a	-0.0649205
55	0xbdac78f6	-0.08421509
56	0x3ebc4081	0.36767963
57	0xbd19f002	-0.037582405
58	0x3d46efce	0.04856854
59	0xbeb68380	-0.35647202
60	0xbe816f5a	-0.25280267
61	0x3eb79fa0	0.35863972
62	0x3d93ab44	0.07210401
63	0x3dfb1bee	0.122611865
64	0x3e2ac1a6	0.16675434
65	0xbe8b479c	-0.2720307
66	0x3e0dc57d	0.13844867
67	0x3d0f119d	0.034928907
68	0x3dfb2b24	0.12264088
69	0x3db08c73	0.086205386
70	0x3e639542	0.22224906
71	0xbda8adc7	-0.082362704
72	0x3e600a0a	0.2187883
73	0x3e7e1d77	0.24815927
74	0xbdd94a39	-0.1060986
75	0x3d4e193b	0.05031703
76	0x3dcf4ade	0.10121702
77	0x3e3c1e17	0.18370853
78	0x3e8f9ee5	0.28050914
79	0x3d42cf02	0.0475607
80	0x3e05c7da	0.13064519
81	0x3e9b2508	0.3030169
82	0x3d6453af	0.05574387
83	0xbd99c191	-0.07507623
84	0x3d938133	0.07202377
85	0xbeb218ba	-0.3478449
86	0xbcba06c6	-0.022708308
87	0x3e9f7a41	0.3114796
88	0xbd69b827	-0.057060387
89	0x3ec32fc5	0.38122383
90	0xbd3ea8ac	-0.046547577
91	0xbe14003e	-0.14453217
92	0x3e04e03e	0.12976167
93	0x3dd6049a	0.104500964
94	0xbeac74b1	-0.33682778
95	0xbecd1daa	-0.40061694
96	0x3daa441a	0.083137706
97	0x3e5c43bd	0.21510215
98	0x3d9fdc0b	0.07805642
99	0xbe93493c	-0.2876681
100	0xbe5a19a6	-0.21298847
101	0xbe0c6b80	-0.13712883
102	0xbe1810f0	-0.14850211
103	0x3e8ee76c	0.27910936
104	0xbe12a77b	-0.14321701
105	0xbdbaace9	-0.09115011
106	0x3e995169	0.29944924
107	0x3d8cef84	0.068816215
108	0x3d073441	0.033008818
109	0xbe9610d6	-0.2930972
110	0x3da76e1f	0.08175301
111	0x3e596f6e	0.21233913
112	0x3e886720	0.26641178
113	0xbe76c6e1	-0.24099304
114	0x3e8ad5b0	0.27116156
115	0xbe67e7df	-0.22647046
116	0xbe291d0e	-0.1651499
117	0x3ebdc84b	0.37066874
118	0x3e0acd6c	0.13554925
119	0x3e3e38f2	0.1857641
120	0xbec34285	-0.38136688
121	0xbe71a9dc	-0.23599952
122	0x3ec9a130	0.3938079
123	0xbd70fdac	-0.05883567
124	0x3ea6de5c	0.32591522
125	0x3e9165d6	0.28398007
126	0xbec815a0	-0.39079
127	0xbea3f5ff	-0.32023618
128	0x3bd23df2	0.006416076
129	0xbeb66344	-0.3562261
130	0x3e94a32c	0.2903074
131	0x3e25c2d6	0.16187605
132	0xbe40a099	-0.18811263
133	0x3ead6129	0.3386319
134	0x3ec9219b	0.3928345
135	0x3cb99260	0.022652805
136	0x3e75daa8	0.24009192
137	0x3c42b823	0.011884722
138	0xbeaa1d35	-0.33225408
139	0x3e65533a	0.2239503
140	0x3e89a1b6	0.26881188
141	0xbe67d2cc	-0.22639006
142	0xbdc35b76	-0.09538929
143	0xbebba2ae	-0.36647552
144	0x3eb919dc	0.36152542
145	0xbe895eaa	-0.26830035
146	0xbc1d6ada	-0.009607995
147	0xbe13828e	-0.14405271
148	0x3e866da1	0.26255515
149	0xbeb8b8a3	-0.36078367
150	0xbe85885c	-0.26080596
151	0xbeb4ba44	-0.3529836
152	0x3e442612	0.19155148
153	0x3d951a82	0.072804466
154	0xbe73e60c	-0.23818225
155	0xbe2cc67d	-0.16872592
156	0x3dddd315	0.10831276
157	0x3e49f16a	0.19720998
158	0xbec2624c	-0.3796562
159	0xbe8785ed	-0.26469365
160	0xbde06885	-0.109574355
161	0x3ea3375e	0.3187818
162	0xbd450a66	-0.04810562
163	0xbdc79f76	-0.09747212
164	0xbe016d44	-0.12639338
165	0xbe1b08ac	-0.15140027
166	0xbd9f6b1c	-0.07784101
167	0x3e7f7ac7	0.2494918
168	0x3e284ce6	0.16435584
169	0xbe3c0309	-0.18360533
170	0xbded38c9	-0.115830965
171	0x3e66d850	0.22543454
172	0x3eaab920	0.33344364
173	0xbe924942	-0.28571516
174	0xbe8aaf85	-0.27087036
175	0xbe8cea5e	-0.27522558
176	0xbec8b1a7	-0.39198038
177	0x3e54ab12	0.20768383
178	0x3d0b0016	0.03393563
179	0xbe5886f0	-0.21145225
180	0x3d871d3a	0.065973714
181	0xbe9ecdae	-0.31016296
182	0xbd9dc5a5	-0.07703713
183	0x3e0f422e	0.1399009
184	0xbe484360	-0.19556952
185	0x3ec92299	0.39284208
186	0xbc3d4d9c	-0.011554148
187	0xbdbeb1e0	-0.09311271
188	0x3e67edfb	0.22649376
189	0xbdeb2e3b	-0.11483427
190	0xbe4e23ac	-0.20130795
191	0x3c94d7a2	0.018169228
192	0xbea2e37b	-0.3181418
193	0x3ec98e50	0.39366388
194	0x3ea3e9b5	0.32014242
195	0xbeb095f8	-0.34489417
196	0x3dbb4167	0.09143334
197	0xbb0c4466	-0.0021403073
198	0xbd6a0f33	-0.0571434
199	0xbec6d82a	-0.38836795
200	0x3e2c5461	0.16829063
201	0xbe6dd5eb	-0.23226134
202	0xbebafef4	-0.3652264
203	0xbb0666e6	-0.002050811
204	0x3e03ab17	0.12858234
205	0x3e905800	0.2819214
206	0x3e8689c7	0.2627699
207	0x3e7ec01f	0.24877976
208	0xbc5846a2	-0.013200434
209	0x3d668e1d	0.056287874
210	0x3dda3538	0.10654682
211	0x3e0a0f32	0.13482359
212	0xbe89464b	-0.26811442
213	0x3e3170c7	0.17328177
214	0x3e81be57	0.2534053
215	0xbd123404	-0.035694137
216	0x3d54acf6	0.05192276
217	0x3e882bbd	0.2659587
218	0xbeb51791	-0.35369542
219	0x3d5ec40d	0.054386187
220	0x3e7c554c	0.24641913
221	0xbe1f65b8	-0.15566146
222	0xbecaf59d	-0.39640513
223	0xbe421b59	-0.18955745
224	0x3e5556ce	0.20833895
225	0xbec6bc59	-0.38815573
226	0xbe221b6e	-0.15830776
227	0x3ec8d4b0	0.39224768
228	0x3d7f8588	0.062383205
229	0x3cfba83e	0.030719873
230	0x3eb210a8	0.34778333
231	0x3e6a17ef	0.22860692
232	0x3ce1253d	0.027483577
233	0x3e8e0a7c	0.27742374
234	0x3e4494ac	0.19197339
235	0xbe73c0f5	-0.23804076
236	0x3e2468f2	0.16055658
237	0xbe2421d6	-0.16028532
238	0x3ea618a8	0.32440686
239	0xbeaf31bf	-0.3421764
240	0x3dcff8b2	0.10154857
241	0xbebda0dc	-0.37036788
242	0x3e0265ea	0.1273419
243	0xbeacfbf7	-0.33785984
244	0x3d81ab56	0.06331508
245	0x3ec83922	0.3910609
246	0x3ec57cc5	0.38571754
247	0x3e26f6ca	0.1630508
248	0xbe949baf	-0.29025027
249	0xbe8a778d	-0.27044335
250	0x3df66871	0.12031639
251	0x3bc90778	0.0061349235
252	0x3dae0931	0.08497847
253	0x3db0d672	0.08634652
254	0xbda43647	-0.08018165
255	0xbec48546	-0.3838293

layer1.bias f4 [128]
0	0xbe717901	-0.23581316
1	0x3f87f4ad	1.0621544
2	0x3f72d8c6	0.9486202
3	0xbe335d00	-0.17515945
4	0xbe397827	-0.1811224
5	0x3f59ade4	0.8503096
6	0xbca02126	-0.019547056
7	0xbe826e7f	-0.25474927
8	0xbeaeaf12	-0.34117943
9	0x3f6f13c4	0.93389535
10	0x3f0058ff	0.501358
11	0xbeba56b8	-0.36394286
12	0x3f25f2cc	0.64823604
13	0xbe3ecb16	-0.18632159
14	0x3f20bd74	0.6278908
15	0xbd6281dd	-0.05529963
16	0xbd980da7	-0.07424479
17	0x3e2b962e	0.16756508
18	0xbe8b717f	-0.27235028
19	0xbe32c94a	-0.17459598
20	0xbec19e04	-0.3781587
21	0x3f3ee1a0	0.74563026
22	0xbe3b4d98	-0.18291318
23	0x3f6041bc	0.876003
24	0x3f1f8add	0.62321264
25	0x3f79577b	0.9739911
26	0x3f13bca9	0.5770975
27	0xbece30b2	-0.40271527
28	0x3e9e5789	0.3092616
29	0xbd825b2a	-0.063650444
30	0xbdd08aaa	-0.10182698
31	0x3f4ce846	0.8004192
32	0x3f40d6c6	0.7532772
33	0xbeb05ac0	-0.34444237
34	0xbec63598	-0.38712764
35	0xbdff8bbe	-0.124778256
36	0xbe909d43	-0.2824498
37	0xbc9c96d6	-0.019114893
38	0x3f1b840f	0.6074838
39	0xbe8706ad	-0.2637228
40	0x3f881cac	1.063375
41	0xbebfdb73	-0.37472114
42	0xbbb7c708	-0.005608443
43	0xbde9233d	-0.11383674
44	0xbe04bf3c	-0.12963575
45	0xbe90725f	-0.28212258
46	0xbe359ea8	-0.17736304
47	0x3e82fdb6	0.2558419
48	0xbeb39fdc	-0.350829
49	0xbdc70869	-0.09718401
50	0xbb65dfa8	-0.0035075936
51	0xbeb7f964	-0.35932457
52	0xbe9c5c52	-0.30539185
53	0x3f6f0826	0.9337181
54	0x3f879b15	1.0594202
55	0xbebbd1ca	-0.36683494
56	0xbebb1098	-0.36536098
57	0x3ec0cea3	0.3765765
58	0xb91ee51b	-0.00015153403
59	0xbd66a966	-0.056313895
60	0x3f0979c4	0.53701425
61	0x3f4473b2	0.7673904
62	0xbeb2c30a	-0.34914428
63	0xbd74ff34	-0.059813693
64	0xbe1d2e6e	-0.15349743
65	0xbeaad756	-0.33367413
66	0xbc2039c7	-0.0097794
67	0xbd9e37a0	-0.077254534
68	0x3f1336e4	0.5750563
69	0x3f37ba6a	0.7176882
70	0x3ee0be1e	0.43895048
71	0x3f38bab5	0.7215989
72	0xbe90a0cd	-0.2824768
73	0xbecdf4d4	-0.40225852
74	0x3f678c54	0.904485
75	0x3f5e55ae	0.86849487
76	0xbe2a844b	-0.16652028
77	0x3f837ff0	1.0273418
78	0xbe833bfc	-0.25631702
79	0xbe81438d	-0.2524685
80	0xbdc71704	-0.09721187
81	0xbe840627	-0.25785944
82	0xbc8c775e	-0.017146762
83	0x3f841a5c	1.0320544
84	0x3f6c2132	0.9223815
85	0xbe879766	-0.26482695
86	0xbecc6b6e	-0.39925712
87	0x3f34b4a2	0.70588124
88	0x3f5aae4d	0.8542221
89	0x3f2cce8e	0.6750268
90	0xbdddae08	-0.108242095
91	0xbe0579f3	-0.13034801
92	0x3f5570c1	0.83375174
93	0xbd92c5e5	-0.07166652
94	0x3f64b22f	0.89334387
95	0xbec17f33	-0.37792358
96	0xbc9cba1b	-0.01913171
97	0xbe25e17d	-0.16199298
98	0xbe8e084b	-0.27740702
99	0xbebd0911	-0.3692098
100	0x3f37f9d4	0.7186558
101	0xbe9e63b6	-0.30935448
102	0xba30eeb1	-0.0006749435
103	0xbeb7f420	-0.3592844
104	0x3f319bbf	0.69378275
105	0x3f20b940	0.6278267
106	0x3f5a60a3	0.85303706
107	0xbde78555	-0.11304728
108	0x3f238b7e	0.63884723
109	0xbc996d76	-0.018728953
110	0x3f7c5057	0.9856009
111	0xbec73258	-0.38905597
112	0xbe60acb9	-0.21940888
113	0xbe67ab9a	-0.22624055
114	0xba0b8d55	-0.00053234893
115	0xbc603024	-0.013683353
116	0xbd44c766	-0.048041724
117	0x3f59c821	0.85071
118	0xbd0026a5	-0.031286854
119	0xbe83867d	-0.25688544
120	0xbea1edd8	-0.31626773
121	0x3f051925	0.5199149
122	0x3ec5b16d	0.38611928
123	0xba9b6298	-0.0011854945
124	0xbe8fcacc	-0.2808441
125	0x3e95311c	0.2913903
126	0xb89fbef0	-7.617276e-05
127	0x3f600bac	0.8751781

layer2.weight f4 [128, 128]
0	0xbd32b2d3	-0.04362757
1	0x3dad3539	0.08457417
2	0xbd2f6e24	-0.042829648
3	0xbca218a3	-0.019787138
4	0x3cd17b4b	0.025571486
5	0x3c8a0d0e	0.016851928
6	0x3c69e4fd	0.0142757865
7	0x3c14aff0	0.00907515
8	0x3dae43f1	0.085090525
9	0xbd132cf4	-0.035931543
10	0x3d3f0238	0.046632975
11	0x3d9c09b7	0.076190405
12	0x3d393d69	0.04522458
13	0xbb2130f0	-0.002459582
14	0x3c10e842	0.008844437
15	0xbda7982b	-0.081833206
16	0x3d36e833	0.044655036
17	0xbc552466	-0.013009166
18	0xbd07ba2b	-0.033136528
19	0xbcd87b12	-0.026425872
20	0xbd0ee1c4	-0.034883276
21	0xbda85fc5	-0.082213916
22	0x3d4e853d	0.050420035
23	0x3d46971c	0.048483953
24	0x3d66c28f	0.05633789
25	0xbd891da0	-0.06695104
26	0xbd2c0444	-0.041996256
27	0xbd2b172a	-0.041770138
28	0xbd0f4153	-0.034974407
29	0xbdae69b7	-0.08516257
30	0x3c5fea6d	0.013666731
31	0x3d65cfe0	0.05610645
32	0xbcce6cab	-0.025198301
33	0xbc5fb26e	-0.013653381
34	0x3c4e41ea	0.012588957
35	0x3d9e77fd	0.0773773
36	0x3daf04fa	0.08545871
37	0x3d4f7a30	0.050653636
38	0xbd100642	-0.035162218
39	0x3da469fd	0.08028028
40	0x3ba93c82	0.005164684
41	0xbd28f60c	-0.041250274
42	0x3cd6f995	0.026242057
43	0xbd2d1f6f	-0.042266306
44	0x3c8278c9	0.015926735
45	0xbd98899b	-0.07448121
46	0x3c8c00f1	0.017090293
47	0x3d378924	0.044808522
48	0x3d9cf18a	0.076632574
49	0x3da3bedc	0.07995388
50	0x3d9243c0	0.071418285
51	0xbd573394	-0.052539423
52	0xbc97b6ef	-0.018519847
53	0x3d9d10f2	0.07669248
54	0x3d6e8e24	0.058241025
55	0xbc2f69a6	-0.010706341
56	0xbb1cf6db	-0.0023950848
57	0xbc9bdb8c	-0.019025587
58	0xbd682293	-0.056673598
59	0xbd52455a	-0.05133567
60	0x3cda8eec	0.026679479
61	0xbd9a7506	-0.07541852
62	0xbcd25aa5	-0.025677988
63	0xbd1d561f	-0.03841221
64	0xbd41e6a0	-0.04733908
65	0xbb47133e	-0.003037646
66	0xbd168516	-0.036748014
67	0x3c29dd3a	0.010367686
68	0x3bca325a	0.006170553
69	0x3c908a44	0.017644055
70	0xbd6207c3	-0.055183183
71	0x3d76465c	0.060125694
72	0xbce8c0ee	-0.028412309
73	0xbd890821	-0.066910036
74	0xbdab36e0	-0.08360076
75	0xbcc2ba13	-0.023770368
76	0x3c405a3c	0.011740264
77	0xbd4c6892	-0.049904414
78	0xbd7b1846	-0.061302446
79	0x3bccb08d	0.0062466324
80	0x3d579732	0.052634425
81	0x3d8a2246	0.067448184
82	0x3d6f7b39	0.058467124
83	0x3daae741	0.083448894
84	0x3bee6511	0.0072752316
85	0x3d644a8c	0.055735156
86	0x3b9a23d0	0.004703976
87	0x3cda675e	0.026660617
88	0xbda90dc9	-0.082545824
89	0x3d9a9d4a	0.07549532
90	0x3d8ceda4	0.06881264
91	0x3d6efb7c	0.058345303
92	0xbd74a634	-0.059728816
93	0x3d8c6df5	0.0685691
94	0x3dc2fb65	0.09520606
95	0xbc3dfe9d	-0.011596349
96	0x3ce97907	0.028500093
97	0x3da1ebb9	0.07906289
98	0xbd723414	-0.059131697
99	0xbd7e5313	-0.062090944
100	0x3bd12ba2	0.0063833753
101	0xbd433554	-0.04765828
102	0x3cd7bf4a	0.02633633
103	0xbdb25558	-0.08707684
104	0xbba80ae8	-0.0051282533
105	0x3d0081f0	0.031373918
106	0x3d6180b6	0.05505439
107	0x3d3f58ed	0.046715666
108	0xbd897d7d	-0.06713388
109	0x3b0d3766	0.0021547913
110	0xbc2c9ae4	-0.010534976
111	0x3d3f1fae	0.04666107
112	0x3b62b451	0.003459234
113	0x3d2f7114	0.04283245
114	0x3da786ea	0.0818003
115	0x3d077fff	0.03308105
116	0x3dae0034	0.084961325
117	0xbd5b8395	-0.053592283
118	0xbd9adb65	-0.075613774
119	0xbd8ce81e	-0.0688021
120	0xbc95de87	-0.018294586
121	0x3cac1c96	0.021009725
122	0xbd89d031	-0.067291625
123	0xbd9fb5b7	-0.07798331
124	0xbd166a2b	-0.036722343
125	0x3be80d81	0.007081688
126	0xbc26ed59	-0.010188424
127	0xbc70f034	-0.014705706
128	0x3d516a42	0.051126726
129	0x3f194be2	0.59881413
130	0x3f187c38	0.5956454
131	0xbdba1b37	-0.09087222
132	0xbda9f56c	-0.08298764
133	0xbcb73ba1	-0.0223673
134	0xbd104de0	-0.035230517
135	0xbbb4ebd3	-0.0055212765
136	0x3d9639f4	0.073352724
137	0x3f0691c8	0.52566195
138	0xbd7df542	-0.062001474
139	0xbd352bf5	-0.044231374
140	0xbb983029	-0.004644413
141	0xba1fed6a	-0.0006100746
142	0x3de831b2	0.11337604
143	0x3c7e2f8c	0.015514266
144	0x3c90d154	0.01767794
145	0x3c90527a	0.017617453
146	0xbd59d62c	-0.053182766
147	0x3d9d6f25	0.07687215
148	0x3d2cfa76	0.042231046
149	0x3f03d569	0.51497513
150	0xbd5932dc	-0.05302702
151	0x3f1d639b	0.6148011
152	0x3be7dd47	0.007075939
153	0x3f0c63ff	0.5484008
154	0x3cb30730	0.021854013
155	0xbca4228e	-0.020036008
156	0xbc7e860f	-0.015534892
157	0x3c4345a6	0.011918461
158	0xbd2f029c	-0.042727098
159	0x3f1383e3	0.5762312
160	0x3c932195	0.01796035
161	0x3d049c48	0.032375604
162	0xbd98deb0	-0.07464349
163	0x3d872c5a	0.06600256
164	0xbcbb51f3	-0.022866225
165	0x3cc3e71e	0.023913916
166	0x3c3813b6	0.011235168
167	0xbd818e74	-0.06325999
168	0x3f16b355	0.5886739
169	0xbd01453e	-0.031560175
170	0x3d82d433	0.0638813
171	0xbc9bb15d	-0.019005472
172	0xbd44625f	-0.047945376
173	0xbc0fc65b	-0.008775319
174	0x3d948336	0.07251589
175	0x3d80af1e	0.06283401
176	0xbda83fc8	-0.0821529
177	0x3da78aec	0.08180794
178	0x3d35da48	0.044397622
179	0xbc56d7c2	-0.013112964
180	0xbba790ee	-0.0051137125
181	0x3efbe4fc	0.4919814
182	0x3f061eb8	0.52390623
183	0x3cac51e0	0.021035135
184	0xbd47a811	-0.048744265
185	0xbd867aa1	-0.06566358
186	0x3cc805ad	0.024416769
187	0xbc9b5e7e	-0.018965956
188	0xbd12a234	-0.03579922
189	0x3b99eea3	0.004697637
190	0x3d9b9f8d	0.07598791
191	0x3db317bc	0.08744761
192	0xbbb1fed4	-0.005431989
193	0xbcaf8614	-0.021426238
194	0x3cf20fe6	0.029548597
195	0xbd5b2666	-0.053503416
196	0x3dae5847	0.08512931
197	0x3f1b9f81	0.6079026
198	0x3d96ab15	0.0735685
199	0x3f0507b4	0.5196488
200	0xbd8ef43a	-0.06980176
201	0x3cc0d3e6	0.023538541
202	0x3f0970d6	0.536878
203	0x3d42c7ce	0.04755383
204	0xbd82bbdf	-0.0638349
205	0x3f12b848	0.5731244
206	0xbb7e7a55	-0.003883024
207	0x3c6621d8	0.014046155
208	0xbd904dda	-0.07046099
209	0x3d36a561	0.04459131
210	0x3d968232	0.073490515
211	0x3da8d529	0.08243782
212	0x3d9d6eef	0.076871745
213	0x3cb38806	0.021915447
214	0xbdb82aa1	-0.08992506
215	0x3d9a06eb	0.07520851
216	0x3f0c2038	0.5473666
217	0x3f0f9432	0.56085503
218	0xbd036a3c	-0.032083735
219	0x3d87e12e	0.066347465
220	0xbd72d852	-0.05928833
221	0x3da7a8e5	0.08186511
222	0x3e90ec7b	0.2830542
223	0xbd8129ed	-0.06306825
224	0x3da93fb2	0.08264102
225	0xbd10988f	-0.03530174
226	0x3d9a4f04	0.07534602
227	0xbd9d5c8e	-0.07683669
228	0x3f049a3d	0.5179785
229	0x3d876fd0	0.066131234
230	0x3d389f64	0.04507388
231	0x3d96596a	0.07341273
232	0x3cdd3b13	0.027005708
233	0xbd109c94	-0.035305575
234	0x3ed6fa06	0.41987628
235	0xbb64c9e4	-0.0034910375
236	0xbd0023f0	-0.031284273
237	0xbd98b246	-0.07455878
238	0x3f1075a8	0.5642953
239	0xbdae0e9c	-0.0849888
240	0xbd82dae2	-0.06389405
241	0x3db3afec	0.08773789
242	0xb97ed041	-0.00024300908
243	0xbd903bcb	-0.070426546
244	0xbd0da267	-0.034578707
245	0x3f094eb2	0.53635705
246	0x3d59e321	0.053195123
247	0x3da0649b	0.07831689
248	0x3bba3868	0.0056829937
249	0xbd6d5c6b	-0.057949465
250	0xbda70680	-0.08155537
251	0x3cd7e3dd	0.02635377
252	0x3ccd2b6d	0.025045121
253	0xbd74de4a	-0.059782304
254	0xbd30ca87	-0.043161895
255	0x3f17a471	0.5923529

layer2.bias f4 [128]
0	0xbd953ab8	-0.0728659
1	0x3f063022	0.52417195
2	0x3d728fdb	0.059219223
3	0x3cc1387f	0.02358651
4	0x3d0d2707	0.034461048
5	0xbd35d6f6	-0.044394456
6	0x3d84be00	0.06481552
7	0x3eea1810	0.45721483
8	0x3d50ff7c	0.0510249
9	0xbd4b7f94	-0.049682215
10	0x3b894be6	0.004189956
11	0x3c44989e	0.011999277
12	0x3d9c20db	0.07623454
13	0xbd51c1d0	-0.051210225
14	0x3ce4ce65	0.027930448
15	0x3cfedb0a	0.031110305
16	0x3dd9a7ff	0.10627746
17	0x3f287489	0.6580282
18	0xbd8323b1	-0.06403292
19	0x3d8cb48f	0.06870376
20	0x3d84e483	0.06488898
21	0x3c57a1ca	0.013161132
22	0xbc5959e5	-0.013266061
23	0x3da3e2a9	0.08002216
24	0x3da6e51c	0.08149168
25	0x3c9684f0	0.018373936
26	0xbcac8ac5	-0.021062264
27	0x3d982d9d	0.07430575
28	0x3d808f01	0.06277276
29	0x3ef34ab5	0.47517934
30	0x3f0f9125	0.5608085
31	0x3dfe5233	0.12418022
32	0x3cc093f6	0.023508053
33	0xbd4cc9c0	-0.04999709
34	0x3e4eaa21	0.20182087
35	0xbd7e2016	-0.06204232
36	0x3c527148	0.012844391
37	0x3d18a954	0.03727086
38	0x3d7b9649	0.06142262
39	0x3c9c6954	0.019093193
40	0xbd57e22e	-0.052705936
41	0x3f045a6a	0.5170046
42	0xbd9c0662	-0.07618405
43	0x3e406925	0.1879011
44	0xbd6227b0	-0.05521363
45	0x3f20748e	0.6267785
46	0x3d3a36cb	0.04546241
47	0x3cc99814	0.02460865
48	0xbc8f2575	-0.017473916
49	0x3d4d759b	0.050160985
50	0xbd7d3002	-0.061813362
51	0x3f041c45	0.51605636
52	0xbd3b390b	-0.045708697
53	0x3d3a1e3b	0.045438986
54	0x3e7277a4	0.23678452
55	0x3c9b8656	0.018984955
56	0x3f2bf16d	0.6716526
57	0x3dad4e15	0.084621586
58	0xbd7569fc	-0.059915528
59	0xba73be64	-0.0009298085
60	0x3e2c6062	0.16833642
61	0x3b78ca35	0.0037962322
62	0xbd0137c0	-0.031547308
63	0x3d741ec4	0.059599653
64	0x3e2e30e3	0.17010836
65	0x3dbdd562	0.09269215
66	0x3d02678a	0.031837024
67	0xbbfe67d9	-0.0077638444
68	0xbc36291c	-0.0111182
69	0x3dca038d	0.098639585
70	0x3d8790f7	0.06619447
71	0xbb25e4b3	-0.0025313317
72	0x3f02bc04	0.5106814
73	0x3d75b7e4	0.059989825
74	0xbd81b37f	-0.06333064
75	0xbd7e6ad7	-0.06211361
76	0xbd107c34	-0.0352747
77	0xbd851d17	-0.06499689
78	0x3f2e034a	0.6797377
79	0x3bfcf794	0.0077199433
80	0x3ca6ecc6	0.020376574
81	0xbd6ed23c	-0.058305964
82	0x3dd12acd	0.10213242
83	0x3ce311a5	0.027718375
84	0xbc73726c	-0.014858823
85	0x3dfb1f1e	0.122617945
86	0x3e01a78f	0.12661575
87	0x3e0d1bca	0.13780132
88	0x3e2cca55	0.16874059
89	0x3cf924bd	0.030413026
90	0x3e55b247	0.20868789
91	0x3ddd9624	0.10819653
92	0xbd3b7e4f	-0.045774754
93	0x3edd37a9	0.43206528
94	0x3d19cad1	0.037546936
95	0x3d393986	0.045220874
96	0xbd87476d	-0.0660542
97	0x3d11e361	0.035617236
98	0xbd489196	-0.048966967
99	0x3d67cf7e	0.056594364
100	0x3dac36c0	0.0840888
101	0x3e57240c	0.21009845
102	0xbd1327a9	-0.035926495
103	0x3dcd2249	0.10016305
104	0x3e218bb9	0.15775956
105	0xbd393b31	-0.045222465
106	0x3eb3910a	0.35071594
107	0xbdb8e4a9	-0.090279885
108	0x3dc7e2a6	0.09760027
109	0xbcb437cc	-0.021999262
110	0xbc827dfe	-0.015929218
111	0x3e24a209	0.16077437
112	0xbd9114b0	-0.07084024
113	0x3cd3568e	0.025798108
114	0x3c2f5b32	0.010702895
115	0xbd945890	-0.072434545
116	0xbd828ea4	-0.06374863
117	0xbdbde93e	-0.09273003
118	0x3db30818	0.08741778
119	0x3df82bf5	0.12117759
120	0x3e13b987	0.14426242
121	0x3e04d7c1	0.12972929
122	0xbc14a35e	-0.009072153
123	0xbd6e11bd	-0.058122385
124	0x3d8dd144	0.0692468
125	0x3f0714d5	0.5276616
126	0x3b296398	0.0025846716
127	0x3dabb677	0.08384412

layer3.weight f4 [3, 128]
0	0xbcbec4c3	-0.023287183
1	0x3dc2f4b8	0.09519333
2	0xbcd35d46	-0.025801312
3	0x3d186534	0.03720589
4	0xbd394594	-0.04523237
5	0x3c8bea4d	0.017079497
6	0x3d4c0ac2	0.049814947
7	0x3cc41598	0.023936078
8	0xbd1ef914	-0.03881176
9	0x3d15cbbc	0.03657125
10	0x3bb8b854	0.005637208
11	0x3d58d300	0.0529356
12	0xbd5794e9	-0.052632246
13	0x3bb297e0	0.005450234
14	0xbc487909	-0.012235888
15	0x3d424bbc	0.047435507
16	0xbdaad685	-0.083416976
17	0x3e95e31e	0.2927484
18	0x3da798c9	0.08183438
19	0xbd3684f4	-0.044560388
20	0xbd75a32c	-0.059970066
21	0xbc80b256	-0.015710037
22	0x3d91fece	0.07128678
23	0x3d39c2f8	0.045351952
24	0x3be99cab	0.007129272
25	0x3dc4b11e	0.09604095
26	0x3c51a262	0.012795063
27	0xbcdaf3dc	-0.02672761
28	0x3db18166	0.08667259
29	0x3d86ffa7	0.065917306
30	0x3e83f729	0.25774506
31	0x3da9e047	0.08294731
32	0xbd956c08	-0.07295996
33	0x3c01011e	0.0078738015
34	0x3d04af35	0.032393653
35	0x39c017be	0.00036638783
36	0x3da8d62b	0.08243974
37	0xbd590712	-0.05298526
38	0x3ce2dbf5	0.027692774
39	0x3cafbde4	0.021452852
40	0xbd990c64	-0.074730664
41	0x3e42df36	0.1903046
42	0x3dad6192	0.08465876
43	0x3c9dcdce	0.019263174
44	0x3d842b1b	0.06453534
45	0x3e9d821e	0.30763334
46	0x3cfd8fd7	0.030952377
47	0x3db5b7d3	0.08872952
48	0x3d810fe0	0.06301856
49	0x3d6b13b8	0.057391852
50	0x3d58599c	0.052819833
51	0x3e9e3f21	0.3090754
52	0xbd89b4da	-0.06723948
53	0x3dac7797	0.084212475
54	0x3bad284f	0.005284346
55	0x3da4bcab	0.08043798
56	0x3e7ad503	0.2449532
57	0xbd8605be	-0.06544064
58	0x3d8400e1	0.0644548
59	0xbd003be9	-0.031307135
60	0xbd902d40	-0.07039881
61	0x3d30a0b1	0.043121997
62	0x3da5b8f5	0.080919184
63	0x3d4228f8	0.047402352
64	0xbb9b2437	-0.0047345418
65	0x3bba6dd9	0.0056893644
66	0xbd6a31aa	-0.05717627
67	0x3cd623e0	0.026140153
68	0x3ca92550	0.020647675
69	0x3d1b7817	0.037956323
70	0x3da8e4b3	0.08246746
71	0xbd98d65f	-0.07462763
72	0x3c71ca22	0.014757665
73	0x3d2fcb70	0.042918622
74	0xbc185057	-0.009296498
75	0xbd6272dc	-0.05528532
76	0xbda69639	-0.081341214
77	0x3c747dee	0.014922602
78	0x3e4584b0	0.19288898
79	0x3d30c6cc	0.043158337
80	0x3c63122c	0.013859313
81	0x3d46cbec	0.04853432
82	0x3ce7b455	0.028284231
83	0xbcad324a	-0.021142144
84	0x3d7b7a7e	0.061396115
85	0x3d8653c3	0.06558945
86	0x3d282340	0.041049242
87	0xbda13e1d	-0.07873175
88	0xbad7dc29	-0.0016468811
89	0xbbafcc02	-0.005364896
90	0x3d883611	0.06650937
91	0x3c1d2f04	0.009593729
92	0x3c58ef08	0.013240583
93	0x3d9d5797	0.07682722
94	0xbcaddf87	-0.02122475
95	0x3d55f423	0.05223478
96	0x3cbbf12f	0.022942154
97	0xbc0817a6	-0.0083064195
98	0x3da6c0da	0.08142252
99	0xbcf8af3e	-0.030357
100	0x3d16896c	0.03675215
101	0x3ca1c62d	0.019747818
102	0x3da3a324	0.07990101
103	0x3cea0705	0.0285678
104	0xbd804cc7	-0.06264644
105	0xbd468e70	-0.048475683
106	0x3b0cab1f	0.00214643
107	0xbd6f6600	-0.058446884
108	0x3db35773	0.08756914
109	0x3c68ace6	0.014201378
110	0x3d5c4f55	0.053786594
111	0x3d949cb5	0.07256452
112	0x3d8411fb	0.06448742
113	0x3cd5faa5	0.026120493
114	0xbcc60e73	-0.024176812
115	0x3d3ea3c0	0.046542883
116	0x3d6e5540	0.05818677
117	0xbaec046d	-0.001800669
118	0xbd75d222	-0.06001485
119	0x3d367fc8	0.044555455
120	0x3a349fc9	0.0006890265
121	0x3d9e732d	0.07736812
122	0xbbb73d00	-0.0055919886
123	0x3da0fd9e	0.07860874
124	0x3d545270	0.05183643
125	0x3dc42cc7	0.09578853
126	0xbda53298	-0.080662906
127	0x3d165b18	0.036707968
128	0x3d94986c	0.07255635
129	0x3e05082b	0.12991397
130	0xbda16be2	-0.07881905
131	0xbd8d0568	-0.06885797
132	0xbcba465e	-0.022738632
133	0xbcd354cf	-0.025797276
134	0xbceccb12	-0.028905425
135	0x3e287f28	0.16454756
136	0xbd35bbf9	-0.044368718
137	0x3db0f528	0.0864051
138	0xbdab2f19	-0.083585925
139	0x3d97fe50	0.07421553
140	0xbd81212c	-0.06305155
141	0xbd910b2b	-0.07082208
142	0xbd5a9940	-0.053368807
143	0xbd8cc91c	-0.06874296
144	0x3da7ccab	0.08193334
145	0x3f372ead	0.71555597
146	0x3cea724e	0.028618958
147	0x3da4b963	0.08043172
148	0xbb8d5eb6	-0.004314269
149	0xbb874746	-0.0041283695
150	0xbcc053f9	-0.023477541
151	0xbd9bffaa	-0.076171234
152	0xbd6941b5	-0.05694743
153	0xbb86bd24	-0.004111903
154	0xbd8bbacf	-0.0682274
155	0x3cac451d	0.02102905
156	0xbca18bc5	-0.019719968
157	0x3e0ea6d5	0.13930829
158	0x3f32e3e9	0.69879013
159	0x3d0c83bc	0.03430532
160	0xbda78f0f	-0.08181583
161	0x3d9a9c0a	0.07549293
162	0x3d558da0	0.052137017
163	0x3a97c796	0.0011579867
164	0xbd7cf705	-0.061759014
165	0x3d5a0983	0.053231727
166	0xbcaeadd6	-0.021323126
167	0xbbe8f034	-0.0071087126
168	0xbd162de6	-0.036664866
169	0x3f33adc0	0.70186996
170	0xbc19098c	-0.009340655
171	0x3da1447a	0.07874389
172	0xbb955f8d	-0.0045585097
173	0x3f3251d3	0.69656104
174	0xbd8009b1	-0.062518485
175	0x3dce0f98	0.10061568
176	0xbd5efd37	-0.054440703
177	0x3c605661	0.013692469
178	0xbd8786b4	-0.066174895
179	0x3f2dc27f	0.678749
180	0x3d380d58	0.0449346
181	0xbd4adf87	-0.04952958
182	0x3dee206a	0.11627276
183	0xbd91710c	-0.0710164
184	0x3f2689dc	0.65054107
185	0xbd40aac3	-0.04703785
186	0xbd38c36f	-0.045108255
187	0xbd42cf54	-0.047561005
188	0x3dc21725	0.09477071
189	0xbd9ee650	-0.077587724
190	0xbd4c29e2	-0.04984463
191	0xbd91a011	-0.07110608
192	0x3d9fe670	0.07807624
193	0x3d74724b	0.05967931
194	0x3d361c20	0.044460416
195	0xbcbedf0a	-0.023299713
196	0xbb89f268	-0.0042098053
197	0x3cbc420f	0.022980718
198	0x3db2d374	0.08731738
199	0xbbc0345a	-0.005865616
200	0x3eba3ab4	0.36372912
201	0x3d84e305	0.06488613
202	0x3ca244f7	0.019808276
203	0xbd2c4afd	-0.042063702
204	0x3cff26b5	0.031146387
205	0x3d8ff237	0.07028621
206	0x3f25ed5f	0.64815325
207	0xbd6f30c4	-0.058396116
208	0xbc1e7fd0	-0.009674028
209	0xbca600ae	-0.020263996
210	0x3d52ca7d	0.05146264
211	0x3ce4b3d8	0.027917787
212	0xbd9c61eb	-0.07635864
213	0x3db1111a	0.0864584
214	0x3d8f8477	0.070076875
215	0x3d7934b2	0.06084127
216	0x3cf5fe88	0.030028597
217	0xbcabbca7	-0.02096398
218	0x3df4780a	0.11936958
219	0x3d98c534	0.074594885
220	0xbc148d5f	-0.009066909
221	0x3e1f8bc2	0.15580657
222	0x3b8b07d9	0.004242879
223	0xbd74fffd	-0.059814442
224	0xbd212553	-0.039342236
225	0xbcc76806	-0.024341594
226	0x3cd93ae4	0.026517339
227	0xbd2ba4f8	-0.041905373
228	0xbb9795c7	-0.004626009
229	0x3d810b0e	0.06300937
230	0x3d57f080	0.052719593
231	0x3b3c3561	0.002871834
232	0x3d647eec	0.055785105
233	0x3bb2e9ed	0.005460015
234	0x3e01e466	0.12684783
235	0xbca15bd1	-0.019697102
236	0x3c225ad0	0.009909347
237	0x3d176076	0.036957227
238	0x3ce1bd0b	0.027555963
239	0x3d561696	0.052267633
240	0x3dbf5ea7	0.093442254
241	0xbd6b0c4d	-0.057384778
242	0xbc979883	-0.01850534
243	0xbd8e2939	-0.06941456
244	0x3d931785	0.0718222
245	0xbd9bb4a7	-0.07602816
246	0x3dbc3651	0.091900475
247	0x3da1cc49	0.079002924
248	0x3dddcf23	0.10830524
249	0x3daf0486	0.08545785
250	0xbd1e7aab	-0.038691204
251	0x3cff8626	0.031191897
252	0x3cf57526	0.029963087
253	0x3ecb59e8	0.3971703
254	0x3c650839	0.013979011
255	0xbd952e45	-0.07284216

layer3.bias f4 [3]
0	0xbd609496	-0.054829203
1	0x3e3d136a	0.18464437
2	0xbd7184fb	-0.05896471
