models/rl_models/06.03.24_with_rewards_for_each_3_seconds/best_policy_dqn_model_epoch_4.pt (torch, 74148 bytes, 6 tensors)

layer1.weight f4 [128, 6]
0	0x3ebb6ebd	0.36607924
1	0x3cf2bdb9	0.029631482
2	0x3ec6c702	0.38823706
3	0x3e9b9f20	0.3039484
4	0xbe476aac	-0.19474286
5	0x3df92d19	0.12166805
6	0x3d8ca257	0.06866901
7	0xbe9d659e	-0.3074159
8	0xbdde9771	-0.10868729
9	0xbeba8fe4	-0.36437905
10	0x3e9e8ce9	0.3096688
11	0xbe07bbf1	-0.13255288
12	0xbdec4a9e	-0.115376696
13	0xbd7f26bb	-0.062292796
14	0x3e7e1321	0.24811985
15	0x3de43500	0.111429214
16	0x3def9dfa	0.117000535
17	0x3e86b51a	0.26310045
18	0x3df8036d	0.121100284
19	0xbd9b5d62	-0.07586171
20	0x3c5942e0	0.013260573
21	0xbe66d7e3	-0.22543292
22	0xbe8b4e55	-0.272082
23	0xbcbf72ab	-0.023370108
24	0x3e5b502e	0.21417305
25	0x3d5fc038	0.054626673
26	0xbe6e1834	-0.2325142
27	0x3e027b87	0.12742434
28	0xbeb7d746	-0.35906428
29	0x3ec2312d	0.37928143
30	0x3e262c9b	0.16227953
31	0xbe01b88d	-0.12668057
32	0xbe71938c	-0.23591441
33	0xbe11d422	-0.14241078
34	0xbe504ce0	-0.20341825
35	0x3c6d4970	0.014482841
36	0x3e8eaf1d	0.27867976
37	0xbe1ecd7b	-0.15508072
38	0x3e28c9e4	0.16483265
39	0xbe6874c3	-0.22700791
40	0xbe0ce729	-0.13760056
41	0xbe7ebbe3	-0.2487636
42	0x3ba415dd	0.005007489
43	0xbea9b600	-0.33146667
44	0xbe87bb91	-0.2651029
45	0x3e09ea0b	0.13468187
46	0x3dc1ca43	0.094624065
47	0xbeb6fbd1	-0.35738996
48	0x3dc67c33	0.09691658
49	0x3e347e02	0.17626193
50	0xbe798603	-0.24367528
51	0x3de224ba	0.11042161
52	0xbe2db74f	-0.16964458
53	0x3d9d6167	0.07684594
54	0x3ebb123d	0.36537352
55	0x3cbea21b	0.023270657
56	0xbe51380c	-0.20431536
57	0x3e867348	0.26259828
58	0x3dba7a81	0.09105397
59	0x3e7d20e7	0.24719582
60	0x3e478310	0.1948359
61	0x3e5ff1aa	0.21869531
62	0xbead24fe	-0.33817285
63	0x3eb12fcc	0.3460678
64	0x3d0b60a9	0.03402773
65	0x3e9f7bf8	0.31149268
66	0xbdcb60de	-0.09930585
67	0x3d5c3aa9	0.05376688
68	0x3ea60c5b	0.324313
69	0xbe103a8a	-0.14084831
70	0xbea238b8	-0.31683898
71	0xbe498fd5	-0.19683774
72	0x3eb621fb	0.355728
73	0x3ecebca3	0.40378293
74	0x3d943dd3	0.072383545
75	0xbe551438	-0.20808494
76	0x3e7625cb	0.24037854
77	0xbdd984a2	-0.10621001
78	0x3de0fac3	0.10985329
79	0xbddc855a	-0.10767622
80	0xbea68a2d	-0.32527295
81	0x3ec395f1	0.38200334
82	0xbea34718	-0.31890178
83	0xbea3e806	-0.32012957
84	0xbe94154e	-0.28922504
85	0x3e89a332	0.2688232
86	0xbe43d60b	-0.1912462
87	0x3e5092d3	0.20368509
88	0xbcfa5c70	-0.030561656
89	0x3e6bf24d	0.23041649
90	0x3e1f092b	0.15530841
91	0x3e721b5e	0.23643252
92	0x3e90652e	0.28202194
93	0x3e236fb3	0.15960579
94	0x3e902e7e	0.2816047
95	0x3c47b1cd	0.012188387
96	0x3d3766e3	0.044775855
97	0xbac5845f	-0.0015069357
98	0xbebf0339	-0.37307146
99	0x3d3e65ab	0.046483677
100	0xbec80e1e	-0.3907327
101	0x3e5d8a31	0.21634747
102	0xbebd9b13	-0.37032375
103	0x3e6306fb	0.22170632
104	0xbe1201dd	-0.14258523
105	0xbe855f0d	-0.2604908
106	0x3eac5b8f	0.33663604
107	0x3e0eebf2	0.13957193
108	0x3e132a9d	0.14371724
109	0x3ca0c4a7	0.019625021
110	0x3c64ccf3	0.013964879
111	0x3ea9fe5f	0.33201882
112	0x3eaac9d9	0.33357123
113	0xbe16b715	-0.14718278
114	0xbe914a0c	-0.28376806
115	0x3e598204	0.21241003
116	0xbea28bc8	-0.3174727
117	0xbea76292	-0.3269239
118	0x3ea7ff7b	0.32812104
119	0x3ead1b60	0.33809948
120	0x3e56c519	0.20973624
121	0xbea70d58	-0.32627368
122	0x3e5bcff6	0.2146605
123	0x3e70b566	0.23506698
124	0x3d5324dc	0.051548824
125	0x3eb92191	0.36158422
126	0xbc9c8779	-0.019107567
127	0x3e9fc852	0.3120752
128	0xbeaf0752	-0.34185272
129	0x3e89b417	0.2689521
130	0x3d01d3c3	0.031696092
131	0xbe4662a1	-0.19373561
132	0xbe1c0458	-0.15236032
133	0x3e746339	0.23865975
134	0x3e8849f6	0.26618928
135	0xbde655b8	-0.11246818
136	0xbbb221d1	-0.00543616
137	0xbe0e77a4	-0.13912827
138	0x3d2240b4	0.039612487
139	0x3b9abc68	0.004722167
140	0x3e1235dd	0.1427836
141	0xbe6b58f7	-0.22983156
142	0xbdd7becb	-0.10534438
143	0xbe8313b7	-0.2560098
144	0xbd74d0e0	-0.05976951
145	0xbe2724c1	-0.16322614
146	0x3ec08c43	0.3760701
147	0xbe1d6a81	-0.1537266
148	0xbdd59892	-0.10429491
149	0xbecc08a7	-0.3985035
150	0xbea62636	-0.32451028
151	0x3eb22967	0.34797212
152	0x3e02ab98	0.1276077
153	0xbdb5fa8c	-0.08885679
154	0xbe9a868b	-0.30180773
155	0xbeb4839e	-0.35256666
156	0xbeb898a3	-0.36053953
157	0xbea4b3ad	-0.32168332
158	0x3e1a629a	0.15076676
159	0x3e4f677a	0.20254317
160	0xbcedce70	-0.029029101
161	0xbe811634	-0.25212252
162	0x3e8efd6b	0.27927718
163	0x3d9d7b10	0.07689488
164	0x3d9829ad	0.07429824
165	0xbe965c5a	-0.29367334
166	0xbe982efe	-0.29723352
167	0x3bab8e4b	0.0052354685
168	0x3eaf43cb	0.3423141
169	0x3e945a40	0.28975105
170	0x3cd15697	0.025553985
171	0xbe9f3b48	-0.31099916
172	0x3e9821e3	0.29713354
173	0xbe59fec6	-0.21288595
174	0xbe8ebe10	-0.2787938
175	0xbe1b6d1e	-0.15178344
176	0x3e2fd95c	0.1717276
177	0xbeb72324	-0.35768998
178	0xbe73b831	-0.23800732
179	0x3d9cbce0	0.076532125
180	0x3dc72e73	0.09725656
181	0x3ea69934	0.3253876
182	0x3e957377	0.29189655
183	0x3e2f45e1	0.171165
184	0xbe1ebf1a	-0.15502587
185	0x3dd7297b	0.10505959
186	0xbd082110	-0.033234656
187	0x3cba8ac3	0.022771245
188	0x3dd3a3da	0.103339866
189	0xbec5cc46	-0.3863241
190	0x3eaea160	0.34107494
191	0x3ebc458a	0.36771804
192	0x3ca87c2d	0.020567024
193	0xbe01f169	-0.12689747
194	0x3d9a6d72	0.07540406
195	0x3da8a57d	0.082346894
196	0xbec537d6	-0.38519162
197	0x3e01e3d7	0.1268457
198	0x3d869cbb	0.06572863
199	0xbeb4cbb3	-0.3531166
200	0x3da66305	0.08124355
201	0xbe3a3b0b	-0.18186586
202	0x3e9dfda8	0.30857587
203	0x3d307574	0.043080762
204	0xbea043fc	-0.31301868
205	0xba208aa6	-0.0006124176
206	0xbe8ee429	-0.27908447
207	0x3df251b6	0.118319914
208	0x3e55b7fe	0.20870969
209	0x3e4c3484	0.19941908
210	0xbde3961d	-0.11112616
211	0x3ec3c571	0.38236573
212	0xbd024bba	-0.0318105
213	0x3e465a26	0.19370326
214	0xbe7123d4	-0.23548824
215	0xbe252329	-0.16126694
216	0xbe2b9be0	-0.1675868
217	0xbe4c5ed3	-0.19958048
218	0xbe4497b0	-0.19198489
219	0x3e280869	0.16409458
220	0xbe6a661f	-0.22890519
221	0x3dea9628	0.11454421
222	0x3e0f5ad6	0.13999495
223	0xbe341ee2	-0.17589906
224	0x3ec9fcfd	0.39450827
225	0xbec0e6e5	-0.3767616
226	0xbe6caf8c	-0.23113841
227	0x3d8e1a36	0.06938593
228	0x3df9d57f	0.12198924
229	0xbe90a88a	-0.28253585
230	0x3cb510c4	0.022102721
231	0x3c87f1af	0.016594736
232	0xbe0334dd	-0.12813134
233	0x3d5cb1b9	0.053880427
234	0xbe5ff6e1	-0.2187152
235	0xbdb89ee0	-0.09014678
236	0x3ec27e05	0.3798677
237	0xbde54d99	-0.11196441
238	0x3dfae12f	0.122499816
239	0x3e75a382	0.23988155
240	0xbebd1dff	-0.36936948
241	0x3e97bc44	0.29635823
242	0xbd27b0cd	-0.040940095
243	0xbe49f438	-0.19722068
244	0xbe1f41bf	-0.15552424
245	0xbe472f52	-0.19451645
246	0x3da16907	0.078813605
247	0xbeb91d09	-0.36154965
248	0x3d3a03ff	0.045413967
249	0x3ea6b0ae	0.3255667
250	0x3e22bd25	0.15892465
251	0x3e748ef4	0.23882657
252	0x3e2b8dad	0.16753264
253	0xbea390d9	-0.31946447
254	0xbe32ca7e	-0.17460057
255	0xbe7595ed	-0.23982973

layer1.bias f4 [128]
0	0x3e35fe8a	0.1777288
1	0xbe120b06	-0.14262018
2	0xbbb8c7d6	-0.0056390567
3	0xbea1af69	-0.3157914
4	0x3eeeaec5	0.46617714
5	0xbdbad509	-0.091226645
6	0xbeae619b	-0.34058842
7	0xbde27861	-0.11058117
8	0x3ccedc90	0.025251657
9	0x3f27df8a	0.6557547
10	0xbe297e71	-0.1655214
11	0xbe5f4aa6	-0.2180582
12	0x3cd9bb23	0.026578492
13	0x3f501f44	0.8129771
14	0xbe555255	-0.20832188
15	0x3eb7b13d	0.3587741
16	0xbd4b4c98	-0.049633592
17	0x3f2c4ec2	0.67307675
18	0x3d3693ac	0.044574425
19	0x3f203564	0.6258147
20	0x3ef48bd6	0.47762936
21	0xbdb104db	-0.08643504
22	0xbe66f957	-0.22556053
23	0x3f241036	0.64087236
24	0x3f359ded	0.709441
25	0x3f2a4c6a	0.6652285
26	0xbe076107	-0.13220607
27	0xbe68d23c	-0.22736448
28	0xbebdde5e	-0.37083715
29	0xbe36be77	-0.17846094
30	0xbe3ab604	-0.18233496
31	0x3f35422c	0.70804095
32	0xbeac51f0	-0.33656263
33	0xbeb6895c	-0.35651672
34	0xbea77b2a	-0.32711154
35	0xbd01eba2	-0.031718858
36	0xbe955e07	-0.291733
37	0x3f70758a	0.9392935
38	0x3f5de5b8	0.8667865
39	0x3f5e6af1	0.8688193
40	0xbea49e2c	-0.32151926
41	0xbd8fa49c	-0.070138186
42	0x3f2f45b6	0.68465745
43	0x3f4009e7	0.7501511
44	0xbe46c1de	-0.19409892
45	0xbe8daee8	-0.27672505
46	0xbacb0bad	-0.001549115
47	0x3ed76aa3	0.42073545
48	0xbe6f3b08	-0.23362362
49	0x3f3fbf67	0.7490143
50	0x3f543fe3	0.82909983
51	0x3f1fce47	0.6242413
52	0x3f0cd181	0.5500718
53	0x3f178dd1	0.5920077
54	0xbecd859a	-0.40140992
55	0x3d56d73e	0.052451365
56	0xbe906996	-0.28205556
57	0x3e0d7ccc	0.13817137
58	0xbec08399	-0.376004
59	0x3e78e062	0.24304345
60	0xbe9e6d97	-0.30942985
61	0x3f0e1791	0.5550471
62	0xbea5be2e	-0.32371658
63	0xbb8d9923	-0.004321234
64	0xbeba2a62	-0.3636046
65	0xbe31d6fe	-0.1736717
66	0xbec07ba0	-0.37594318
67	0xbeadd6c5	-0.3395292
68	0x3f0f5d47	0.56001705
69	0xbe09a235	-0.13440783
70	0xbc982991	-0.018574508
71	0x3f3bfe2a	0.734347
72	0x3f2f71c9	0.68533
73	0x3f81d223	1.0142254
74	0x3f010fd8	0.504148
75	0xbe27566f	-0.16341566
76	0x3e6dca61	0.23221733
77	0xbe24fc51	-0.16111876
78	0xbebcea87	-0.3689768
79	0xbeb62a8b	-0.35579333
80	0xbd721192	-0.059098788
81	0x3ea62f25	0.32457843
82	0x3f859d55	1.0438639
83	0xba725c9f	-0.0009245369
84	0x3e3e36e3	0.18575625
85	0xbe2ccc2b	-0.16874759
86	0xbe3797d5	-0.17929013
87	0x3f624739	0.8838993
88	0x3e972bbc	0.29525554
89	0xbd7e65b1	-0.0621087
90	0x3cf59fae	0.029983368
91	0xbe26c586	-0.16286287
92	0x3f4d5730	0.8021116
93	0x3f45a15b	0.77199334
94	0xbb9d126e	-0.0047934568
95	0xbec0abcf	-0.3763108
96	0x3f167b73	0.5878212
97	0x3e25edf2	0.1620405
98	0x3da29313	0.079382084
99	0x3f47a8fd	0.7799223
100	0xbe079569	-0.13240589
101	0xbe4a5421	-0.19758655
102	0xbea2653b	-0.31717858
103	0xbe1fe9e1	-0.15616561
104	0xbe810262	-0.2519713
105	0x3f0a1638	0.53940153
106	0x3f388635	0.72079784
107	0x3f45cabc	0.77262473
108	0xbccf159a	-0.025278855
109	0x3f873e6b	1.0565923
110	0x3f763534	0.9617493
111	0x3f38b39d	0.7214907
112	0x3e9c126d	0.30482808
113	0x3f62ef17	0.8864607
114	0x3f6daa8c	0.9283836
115	0xbb18cb16	-0.0023314408
116	0xbe0a0982	-0.1348019
117	0xbec3f577	-0.38273212
118	0x3ea27adf	0.31734368
119	0x3f624ce1	0.8839856
120	0x3f5f8bc7	0.8732266
121	0x3f77307d	0.9655836
122	0x3f4e1c06	0.8051151
123	0x3e3c906f	0.18414472
124	0xbc125468	-0.008931257
125	0xba99d5f4	-0.0011736737
126	0x3ec6892a	0.38776523
127	0xbcef01cd	-0.029175663

layer2.weight f4 [128, 128]
0	0xbcdaad38	-0.026693925
1	0x3d1a70ec	0.037705347
2	0x3d3f90c3	0.046768915
3	0xbda4be55	-0.080441155
4	0xbdf2fed5	-0.118650116
5	0xbd99c2f8	-0.075078905
6	0xbcb29864	-0.021801181
7	0x3d12a5dc	0.035802707
8	0x3d415949	0.04720429
9	0xbd223127	-0.039597657
10	0xbd8f9e57	-0.07012623
11	0x3d87c24e	0.066288576
12	0x3d83f15b	0.06442519
13	0xbd7780df	-0.060425635
14	0xbd8fad2c	-0.07015452
15	0x3c71a4ef	0.014748796
16	0xbc941199	-0.018074797
17	0xbc880abd	-0.016606683
18	0x3ca4a91d	0.02010017
19	0xbcdfa055	-0.027298132
20	0x3d7d4eb9	0.061842654
21	0x3c6d9005	0.014499669
22	0xbd3d1559	-0.046162937
23	0x3d684937	0.056710448
24	0xbd58a3be	-0.05289053
25	0xbd8a7642	-0.06760837
26	0x3d69bc56	0.057064377
27	0xbd81eff4	-0.063445956
28	0x3bc0c65b	0.005883021
29	0xbcb54898	-0.022129342
30	0x3d6b8390	0.057498515
31	0xbcbe2403	-0.023210531
32	0xbd1f52c2	-0.038897283
33	0x3d484fb5	0.04890414
34	0xbd567fa2	-0.052367814
35	0x3d99ea37	0.07515376
36	0x3c1120ce	0.008857919
37	0x3cb7c1dd	0.022431308
38	0xbdc8e032	-0.09808387
39	0xbd664921	-0.056222085
40	0x3d53aee0	0.051680446
41	0xbd2c2343	-0.042025816
42	0xbba642f6	-0.0050739003
43	0x3b8b9355	0.0042595067
44	0x3d0f8712	0.035040922
45	0xbd4d67f9	-0.050147984
46	0xbc206159	-0.0097888345
47	0x3cf62e38	0.030051336
48	0xbd9284b5	-0.07154218
49	0x3d68ace0	0.05680549
50	0xbd1dc505	-0.03851797
51	0x3d6863f3	0.056735944
52	0x3cadb6c0	0.021205306
53	0xbcc8ad0f	-0.024496583
54	0x3c9d0744	0.019168504
55	0xbce3cad4	-0.027806677
56	0x3c4fe65e	0.012689201
57	0x3d2c5ade	0.042078845
58	0x3d75d41c	0.060016736
59	0x3ceaaee9	0.028647857
60	0xbd6ae16e	-0.057343893
61	0x3d666884	0.056252018
62	0x3da9a58d	0.082835294
63	0x3ce52f01	0.027976515
64	0x3cde06fe	0.027102944
65	0xbd709de4	-0.058744326
66	0xbd46e0f4	-0.048554376
67	0xbdaceae8	-0.08443242
68	0x3d79dae0	0.06099975
69	0x3d411eb0	0.047148407
70	0x3d8072aa	0.062718704
71	0xbd7d4b29	-0.061839256
72	0xbd3698b9	-0.04457924
73	0xbcd6bde6	-0.026213598
74	0x3d9d6da2	0.076869264
75	0x3d959ead	0.07305656
76	0x3d4cfed9	0.05004773
77	0xbc858fd7	-0.01630394
78	0x3d8be414	0.06830612
79	0x3c994399	0.01870899
80	0x3cf89f3f	0.030349372
81	0xbd9fe1c0	-0.0780673
82	0xbd65a64a	-0.05606679
83	0x3d9bae02	0.07601549
84	0x3ca568ff	0.020191668
85	0x3cad11d2	0.021126661
86	0x3bb669c4	0.0055668075
87	0xbd42c33c	-0.04754947
88	0x3bd36797	0.006451558
89	0xbdae279b	-0.08503648
90	0x3ce03f0a	0.02737381
91	0xbd428d97	-0.04749831
92	0xbd482405	-0.048862476
93	0x3b8e35a5	0.004339891
94	0x3b72a844	0.0037026564
95	0xbda68490	-0.08130753
96	0x3d981433	0.07425728
97	0x3c5770c0	0.01314944
98	0xbd055c9b	-0.03255902
99	0xbd4d54d5	-0.05012973
100	0x3da145aa	0.078746155
101	0xbcf567e6	-0.02995677
102	0xbd9effff	-0.07763671
103	0x3d7363a4	0.059421197
104	0x3d406f21	0.04698098
105	0x3cac273f	0.021014808
106	0xbcceff3a	-0.025268186
107	0xbd96451d	-0.07337401
108	0x3d946759	0.072462745
109	0x3c2fded8	0.010734282
110	0xbdb2da5a	-0.087330535
111	0xbcefc467	-0.029268457
112	0xbd45b0bf	-0.04826426
113	0xbd3331dd	-0.043748725
114	0xbc9ab31c	-0.018884234
115	0x3d62ca30	0.055368602
116	0xbd92a20b	-0.071598135
117	0x3c8608ea	0.016361672
118	0x3d8d702a	0.06906159
119	0xbcfe5240	-0.03104508
120	0x3cad57ca	0.021160025
121	0xbcf2ec62	-0.029653732
122	0x3d9ae09b	0.07562371
123	0xbbf0623d	-0.0073359297
124	0x3cc819b2	0.024426315
125	0x3d5a81b1	0.05334634
126	0xbd842316	-0.064520046
127	0x3c183ccc	0.009291839
128	0xbd9ceae3	-0.076619886
129	0xbcd76c4a	-0.026296753
130	0x3a785557	0.0009473166
131	0x3caa368c	0.020777963
132	0x3d92c4e4	0.0716646
133	0xbd91f84c	-0.07127437
134	0x3d800312	0.062505856
135	0x3cd5add6	0.026083868
136	0xbc34770a	-0.011014709
137	0x3d5b2bed	0.053508688
138	0xbd8b0367	-0.06787758
139	0xbcc0226b	-0.023453912
140	0x3d5db51f	0.05412781
141	0x3e1afe3b	0.15136044
142	0x3d505b16	0.050868116
143	0xbd2fbc1e	-0.042904012
144	0x3da5630b	0.080755316
145	0x3debb671	0.11509407
146	0xbd9c9b6e	-0.07646833
147	0xbb98e2b5	-0.0046656975
148	0x3dd51c29	0.10405762
149	0xbda956f1	-0.08268536
150	0xbd4acd5f	-0.049512263
151	0x3e9ea4bb	0.30985054
152	0x3e7febcf	0.24992298
153	0x3e5349db	0.20633642
154	0xbd170722	-0.036872037
155	0xbcaa9dd9	-0.02082722
156	0xbd53ba62	-0.05169142
157	0x3c82d4bb	0.015970578
158	0xbc507093	-0.012722152
159	0x3cd9cc46	0.026586663
160	0xbd3c2c7d	-0.045940865
161	0xbcc1512b	-0.023598274
162	0x3d39d5f5	0.04537006
163	0xbd097d0d	-0.033566523
164	0xbcd68ee6	-0.026191186
165	0x3e6f9589	0.23396887
166	0x3e9803fa	0.29690534
167	0x3e9e18c7	0.3087828
168	0x3d2cd275	0.042192895
169	0x3d594834	0.053047374
170	0x3e8bc448	0.27298188
171	0x3ec15674	0.3776127
172	0xbaa78334	-0.001278019
173	0x3ba46200	0.0050165653
174	0xbd23443d	-0.03986
175	0xbd05c1d3	-0.03265555
176	0x3d8f6416	0.07001512
177	0xbd214b9d	-0.03937875
178	0x3e883210	0.26600695
179	0x3bc083dc	0.005875094
180	0x3d76178a	0.060081042
181	0xbbe9c24d	-0.007133758
182	0xbc92525a	-0.017861534
183	0x3db87090	0.090058446
184	0x3d7b5779	0.061362717
185	0x3d9ab120	0.07553315
186	0x3c4539cf	0.012037708
187	0x3deb9172	0.11502351
188	0xbbb1ac17	-0.005422126
189	0x3db693e8	0.0891493
190	0x3ce970ec	0.028496228
191	0xbc201c56	-0.009772381
192	0xbcba8df7	-0.022772772
193	0x3a8a740d	0.001056315
194	0x3cd818ed	0.026379073
195	0xbd11282e	-0.03543871
196	0x3de8d0bd	0.11367939
197	0xbdbeb324	-0.09311512
198	0xbaafac70	-0.0013402831
199	0x3da3cb55	0.07997767
200	0x3ea3ec04	0.32016003
201	0x3ea517b3	0.32244644
202	0x3c6aabf0	0.01432322
203	0x3da2e6c2	0.0795417
204	0xbd309f6e	-0.043120794
205	0x3ca9cab5	0.020726541
206	0x3d63e691	0.055639807
207	0x3d9bb048	0.07601982
208	0xbd15bd4d	-0.036557484
209	0xbd1472af	-0.036242183
210	0x3e84a9e7	0.25910875
211	0xbd41a311	-0.047274653
212	0x3d551452	0.052021332
213	0xbd68d565	-0.056844134
214	0xbcbe124b	-0.023202082
215	0x3e8a69e3	0.2703391
216	0xbc894419	-0.016756104
217	0x3d8abd5e	0.067744
218	0xbd787a22	-0.06066335
219	0xbd6bb7aa	-0.057548203
220	0x3da00afa	0.078145936
221	0x3eb7ef96	0.35924977
222	0xbc9173df	-0.017755447
223	0x3d5b9f86	0.05361893
224	0x3e814bdb	0.25253186
225	0x3d8a575a	0.06754942
226	0xbcfd6a76	-0.030934554
227	0x3e8fe4f3	0.28104362
228	0xbdaa1ae7	-0.083059125
229	0x3dacdaa5	0.08440141
230	0xbcae64b6	-0.021288257
231	0x3d011f0f	0.03152376
232	0x3d8e326b	0.0694321
233	0x3e17e22b	0.1483237
234	0x3c493e12	0.012282865
235	0x3eb65b8c	0.3561672
236	0x3cda1241	0.026620032
237	0x3ea2e5c6	0.31815928
238	0x3e9190f1	0.28430894
239	0x3ec5b49c	0.38614357
240	0xbd477970	-0.048699796
241	0x3e6c54f9	0.2307929
242	0x3eb8e409	0.36111477
243	0xbd94bd6a	-0.0726269
244	0x3c8d744d	0.01726737
245	0x3c9eda33	0.019391155
246	0x3d9417cb	0.07231101
247	0x3ec89cc9	0.39182118
248	0x3e8f24aa	0.2795766
249	0x3e855f7f	0.2604942
250	0x3eb86852	0.3601709
251	0x3d401d8d	0.04690318
252	0xbdb413a4	-0.08792809
253	0x3c3f69db	0.011682953
254	0xbd9248ae	-0.07142769
255	0x3c47e368	0.012200214

layer2.bias f4 [128]
0	0x3d960216	0.073246166
1	0x3e9d2f92	0.30700356
2	0x3d5497f0	0.05190271
3	0xbd562a40	-0.052286386
4	0xbd2b4e37	-0.04182264
5	0x3f10ae37	0.5651583
6	0xbd59563b	-0.05306075
7	0x3f1e8b35	0.61931163
8	0xbd0eee73	-0.03489537
9	0xbd9b566f	-0.07584845
10	0x3d8ce87d	0.06880281
11	0xbdae421f	-0.08508705
12	0x3e8cd9a9	0.27509812
13	0xbc1cf978	-0.009580962
14	0x3d0945a0	0.033513665
15	0x3decfc3e	0.11571549
16	0x3d3b50af	0.045731243
17	0x3d2bf6e6	0.041983508
18	0x3ac46d08	0.0014986107
19	0xbcc6daed	-0.024274314
20	0xbdb034a9	-0.08603794
21	0x3d30bb9e	0.043147676
22	0xbdb2a969	-0.08723719
23	0x3cf46acf	0.029836087
24	0xbc53b53f	-0.01292163
25	0x3b5dce24	0.0033844793
26	0x3f03767c	0.5135267
27	0xbd845a97	-0.06462591
28	0x3e4c1ec8	0.19933617
29	0x3d2fc697	0.042914
30	0xbd5db83b	-0.054130774
31	0x3d8bcd80	0.068263054
32	0x3ce47490	0.027887613
33	0xbc00a381	-0.007851482
34	0x3eb3f3ed	0.35147038
35	0x3d8a4525	0.067514695
36	0xba2e009d	-0.00066376646
37	0x3f1f16a4	0.6214392
38	0xbd97f688	-0.07420069
39	0x3f21f127	0.63258594
40	0xbd2c0fd4	-0.042007282
41	0xbd1515d0	-0.036397755
42	0x3d799c02	0.060939796
43	0x3e236c34	0.15959245
44	0xbc85ba13	-0.016324079
45	0x3d9150f4	0.07095519
46	0xbcf5598d	-0.029949928
47	0x3d4a37f1	0.049369756
48	0xbbe118bb	-0.006869403
49	0xbcac39da	-0.02102368
50	0xbd5e6d1a	-0.054303266
51	0x3d211047	0.039322164
52	0x3f130fdb	0.5744607
53	0xbdab4c57	-0.0836417
54	0x3d91c905	0.071184196
55	0x3ce0f33d	0.027459735
56	0x3bcb7432	0.00620892
57	0x3bcbe1d2	0.0062219882
58	0xbdae6ce0	-0.0851686
59	0x3db40fac	0.08792052
60	0x3d9bdfba	0.07611032
61	0xbcacc063	-0.02108783
62	0x3dc91b97	0.098197155
63	0x3c63d549	0.013905832
64	0xbd990367	-0.07471352
65	0xbd8e05bf	-0.0693469
66	0x3f194f5f	0.59886736
67	0x3dab6f26	0.08370809
68	0xbd1c722a	-0.038194813
69	0xbd76f338	-0.060290545
70	0xbc81ec87	-0.015859855
71	0xbd0fa39d	-0.035068143
72	0x3e10ed80	0.14153099
73	0x3e2308eb	0.1592137
74	0x3dd5d328	0.104406655
75	0x3d033e96	0.03204211
76	0x3d2d19fc	0.04226111
77	0xbdafef5a	-0.085905746
78	0x3e303d9a	0.17210999
79	0xbce3c810	-0.027805358
80	0x3d204c55	0.039135296
81	0xbcb691ed	-0.02228638
82	0x3c9d5150	0.019203812
83	0x3bce5279	0.0062964526
84	0xbdae15ee	-0.085002765
85	0x3c2c35a9	0.01051084
86	0x3d96e873	0.07368555
87	0xbd8a58c3	-0.06755211
88	0xbc89216d	-0.016739571
89	0x3e23a46d	0.15980692
90	0xbce047ba	-0.027377952
91	0xbda6ce80	-0.081448555
92	0x3c622db2	0.01380484
93	0xbdb25ce9	-0.087091275
94	0x3e34d500	0.17659378
95	0x3dbf3100	0.09335518
96	0xbd9f8ea9	-0.07790882
97	0x3d4e3ba2	0.05034984
98	0x3d26b6a7	0.040701535
99	0xbcbb6a5f	-0.02287787
100	0x3d69b6be	0.057059042
101	0xbb1e0451	-0.002411146
102	0x3d8506d9	0.06495447
103	0xbd6fb44a	-0.058521546
104	0xbd2a4ebc	-0.041578993
105	0xbd8cd2b6	-0.068761274
106	0xbc0e46b1	-0.008683846
107	0x3d475c79	0.048672173
108	0x3f1cbb26	0.61223066
109	0x3da08f2b	0.07839807
110	0xbc116dff	-0.008876323
111	0x3c208a1d	0.009798554
112	0x3c56c236	0.013107827
113	0x3c33170d	0.010930789
114	0xbd4e480b	-0.050361674
115	0x3ebd6399	0.3699005
116	0x3d930ebd	0.071805455
117	0x3f251a7b	0.6449353
118	0xbd49b95f	-0.04924905
119	0x3ea85928	0.3288052
120	0xbd0e7260	-0.034777045
121	0x3d360f59	0.04444823
122	0x3ad5c7a6	0.001631011
123	0x3d7724e0	0.0603379
124	0xbcc4486f	-0.02396032
125	0x3dfbfbef	0.12303912
126	0xbc4b58a8	-0.012411274
127	0xbd5fbd39	-0.054623816

layer3.weight f4 [3, 128]
0	0x3bf5a1f9	0.0074961153
1	0x3d9c5849	0.076340266
2	0xbda3a46c	-0.07990345
3	0x3cbd115b	0.023079565
4	0x3cef52d8	0.029214308
5	0x3e19e3d3	0.15028314
6	0xbd8a68f5	-0.067583
7	0x3e938968	0.2881577
8	0xbcb5f4ac	-0.022211395
9	0xbd94d7af	-0.07267701
10	0xbcb2d346	-0.021829259
11	0x3cb12816	0.02162556
12	0xbd88d6ef	-0.0668162
13	0x3d285dc5	0.04110505
14	0x3d6301e1	0.055421714
15	0x3c14d19d	0.009083179
16	0x3dbca097	0.092103176
17	0xbd2e0e06	-0.042493843
18	0xbd316f3a	-0.043318965
19	0xbcc9f2b0	-0.024651855
20	0xbd42bd50	-0.047543824
21	0x3b4f7d02	0.0031660204
22	0xbd4caa93	-0.04996736
23	0xbd9c6498	-0.07636374
24	0x3d2ad3ca	0.041705884
25	0xbd83ff59	-0.06445188
26	0x3de01e74	0.109433085
27	0xbd54509e	-0.051834695
28	0x3e23a5aa	0.15981165
29	0x3d0701e7	0.0329608
30	0xbb052137	-0.0020313987
31	0x3c639741	0.013891042
32	0xbc9e0e82	-0.019294027
33	0x3d2f73a9	0.04283491
34	0x3e78630f	0.24256538
35	0xbc71ed28	-0.014766015
36	0xbcba15a0	-0.02271539
37	0x3e73ff64	0.23827893
38	0x3da44912	0.080217496
39	0x3e8a0874	0.26959574
40	0xbc901953	-0.0175902
41	0x3d0bd47b	0.034138184
42	0xbc7c15d1	-0.015386061
43	0xbcee7162	-0.0291068
44	0xbd8d9a34	-0.069141775
45	0x3c26e6f5	0.0101869
46	0xbc8dff39	-0.017333614
47	0x3da12d07	0.078699164
48	0x3d565fe6	0.05233755
49	0xbcaad2e1	-0.020852508
50	0xbda674e1	-0.08127762
51	0x3c599d85	0.0132821845
52	0x3dd1d5d5	0.10245863
53	0xbc36f4ec	-0.011166792
54	0xbd52e4af	-0.05148762
55	0x3d78e825	0.060768265
56	0x3b87b2ef	0.0041412036
57	0xbd37ee5f	-0.044905063
58	0x3cf190c8	0.029487982
59	0x3dad248e	0.08454238
60	0x3d09ae32	0.03361339
61	0xbc7671e8	-0.015041806
62	0xbc3ca9c0	-0.011515081
63	0xbd1df51e	-0.03856384
64	0x3d99c38f	0.07508003
65	0x3da431c4	0.080173045
66	0x3e875e23	0.26439008
67	0x3d33b035	0.043869216
68	0xbceffbc0	-0.029294848
69	0xbd0aa7ff	-0.03385162
70	0x3d80b56c	0.062846035
71	0x3c72e821	0.014825852
72	0x3d8d4208	0.0689736
73	0x3e08db2f	0.13364862
74	0x3c98e2c3	0.018662816
75	0x3d4ca69e	0.049963586
76	0x3d4a492b	0.049386185
77	0xbc4ee7ba	-0.01262849
78	0x3e167a76	0.14695153
79	0xbcf58a93	-0.029973304
80	0xbda06daf	-0.078334205
81	0xbd466c0d	-0.04844289
82	0xbd9bc4a7	-0.07605868
83	0x3daafc43	0.08348896
84	0xbd0a28ca	-0.033730306
85	0xbd9f71c3	-0.0778537
86	0x3d63c550	0.055608094
87	0xbd1702c7	-0.036867883
88	0x3b216de8	0.002463216
89	0x3e20d27a	0.1570529
90	0x3c922f86	0.017844927
91	0xbd24e556	-0.040257774
92	0xbd53ba20	-0.051691175
93	0x3d5a1cc0	0.053250074
94	0x3c7a5f6e	0.015281541
95	0x3d18eb32	0.037333675
96	0x3c365211	0.011127965
97	0xbdb00920	-0.085954905
98	0x3d5a5f1f	0.05331337
99	0x3cff7852	0.031185303
100	0xbd3d52d9	-0.046221588
101	0xbd234148	-0.03985718
102	0x3a3e97ae	0.0007270527
103	0xbd972afd	-0.07381246
104	0x3d48a2a1	0.04898322
105	0xbdaa1d63	-0.08306386
106	0xbd617cf4	-0.055050805
107	0x3dad8f5b	0.084746085
108	0x3eab5853	0.33465824
109	0xbd6f88de	-0.058480136
110	0xbd8040d2	-0.062623635
111	0xbd890ba0	-0.066916704
112	0xbd0535ab	-0.032521885
113	0xbd3d436f	-0.046206888
114	0xbd74540a	-0.05965046
115	0x3e397f8f	0.18115066
116	0xbd8dc150	-0.06921637
117	0x3e94dbe4	0.29074013
118	0xbd69c984	-0.057076946
119	0xbcb178cb	-0.021664044
120	0xbc9f4792	-0.019443307
121	0x3ca71725	0.020396778
122	0xbd2e06b5	-0.042486865
123	0x3d128add	0.03577696
124	0xbd27b967	-0.040948298
125	0x3cdd246d	0.026994908
126	0x3d639126	0.055558346
127	0xbd594889	-0.05304769
128	0xbd1a9da5	-0.037747998
129	0x3ecdae9a	0.40172273
130	0xbc275b97	-0.010214708
131	0x3bdc2a76	0.006718929
132	0x3cb10920	0.021610796
133	0x3efb1a85	0.4904367
134	0xbcdc98cd	-0.02692833
135	0x3f1c50e8	0.61060953
136	0xba84e449	-0.0010138835
137	0xbd2e7a52	-0.042597122
138	0x3dae416f	0.08508574
139	0xbdba5103	-0.09097483
140	0x3df264f0	0.118356586
141	0x3d932685	0.071850814
142	0x3d3ae5f6	0.045629464
143	0x3d5b1f60	0.05349672
144	0x3d852d3c	0.065027684
145	0x3ae84ad5	0.0017722497
146	0xbd186fe4	-0.037216082
147	0x3c71c449	0.014756271
148	0xbd61be2c	-0.055113003
149	0xbd7b098d	-0.061288405
150	0xbd90a164	-0.07062033
151	0x3cdb3414	0.026758231
152	0x3dbe0888	0.09278971
153	0xbda4443c	-0.08020827
154	0x3f14455a	0.5791832
155	0xbcc6bf78	-0.024261221
156	0x3e166a6d	0.14689036
157	0xbd96ec8d	-0.07369337
158	0xbb7fc7af	-0.0039028933
159	0x3cbc1c06	0.022962581
160	0xbd8b44e1	-0.06800247
161	0x3ca41fc2	0.020034675
162	0x3e46bdd9	0.19408359
163	0x3dbf021d	0.09326575
164	0xbc450b21	-0.012026579
165	0x3f089e87	0.53366894
166	0xbd6a743c	-0.057239756
167	0x3f12ca8b	0.57340306
168	0xbb9db67e	-0.0048130145
169	0xbd8e3eb6	-0.06945555
170	0x3d6cba26	0.057794712
171	0x3da8bb97	0.08238905
172	0xbcfd9fed	-0.030960048
173	0xbd0c2d9a	-0.034223177
174	0xbd2ab7e2	-0.04167927
175	0xbc70789a	-0.014677191
176	0xbbb36ac9	-0.0054753763
177	0x3c105976	0.008810392
178	0x3da9ef9c	0.08297655
179	0xbd912111	-0.07086385
180	0x3edf57f9	0.43621805
181	0x3d75fc6d	0.060055185
182	0x3db19474	0.08670893
183	0x3d77104e	0.060318284
184	0xbcdce317	-0.026963754
185	0x3d9dc4d3	0.07703557
186	0x3d962e61	0.07333065
187	0x3e055043	0.13018899
188	0xbc8a39af	-0.016873209
189	0xbd8acc35	-0.06777231
190	0x3d65dc99	0.05611858
191	0x3d4a0b8f	0.04932743
192	0x3d445089	0.047928367
193	0x3d8faee9	0.07015783
194	0x3f259cfd	0.6469267
195	0x3dbba5ad	0.091624595
196	0xbd160718	-0.03662786
197	0xbda5c50c	-0.08094224
198	0xbc8a917b	-0.016915074
199	0xbd9e8c13	-0.07741561
200	0x3d1f20a4	0.038849488
201	0x3dcddc73	0.10051813
202	0x3d6c9edc	0.057768688
203	0x3cfde21a	0.030991603
204	0x3d8330b6	0.06405775
205	0xbd138f8c	-0.03602557
206	0x3e1de8b8	0.15420806
207	0xbd8a90f1	-0.06765927
208	0xbcb3084e	-0.021854546
209	0x3c35839e	0.011078743
210	0xbd2f95d1	-0.042867485
211	0x3c2e8100	0.010650873
212	0x3d0aff03	0.033934604
213	0x3b92db8f	0.00448174
214	0xbd6aec60	-0.05735433
215	0x3bbf2779	0.005833563
216	0xba7fbd91	-0.00097557256
217	0x3da765a0	0.0817368
218	0xbd1bfabf	-0.038080927
219	0x3da2129e	0.07913707
220	0x3c806ab4	0.01567588
221	0x3da77c1a	0.08177967
222	0x3db69183	0.08914473
223	0xbbe0b3e2	-0.006857381
224	0x3d53f915	0.051751215
225	0xbbc53c2d	-0.0060191364
226	0x3d9d6025	0.07684354
227	0xbd6085b6	-0.054815017
228	0xbdc4964b	-0.095989786
229	0xbd8ff278	-0.07028669
230	0x3d82fe08	0.06396109
231	0xbd5a40db	-0.053284507
232	0xbd8e5841	-0.06950427
233	0x3cd2893b	0.025700202
234	0xbd29f220	-0.041490674
235	0xbd803486	-0.06260018
236	0x3f1a4323	0.6025869
237	0xbb68ce32	-0.0035523293
238	0x3db9423a	0.09045835
239	0xbcfa50f5	-0.030556181
240	0x3c413fa8	0.011794962
241	0xbd2a82c1	-0.041628603
242	0x3d0246af	0.03180569
243	0x3e3f44f8	0.18678653
244	0x3d9490f7	0.07254212
245	0x3f1bb75e	0.6082667
246	0xbd8753d6	-0.06607787
247	0x3e58122e	0.21100685
248	0xbcedf8a2	-0.029049221
249	0xbd23aa67	-0.03995743
250	0xbb4f0133	-0.0031586408
251	0xbd3a3637	-0.04546186
252	0x3c944c46	0.018102776
253	0x3d2780df	0.040894385
254	0x3dad9c4d	0.08477078
255	0xbd2a3624	-0.04155554

layer3.bias f4 [3]
0	0x3da35097	0.07974356
1	0x3d8020ea	0.06256278
2	0x3dcb0fbb	0.0991511
