models/rl_models/06.03.24_with_rewards_for_each_3_seconds/best_policy_dqn_model_epoch_39.pt (torch, 74158 bytes, 6 tensors)

layer1.weight f4 [128, 6]
0.34734368 0.05461867 0.39388704 0.28577843 -0.15554723 0.14477183 0.06294042 -0.28195548
-0.099638164 -0.33419392 0.28413153 -0.12131324 -0.12157239 -0.044153318 0.24370234 0.08642879
0.12016476 0.2572382 0.1456566 -0.036304835 0.04542079 -0.20679744 -0.24921387 -0.021430409
0.20826207 0.070425384 -0.18652162 0.12549737 -0.31199646 0.37109363 0.17878291 -0.08744642
-0.18771593 -0.1306831 -0.18651977 0.013278107 0.2965256 -0.1032284 0.1898497 -0.20826744
-0.12614337 -0.22803546 0.0045931134 -0.30394778 -0.24262393 0.12332331 0.0867773 -0.32778725
0.08746825 0.1662247 -0.18141526 0.09718632 -0.15408802 0.11098964 0.3376466 0.048160724
-0.15518083 0.23861822 0.10601731 0.25438672 0.17979036 0.22695406 -0.275884 0.31337246
0.052499846 0.31516474 -0.09109623 0.04930588 0.29744443 -0.12927687 -0.29064986 -0.18056038
0.31433076 0.3901449 0.09275389 -0.20483653 0.23786667 -0.07278739 0.11756149 -0.08035635
-0.26813892 0.36506897 -0.27591637 -0.26493153 -0.2992438 0.2563533 -0.20503882 0.14987777
-0.02021832 0.17868361 0.14415297 0.23419262 0.29814714 0.1448945 0.27318767 0.048083153
0.08383203 0.039409474 -0.30134818 0.04262401 -0.35840437 0.1983328 -0.34062314 0.20239298
-0.13186432 -0.23950693 0.3077894 0.12706128 0.13452895 0.039183065 0.045890607 0.30123433
0.32065907 -0.10790443 -0.26088673 0.19445468 -0.29168582 -0.30028126 0.30049747 0.30960324
0.20345043 -0.3192409 0.18805881 0.22705682 0.026611112 0.32283217 -0.011207485 0.30967587
-0.27837607 0.2483694 0.049198236 -0.1466719 -0.12356923 0.23238784 0.25907364 -0.119175136
-0.01880865 -0.14313667 0.05428799 0.02028462 0.14706159 -0.21079257 -0.096635476 -0.23454116
-0.054821666 -0.14969462 0.34486967 -0.14099638 -0.09566097 -0.36548215 -0.28511092 0.32974586
0.12764126 -0.081497006 -0.27665374 -0.3233659 -0.33067435 -0.2950538 0.13820347 0.1857072
-0.026611706 -0.23108582 0.30862597 0.12063726 0.118190326 -0.2693328 -0.27253696 0.004800367
0.31937882 0.29303592 0.061359156 -0.283778 0.29640383 -0.16082196 -0.25587943 -0.13911848
0.15750687 -0.32806227 -0.21828286 0.07016702 0.0978747 0.32944968 0.31061158 0.16137353
-0.11601018 0.13579516 -0.030779438 0.02057772 0.09442248 -0.35468668 0.3124969 0.3369026
0.018860696 -0.11628621 0.069120355 0.07551442 -0.3532895 0.116240196 0.060169674 -0.32387
0.07451138 -0.16680026 0.28311545 0.039513174 -0.30821806 0.0028682838 -0.26193088 0.08711171
0.19492872 0.17759384 -0.09786267 0.37612748 0.004926619 0.17749667 -0.19416922 -0.11759887
-0.15365885 -0.18302283 -0.17608084 0.15048411 -0.20998198 0.105071165 0.12850885 -0.1613307
0.3618895 -0.34550795 -0.21193604 0.063657336 0.111903705 -0.25930905 0.020272065 0.015188277
-0.11738298 0.049404286 -0.20052758 -0.082679495 0.34837514 -0.102696806 0.11235421 0.22003995
-0.33868447 0.2717492 -0.03754507 -0.18091387 -0.1426929 -0.17841765 0.07400376 -0.359173
0.004252001 0.30052084 0.118509784 0.18163887 0.15360962 -0.29303667 -0.16014042 -0.21999137
00000000: 08d7 b13e d4b7 5f3d 90ab c93e 8d51 923e
00000010: c647 1fbe 113f 143e e8e6 803d 785c 90be
00000020: 180f ccbd 771b abbe b079 913e 1373 f8bd
00000030: f2fa f8bd 1cda 34bd 1b8d 793e 9401 b13d
00000040: f118 f63d bab4 833e 0127 153e 61b4 14bd
00000050: 260b 3a3d b5c2 53be ec31 7fbe d38e afbc
00000060: a742 553e 2f3b 903d 86ff 3ebe 6282 003e
00000070: 00be 9fbe fcff bd3e de12 373e 1c17 b3bd
00000080: 9b38 40be cad1 05be 0aff 3ebe 6b8c 593c
00000090: 34d2 973e 6969 d3bd f667 423e 0f44 55be
000000a0: ba2b 01be 2182 69be d481 963b 0b9f 9bbe
000000b0: 6872 78be ee90 fc3d 4cb8 b13d bbd3 a7be
000000c0: 8e22 b33d cf36 2a3e ecc4 39be 9f09 c73d
000000d0: 40c9 1dbe 894e e33d 04e0 ac3e 2e44 453d
000000e0: b9e7 1ebe 5658 743e 9a1f d93d fa3e 823e
000000f0: f71a 383e a566 683e ab40 8dbe 5b72 a03e
00000100: 140a 573d 465d a13e a990 babd f6f4 493d
00000110: a34a 983e 2861 04be 0fd0 94be d2e4 38be
00000120: f6ef a03e 13c1 c73e c0f5 bd3d abc0 51be
00000130: 5293 733e 8e11 95bd 14c4 f03d df91 a4bd
00000140: 8149 89be 52ea ba3e e944 8dbe 1ba5 87be
00000150: 7c36 99be bd40 833e b2f5 51be 8f79 193e
00000160: e4a0 a5bc d6f8 363e d69c 133e 31d0 6f3e
00000170: bea6 983e 395f 143e 41df 8b3e d7f2 443d
00000180: 21b0 ab3d d46b 213d 4f4a 9abe 8496 2e3d
00000190: c780 b7be c117 4b3e 2866 aebe 1b40 4f3e
000001a0: 7107 07be 4e41 75be 9296 9d3e 5a1c 023e
000001b0: f5c1 093e 6c7e 203d caf7 3b3d 633b 9a3e
000001c0: 6d2d a43e fffc dcbd f292 85be 211f 473e
000001d0: d857 95be 77be 99be ceda 993e 5184 9e3e
000001e0: 4f55 503e 8b73 a3be 7d92 403e 9581 683e
000001f0: 8cff d93c 424a a53e 999f 37bc d68d 9e3e
00000200: 4f87 8ebe 8c54 7e3e 1784 493d 2931 16be
00000210: dd11 fdbd 14f7 6d3e 4da5 843e 1812 f4bd
00000220: 9914 9abc 6b92 12be 155d 5e3d ee2b a63c
00000230: 5097 163e 02da 57be d2e8 c5bd 8f2b 70be
00000240: af8c 60bd 8c49 19be c292 b03e 5b61 10be
00000250: e6e9 c3bd 7a20 bbbe 0ffa 91be 73d4 a83e
00000260: 64b4 023e e7e7 a6bd 8fa5 8dbe 3790 a5be
00000270: 264e a9be 4b11 97be 3685 0d3e 072a 3e3e
00000280: cb00 dabc c3a1 6cbe 3904 9e3e ab10 f73d
00000290: c50d f23d fde5 89be f789 8bbe 664c 9d3b
000002a0: 9f85 a33e ce08 963e bd53 7b3d 5a4b 91be
000002b0: 3ec2 973e 83ae 24be a102 83be 1375 0ebe
000002c0: 7b49 213e c7f7 a7be 8b85 5fbe bab3 8f3d
000002d0: 8872 c83d a1ad a83e 7b08 9f3e 1a3f 253e
000002e0: bf96 edbd e30d 0b3e 2925 fcbc 9b92 a83c
000002f0: 9360 c13d 7e99 b5be 98ff 9f3e 7f7e ac3e
00000300: bf81 9a3c 7727 eebd f98e 8d3d 4ea7 9a3d
00000310: 5de2 b4be 570f ee3d 7a74 763d 4ad2 a5be
00000320: 6c99 983d b0cd 2abe 82f4 903e 91d8 213d
00000330: c2ce 9dbe d1f9 3b3b ce1b 86be a067 b23d
00000340: 659b 473e 29db 353e 396c c8bd c893 c03e
00000350: 7a6f a13b b0c1 353e 4cd4 46be add7 f0bd
00000360: bf58 1dbe 566a 3bbe 894e 34be 8218 1a3e
00000370: 8405 57be 8d2f d73d d397 033e e033 25be
00000380: 9549 b93e 6be6 b0be c305 59be c75e 823d
00000390: c52d e53d 28c4 84be 9a11 a63c 40d8 783c
000003a0: 7d66 f0bd 265c 4a3d 1a57 4dbe de53 a9bd
000003b0: 3a5e b23e b452 d2bd f719 e63d 2752 613e
000003c0: 0d68 adbe b622 8b3e dcc8 19bd 7c41 39be
000003d0: 161e 12be 1eb3 36be 498f 973d 86e5 b7be
000003e0: 5f54 8b3b dedd 993e 42b5 f23d 8aff 393e
000003f0: d74b 1d3e e708 96be dafb 23be 6b45 61be

layer1.bias f4 [128]
0.09353637 -0.13087155 0.09215339 -0.2562336 0.57610995 -0.0549462 -0.27338547 -0.101405784
-1.4092309e-05 0.99036974 -0.117524005 -0.19991437 -6.876912e-05 1.1544691 -0.22074255 0.7020272
-0.004711599 1.5150285 -5.315804e-05 1.5085275 1.2277939 -0.04412249 -0.19286849 1.564451
1.6005609 1.5712262 -0.12100496 -0.15849537 -0.3020304 -0.1636791 -0.123546176 1.5915579
-0.30858046 -0.3269868 -0.30518976 -3.8134305e-05 -0.26758647 1.819767 1.7512105 1.7518467
-0.29490465 -0.101920545 1.5834663 1.6486226 -0.1373997 -0.24165249 -4.189167e-06 1.0654248
-0.23099701 1.2308992 1.7168626 1.0606625 1.0401863 0.9079969 -0.38942707 0.20354182
-0.24707428 0.32959482 -0.34973747 0.39283964 -0.2632316 0.89943695 -0.251886 -0.015386695
-0.29185846 -0.12937827 -0.36011213 -0.31880552 0.89001274 -0.0957005 -7.3698415e-05 1.6707199
1.5797541 1.8823218 0.7323466 -0.14986691 0.0054376703 -0.14777881 -0.3237403 -0.3263237
-0.028312631 0.45232114 1.9084829 -2.9390485e-05 0.33516818 -0.12275617 -0.16443919 1.7661631
0.5403734 -0.05693486 -3.7091213e-05 -0.11028451 1.8367865 1.6668067 3.827166e-05 -0.32999197
1.5492018 0.37034443 -9.881701e-05 1.6645436 -0.12118258 -0.1812516 -0.26728132 -0.14327596
-0.23095141 1.2665849 1.5762239 1.661806 -0.00021666507 1.9205111 1.8337001 1.6050742
0.22443448 1.7516098 1.8039544 -6.0147133e-05 -0.09966741 -0.31237775 0.38012967 1.7680534
1.7545307 1.7520151 1.7680458 0.7673705 -0.025971314 -0.00013077368 0.6767907 -0.0008808579
00000000: ff8f bf3d 3103 06be ebba bc3d 0d31 83be
00000010: f17b 133f 440f 61bd 2ef9 8bbe d6ad cfbd
00000020: 026e 6cb7 df88 7d3f 6db0 f0bd 5ab6 4cbe
00000030: 2438 90b8 a5c5 933f 560a 62be 0eb8 333f
00000040: c263 9abb 74ec c13f 03f6 5eb8 6e17 c13f
00000050: 5a28 9d3f c9b9 34bd 517f 45be ee3f c83f
00000060: 2edf cc3f f11d c93f 73d1 f7bd 9c4c 22be
00000070: bba3 9abe 7e9b 27be c705 fdbd 2bb8 cb3f
00000080: 42fe 9dbe d06a a7be d541 9cbe 66f2 1fb8
00000090: 1801 89be 20ee e83f aa27 e03f 833c e03f
000000a0: befd 96be b8bb d0bd 06af ca3f 1106 d33f
000000b0: 82b2 0cbe c073 77be ac90 8cb6 d75f 883f
000000c0: 7b8a 6cbe 1b8e 9d3f 27c2 db3f cac3 873f
000000d0: d324 853f 7c72 683f fc62 c7be 446d 503e
000000e0: 0a01 7dbe a7c0 a83e ca10 b3be 4722 c93e
000000f0: 4bc6 86be 8041 663f 34f7 80be 7a18 7cbc
00000100: 796e 95be bd7b 04be 9e60 b8be 7a3a a3be
00000110: e0d7 633f a0fe c3bd 898e 9ab8 26da d53f
00000120: 6235 ca3f ecef f03f 117b 3b3f b676 19be
00000130: 7c2e b23b 5453 17be 4ac1 a5be e613 a7be
00000140: e4ef e7bc a396 e73e 2b49 f43f 968b f6b7
00000150: 2a9b ab3e 9667 fbbd bf62 28be a211 e23f
00000160: e955 0a3f 8734 69bd 6392 1bb8 d8dc e1bd
00000170: d21b eb3f ec59 d53f e285 2038 b5f4 a8be
00000180: 3f4c c63f c99d bd3e fa3b cfb8 c40f d53f
00000190: 932e f8bd 059a 39be 19d9 88be efb6 12be
000001a0: 877e 6cbe 741f a23f b4c1 c93f 0fb6 d43f
000001b0: 9630 63b9 4fd3 f53f afb6 ea3f 1273 cd3f
000001c0: 27d2 653e c034 e03f fae7 e63f 7e46 7cb8
000001d0: 6d1e ccbd faef 9fbe 5ba0 c23e 934f e23f
000001e0: 7694 e03f 0842 e03f 534f e23f 6572 443f
000001f0: cbc1 d4bc 4b20 09b9 2842 2d3f 5fe9 66ba

layer2.weight f4 [128, 128]
-0.026877686 0.03456316 0.025199156 -0.09529176 -0.06030101 -0.083368294 -0.0402492 0.032850783
0.036830317 -0.04554407 -0.0761412 0.06066776 0.039381843 0.010654794 -0.0944371 -0.0026510227
-0.03196329 -0.015199539 0.005846406 -0.025027314 0.07483453 -0.0024966346 -0.0497408 0.03701946
-0.048520483 -0.07253664 0.052353818 -0.07667185 -0.017101774 -0.020296467 0.03871739 -0.021283075
-0.03568797 0.044858284 0.0419663 0.05031463 0.008129214 0.02057327 -0.08997096 -0.051572293
0.04739683 -0.026014078 -0.0046534874 0.0039017352 0.019248337 -0.06042607 -0.020359162 0.012088304
-0.062146753 0.048140634 -0.035335418 0.033260282 0.009858997 -0.037046358 0.0017112081 -0.05576461
-0.031002993 0.008002009 0.042495023 0.034375012 -0.05833468 0.070003256 0.0661689 0.032302503
0.012092144 -0.072968595 -0.03400879 -0.06716209 0.07453737 0.028656658 0.0443842 -0.096241474
-0.04088678 -0.02404512 0.06835805 0.067007594 0.029545285 -0.014928448 0.039447017 0.017152267
0.006297908 -0.07355046 -0.05142735 0.043753445 0.035993733 -0.011120992 0.005105716 -0.043607824
0.013757324 -0.077995054 0.03315295 -0.035317853 -0.056695428 0.003981854 -0.010019101 -0.10160231
0.051195636 0.015778948 -0.048443653 -0.045956884 0.07224102 -0.027478347 -0.10095018 0.054495122
0.04308306 0.03510054 -0.037241235 -0.06729331 0.05403293 0.009845378 -0.080097936 -0.026833054
-0.06013369 -0.05755785 -0.017309984 0.024462897 -0.08486589 -0.004711881 0.13136022 -0.02845925
0.019407926 -0.044549994 0.069317 -0.018239211 0.03365893 0.021170264 -0.083448 -0.010674933
-0.08584837 -0.024122337 0.016206503 -0.0017027447 0.08367061 -0.08524413 0.036932588 0.023924658
-0.029301966 0.06239895 -0.08372415 -0.021507766 0.030353919 0.29740253 0.04226147 -0.03783259
0.053093303 0.5931632 -0.084724985 0.48863733 0.20320037 -0.09743304 -0.063493766 0.6419121
1.3288357 0.47668314 -0.033813182 -0.037369296 -0.066759385 0.014632127 -0.031884614 0.6804018
-0.042134933 -0.021641023 0.041611698 -0.050435696 -0.024024311 1.2894994 1.354284 1.3647664
0.038692087 0.04171779 1.3547424 1.44221 -0.02223722 -0.016017282 -0.054377288 0.124118485
0.064265706 0.0030066082 1.3298029 0.08893175 0.110833555 0.028572042 -0.036370903 0.1326689
0.053214867 0.07542145 -0.0073641017 0.09990592 -0.024687475 0.15181899 0.0050470293 -0.024965199
-0.04229137 -0.01999035 0.024198778 -0.03965026 0.19691521 -0.0953179 -0.021919306 0.69245964
1.3972884 1.3636998 0.028539702 0.07296424 -0.051433958 0.019005712 0.030916233 0.06967454
-0.055073828 -0.009474385 1.3031476 -0.06135458 0.049645383 -0.06931952 -0.021275308 1.3279053
0.02984984 0.06204233 -0.07680701 -0.07235868 0.30899417 1.422135 -0.03728287 0.042198993
0.30553403 0.07955449 -0.04931012 1.3484097 -0.076161906 0.07739979 -0.03713731 0.028893234
0.06370351 0.2528839 0.05400679 1.4185473 0.003836028 1.3566464 1.3329426 1.4517272
-0.051171128 0.48551866 1.40651 -0.08589392 -0.0044391057 0.0005036268 0.26809648 1.4396517
1.3372557 0.29419383 1.428123 0.073696114 -0.09375315 -0.0076618185 -0.05141479 -0.009180711
00000000: 982e dcbc 1a92 0d3d 766e ce3c 5428 c3bd
00000010: 31fe 76bd ffbc aabd 58dc 24bd 8b8e 063d
00000020: 63db 163d 6b8c 3abd ebef 9bbd c27e 783d
00000030: db4e 213d 7291 2e3c 3d68 c1bd c8bc 2dbb
00000040: f0eb 02bd 7d07 79bc 3593 bf3b 1506 cdbc
00000050: d942 993d 949e 23bb 02bd 4bbd b8a1 173d
00000060: 6abd 46bd 178e 94bd f570 563d 2206 9dbd
00000070: 0519 8cbc c744 a6bc 2096 1e3d d859 aebc
00000080: 8d2d 12bd 52bd 373d dbe4 2b3d b716 4e3d
00000090: 6530 053c 4689 a83c b242 b8bd 783d 53bd
000000a0: 2e23 423d 7a1b d5bc 487c 98bb 41b4 7f3b
000000b0: b0ae 9d3c 5481 77bd 42c8 a6bc 060e 463c
000000c0: 988d 7ebd 1d2f 453d dfbb 10bd ef3b 083d
000000d0: a187 213c ecbd 17bd 9e4a e03a 6f69 64bd
000000e0: fdf9 fdbc dc1a 033c 430f 2e3d d0cc 0c3d
000000f0: 58f0 6ebd de5d 8f3d 8f83 873d a14f 043d
00000100: 211e 463c 8f70 95bd cd4c 0bbd 478c 89bd
00000110: 0ca7 983d 5ec1 ea3c 35cc 353d 401a c5bd
00000120: e578 27bd 46fa c4bc 4eff 8b3d 473b 893d
00000130: f408 f23c 7396 74bc 3293 213d e982 8c3c
00000140: ae5e ce3b a0a1 96bd 7ca5 52bd d036 333d
00000150: 2a6e 133d d234 36bc da4d a73b 1e9e 32bd
00000160: 6666 613c dfbb 9fbd 63cb 073d 74a9 10bd
00000170: 7739 68bd 367a 823b 2827 24bc df14 d0bd
00000180: 84b2 513d da42 813c da6c 46bd 493d 3cbd
00000190: 1af3 933d 451a e1bc f8be cebd 4736 5f3d
000001a0: dd77 303d 95c5 0f3d 448a 18bd 13d1 89bd
000001b0: a251 5d3d 824e 213c 630a a4bd fed0 dbbc
000001c0: be4e 76bd c8c1 6bbd abcd 8dbc 6a66 c83c
000001d0: 2bce adbd 1f66 9abb 4b83 063e 6023 e9bc
000001e0: 5ffd 9e3c 0e7a 36bd 12f6 8d3d 666a 95bc
000001f0: f2dd 093d 436d ad3c c9e6 aabd eae5 2ebc
00000200: 45d1 afbd 359c c5bc 80c3 843c a22e dfba
00000210: 7f5b ab3d 7994 aebd a046 173d a5fd c33c
00000220: ad0a f0bc 0b96 7f3d 9177 abbd 0e31 b0bc
00000230: c8a8 f83c 2545 983e 5d1a 2d3d 59f6 1abd
00000240: 5d78 593d 8bd9 173f 4b84 adbd ac2e fa3e
00000250: c213 503e f98a c7bd 0509 82bd 5a54 243f
00000260: 4a17 aa3f d00f f43e b17f 0abd 8c10 19bd
00000270: 25b9 88bd 97bb 6f3c 7199 02bd d02e 2e3f
00000280: ae95 2cbd 8448 b1bc 0771 2a3d a995 4ebd
00000290: a2ce c4bc 510e a53f 2e59 ad3f aab0 ae3f
000002a0: 987b 1e3d 46e0 2a3d 3368 ad3f 569a b83f
000002b0: d52a b6bc ad36 83bc b8ba 5ebd d531 fe3d
000002c0: bd9d 833d 840a 453b fb36 aa3f d921 b63d
000002d0: b4fc e23d ea0f ea3c a8f9 14bd 5bda 073e
000002e0: d5f7 593d 9076 9a3d 904e f1bb 7a9b cc3d
000002f0: 633d cabc 7076 1b3e 8d61 a53b d183 ccbc
00000300: b739 2dbd cdc2 a3bc 843c c63c 5068 22bd
00000310: 24a4 493e 0836 c3bd 1e90 b3bc 0945 313f
00000320: 59da b23f b78d ae3f 18cc e93c 476e 953d
00000330: 6aac 52bd deb1 9b3c 0a44 fd3c 86b1 8e3d
00000340: 1895 61bd 733a 1bbc 8acd a63f f14e 7bbd
00000350: f558 4b3d 64f7 8dbd 8e49 aebc cdf8 a93f
00000360: a787 f43c 1920 7e3d fe4c 9dbd ca30 94bd
00000370: 7c34 9e3e 8508 b63f ecb5 18bd dad8 2c3d
00000380: f56e 9c3e 77ed a23d 69f9 49bd b098 ac3f
00000390: c6fa 9bbd c883 9e3d 4b1d 18bd 81b1 ec3c
000003a0: fc76 823d 007a 813e 3936 5d3d f592 b53f
000003b0: df65 7b3b 97a6 ad3f dd9d aa3f 32d2 b93f
000003c0: d198 51bd e795 f83e 8508 b43f 27e9 afbd
000003d0: eb75 91bb d305 043a f143 893e 8246 b83f
000003e0: 322b ab3f 93a0 963e bccc b63f fded 963d
000003f0: a701 c0bd fe0f fbbb 5198 52bd b16a 16bc

layer2.bias f4 [128]
0.05191974 1.2446568 0.0480783 -0.04795949 -0.038347386 1.2776073 -0.048678547 1.2339722
-0.032031074 -0.0695203 0.1385353 -0.08301957 0.6488616 0.081965186 0.118460365 0.18686211
0.13268979 0.0420217 0.0006731475 0.031931724 -0.07891306 0.03957451 -0.08001237 0.02711584
0.06750802 0.003102494 1.1570013 -0.057030957 0.27357912 0.039360307 -0.049621254 0.06253446
0.020735854 0.08468517 0.8208849 0.13454583 -0.003314344 1.2809061 -0.031485233 1.284725
-0.038621005 -0.034629147 0.12246605 0.21762374 -0.014946349 0.05308485 -0.028363897 1.0514029
0.062417425 -0.019275839 -0.049781393 0.036074225 1.3007412 -0.076691516 0.73620373 0.11958364
0.0056954897 0.0057066907 -0.07515757 0.5437734 0.07737627 -0.019337427 0.16376579 0.044266943
-0.068498865 -0.0636183 1.2052197 0.16473122 -0.03501226 -0.0521623 -0.014533706 -0.030079354
0.21826977 0.23418744 0.14640331 0.11326556 0.0387603 -0.07879188 0.24544674 -0.042977132
0.035904344 -0.04920729 0.017612536 0.08890157 -0.07796415 0.0085865315 0.07508602 -0.064594656
0.020638254 0.23365936 -0.006043623 -0.07469775 -0.012403381 -0.07987862 0.23926723 0.15757902
-0.07147981 0.047084406 0.0373282 -0.021591807 0.027524441 -0.0022122364 0.08757346 -0.053651698
-0.038125888 -0.062187623 -0.00920228 0.044644162 1.2408891 0.07192458 -0.008351949 0.0089894775
0.024285488 0.009307545 -0.04617226 0.5124456 0.24625498 1.2734922 -0.045176663 1.1225455
-0.031338565 0.08925349 0.0014960055 0.09063643 -0.02197522 0.20546614 0.04846015 -0.050080575
00000000: cba9 543d ea50 9f3f c0ed 443d 2c71 44bd
00000010: 2612 1dbd a388 a33f 2863 47bd cdf2 9d3f
00000020: 0433 03bd a960 8ebd 33dc 0d3e 2a06 aabd
00000030: cb1b 263f 5ddd a73d 599b f23d c858 3f3e
00000040: d5df 073e f21e 2c3d 2a76 303a d7ca 023d
00000050: 2c9d a1bd e218 223d 87dd a3bd 0a22 de3c
00000060: a541 8a3d 3653 4b3b 9e18 943f 4b99 69bd
00000070: 9012 8c3e 4638 213d a83f 4bbd 1112 803d
00000080: 3dde a93c 6b6f ad3d 8325 523f 62c6 093e
00000090: 7735 59bb bbf4 a33f a9f6 00bd de71 a43f
000000a0: 0f31 1ebd 4bd7 0dbd 7bcf fa3d c2d8 5e3e
000000b0: 88e1 74bc 806f 593d 675b e8bc 5f94 863f
000000c0: 6aa9 7f3d 5de8 9dbc 93e7 4bbd 91c2 133d
000000d0: b07e a63f 7110 9dbd d977 3c3f 44e8 f43d
000000e0: 3ba1 ba3b 31ff ba3b 36ec 99bd bc34 0b3f
000000f0: 7377 9e3d 8669 9ebc 38b2 273e 4151 353d
00000100: 2249 8cbd 504a 82bd a444 9a3f 4daf 283e
00000110: 0469 0fbd 23a8 55bd c81e 6ebc fa68 f6bc
00000120: 1c82 5f3e d5ce 6f3e c0ea 153e c6f7 e73d
00000130: 1fc3 1e3d a35d a1bd 6456 7b3e ca08 30bd
00000140: 6f10 133d 958d 49bd 2a48 903c 0712 b63d
00000150: abab 9fbd 86ae 0c3c b3c6 993d 344a 84bd
00000160: 8e11 a93c 6644 6f3e 9609 c6bb 22fb 98bd
00000170: 8d37 4bbc 6797 a3bd 7802 753e 655c 213e
00000180: 0264 92bd 94db 403d 74e5 183d 4de1 b0bc
00000190: f07a e13c 2bfb 10bb b759 b33d e2c1 5bbd
000001a0: e429 1cbd 73b8 7ebd 29c5 16bc ccdc 363d
000001b0: 74d5 9e3f 324d 933d 9dd6 08bc 9a48 133c
000001c0: 5cf2 c63c ac7e 183c 201f 3dbd a32f 033f
000001d0: 442a 7c3e cb01 a33f 2a0b 39bd 92af 8f3f
000001e0: de5c 00bd 89ca b63d 9d15 c43a 989f b93d
000001f0: 6005 b4bc b765 523e 267e 463d 4a21 4dbd

layer3.weight f4 [3, 128]
0.009475501 0.96466756 -0.067312285 0.021162216 0.02678229 1.0110086 -0.061890274 1.1336296
-0.020371683 -0.06666601 0.010469413 0.0281759 0.2671363 0.057617377 0.066308536 0.035300747
0.09934539 -0.006607975 -0.002318865 0.0045299795 -0.04360261 0.0029028666 -0.04581763 -0.06999864
0.06709258 -0.05903479 0.97053546 -0.05301184 0.16799265 0.030170603 -0.0018601948 0.01273956
-0.0025467947 0.05905618 0.27420047 0.00550694 -0.014788307 1.0871423 0.08076812 1.1157688
-0.016144926 0.048775867 0.002681061 0.0040756175 -0.06341318 -0.00040405337 -0.02436456 0.94125587
0.06161163 -0.019120228 -0.07454235 0.012185419 0.9497999 -0.010241845 0.48989904 0.07846284
0.003790084 -0.04118545 0.065406084 0.1495743 0.15449496 -0.013798631 0.015169385 -0.011127161
0.068828724 0.07353819 1.1109831 0.05679132 -0.026857795 -0.034189843 0.05760737 -0.0095662335
0.07789283 0.14274074 0.041508723 0.080452524 0.04530325 -0.011578417 0.15324461 -0.014261324
-0.07186652 -0.034112845 -0.06970951 0.09134097 -0.030887341 -0.07691112 0.052735716 -0.028828159
0.02436391 0.1703964 0.26004773 -0.03692478 -0.028448427 0.048854344 0.033372674 0.052624926
0.010206253 -0.10461413 0.048912838 0.032163896 -0.042730767 -0.036560602 0.016048612 -0.067687914
0.04493128 -0.07651382 -0.047433313 0.07772886 1.1737704 -0.053612877 -0.057409786 -0.061260995
-0.0027071682 -0.042368516 -0.054710053 0.28305182 0.12985915 1.1317722 -0.052364815 0.71751046
-0.030823048 0.041671794 -0.038968768 0.05322588 -0.037552528 0.040848188 0.06740225 -0.048666418
-0.031335134 1.1786886 -0.00762981 0.0061615612 0.019821133 1.0221758 -0.024691844 1.1105832
-0.0009284834 -0.039069835 0.09982026 -0.07336533 0.3348261 0.08634908 0.044803098 0.07520224
0.070118695 0.019095046 0.0035774913 0.030983487 -0.050537147 -0.056211073 -0.06481499 0.024545623
0.11072187 -0.07357022 1.0965146 -0.030183999 0.15483707 -0.06758073 -0.003578077 0.02106027
-0.050359633 0.0395108 0.2301264 0.10006716 -0.008203959 1.040446 -0.036154065 1.0732709
-0.0044151954 -0.020156492 0.060488883 0.10308469 -0.028384222 -0.03635261 -0.04793866 0.6240581
-0.0031663645 0.008086439 0.076086834 -0.06503416 0.97065705 0.055089485 0.59276944 0.08046483
-0.024722544 0.07067046 0.083625875 0.19945222 0.102271184 -0.062069062 0.06807634 0.056462977
0.043957572 0.06439874 1.1384628 0.09748352 -0.03359342 -0.07619423 -0.015490819 -0.08799928
0.045031026 0.1105126 0.07240518 0.062352125 0.058684453 -0.03305136 0.15745576 -0.047665205
-0.02004457 0.008658518 -0.03931767 0.015652243 0.03108029 -0.0074987807 -0.03859887 0.0050895014
0.01926122 0.10139102 0.20413008 0.0725964 0.028383331 0.074998766 0.09224072 0.013475717
0.04746255 -0.038679767 0.07047843 -0.044855252 -0.08884278 -0.06451472 0.06519068 -0.048886318
-0.06377567 0.012379763 -0.035135653 -0.05738883 1.0947161 -0.003259154 0.08289615 -0.02802787
0.024682563 -0.036028437 0.029143838 0.29914755 0.23997405 1.0926536 -0.060480114 0.734174
-0.043653794 -0.010634603 -0.0028960141 -0.014399928 0.016606672 0.047267098 0.09194946 -0.038104568
00000000: 223f 1b3c 74f4 763f 06db 89bd 625c ad3c
00000010: 8866 db3c bb68 813f a880 7dbd c61a 913f
00000020: 84e2 a6bc 3088 88bd e787 2b3c 25d1 e63c
00000030: 17c6 883e 3300 6c3d c5cc 873d 8497 103d
00000040: 9975 cb3d b687 d8bb 19f8 17bb 3970 943b
00000050: a698 32bd 053e 3e3b 44ab 3bbd 725b 8fbd
00000060: d667 893d 77ce 71bd 0375 783f f122 59bd
00000070: 4406 2c3e 5728 f73c c8d1 f3ba 96b9 503c
00000080: 20e8 26bb e5e4 713d 0164 8c3e 9073 b43b
00000090: a84a 72bc 7b27 8b3f c269 a53d 83d1 8e3f
000000a0: 5d42 84bc 34c9 473d bdb4 2f3b c28c 853b
000000b0: c5de 81bd 20d7 d3b9 3098 c7bc 25f6 703f
000000c0: 7a5c 7c3d 06a2 9cbc a9a9 98bd 5aa5 473c
000000d0: 1626 733f 69cd 27bc 0cd4 fa3e 20b1 a03d
000000e0: 0f63 783b 13b2 28bd a0f3 853d 012a 193e
000000f0: ed33 1e3e a713 62bc 0389 783c b24e 36bc
00000100: 13f6 8c3d 319b 963d b234 8e3f 049e 683d
00000110: e104 dcbc a60a 0cbd b5f5 6b3d b1bb 1cbc
00000120: 4786 9f3d a12a 123e 0d05 2a3d 4bc4 a43d
00000130: e78f 393d 67b3 3dbc 28ec 1c3e 54a8 69bc
00000140: c12e 93bd e9b9 0bbd dcc3 8ebd f910 bb3d
00000150: 7307 fdbc 9483 9dbd 6801 583d 0829 ecbc
00000160: d396 c73c 657c 2e3e fa24 853e 703e 17bd
00000170: ad0c e9bc 7e1b 483d c9b1 083d 3c8d 573d
00000180: 2138 273c ef3f d6bd d458 483d 4abe 033d
00000190: 7506 2fbd 92c0 15bd 6178 833c f69f 8abd
000001a0: dd09 383d 47b3 9cbd 6f49 42bd 4f30 9f3d
000001b0: 1c3e 963f 2d99 5bbd 8626 6bbd cfec 7abd
000001c0: bf6a 31bb 9c8a 2dbd a617 60bd 2bec 903e
000001d0: ccf9 043e e9dd 903f 7d7c 56bd c4ae 373f
000001e0: 9e80 fcbc 0bb0 2a3d b79d 1fbd 6103 5a3d
000001f0: aed0 19bd 6e50 273d 310a 8a3d 7056 47bd
00000200: 4559 00bd 45df 963f 7c03 fabb ece6 c93b
00000210: ee5f a23c a8d6 823f 8d46 cabc 9727 8e3f
00000220: 7765 73ba b107 20bd 916e cc3d 9040 96bd
00000230: 546e ab3e c9d7 b03d 7483 373d a203 9a3d
00000240: 649a 8f3d 376d 9c3c 5874 6a3b 15d1 fd3c
00000250: 0a00 4fbd 953d 66bd b9bd 84bd e713 c93c
00000260: 26c2 e23d fcab 96bd 975a 8c3f 6f44 f7bc
00000270: 9c8d 1e3e c467 8abd 2c7e 6abb 9686 ac3c
00000280: e745 4ebd 14d6 213d 41a6 6b3e 03f0 cc3d
00000290: e669 06bc 562d 853f 4916 14bd f160 893f
000002a0: 58ad 90bb 3a1f a5bc 31c3 773d 111e d33d
000002b0: 0786 e8bc 79e6 14bd 545b 44bd 46c2 1f3f
000002c0: c882 4fbb fc7c 043c 6ad3 9b3d a130 85bd
000002d0: fb7c 783f 83a5 613d bdbf 173f bfca a43d
000002e0: ef86 cabc adbb 903d 0b44 ab3d 343d 4c3e
000002f0: 8e73 d13d 213c 7ebd 9c6b 8b3d b945 673d
00000300: db0c 343d 7de3 833d 26b9 913f 71a5 c73d
00000310: 4199 09bd b80b 9cbd 34cd 7dbc f738 b4bd
00000320: 7472 383d 6e54 e23d 2b49 943d f164 7f3d
00000330: 1c5f 703d dd60 07bd 153c 213e 973c 43bd
00000340: 8334 a4bc 75dc 0d3c 910b 21bd 2239 803c
00000350: 189c fe3c 55b8 f5bb d919 1ebd d5c5 a63b
00000360: b5c9 9d3c 18a6 cf3d 7a07 513e 6cad 943d
00000370: 2984 e83c f498 993d b4e8 bc3d 41c9 5c3c
00000380: 1768 423d ad6e 1ebd ff56 903d 24ba 37bd
00000390: 34f3 b5bd 4b20 84bd b182 853d 053d 48bd
000003a0: d29c 82bd 7dd4 4a3c 67ea 0fbd 8d10 6bbd
000003b0: a81f 8c3f 8897 55bb 75c5 a93d b49a e5bc
000003c0: 1633 ca3c 8e92 13bd 0fbf ee3c de29 993e
000003d0: c2bb 753e 13dc 8b3f ffb9 77bd d4f2 3b3f
000003e0: 52ce 32bd c23c 2ebc 0ecb 3dbb aded 6bbc
000003f0: b70a 883c 259b 413d 0050 bc3d 8913 1cbd

layer3.bias f4 [3]
0.148322 0.124928534 0.13400497
00000000: b9e1 173e 88da ff3d 9938 093e
