models/rl_models/06.03.24_with_rewards_for_each_3_seconds/best_policy_dqn_model_epoch_14.pt (torch, 74158 bytes, 6 tensors)

layer1.weight f4 [128, 6]
00000000: b6b4 ba3e a672 1a3d 450d c23e 9452 9a3e
00000010: fb64 3cbe d5b5 ed3d 0d59 893d dabe 99be
00000020: 6e32 d9bd 2c2e b6be 12dc 9a3e a772 04be
00000030: f0bd f4bd 22a1 83bd 9f1b 793e 69a9 d03d
00000040: 6daa e23d c10a 843e ec06 073e 96f1 79bd
00000050: d791 d43c bd5d 61be 0b05 88be afd1 babc
00000060: ad72 5d3e b62c 7e3d ce8d 68be e7cb 043e
00000070: 510c b0be 6a3d bc3e 371b 2b3e 7592 ecbd
00000080: 318f 63be ef43 0ebe 2332 4bbe 4991 673c
00000090: fbf9 943e 6bd4 08be 56db 363e 9dfa 62be
000000a0: df9d 09be c986 78be 9f11 a03b c2b1 a5be
000000b0: 4772 84be c1a0 063e 110b bd3d 199a b2be
000000c0: b9fc b43d d097 2b3e 74ae 7bbe 5ab2 cf3d
000000d0: 691e 2ebe 7dc9 883d 056b b73e 4b02 003d
000000e0: 3797 50be 6c77 823e 5699 c13d 78a9 6f3e
000000f0: 5cfe 453e 609b 613e 7aab a9be 42d0 ac3e
00000100: 709e 163d 0c52 993e 21a0 c6bd f7fd 563d
00000110: 1d08 a23e 4dd3 0cbe 7a34 9ebe a3d0 44be
00000120: a783 b03e 811c c63e fef1 8f3d 9545 52be
00000130: e7f8 683e cfd4 d4bd 9281 ea3d 8641 c6bd
00000140: 7cb1 a3be 8f67 c23e 9854 9bbe 4159 a1be
00000150: 4161 92be 4580 833e 3be6 3cbe 9eb9 453e
00000160: d478 1abd 3128 663e 6df5 143e 829e 6f3e
00000170: 42ee 873e 859b 173e a1b3 8d3e 9864 c239
00000180: 5709 843d 29a5 933c 946d b0be 60d9 393d
00000190: ec4e c3be 2137 583e 9844 b9be 2a48 5d3e
000001a0: 18b2 0ebe 4d3c 82be fc34 a83e fd55 0b3e
000001b0: 3687 133e daad a33c 0fa1 603c 158f a53e
000001c0: 178c a43e 2432 18be e4ef 8dbe 9c18 543e
000001d0: afb2 9ebe ce89 a3be dfd4 a33e fdeb a83e
000001e0: 9238 523e 1485 a1be caf1 503e eb6d 6b3e
000001f0: b625 5a3d 86e2 b13e 2fd1 77bc 06a9 9e3e
00000200: e740 acbe e713 873e 8ba8 0a3d bd4d 47be
00000210: 3145 10be 231d 753e 18b1 883e e7d2 f0bd
00000220: 1bb7 45bc 67f0 12be 6d79 533d 3ab5 843c
00000230: bd8b 1a3e d8bf 65be 1fa2 d2bd ce9a 7fbe
00000240: 40f9 6ebd 8320 23be 9ed5 bb3e bdc3 19be
00000250: e67b d0bd ee3b c7be 6384 9ebe 5bd9 b03e
00000260: 2695 053e d498 b1bd c7df 96be e621 b0be
00000270: eb36 b4be 6faf a0be d6bb 163e 205d 4a3e
00000280: f90d e8bc 65d8 7bbe e3e7 9a3e 946e d43d
00000290: 4142 cf3d 96b5 92be 3a88 94be 0d8a a73b
000002a0: 0862 ad3e 6083 933e 4ce6 e33c 0202 9abe
000002b0: 233e 963e a7fb 53be c674 8bbe 5ac6 17be
000002c0: 1a9c 2b3e 6cc1 b2be 91e0 6dbe 1c16 993d
000002d0: 75e6 ce3d 4edd a73e 42d8 913e b2ac 2e3e
000002e0: 7c3a 13be 8bcf cc3d b367 06bd 536a b33c
000002f0: a0c0 cd3d 083f c1be 3752 aa3e 7ab1 b73e
00000300: ef77 a43c 7476 fdbd aec6 963d 3fa1 a43d
00000310: a478 c0be d25c fd3d 7153 833d fb69 b0be
00000320: c75e a23d 53d9 35be e456 9a3e 302b 2c3d
00000330: 85d9 a7be cbfd 693b e14d 8ebe 8ccd be3d
00000340: 9cfd 543e 5908 423e 560b d7bd e647 c13e
00000350: 4c6e 13bd efe7 423e 7e3d 69be a9d9 28be
00000360: a297 27be f28b 47be 7ed8 3fbe 2b04 243e
00000370: 2ddc 64be 3609 e53d f809 0c3e 2abd 2fbe
00000380: cb3d c53e 4729 bcbe 0301 67be ecd0 8a3d
00000390: 57e9 f33d 4d36 8dbe 0caf b03c 65a8 843c
000003a0: 6bd9 ffbd 176d 573d bb7c 5abe 283d b4bd
000003b0: d3be bd3e 73d3 dfbd 48e5 f43d e2cb 6f3e
000003c0: e9aa b8be 8015 943e 8fac 23bd 0635 45be
000003d0: 7880 1bbe 2070 42be 777f 9c3d f6e4 b5be
000003e0: 6fcc 373d dd6d a23e 4c78 1c3e b351 6f3e
000003f0: 6f89 273e 9b8c 9fbe c668 2ebe 4dbe 6fbe
0.36465997 0.037706994 0.3790075 0.30141127 -0.18397896 0.11606947 0.06706438 -0.3002842
-0.10605322 -0.355821 0.30246025 -0.12934361 -0.1195029 -0.06427218 0.24326943 0.101885624
0.110676624 0.25789455 0.13186234 -0.06102141 0.025948448 -0.22008415 -0.26566347 -0.022805063
0.21625777 0.06205436 -0.22710344 0.12968408 -0.34384397 0.36765605 0.167096 -0.11551372
-0.22222592 -0.13893102 -0.19843344 0.01413376 0.2909697 -0.13362281 0.17857108 -0.22165914
-0.1343913 -0.24270166 0.004884913 -0.3236218 -0.25868437 0.1314726 0.092306264 -0.34883192
0.088372655 0.1675713 -0.24578267 0.1014144 -0.17003788 0.06679056 0.35823837 0.031252187
-0.20370184 0.25481737 0.09453075 0.23404491 0.19335312 0.22031927 -0.3313864 0.33752638
0.03677219 0.2994541 -0.09698511 0.052488293 0.31646815 -0.1375248 -0.3089941 -0.19220214
0.34475443 0.38693622 0.07028578 -0.20534356 0.22751199 -0.103921525 0.11450495 -0.09680466
-0.31971347 0.37969634 -0.30337977 -0.31513408 -0.28589824 0.256838 -0.18447201 0.19309089
-0.037712887 0.2247627 0.14546748 0.2340031 0.26548964 0.1480542 0.27676108 0.00037077512
0.06447094 0.01802309 -0.344586 0.04537332 -0.3814615 0.2111478 -0.36185145 0.2160956
-0.13935125 -0.2543663 0.32852924 0.1360702 0.14407048 0.01998036 0.013710274 0.32335725
0.3213813 -0.14862877 -0.27722085 0.20712513 -0.309957 -0.31941074 0.31998345 0.32992545
0.20529392 -0.31546843 0.20404735 0.22991149 0.05325862 0.34743136 -0.015125557 0.3098833
-0.33643267 0.26382372 0.03385214 -0.19463249 -0.14088894 0.23936896 0.26697612 -0.117589764
-0.0120675815 -0.14349519 0.051629473 0.016199697 0.15092368 -0.22436464 -0.102848284 -0.24961397
-0.058343172 -0.15930371 0.36686414 -0.15016074 -0.10179882 -0.3891291 -0.30960378 0.3454083
0.13045177 -0.08671728 -0.29467604 -0.34400862 -0.3519815 -0.31383845 0.14720091 0.19762087
-0.028326975 -0.24594267 0.3025504 0.103726536 0.10120059 -0.28654164 -0.29010183 0.0051128925
0.33863854 0.2881117 0.027819775 -0.30079657 0.29344282 -0.20701467 -0.2723753 -0.14821759
0.16758767 -0.34913194 -0.23230197 0.0747492 0.1010255 0.3278603 0.28485304 0.17058066
-0.14377779 0.10000523 -0.03281374 0.021901285 0.10046506 -0.37743402 0.3326585 0.3587759
0.02007672 -0.12376109 0.07362114 0.08038568 -0.37592041 0.1237122 0.064123996 -0.34455857
0.079282336 -0.17758684 0.30144417 0.042033374 -0.32783142 0.003570425 -0.27793792 0.09316549
0.2079987 0.18948497 -0.10500209 0.37750167 -0.03599386 0.19033788 -0.22777364 -0.16489281
-0.16366437 -0.19486979 -0.18734929 0.16017215 -0.22349615 0.111833975 0.13675678 -0.17162004
0.38523707 -0.36750242 -0.2255898 0.0677813 0.119097404 -0.2758049 0.021567844 0.016193578
-0.12492641 0.05259427 -0.21336643 -0.08800727 0.3705965 -0.109290026 0.119577944 0.23417619
-0.36067894 0.28922653 -0.039959487 -0.19258508 -0.15185726 -0.18988085 0.076414995 -0.35526246
0.044872697 0.31724444 0.15280265 0.2337101 0.1636102 -0.3116196 -0.17032155 -0.23412438

layer1.bias f4 [128]
00000000: 5d58 103e 5675 0ebe 8d07 8ebb 061e 97be
00000010: a3ee 003f ddcb a5bd c616 a1be 3bfe dcbd
00000020: 6ab1 c5bb 910a 523f acea 26be b0d9 59be
00000030: bcd8 7fba d55b 6c3f a503 4ebe 7fc1 0b3f
00000040: 6b1f edbc aff0 853f 4e20 2ab8 ffb7 843f
00000050: 9633 503f bcda b2bd 5b9e 5abe 18b0 913f
00000060: 9bea 953f 3da3 923f bd17 04be 00e7 45be
00000070: ced8 b7be bf5c 32be 8e1b 36be fabb 903f
00000080: b24d a8be a427 b2be c723 a6be c2bf 12bd
00000090: 43b7 91be 22a3 b33f 976c aa3f c965 aa3f
000000a0: ee99 a0be 511e 8bbd 6b85 933f eb71 9c3f
000000b0: 3a40 42be bc2a 88be 5584 71ba 5bbc 323f
000000c0: f693 77be 7340 773f 04a7 a53f a1ea 493f
000000d0: 66ad 403f 8d58 333f eb9f cabe c863 bf3d
000000e0: 3a24 8dbe eac2 7d3e 01f2 bcbe 9be9 993e
000000f0: ab0a 95be b360 273f ff0d a1be 73b8 41bc
00000100: 7d2a b6be 6367 32be 268e c2be 23f4 acbe
00000110: 8c12 273f 86f3 03be 68a0 a1bc 65b9 a33f
00000120: 9618 933f f82b bc3f 16b0 163f 3152 23be
00000130: 1e2e 993d 13f8 20be 834b bbbe d3c8 b1be
00000140: 72cc 63bd e05f b13e 3d07 c03f 397f dfba
00000150: 6280 6b3e 7cae 26be 1d36 33be 9263 ac3f
00000160: 9893 a93e d134 78bd c56d 9f3b c64f 28be
00000170: d6ca b53f 07da 9e3f 6891 25bc 4acc bcbe
00000180: e0d8 8d3f d694 573e 692f 9bb8 d1a1 9e3f
00000190: 1f4c 04be ef94 45be d01b 9ebe 5119 1cbe
000001a0: f5b2 7bbe 233b 583f 7ab9 923f bc49 9e3f
000001b0: 877b c4bc 0a76 c13f b499 b53f 4c8f 963f
000001c0: aa13 813e 5307 ab3f db90 b13f 3203 27b8
000001d0: 3bcd 03be 081f c4be 90cf a33e fac2 ac3f
000001e0: 10b3 aa3f 0199 ab3f 7613 ad3f cb12 bf3e
000001f0: 6320 c1bc 3f6e 4ebb 1e2a 103f 9854 b9bc
0.14096208 -0.13911948 -0.004334396 -0.29515094 0.5036413 -0.080955245 -0.31462687 -0.10790678
-0.0060331123 0.82047373 -0.16300458 -0.21274447 -0.0009759774 0.92327625 -0.20118578 0.54592127
-0.028945645 1.0464076 -4.0561245e-05 1.0368651 0.81328714 -0.087331265 -0.2134947 1.1381865
1.1712221 1.1456066 -0.1289968 -0.19326401 -0.35907596 -0.17418192 -0.17783949 1.1307366
-0.32871777 -0.34795868 -0.3244917 -0.035827406 -0.2846013 1.4034159 1.3314389 1.3312312
-0.3136744 -0.06792892 1.1525091 1.2222265 -0.18969813 -0.26595104 -0.00092131394 0.6981866
-0.24177536 0.96582717 1.2941594 0.7887364 0.75264585 0.7005699 -0.39575133 0.09345204
-0.275667 0.24781385 -0.36903384 0.3006104 -0.29109702 0.65381926 -0.3145599 -0.011823761
-0.3557929 -0.17422251 -0.37999076 -0.33780012 0.65262675 -0.12885866 -0.019729808 1.2790953
1.1491878 1.4700918 0.58862436 -0.15949322 0.07479499 -0.15719633 -0.36581048 -0.3472353
-0.055614896 0.3464346 1.5002209 -0.0017051465 0.22998193 -0.16277498 -0.17501111 1.3467886
0.33120418 -0.060597245 0.0048653805 -0.16436681 1.4202526 1.2410287 -0.010105468 -0.3687461
1.108181 0.2105287 -7.399807e-05 1.2393132 -0.12919663 -0.19295095 -0.30880594 -0.15244032
-0.24579985 0.84465235 1.1462853 1.2366252 -0.023984684 1.5114148 1.4187531 1.1762481
0.25210315 1.336161 1.3872331 -3.981888e-05 -0.12871258 -0.38304925 0.31994295 1.3497002
1.3335896 1.3406068 1.3521564 0.37319025 -0.023575014 -0.0031498817 0.56314266 -0.022623345

layer2.weight f4 [128, 128]
00000000: 7c4a 00bd 28ca 163d bb7f 283d 5b03 c2bd
00000010: d056 f4bd 46ec a7bd a861 14bd b000 0f3d
00000020: 42e3 233d 9bcb 35bd 5182 98bd 0479 843d
00000030: 704e 643d 3ef4 6fbd 9f51 9abd 4b41 043c
00000040: 4247 e4bc 73c1 84bc 2fcd 623c 7d29 dabc
00000050: 9f72 6d3d 1ea7 fc3b 2fec 4ebd 4b2e 393d
00000060: 1287 53bd 9b10 95bd 013d 643d bf26 9bbd
00000070: 9d0c e6ba e0e6 b0bc 30e8 4a3d b49c b9bc
00000080: ef8f 1bbd 8390 433d 6516 373d 8471 873d
00000090: 8aa2 0d3c 2560 b33c 0021 c4bd fbce 60bd
000000a0: 3492 4e3d 3902 35bd b83e a2bb 0b4a 883b
000000b0: f4e4 e33c 98bf 61bd f948 a8bc 83d7 c23c
000000c0: c5ed 88bd 70f9 4b3d 411e 1abd d1a1 493d
000000d0: 595a 7f3c 5c83 f2bc 3ad3 493c dd8a 0dbd
000000e0: a488 823b 8eb3 093d 1eae 543d ede6 bc3c
000000f0: 1ec6 75bd 58e6 553d cca4 993d 258e 103d
00000100: 9b0d a63c 3aff 82bd 8173 1abd cd83 aebd
00000110: afc1 683d f7a2 243d a21e 623d 3234 8abd
00000120: 0137 32bd 3aa1 d1bc fefd 8e3d e9f7 913d
00000130: 9849 2f3d 8d46 82bc f027 743d d59c 953c
00000140: 1fe3 ba3c fc65 a5bd 242c 60bd 935d 863d
00000150: 50ee 853c e812 f53b 0c08 b23b 0a04 3ebd
00000160: 57c4 533b 7e0e aabd c493 b63c 52d0 54bd
00000170: ce43 64bd 5bec 8a3b 4c99 20bb 0a71 b0bd
00000180: bcfc 743d 158f 913c 281a 1dbd 6270 48bd
00000190: 7c55 9d3d 4690 efbc e86c adbd 048c 6d3d
000001a0: b9ba 3b3d a296 903c e09b 10bd 599e 92bd
000001b0: da1e 843d 21a1 2b3c a278 aebd c7ec e9bc
000001c0: 025b 5fbd fbc0 61bd 580c 97bc 6a17 3d3d
000001d0: 70ef abbd fac3 1c3c 06d6 0f3e 8522 f8bc
000001e0: fe4f a93c f885 2cbd 3c39 973d 2fbe 4ebc
000001f0: 8188 0e3d 84a3 343d e7b2 8fbd 5e18 a4bb
00000200: 86a4 a6bd 9e4f d2bc b77d 723a 4b08 173c
00000210: b6bd a03d eae9 a0bd 907f 4b3d 2a91 d03c
00000220: e48d adbc af95 663d ad58 9abd ea73 bbbc
00000230: d44f 2d3d f60b 603e a523 493d 6ecd 30bd
00000240: 01ee 893d 20d1 7d3e 254b a2bd e498 053e
00000250: 19ee 0b3e b5ca b8bd 43eb 72bd 99f0 f03e
00000260: b6f1 6c3f 2218 a43e 5e60 13bd 7f75 00bd
00000270: d876 7abd d623 7f3c 7406 bcbc 40cf 803e
00000280: c5ca 37bd f991 bcbc 3d74 353d fe71 32bd
00000290: 3a72 d1bc 9f73 623f 3ef5 733f 6dd6 763f
000002a0: 37ce 283d 882b 543d 78ed 733f 52ec 853f
000002b0: 74a7 3cbc 08a9 6fbb 3899 4bbd ffc3 ad3c
000002c0: e20f 8c3d a16f bdbc f84f 6d3f dc58 103d
000002d0: e840 a03d 88fc 043c 64ec d8bc 4540 cc3d
000002e0: 9c54 753d 3e1b 963d c422 8e3a 8402 de3d
000002f0: 3108 86bc 4bb6 ed3d 1d63 9b3c b88f a4bc
00000300: 99bd 01bd d06b 16bc 41fc d23c 2da9 0dbd
00000310: 359b 193e 7176 bdbd 2342 21bc 0164 903e
00000320: 7895 7f3f 46a6 763f 7af4 9c3c 84e2 9e3d
00000330: c6c2 35bd 77c6 a53c d441 343d 8409 983d
00000340: fe8c 36bd 26eb c9bc a33d 663f b6f7 68bd
00000350: 1a83 4e3d 6a9e 87bd 6a8c b9bc e9d7 6c3f
00000360: f08a ae39 1474 873d 2de0 8bbd 700f 89bd
00000370: b54b 383e 7835 833f 7f09 d5bc 2c6d 563d
00000380: 6eeb 8a3e 22bc 8d3d 7b99 23bd 224a 723f
00000390: a916 a6bd 67d6 a83d 91f7 00bd 1fe9 fb3c
000003a0: 21e9 8a3d 097a 3d3e fab4 da3c 98b8 823f
000003b0: 7f4a 863c e4bb 743f 7742 6e3f 732f 873f
000003c0: 0b5a 50bd 2ad4 b23e 2a25 813f a339 a7bd
000003d0: e54d bb3b ccc6 493c afac 0b3e 4ca1 853f
000003e0: ba5a 6f3f 7b2d 8d3e c011 843f e002 623d
000003f0: 5ccd c3bd ad20 473a b807 86bd aa18 363a
-0.031321034 0.036813885 0.04113744 -0.09473296 -0.11930621 -0.081993625 -0.036225945 0.034912765
0.04001165 -0.044383626 -0.07446731 0.064683944 0.055738866 -0.058582537 -0.07535099 0.008072208
-0.02786601 -0.016205525 0.013842865 -0.026631111 0.05797064 0.0077103516 -0.05051821 0.045210164
-0.051642485 -0.07278558 0.05572224 -0.075757496 -0.0017551366 -0.021594465 0.049537838 -0.02265773
-0.037979063 0.04774524 0.04469909 0.06613448 0.008644709 0.021896431 -0.09576607 -0.054884892
0.0504324 -0.044191573 -0.0049513243 0.0041592172 0.027819134 -0.05511436 -0.020542609 0.023784405
-0.06685976 0.04979843 -0.03762651 0.049226586 0.015585505 -0.029603653 0.012318427 -0.03455626
0.003983574 0.033618502 0.051923864 0.023059333 -0.060003392 0.052221626 0.07502136 0.03529181
0.02027016 -0.06396337 -0.03770781 -0.08521233 0.056825336 0.040194478 0.055204995 -0.06748237
-0.043509487 -0.025589574 0.06982039 0.07127363 0.042794794 -0.015902782 0.0596084 0.01826326
0.022813378 -0.080760926 -0.054729596 0.065608166 0.016348988 0.0074790604 0.005433088 -0.04639057
0.0032313073 -0.083035454 0.022287257 -0.051956482 -0.055728726 0.0042396015 -0.0024505435 -0.086153105
0.05981134 0.017768422 -0.038355023 -0.0489353 0.076823205 -0.0292436 -0.08468038 0.057994857
0.04583237 0.017649952 -0.035304904 -0.07159109 0.06451197 0.010475428 -0.08519103 -0.028555287
-0.05453015 -0.05511568 -0.018438503 0.046164908 -0.083952785 0.009568209 0.14046487 -0.030289898
0.020668026 -0.04211995 0.073839635 -0.0126185855 0.03479815 0.044101253 -0.07016545 -0.0050077876
-0.08136849 -0.02567273 0.00092503004 0.009218286 0.078486845 -0.078571156 0.0496822 0.025459845
-0.021185823 0.056295093 -0.07536445 -0.02288242 0.04231246 0.21879563 0.04910626 -0.043164663
0.06734849 0.24786806 -0.07924489 0.13046604 0.13665046 -0.09023038 -0.059306394 0.4705856
0.9255632 0.32049662 -0.035980575 -0.031362053 -0.061148494 0.015572509 -0.022952296 0.2515812
-0.04487111 -0.023018824 0.044300307 -0.043565743 -0.025567163 0.88457674 0.95296085 0.9642094
0.041212287 0.051799327 0.95284224 1.0462744 -0.011514533 -0.0036569256 -0.049706668 0.021211622
0.06838967 -0.023124518 0.9270015 0.035240993 0.0782488 0.008116849 -0.026479907 0.09973196
0.059895143 0.07329415 0.0010844101 0.108403236 -0.016361328 0.11607035 0.01896816 -0.020088062
-0.031674955 -0.009180978 0.02575505 -0.034585167 0.15000613 -0.092511065 -0.009842428 0.28201297
0.99837446 0.96347463 0.019159544 0.07758048 -0.044375204 0.020236237 0.04400809 0.0742369
-0.044568054 -0.02464826 0.899378 -0.05687686 0.050417997 -0.06622012 -0.022649962 0.9251695
0.00033291383 0.06613937 -0.068298675 -0.066923976 0.1799763 1.0250692 -0.026005505 0.05235021
0.27132744 0.06920649 -0.039941292 0.9464437 -0.08109791 0.08244019 -0.031486098 0.03075081
0.06782747 0.18503584 0.026697624 1.0212584 0.016392944 0.955992 0.9307017 1.0561355
-0.05086712 0.34927493 1.0089467 -0.0816529 0.005716073 0.012315463 0.13640092 1.0439849
0.9349781 0.2757376 1.0317917 0.055178523 -0.095606536 0.00075961166 -0.06544441 0.0006946424

layer2.bias f4 [128]
00000000: c133 923d 8274 573f bd93 513d 940d 51bd
00000010: f949 27bd ec41 5c3f 8f39 54bd 0413 5d3f
00000020: 29a5 0bbd abaf 97bd 9e97 c33d a9ff b4bd
00000030: f75f 023f cb37 8d3c 0d36 613d 62bd 0b3e
00000040: a416 893d 3242 273d dabf 393b e05c f5bb
00000050: cbef abbd 816b 2c3d b147 aebd 2f93 ee3c
00000060: a03f b83b 8c76 583b 2a87 463f acf8 77bd
00000070: 139a 603e e58a 2b3d 1962 58bd 3684 883d
00000080: ec29 f73c 10c6 5e3c 2fd5 0c3f ca19 bd3d
00000090: 1f34 67bb 8ee1 623f 42d2 8bbd d125 643f
000000a0: ae83 28bd 49a3 11bd d380 a73d 4ff3 383e
000000b0: c970 82bc a28e 923d a6f0 f6bc 9ca2 fc3e
000000c0: dc7a 9c3b 9c35 a8bc e90a 59bd f324 1d3d
000000d0: 1390 623f 1948 a7bd d0e0 cb3e 5330 543d
000000e0: 14b2 c63b df17 c73b a975 a8bd 02b2 933e
000000f0: f2d8 9a3d 25bc a8bc 7dad fb3d 183f 083d
00000100: a35c 95bd 75bc 8abd d820 573f b938 dd3d
00000110: 66cb 18bd d765 63bd 3b6d 7dbc 5d67 02bd
00000120: 7a47 223e 3581 363e d635 ed3d dc50 533d
00000130: be15 293d 42b0 abbd c7c6 443e ba3e cebc
00000140: d172 1c3d 3a1d c9bc 8caa 993c b974 b13c
00000150: 4afe a9bd 2b1b 1b3c c791 973d 59bc 8cbd
00000160: e9e8 85bc abf5 343e 5a47 93bc 42ca a2bd
00000170: 7573 5d3c 31fb adbd 5187 4d3e 2465 d13d
00000180: 64c6 9bbd 8476 4d3d 69b2 223d 1edb acbc
00000190: 1738 663d 8d5d 1abb f4b6 9c3d aadc 69bd
000001a0: 7e4a 26bd 1534 87bd 67fd 0abc 479d 423d
000001b0: 86eb 5b3f 94af 9c3d 0f88 11bc fcaa 1c3c
000001c0: 2d7d 543c 55b5 2e3c 3952 49bd 0b91 d83e
000001d0: 2a12 1d3e c768 643f 2dfa 44bd ffed 453f
000001e0: 03cf 08bd cff9 423d faaa d03a 2abd 823d
000001f0: 3d89 bfbc 7e28 163e 3c2b 4fbc a044 5abd
0.071387775 0.8416215 0.051166285 -0.05103834 -0.04084203 0.8603809 -0.051812705 0.8635714
-0.034093056 -0.07406553 0.09550403 -0.08837826 0.5092768 0.017238518 0.054983187 0.13646463
0.066937715 0.040834613 0.0028343112 -0.007487878 -0.08395346 0.04209471 -0.08509768 0.029122917
0.005622819 0.0033029644 0.77549994 -0.060539886 0.21933775 0.041880507 -0.05282793 0.06665842
0.030171357 0.0135970265 0.5501279 0.092334345 -0.003527887 0.8862542 -0.06827213 0.89120203
-0.041141205 -0.03555611 0.08178868 0.18061565 -0.01592292 0.07156111 -0.030144047 0.4934281
0.004775388 -0.020533375 -0.05298892 0.038365316 0.8850109 -0.081680484 0.39819956 0.051803898
0.006063709 0.0060758437 -0.08225567 0.28846747 0.0756091 -0.020597527 0.1228895 0.033263296
-0.0729306 -0.067742266 0.8403449 0.108018346 -0.03730335 -0.055517044 -0.015467937 -0.031836856
0.15847579 0.17822726 0.11582534 0.051590785 0.0412805 -0.08383228 0.19216453 -0.025176395
0.038195435 -0.02455007 0.01875808 0.021662103 -0.08300455 0.009466927 0.07400852 -0.06871862
-0.016346412 0.1767184 -0.017978359 -0.07948734 0.013516297 -0.084951766 0.2007115 0.10224369
-0.076061994 0.050161853 0.039720926 -0.021100577 0.056205835 -0.0023554296 0.07652083 -0.057095207
-0.040598385 -0.06601731 -0.008483267 0.047513273 0.85906255 0.07650676 -0.008882537 0.00956225
0.012969297 0.01066335 -0.04915068 0.4229816 0.1533896 0.8922238 -0.04809015 0.7731628
-0.033400547 0.047601517 0.0015920096 0.063837364 -0.02338087 0.14663884 -0.012644585 -0.053288102

layer3.weight f4 [3, 128]
00000000: f515 333c 2d1a 9d3e 67a9 92bd 3e9f b83c
00000010: 387b e93c c4c1 b63e ab1f 87bd 0f5a f93e
00000020: f492 b1bc eb30 91bd 17c1 f7bb ada8 f53c
00000030: 78b6 82bb 6b6a 493d 0840 7a3d 4471 aa3c
00000040: dd6d c53d f056 e7bc 77df f2bc 7364 49bc
00000050: 1efe 3dbd 1e71 4a3b 49d2 47bd d4bd 98bd
00000060: b488 653d 0fb6 80bd 4f91 a03e a600 66bd
00000070: d888 323e 9db8 033d edd7 01bb 1b1d 5e3c
00000080: 55aa 4abc e341 573d 0ed6 773e 1bf2 a1bb
00000090: ebfb 80bc 0e71 e03e e46a a63d 5cc2 ef3e
000000a0: 82b4 8cbc 9cb5 683d d288 d3bb f86d 87bc
000000b0: ea50 8abd fa77 f53b 3672 d4bc 3b1c 883e
000000c0: dcfd 693d a3ce a6bc a370 a2bd d980 543c
000000d0: 08d4 953e 3493 32bc c9f6 deb9 19b3 8f3d
000000e0: a569 843b a78c 33bd bfec 313d 330a b63d
000000f0: 1377 153d 489a 70bc d280 0dba 637e f3bc
00000100: cb1c 963d 862d a03d 59ef ec3e c704 523d
00000110: 2024 eabc 3617 15bd 9621 7b3d d131 0bbc
00000120: ee43 993d ee48 173e 8487 da3c f6a5 973d
00000130: f989 453d 80e6 49bc 22e6 223e 8d66 c4bc
00000140: 2391 9cbd 84b7 22bd e31d 98bd bb6f b53d
00000150: 80df 06bd 2a63 a7bd 670b 6d3d 1f58 fbbc
00000160: ec00 3d3c 08ee 323e 19ba 453d 18e1 20bd
00000170: 37c6 38bd 1400 553d 6eab c03c 7d36 3b3d
00000180: 59f0 313c 6208 e4bd 2142 553d 0e62 053d
00000190: 35b1 2dbd 0a3d 1fbd 806f e23b 3984 93bd
000001a0: 6fe3 433d c47a a6bd ce02 5cbd ee82 a93d
000001b0: 35c4 073f 3eb1 69bd 7445 7abd 56c2 85bd
000001c0: 047f 95bc 78cd 38bd 6a7c 6ebd 532c 263e
000001d0: 028d 75bd 02cd f83e 5c49 64bd 5350 9b3d
000001e0: 1e98 06bd 96d6 e93c 56f0 29bd 7449 303d
000001f0: 29b5 23bd e2c1 103d 6f1b 813d dd2b 54bd
00000200: b7dd 07bd 2747 833f d046 05bc d9ee d63b
00000210: 8db2 ac3c d238 5c3f d555 d7bc 0019 743f
00000220: ff9a 81ba 505a 2abd 4dd1 bb3d d5c9 9fbd
00000230: 414b 613e cc76 9c3d b09c 443d 28af 823d
00000240: c3b0 893d 3cd7 d33b 4635 d2bc dacf b53c
00000250: 0644 5cbd 460b 75bd de2f 8dbd e408 d63c
00000260: eb4b d03d fe3f a0bd 8809 703f 2e1e 02bd
00000270: 4179 263e c945 93bd 9592 79bb 4eba b73c
00000280: 3914 81bd 5e40 f33c 7ec8 5a3e 8a8f c73d
00000290: 0bdc 0ebc 792a 613f 43f3 49bd 3ff1 693f
000002a0: ba0f 9abb 843d 35bd d38e 793d f9f1 b73d
000002b0: af7a f7bc fbf3 03bd 7ef5 50bd 6a28 de3e
000002c0: dc9d 4bbb 21ef 0c3c 5eeb a53d c6a2 8dbd
000002d0: 0800 4e3f cd24 703d cdf0 cd3e c2ac 8c3d
000002e0: 2b9b d7bc 0f1e 9a3d 1b69 9b3d 17bb 243e
000002f0: 9d1e 47bc eb82 87bd 4aef 793d 4129 593d
00000300: 5791 3f3d a255 8c3d 07cd 7b3f b0d8 c23d
00000310: 5460 12bd 4d29 a6bd 3148 87bc 1234 bfbd
00000320: fed0 2e3d 4d95 ed3d 11c2 803d d2e0 663d
00000330: 94d1 7f3d c8e8 0fbd acaf 2a3e d47a 78bd
00000340: 96a6 aebc 02f7 4a3c 305e 2bbd 8840 733c
00000350: b9b5 073d 13d4 f0bb 8e19 4ebd a973 b13b
00000360: 1285 c23b b817 d13d f112 9abc ce0f 9e3d
00000370: 9b05 873c dc77 a33d f2f7 c13d 0568 b23a
00000380: 69dc 4e3d 4ec0 28bd 61b9 993d 3b3c 4bbd
00000390: ea2d babd 7092 8cbd 748d 863d 2f24 55bd
000003a0: f70e 8bbd 2721 683c e2ed 25bd 1c2e 7abd
000003b0: 2595 6f3f 0c54 63bb 12b9 b43d 895d f4bc
000003c0: 6f0d 8c3c 837e 26bd 8617 fe3c e223 2a3e
000003d0: 86b3 d63d 170a 6f3f 8c0a 84bd e7a6 0d3f
000003e0: 4338 3ebd ac04 fbbc 27fe 49bb 938b 10bd
000003f0: 82a5 903c fc8c 3b3d 1826 b43d e631 26bd
0.010930528 0.30684033 -0.07161217 0.02253687 0.028501138 0.35694706 -0.06597837 0.48701522
-0.021676518 -0.070894085 -0.00756086 0.029987657 -0.003989037 0.049173754 0.06109622 0.020805962
0.096400954 -0.028239697 -0.029647572 -0.012292015 -0.046384923 0.0030890177 -0.048784528 -0.07458082
0.056038573 -0.06284725 0.31360862 -0.056152962 0.17435014 0.032158483 -0.001981254 0.013556744
-0.012369712 0.05255307 0.24202749 -0.0049421913 -0.015745124 0.43836254 0.081258565 0.46827972
-0.017175917 0.05681382 -0.0064555192 -0.01653193 -0.067537144 0.007491109 -0.025933366 0.26584038
0.057126865 -0.020362204 -0.0793164 0.012970173 0.2926333 -0.010899354 -0.0004252701 0.07016582
0.004040914 -0.04383531 0.04343867 0.08888664 0.03649051 -0.014685221 -0.0005397919 -0.029723352
0.073297106 0.07821183 0.46276358 0.051274087 -0.028581679 -0.03639909 0.061311327 -0.008495764
0.0748366 0.14773914 0.026675947 0.074047014 0.048227284 -0.012323022 0.15908101 -0.023974681
-0.0764487 -0.039725795 -0.074275754 0.088592015 -0.03292799 -0.08173211 0.057872202 -0.030681668
0.011535864 0.17473614 0.04827318 -0.039277166 -0.045110907 0.052002028 0.023519244 0.04570626
0.010860526 -0.111344114 0.05206502 0.032564215 -0.042405326 -0.03887657 0.0069102645 -0.07202954
0.04782432 -0.081288844 -0.053713612 0.08276926 0.53033763 -0.057053797 -0.061101392 -0.06531207
-0.018249042 -0.045117825 -0.05822412 0.16227846 -0.05994893 0.4859391 -0.055734023 0.0758368
-0.032859914 0.028544705 -0.041488968 0.0430388 -0.03996769 0.03534115 0.06304061 -0.051799644
-0.033170428 1.0256089 -0.008134559 0.0065592346 0.021081233 0.860242 -0.026286045 0.95350647
-0.0009888111 -0.041590035 0.0917078 -0.07802168 0.22001363 0.07639846 0.04800099 0.06381065
0.06723168 0.006464867 -0.025660168 0.022193838 -0.05377581 -0.059825204 -0.068938956 0.026127286
0.1017073 -0.078247055 0.93764544 -0.031767063 0.16257192 -0.07191045 -0.0038081754 0.022427704
-0.06302685 0.029693779 0.21365544 0.09744175 -0.0087194545 0.87955433 -0.049304258 0.9138374
-0.004701582 -0.04424812 0.060927223 0.089816995 -0.030209867 -0.0322151 -0.05101537 0.43390208
-0.0031069433 0.008601935 0.08101533 -0.06915812 0.804688 0.058628846 0.4022278 0.068688884
-0.026319107 0.075252645 0.07588407 0.16086994 -0.012153295 -0.066167675 0.06101922 0.05301786
0.046769466 0.06852271 0.9835972 0.09513986 -0.035736397 -0.08113346 -0.016513916 -0.093361035
0.04267978 0.116007425 0.06287015 0.05636675 0.06245573 -0.035134107 0.16668576 -0.060664013
-0.021319669 0.012387993 -0.04183787 0.014846928 0.03313229 -0.0073495 -0.05031734 0.005415399
0.0059362734 0.10209602 -0.01880786 0.07717858 0.016482165 0.07981846 0.0947112 0.0013611323
0.05050317 -0.04119902 0.07506061 -0.049617987 -0.09090789 -0.06863868 0.06569949 -0.05203646
-0.06789964 0.01416806 -0.040510066 -0.06107913 0.9358695 -0.0034687547 0.08824362 -0.029829757
0.01709625 -0.040647995 0.031017076 0.1661525 0.1048346 0.9337477 -0.06447324 0.553328
-0.046440374 -0.030641876 -0.0030821653 -0.03528936 0.017657045 0.04578875 0.08796328 -0.04057493

layer3.bias f4 [3]
00000000: e86b b33d c269 b73d 2f15 db3d
0.08760816 0.089557186 0.106974
