models/rl_models/06.03.24_with_rewards_for_each_3_seconds/best_target_dqn_model_epoch_30.pt (torch, 74158 bytes, 6 tensors)

layer1.weight f4 [128, 6]
0.3536155 0.049975865 0.39527032 0.29153618 -0.16394816 0.14191172 0.06432665 -0.2881166
-0.101794526 -0.34121984 0.29029277 -0.12393101 -0.11950614 -0.054866783 0.24589776 0.09287059
0.11291967 0.25974423 0.1415199 -0.04438022 0.03907212 -0.21111014 -0.25471255 -0.021892486
0.21084885 0.06912883 -0.19503044 0.12685317 -0.3212194 0.37489295 0.17585632 -0.09600033
-0.19836792 -0.13345556 -0.19052444 0.013563398 0.2952083 -0.11297784 0.18635318 -0.21258014
-0.12891583 -0.2329643 0.004689381 -0.3102373 -0.24785933 0.12599714 0.088625625 -0.3345644
0.08909508 0.16505621 -0.19111805 0.099926874 -0.16107093 0.10839005 0.34441242 0.04522718
-0.16439578 0.24375844 0.10493611 0.25470877 0.1845549 0.22577077 -0.28678983 0.32194942
0.048454046 0.31771886 -0.093030594 0.050358944 0.30360547 -0.13204934 -0.29681113 -0.1842931
0.32494354 0.39073187 0.09150921 -0.20454614 0.2359609 -0.0769016 0.1165701 -0.084827706
-0.27978668 0.36952582 -0.28417903 -0.27625087 -0.29508904 0.25729573 -0.20381384 0.16358331
-0.025340823 0.18806607 0.145465 0.23465283 0.29744208 0.14678799 0.274878 0.042711694
0.07810651 0.032738604 -0.31520638 0.043548174 -0.3657976 0.2026304 -0.34801626 0.20670569
-0.13463679 -0.24454753 0.31446314 0.12983374 0.13806047 0.03272515 0.042557318 0.3084333
0.32041287 -0.114268586 -0.26626992 0.19860774 -0.29768643 -0.3062808 0.30680144 0.316541
0.20106098 -0.31432626 0.19424324 0.22497538 0.038962655 0.33178926 -0.010851025 0.31017396
-0.2898149 0.2550673 0.0444652 -0.154523 -0.12949577 0.23441927 0.26139706 -0.11818563
-0.016186256 -0.1428068 0.05241947 0.017675463 0.14711598 -0.21523888 -0.09863781 -0.23947005
-0.05597686 -0.15277518 0.35226294 -0.14407693 -0.097663306 -0.37331104 -0.2936582 0.33412954
0.1280191 -0.08319129 -0.28250813 -0.33014303 -0.3374515 -0.30121502 0.14111698 0.18971187
-0.027186252 -0.23601465 0.30714473 0.11529007 0.112821005 -0.27487773 -0.2780819 0.0049037603
0.3272489 0.2915168 0.0576385 -0.2883311 0.29525796 -0.16876537 -0.26142436 -0.14213368
0.16089544 -0.3348394 -0.2229037 0.071707286 0.100701556 0.32950693 0.31199005 0.16617036
-0.124674544 0.13374126 -0.031444874 0.02100129 0.09642482 -0.36207995 0.31927404 0.3441747
0.01924576 -0.118750654 0.0705792 0.07705472 -0.36068282 0.11870464 0.06144813 -0.33064714
0.076051645 -0.17028621 0.2892765 0.040360317 -0.31486803 0.003001865 -0.26740843 0.0890279
0.19904068 0.18135843 -0.09867521 0.37719205 -0.00011972227 0.18308905 -0.20467123 -0.12457689
-0.15697214 -0.18696076 -0.17977749 0.15356465 -0.21437038 0.1072711 0.13128132 -0.16471927
0.369419 -0.3529012 -0.21646406 0.06504357 0.11423035 -0.26485398 0.020695636 0.015515579
-0.11984743 0.05046492 -0.2048403 -0.08437378 0.3557684 -0.10485317 0.11471088 0.22466077
-0.34607777 0.27729413 -0.038315203 -0.18467605 -0.14577343 -0.18211429 0.07236341 -0.3593998
0.008545548 0.30350256 0.12827562 0.18970641 0.15691797 -0.2991977 -0.163529 -0.22461219
00000000: 170d b53e 7eb3 4c3d df60 ca3e 3b44 953e
00000010: 07e2 27be 4e51 113e b1bd 833d 0584 93be
00000020: a679 d0bd 5eb4 aebe 41a1 943e 8bcf fdbd
00000030: a3bf f4bd febb 60bd 9fcc 7b3e f032 be3d
00000040: 6e42 e73d 32fd 843e 98ea 103e 09c8 35bd
00000050: 160a 203d 422d 58be af69 82be df57 b3bc
00000060: c3e8 573e 6b93 8d3d 0fb6 47be cce5 013e
00000070: df76 a4be f8f1 bf3e ae13 343e d29b c4bd
00000080: f620 4bbe 93a8 08be d718 43be 0439 5e3c
00000090: 8b25 973e ed60 e7bd 5ed3 3e3e 9cae 59be
000000a0: 8302 04be 328e 6ebe 61a9 993b 6cd7 9ebe
000000b0: d6ce 7dbe 6505 013e 5a81 b53d 064c abbe
000000c0: 7b77 b63d 7f04 293e 73b4 43be 76a6 cc3d
000000d0: c7ef 24be 9afb dd3d d356 b03e 2340 393d
000000e0: 5e57 28be d09b 793e bee8 d63d 3069 823e
000000f0: f6fb 3c3e 7430 673e 1ed6 92be 8ed6 a43e
00000100: c077 463d 0cac a23e d386 bebd 2e45 4e3d
00000110: 2d72 9b3e f137 07be a1f7 97be 55b7 3cbe
00000120: 005f a63e 020e c83e 2e69 bb3d 8b74 51be
00000130: bc9f 713e 967e 9dbd 4ebc ee3d 26ba adbd
00000140: 3340 8fbe 7d32 bd3e ea7f 91be c170 8dbe
00000150: e915 97be 44bc 833e 93b4 50be 6282 273e
00000160: 8f97 cfbc 6494 403e c7f4 143e d548 703e
00000170: 544a 983e 974f 163e cfbc 8c3e 75f2 2e3d
00000180: 4ef6 9f3d ea18 063d bb62 a1be 925f 323d
00000190: d349 bbbe 587e 4f3e 302f b2be a8aa 533e
000001a0: 3ade 09be ab6a 7abe 5001 a13e 23f3 043e
000001b0: b95f 0d3e cf0a 063d 9550 2e3d f8ea 9d3e
000001c0: 280d a43e a605 eabd 8854 88be d45f 4b3e
000001d0: 5b6a 98be d6d0 9cbe 1415 9d3e a911 a23e
000001e0: eee2 4d3e 5fef a0be b3e7 463e f25f 663e
000001f0: 4e97 1f3d 48e0 a93e 7fc8 31bc 1fcf 9e3e
00000200: 9e62 94be 2e98 823e 2421 363d 473b 1ebe
00000210: 8a9a 04be 9b0b 703e d6d5 853e 4f0b f2bd
00000220: 0a99 84bc f23b 12be ccb5 563d 22cc 903c
00000230: 92a5 163e 9567 5cbe 9f02 cabd a337 75be
00000240: fe47 65bd 1971 1cbe cf5b b43e e788 13be
00000250: b303 c8bd a022 bfbe 5e5a 96be 0713 ab3e
00000260: 7017 033e 3260 aabd e8a4 90be 8208 a9be
00000270: 71c6 acbe db38 9abe f880 103e d443 423e
00000280: b4b5 debc d3ad 71be 1342 9d3e 331d ec3d
00000290: b30e e73d c6bc 8cbe c060 8ebe b9af a03b
000002a0: 2b8d a73e b141 953e 5916 6c3d 22a0 93be
000002b0: 0d2c 973e d4d0 2cbe 6ad9 85be 7e8b 11be
000002c0: c6c1 243e 1270 abbe de40 64be 45db 923d
000002d0: 9e3c ce3d 22b5 a83e 29bd 9f3e 9028 2a3e
000002e0: 5e55 ffbd 78f3 083e 57cc 00bd e60a ac3c
000002f0: 607a c53d 8b62 b9be e377 a33e ab37 b03e
00000300: 49a9 9d3c 8b33 f3bd d48b 903d ddce 9d3d
00000310: 6bab b8be 6b1b f33d 09b1 7b3d 954a a9be
00000320: f7c0 9b3d 825f 2ebe 0d1c 943e dc50 253d
00000330: 6236 a1be f0ba 443b c2e9 88be 4254 b63d
00000340: 52d1 4b3e 06b6 393e 3a16 cabd 511f c13e
00000350: 6713 fbb8 b27b 3b3e 5695 51be 2b22 ffbd
00000360: 4ebd 20be a472 3fbe 9717 38be 0d40 1d3e
00000370: e983 5bbe f3b0 db3d 9c6e 063e 2bac 28be
00000380: 7d24 bd3e 77af b4be c1a8 5dbe 9035 853d
00000390: 9af1 e93d f19a 87be e589 a93c 0e35 7e3c
000003a0: 9272 f5bd 4eb4 4e3d a8c1 51be 29cc acbd
000003b0: 4727 b63e 42bd d6bd 8aed ea3d 790d 663e
000003c0: 1b31 b1be 7ff9 8d3e 67f0 1cbd b81b 3dbe
000003d0: a145 15be 2b7c 3abe 4433 943d 4003 b8be
000003e0: a002 0c3c b064 9b3e af5a 033e 6642 423e
000003f0: 1baf 203e 7130 99be 2574 27be bd00 66be

layer1.bias f4 [128]
0.12170699 -0.13364401 0.0488099 -0.2690199 0.55184036 -0.06281561 -0.28673404 -0.10356215
6.9026044e-07 0.9414584 -0.124917544 -0.20422709 -0.00019638095 1.060549 -0.21979044 0.6749391
-0.012322208 1.3704491 -4.123652e-05 1.363298 1.1091893 -0.050488994 -0.19996507 1.4335301
1.470359 1.440257 -0.12360347 -0.16970828 -0.31337556 -0.16706766 -0.13170284 1.4505079
-0.3153333 -0.33376393 -0.31153008 -7.521466e-05 -0.2731314 1.6936812 1.6239628 1.6243432
-0.3010657 -0.09991867 1.4525952 1.5192593 -0.1464665 -0.24791098 -6.3612555e-05 0.94956905
-0.23591584 1.1621538 1.5888526 0.9606412 0.96863157 0.85167295 -0.3957868 0.14188911
-0.25281072 0.3116188 -0.35742995 0.36387435 -0.2722532 0.7968864 -0.26305297 -0.01447104
-0.30359602 -0.13641767 -0.36631328 -0.3244161 0.7873728 -0.10225239 -2.8300348e-05 1.5431197
1.4490237 1.7574255 0.68989766 -0.15294744 0.028426737 -0.15085934 -0.3333082 -0.33310083
-0.030906588 0.41460484 1.7849623 -3.4234516e-05 0.30302244 -0.1302632 -0.16782776 1.6390291
0.45377582 -0.05816371 -2.1791748e-05 -0.11909399 1.7092046 1.5375954 0.0006042573 -0.33908755
1.4141123 0.29166925 -0.00018150033 1.5354369 -0.123792194 -0.18504192 -0.27780896 -0.14635651
-0.2358803 1.1359324 1.4461933 1.5327446 -4.5023822e-05 1.7967746 1.7081244 1.4751701
0.24253026 1.6243622 1.6776686 -4.419012e-05 -0.10940712 -0.32542604 0.33962947 1.6412448
1.6269326 1.62599 1.6409196 0.62018716 -0.024808228 -7.4658754e-05 0.6393397 -0.005796626
00000000: 8441 f93d fad9 08be e4ec 473d fabc 89be
00000010: 6945 0d3f 78a5 80bd cece 92be 6418 d4bd
00000020: 564a 3935 6b03 713f c5d4 ffbd e820 51be
00000030: 9ceb 4db9 12c0 873f bf10 61be cfc8 2c3f
00000040: 16e3 49bc e06a af3f 60f5 2cb8 8d80 ae3f
00000050: eaf9 8d3f 8ccd 4ebd a5c3 4cbe ea7d b73f
00000060: b934 bc3f 575a b83f d123 fdbd 02c8 2dbe
00000070: c372 a0be c913 2bbe 1cdd 06be 3eaa b93f
00000080: 5e73 a1be 1be3 aabe df80 9fbe 90bc 9db8
00000090: e1d7 8bbe 8cca d83f 03de cf3f 7aea cf3f
000000a0: 4925 9abe 29a2 ccbd a4ee b93f 1777 c23f
000000b0: 50fb 15be 60dc 7dbe bb67 85b8 f516 733f
000000c0: ec93 71be 75c1 943f 865f cb3f 95ec 753f
000000d0: 3df8 773f 3d07 5a3f 91a4 cabe 614b 113e
000000e0: 6870 81be 808c 9f3e 0f01 b7be bd4d ba3e
000000f0: c564 8bbe bf00 4c3f e1ae 86be f117 6dbc
00000100: f070 9bbe 13b1 0bbe 6a8d bbbe de19 a6be
00000110: 4491 493f b369 d1bd 8966 edb7 f284 c53f
00000120: 9c79 b93f 52f3 e03f 229d 303f 419e 1cbe
00000130: 30df e83c df7a 1abe 5fa7 aabe 318c aabe
00000140: d02f fdbc 1647 d43e a579 e43f 0897 0fb8
00000150: c225 9b3e b763 05be 0adb 2bbe b5cb d13f
00000160: 4e55 e83e 123d 6ebd 6ccd b6b7 8de7 f3bd
00000170: 37c7 da3f edcf c43f 0567 1e3a e29c adbe
00000180: a201 b53f ac55 953e 2051 3eb9 3289 c43f
00000190: c386 fdbd a17b 3dbe fa3c 8ebe 7bde 15be
000001a0: 9b8a 71be 3c66 913f dd1c b93f fa30 c43f
000001b0: f6d7 3cb8 b6fc e53f d2a3 da3f 60d2 bc3f
000001c0: da59 783e 1aeb cf3f d8bd d63f c858 39b8
000001d0: d710 e0bd 3e9e a6be eae3 ad3e 4f14 d23f
000001e0: 543f d03f 7120 d03f a709 d23f 96c4 1e3f
000001f0: a03a cbbc 1d92 9cb8 c4ab 233f a0f1 bdbb

layer2.weight f4 [128, 128]
-0.028160568 0.035292916 0.030369999 -0.0972941 -0.07545952 -0.08510837 -0.04109634 0.0335439
0.03779291 -0.045368686 -0.075925246 0.06197697 0.043974195 -0.0056683845 -0.08946136 0.00025698653
-0.032656405 -0.015526841 0.008113947 -0.025566436 0.07005544 0.00033904522 -0.0508202 0.0377896
-0.04952165 -0.074076876 0.053440806 -0.07831274 -0.012991929 -0.020720039 0.041837506 -0.021745156
-0.03645811 0.045782443 0.042861946 0.054957006 0.008302493 0.02099684 -0.09181928 -0.052650474
0.048398 -0.03138793 -0.004749754 0.003988109 0.02165759 -0.0591731 -0.020574968 0.015584885
-0.063512206 0.048788935 -0.036105547 0.037809353 0.011508602 -0.03509117 0.0045315465 -0.050481718
-0.021343987 0.01512006 0.045245364 0.03140592 -0.059572324 0.06554257 0.06882987 0.03299562
0.014387223 -0.070731334 -0.034975708 -0.07257912 0.07018466 0.03198871 0.047496665 -0.088242345
-0.04173392 -0.024545703 0.06908338 0.06839383 0.033340517 -0.015240938 0.04512953 0.017502774
0.0109414635 -0.07564738 -0.05250553 0.049835533 0.03087808 -0.0061135185 0.005211609 -0.044531982
0.010546799 -0.07968934 0.030342018 -0.039842244 -0.05790828 0.0040684934 -0.008018887 -0.09762661
0.052273817 0.016125506 -0.045836795 -0.04695805 0.073781304 -0.028055951 -0.096991986 0.05565032
0.044007223 0.030338138 -0.038012672 -0.06867954 0.057045437 0.010057163 -0.08179222 -0.027410656
-0.058798317 -0.058790043 -0.017678011 0.030466978 -0.08671418 -0.0008207404 0.13413268 -0.029073138
0.019831497 -0.045474153 0.07079772 -0.016753929 0.034118716 0.027553953 -0.08000077 -0.01090597
-0.08403096 -0.02462292 0.0014608625 0.0046563377 0.081821166 -0.08065649 0.044108905 0.02442524
-0.02534353 0.058824316 -0.08088883 -0.021969846 0.03549966 0.27344275 0.043191306 -0.04083653
0.060584582 0.45574737 -0.08461489 0.34861353 0.1772512 -0.09472389 -0.05968754 0.57011324
1.2065412 0.41111815 -0.0345063 -0.032892723 -0.063620746 0.014940183 -0.027872905 0.5442606
-0.043045964 -0.022103105 0.042475156 -0.046723954 -0.024524894 1.1666107 1.2327 1.2434694
0.03953923 0.042606954 1.2330154 1.3223869 -0.018102601 -0.01250742 -0.05093806 0.08799977
0.06565194 -0.008328249 1.207633 0.06797099 0.09685065 0.019382175 -0.033088077 0.11447138
0.05437099 0.073282875 -0.003228881 0.10278125 -0.019010529 0.13791293 0.009314232 -0.021546766
-0.03852792 -0.015708942 0.024699362 -0.04048133 0.17981003 -0.09647298 -0.018583035 0.55703354
1.2764729 1.2424873 0.024222018 0.07450453 -0.050305553 0.019399704 0.03607298 0.07119492
-0.05186361 -0.016106635 1.1806165 -0.058148466 0.048485905 -0.06623195 -0.021737387 1.2057525
0.015695307 0.06340164 -0.073746875 -0.06914397 0.25650045 1.3019102 -0.033777665 0.04313189
0.29065967 0.075179115 -0.045531236 1.2265828 -0.07775178 0.079094075 -0.033503596 0.029509341
0.06508974 0.22741535 0.04359129 1.2982442 0.008320763 1.2352854 1.2109407 1.3320519
-0.049842007 0.42906204 1.2860793 -0.08312117 0.0018615399 0.0034750313 0.21237987 1.3198968
1.2152803 0.28631225 1.3081126 0.06340889 -0.093185075 -0.0033691553 -0.056829225 -0.0029789147
00000000: feb0 e6bc 4e8f 103d 81ca f83c 2142 c7bd
00000010: 858a 9abd 4c4d aebd a354 28bd 5465 093d
00000020: bdcc 1a3d 84d4 39bd b27e 9bbd 90db 7d3d
00000030: 491e 343d dbbd b9bb 8437 b7bd 26bc 8639
00000040: b9c2 05bd 4b64 7ebc 5cf0 043c b470 d1bc
00000050: 3a79 8f3d e1c1 b139 d828 50bd 45c9 1a3d
00000060: 37d7 4abd 9eb5 97bd bfe4 5a3d 6e62 a0bd
00000070: 1adc 54bc 12bd a9bc ce5d 2b3d e622 b2bc
00000080: 1955 15bd 5f86 3b3d 0290 2f3d 991a 613d
00000090: 2e07 083c 9101 ac3c bf0b bcbd 06a8 57bd
000000a0: fb3c 463d a190 00bd d3a3 9bbb afae 823b
000000b0: 426b b13c 7e5f 72bd d68c a8bc bf57 7f3c
000000c0: b012 82bd e8d6 473d 69e3 13bd fbdd 1a3d
000000d0: 938e 3c3c c2bb 0fbd 5e7d 943b ebc5 4ebd
000000e0: 96d9 aebc 21ba 773c 3453 393d 7ea3 003d
000000f0: 1c02 74bd 2f3b 863d adf6 8c3d 6a26 073d
00000100: 63b8 6b3c 97db 90bd b042 0fbd 5da4 94bd
00000110: fabc 8f3d 9806 033d dd8b 423d 67b8 b4bd
00000120: 30f1 2abd 1214 c9bc 967b 8d3d 1012 8c3d
00000130: 1190 083d 21b5 79bc bed9 383d fa61 8f3c
00000140: d343 333c 03ed 9abd 0a10 57bd 5820 4c3d
00000150: 07f4 fc3c e953 c8bb 25c6 aa3b 2b67 36bd
00000160: 7bcc 2c3c 2a34 a3bd d38f f83c 9f31 23bd
00000170: 3c31 6dbd ff50 853b a661 03bc 76f0 c7bd
00000180: 121d 563d a319 843c 5dbf 3bbd 1657 40bd
00000190: a71a 973d 98d5 e5bc bca3 c6bd 97f1 633d
000001a0: eb40 343d b087 f83c 2db3 1bbd dca7 8cbd
000001b0: 7aa8 693d cdc6 243c ae82 a7bd 508c e0bc
000001c0: 81d6 70bd d4cd 70bd 7ad1 90bc e295 f93c
000001d0: 3497 b1bd f526 57ba 145a 093e ca2a eebc
000001e0: aa75 a23c 1b43 3abd 65fe 903d 893f 89bc
000001f0: 11c0 0b3d d4b8 e13c 72d7 a3bd f4ae 32bc
00000200: 6d18 acbd 02b6 c9bc 697a bf3a 3194 983b
00000210: db91 a73d 3b2f a5bd 8aab 343d 7117 c83c
00000220: 3c9d cfbc c4f1 703d 0ba9 a5bd 1bfa b3bc
00000230: 1768 113d b000 8c3e 5ee9 303d 3544 27bd
00000240: 8a27 783d b857 e93e 924a adbd 797d b23e
00000250: 5781 353e 99fe c1bd ec7a 74bd f1f2 113f
00000260: f16f 9a3f 147e d23e 7a56 0dbd 85ba 06bd
00000270: 984b 82bd abc7 743c b855 e4bc aa54 0b3f
00000280: f750 30bd 9211 b5bc 6efa 2d3d 9e61 3fbd
00000290: 6ee8 c8bc 8053 953f 1dc9 9d3f 012a 9f3f
000002a0: e3f3 213d a184 2e3d 73d3 9d3f f943 a93f
000002b0: e84b 94bc eceb 4cbc 6da4 50bd 3939 b43d
000002c0: 8674 863d 3573 08bc b893 9a3f 6034 8b3d
000002d0: a259 c63d 5ec7 9e3c 5d87 07bd f96f ea3d
000002e0: 1db4 5e3d 5515 963d a29b 53bb fa7e d23d
000002f0: f8bb 9bbc 0c39 0d3e b89a 183c d882 b0bc
00000300: 74cf 1dbd 0ab0 80bc 5156 ca3c c0cf 25bd
00000310: 1f20 383e a093 c5bd 733b 98bc c099 0e3f
00000320: 7763 a33f d309 9f3f 416d c63c d595 983d
00000330: 320d 4ebd 21ec 9e3c 43c1 133d a4ce 913d
00000340: f06e 54bd 10f2 83bc 711e 973f 162d 6ebd
00000350: 2899 463d 9ea4 87bd 9b12 b2bc 1956 9a3f
00000360: 7293 803c b8d8 813d 9a08 97bd 5b9b 8dbd
00000370: 0754 833e fea4 a63f 735a 0abd 11ab 303d
00000380: 58d1 943e 82f7 993d f67e 3abd aa00 9d3f
00000390: 533c 9fbd 13fc a13d 113b 09bd 93bd f13c
000003a0: c54d 853d 92df 683e c88c 323d de2c a63f
000003b0: cf53 083c d51d 9e3f 1b00 9b3f ad80 aa3f
000003c0: 2227 4cbd 05ae db3e 3f9e a43f 6f3b aabd
000003d0: eafe f33a 5abd 633b 1c7a 593e 61f2 a83f
000003e0: 4e8e 9b3f 8597 923e 3c70 a73f 85dc 813d
000003f0: d1d7 bebd 0ccd 5cbb c3c5 68bd e539 43bb

layer2.bias f4 [128]
0.05673976 1.1223545 0.049079463 -0.04896066 -0.039168973 1.1404983 -0.049683355 1.1006212
-0.03272419 -0.07102355 0.13038293 -0.08472794 0.6472065 0.07080915 0.10422252 0.1757307
0.12116186 0.040680427 -0.00088967656 0.01953013 -0.08060735 0.040421654 -0.08170666 0.027693443
0.053441204 0.0031698802 1.0230038 -0.058263138 0.26385966 0.04020745 -0.05069858 0.06392069
0.022378353 0.0701587 0.7196423 0.12501721 -0.0033852966 1.1458397 -0.042189352 1.1461904
-0.039468147 -0.03590645 0.11165924 0.20960233 -0.015259959 0.057030175 -0.028971411 0.86073035
0.047214594 -0.019696847 -0.05085957 0.036844384 1.167075 -0.07833437 0.62436193 0.10645086
0.005816552 0.0058286865 -0.07882814 0.44994542 0.075641215 -0.019760998 0.15714414 0.041283183
-0.06988861 -0.065004535 1.0693581 0.15338531 -0.035782415 -0.053240478 -0.0148417605 -0.030718239
0.20861633 0.22261569 0.1426142 0.09893114 0.039607443 -0.08048616 0.23453611 -0.040926564
0.036674473 -0.047171596 0.017997602 0.07328315 -0.079658434 0.008762943 0.07826146 -0.06598089
0.015418458 0.22149363 -0.006136858 -0.07623806 -0.009345996 -0.081572905 0.23367578 0.14400594
-0.07302008 0.048085574 0.038098354 -0.022053882 0.031092873 -0.0022603709 0.08896466 -0.054806896
-0.03892532 -0.06355548 -0.00939481 0.045568325 1.103603 0.07346488 -0.008525228 0.009182011
0.021547027 0.009500084 -0.04717343 0.48923683 0.21804182 1.1338942 -0.04611289 1.0173022
-0.03203168 0.07568115 0.001527292 0.08780963 -0.0224373 0.1949811 0.03584766 -0.051158756
00000000: f367 683d 50a9 8f3f 8c07 493d f98a 48bd
00000010: a56f 20bd d9fb 913f c680 4bbd 28e1 8c3f
00000020: cd09 06bd cc74 91bd 1a83 053e d885 adbd
00000030: 53af 253f 6304 913d 9e72 d53d c0f2 333e
00000040: b623 f83d 85a0 263d 2f39 69ba a7fd 9f3c
00000050: 7715 a5bd 2d91 253d d255 a7bd 5cdd e23c
00000060: 2ae5 5a3d c4bd 4f3b caf1 823f 54a5 6ebd
00000070: 9d18 873e 91b0 243d 50a9 4fbd dae8 823d
00000080: cf52 b73c 5daf 8f3d 7a3a 383f 8304 003e
00000090: dadb 5dbb e0aa 923f bece 2cbd 5eb6 923f
000000a0: 5aa9 21bd a412 13bd 9aad e43d fea1 563e
000000b0: e804 7abc 7998 693d 7455 edbc d358 5c3f
000000c0: 1764 413d 485b a1bc 2052 50bd 23ea 163d
000000d0: b762 953f c56d a0bd 2fd6 1f3f e902 da3d
000000e0: c698 be3b 91fe be3b a670 a1bd 3f5f e63e
000000f0: c8e9 9a3d d1e1 a1bc 65ea 203e 8e18 293d
00000100: c221 8fbd 1921 85bd bae0 883f 0a11 1d3e
00000110: 9590 12bd b012 5abd db2a 73bc d1a4 fbbc
00000120: 859f 553e 5ef5 633e 7509 123e 699c ca3d
00000130: 6a3b 223d eed5 a4bd 3c2a 703e 9da2 27bd
00000140: f937 163d 0137 41bd b56f 933c 7a15 963d
00000150: f623 a3bd 7292 0f3c 8b47 a03d fd20 87bd
00000160: b39d 7c3c 3acf 623e b217 c9bb b322 9cbd
00000170: f31f 19bc b20f a7bd b448 6f3e 4b76 133e
00000180: 8d8b 95bd 61f5 443d 050d 1c3d 58aa b4bc
00000190: 7bb6 fe3c bb22 14bb 1b33 b63d 327d 60bd
000001a0: 2870 1fbd 6029 82bd b0ec 19bc daa5 3a3d
000001b0: dd42 8d3f c174 963d 66ad 0bbc 2570 163c
000001c0: 6483 b03c 3ea6 1b3c ed38 41bd 407d fa3e
000001d0: 5b46 5f3e 7223 913f dfe0 3cbd f536 823f
000001e0: a733 03bd b8fe 9a3d 6a2f c83a 89d5 b33d
000001f0: 6ece b7bc 20a9 473e ffd4 123d d88b 51bd

layer3.weight f4 [3, 128]
0.012041509 0.73731923 -0.06869852 0.021624295 0.02735989 0.7849563 -0.06324064 0.91018695
-0.020795254 -0.06805224 0.003963176 0.028770898 0.2867207 0.054884657 0.06485976 0.030104795
0.09916982 -0.015086326 -0.014970142 -0.0020174233 -0.044526767 0.0029654396 -0.04680727 -0.0715389
0.063216746 -0.060267013 0.7436533 -0.05414582 0.17079823 0.03081519 -0.00189889 0.013009105
-0.0057352525 0.05728527 0.2572865 0.0023004056 -0.015096362 0.8628896 0.08154798 0.89186764
-0.016491484 0.05150059 0.0004289142 -0.0033718264 -0.06479941 0.0057574105 -0.024868913 0.7072496
0.060721315 -0.019525671 -0.07608264 0.012437835 0.72280306 -0.01045363 0.27023968 0.07554994
0.0038718302 -0.042032592 0.047352523 0.12088315 0.10181852 -0.014087431 0.009575433 -0.018512722
0.070255175 0.07507845 0.8868708 0.05561286 -0.027435392 -0.03488296 0.058839597 -0.009769569
0.07779986 0.14507505 0.03578028 0.0780831 0.046250027 -0.011828709 0.15600973 -0.016834607
-0.07340684 -0.034281503 -0.07123381 0.09119552 -0.031559125 -0.07857593 0.0553269 -0.029444268
0.019392723 0.17245117 0.19885288 -0.03769494 -0.033958253 0.04987268 0.029616002 0.05058928
0.010418039 -0.106781386 0.04993567 0.032857012 -0.04029471 -0.037330758 0.0136302635 -0.06907415
0.045855444 -0.0781389 -0.04843448 0.079423144 0.95147765 -0.054768078 -0.05864201 -0.06257434
-0.008537214 -0.04329268 -0.05586525 0.22564092 0.02157455 0.90862995 -0.05345258 0.48635316
-0.03149105 0.036605023 -0.03981591 0.049450986 -0.038322687 0.039949328 0.066562004 -0.049670294
-0.031131966 1.1697594 -0.007793461 0.006293066 0.020244705 1.0107995 -0.02522137 1.1006893
-0.00094773906 -0.039916977 0.097386025 -0.0749056 0.3549854 0.08382161 0.048474688 0.07168593
0.07052013 0.014444395 -0.00598016 0.027802823 -0.051615328 -0.05739168 -0.066201225 0.025063898
0.10811698 -0.07511049 1.085136 -0.030829426 0.15648265 -0.06896696 -0.0036550914 0.02151513
-0.054939166 0.036739286 0.22818476 0.098859616 -0.008377238 1.0290653 -0.03990116 1.0619351
-0.0045114653 -0.027924081 0.06147151 0.09954328 -0.028993104 -0.034682207 -0.048939828 0.6038242
-0.0012900829 0.008259718 0.0776692 -0.06642039 0.95784044 0.05624469 0.57152677 0.077360295
-0.025254432 0.07221072 0.076372124 0.19238424 0.06400365 -0.063429944 0.065740645 0.055508815
0.044881728 0.065784976 1.1295451 0.09731721 -0.034286536 -0.07778733 -0.015829483 -0.08984759
0.045213927 0.11133402 0.07016604 0.05987007 0.059916683 -0.033744477 0.1595041 -0.05155733
-0.020468142 0.009382056 -0.040164813 0.016846698 0.031763423 -0.0076571857 -0.041169483 0.005195394
0.015157078 0.101270966 0.13519245 0.0741367 0.02567644 0.07653906 0.09235585 0.009907317
0.048463717 -0.03952691 0.07201872 -0.045779414 -0.0888611 -0.06590095 0.06568789 -0.04990711
-0.065161906 0.01264713 -0.035905797 -0.058621056 1.0833517 -0.0033265403 0.08459331 -0.02861299
0.021560142 -0.036798596 0.02975995 0.24403158 0.19067782 1.0812715 -0.06177797 0.7162644
-0.044577952 -0.016174166 -0.0029585871 -0.020023337 0.01695323 0.04764643 0.09085331 -0.038901865
00000000: c049 453c f4c0 3c3f cfb1 8cbd 6f25 b13c
00000010: d921 e03c e5f2 483f 4f84 81bd 0302 693f
00000020: cf5a aabc f95e 8bbd 88dd 813b f2b0 eb3c
00000030: 0ecd 923e bcce 603d 32d5 843d 559e f63c
00000040: 8c19 cb3d a32c 77bc 5445 75bc bf36 04bb
00000050: b361 36bd d257 423b fbb8 3fbd fd82 92bd
00000060: c877 813d 8bda 76bd 1060 3e3f 02c8 5dbd
00000070: bbe5 2e3e 2370 fc3c 2de4 f8ba 2424 553c
00000080: c9ee bbbb f6a3 6a3d 0ebb 833e 67c2 163b
00000090: bb56 77bc 55e6 5c3f a102 a73d 7051 643f
000000a0: 2619 87bc 48f2 523d e4df e039 dcf9 5cbb
000000b0: 8eb5 84bd a9a8 bc3b e4b9 cbbc 4f0e 353f
000000c0: eab6 783d 4df4 9fbc 37d1 9bbd 10c8 4b3c
000000d0: 9f09 393f b445 2bbc db5c 8a3e edb9 9a3d
000000e0: 88be 7d3b 5e2a 2cbd b8f4 413d 9691 f73d
000000f0: 3a86 d03d f8ce 66bc 47e2 1c3c fea7 97bc
00000100: f2e1 8f3d bbc2 993d f709 633f 4fca 633d
00000110: 30c0 e0bc 6fe1 0ebd ca01 713d 8b10 20bc
00000120: 8855 9f3d 8e8e 143e 588e 123d 08ea 9f3d
00000130: ab70 3d3d 34cd 41bc 04c1 1f3e bbe8 89bc
00000140: 5356 96bd c36a 0cbd 08e3 91bd b7c4 ba3d
00000150: 2444 01bd 6bec a0bd 769e 623d 1b35 f1bc
00000160: 7ddd 9e3c 0a97 303e 17a0 4b3e 0266 1abd
00000170: cf17 0bbd 4c47 4c3d 429d f23c b436 4f3d
00000180: 6cb0 2a3c 33b0 dabd 5889 4c3d 1395 063d
00000190: 110c 25bd 23e8 18bd 7851 5f3c bf76 8dbd
000001a0: ebd2 3b3d 4a07 a0bd 3c63 46bd 9aa8 a23d
000001b0: 0a94 733f 7e54 60bd 9b32 70bd fa26 80bd
000001c0: acdf 0bbc aa53 31bd f6d2 64bd 6a0e 673e
000001d0: 1cbd b03c f99b 683f 18f1 5abd 4803 f93e
000001e0: c2fc 00bd 26ef 153d 0216 23bd 1e8d 4a3d
000001f0: 40f8 1cbd e8a1 233d a951 883d 1473 4bbd
00000200: 7708 ffbc adba 953f 4a60 ffbb 1036 ce3b
00000210: 39d8 a53c e161 813f 0c9d cebc 63e3 8c3f
00000220: b171 78ba fc7f 23bd 5372 c73d 1b68 99bd
00000230: a5c0 b53e aaaa ab3d 658d 463d 13d0 923d
00000240: dc6c 903d 2fa8 6c3c 38f5 c3bb bfc2 e33c
00000250: 986a 53bd 8a13 6bbd 8294 87bd ce52 cd3c
00000260: 6f6c dd3d 87d3 99bd bde5 8a3f fe8d fcbc
00000270: fd3c 203e 8d3e 8dbd 428a 6fbb 7f40 b03c
00000280: e407 61bd ef7b 163d 44a9 693e e976 ca3d
00000290: af40 09bc 69b8 833f 666f 23bd 7ded 873f
000002a0: ead4 93bb 0bc1 e4bc 8dc9 7b3d 59dd cb3d
000002b0: f282 edbc ee0e 0ebd 2175 48bd 3994 1a3f
000002c0: 0018 a9ba c553 073c 0811 9f3d 6a07 88bd
000002d0: 0835 753f d560 663d 944f 123f 136f 9e3d
000002e0: 62e2 cebc 37e3 933d fd68 9c3d 6000 453e
000002f0: 5814 833d 8fe7 81bd 08a3 863d 365d 633d
00000300: e7d5 373d 46ba 863d ef94 903f 3f4e c73d
00000310: 0a70 0cbd f74e 9fbd d5ac 81bc 0302 b8bd
00000320: 3d32 393d 1703 e43d 36b3 8f3d 523a 753d
00000330: 326b 753d a637 0abd 0b55 233e c72d 53bd
00000340: ceac a7bc 32b7 193c dc83 24bd 1602 8a3c
00000350: 5d1a 023d 21e9 fabb 55a1 28bd 203e aa3b
00000360: 6555 783c 2767 cf3d e46f 0a3e fbd4 973d
00000370: 6657 d23c 83c0 9c3d 1025 bd3d 4d52 223c
00000380: e481 463d f8e6 21bd 8d7e 933d 3283 3bbd
00000390: cffc b5bd 14f7 86bd 5f87 863d 666b 4cbd
000003a0: 9b73 85bd e835 4f3c f511 13bd a21c 70bd
000003b0: 45ab 8a3f 1602 5abb 423f ad3d ca65 eabc
000003c0: e59e b03c 20ba 16bd 23cb f33c 6ae3 793e
000003d0: 0c41 433e 1b67 8a3f e60a 7dbd 1b5d 373f
000003e0: 5f97 36bd af7f 84bc dbe4 41bb fb07 a4bc
000003f0: 80e1 8a3c e728 433d 4d11 ba3d 9057 1fbd

layer3.bias f4 [3]
0.13606738 0.11951371 0.124641255
00000000: 3f55 0b3e 9bc3 f43d ea43 ff3d
