models/rl_models/06.03.24_with_rewards_for_each_3_seconds/best_target_dqn_model_epoch_2.pt (torch, 74148 bytes, 6 tensors)

layer1.weight f4 [128, 6]
0.3653832 0.031120166 0.39157215 0.30295542 -0.19437514 0.1236879 0.069021724 -0.30899945
-0.1092751 -0.36626023 0.3113931 -0.1332583 -0.11334753 -0.062382054 0.24841864 0.114668645
0.117878854 0.26347727 0.12267755 -0.075415626 0.014174537 -0.22660865 -0.27349284 -0.023497475
0.21258017 0.05627402 -0.23258603 0.12536727 -0.35957903 0.3825146 0.16589054 -0.12472868
-0.23453274 -0.1431945 -0.20451555 0.014561217 0.28289258 -0.15326606 0.16831283 -0.22819966
-0.13830598 -0.25010172 0.0050344323 -0.33319104 -0.26651374 0.13538729 0.095133536 -0.35927105
0.101484574 0.17774472 -0.24269307 0.11520368 -0.16997261 0.079670586 0.3676654 0.026253005
-0.2025685 0.26439577 0.09442943 0.25143525 0.19566184 0.22038737 -0.33831477 0.34774485
0.034716845 0.3148841 -0.0998545 0.054060794 0.32603738 -0.14163196 -0.31856334 -0.19785666
0.36019132 0.40514398 0.07475682 -0.20678848 0.24057613 -0.104978256 0.107226714 -0.10736372
-0.32623163 0.3808269 -0.31972572 -0.32108837 -0.28775775 0.27000886 -0.19209549 0.20790102
-0.030885357 0.23190923 0.15892239 0.23914923 0.28670314 0.16335218 0.28476676 0.0155294575
0.04789793 0.0014342151 -0.37216678 0.046738405 -0.39277056 0.21752313 -0.3665723 0.21849935
-0.13726224 -0.25612256 0.33397752 0.14644602 0.14392047 0.021851199 0.014418979 0.33334744
0.33762866 -0.14739086 -0.27968067 0.20909764 -0.3132481 -0.3229948 0.32543394 0.34591708
0.20982131 -0.32824406 0.21480416 0.23530883 0.051576518 0.3624331 -0.02032553 0.3145124
-0.3417983 0.26924485 0.032590725 -0.19279774 -0.14796805 0.23597716 0.27315658 -0.1079971
-0.009994394 -0.1344432 0.041259073 0.00625884 0.14507408 -0.23108558 -0.10589303 -0.25742063
-0.060083017 -0.16408832 0.378108 -0.15452023 -0.10484356 -0.40069807 -0.32359773 0.3525425
0.13100374 -0.08932704 -0.30337512 -0.35444772 -0.36242056 -0.32340768 0.15155047 0.20364046
-0.029185854 -0.25353336 0.28186393 0.07846609 0.075846106 -0.29524088 -0.29880106 0.0052624117
0.34321612 0.2926631 0.025168918 -0.31370842 0.30006364 -0.21458195 -0.28029263 -0.15256718
0.1726681 -0.35957098 -0.23926133 0.07692403 0.09493761 0.32868803 0.29461002 0.16928054
-0.15428014 0.106785774 -0.02805525 0.018695692 0.109596424 -0.3830097 0.33876368 0.37545776
0.020674797 -0.12760289 0.07579595 0.082777984 -0.3872295 0.12755112 0.06608134 -0.35499763
0.08167464 -0.18280642 0.3102754 0.043315887 -0.3079349 -0.0019615833 -0.27805254 0.12573726
0.20846187 0.20295903 -0.1121319 0.38495442 -0.028991207 0.19413987 -0.2363616 -0.15926969
-0.16844898 -0.20067775 -0.19300383 0.16495676 -0.23015921 0.11517122 0.14077872 -0.17683959
0.39654616 -0.37879947 -0.23239237 0.06973864 0.12265546 -0.28410316 0.022220284 0.016682914
-0.12883677 0.05417434 -0.21989085 -0.09061703 0.3819056 -0.11255223 0.123166025 0.24113564
-0.3714073 0.29792577 -0.04115564 -0.19823961 -0.15638642 -0.19553538 0.080366924 -0.36340392
0.043895304 0.32841337 0.15981469 0.23832718 0.16839482 -0.32118884 -0.1755411 -0.24108389
00000000: 8213 bb3e b8ef fe3c 257c c83e f91c 9b3e
00000010: 470a 47be 1550 fd3d 435b 8d3d 2d35 9ebe
00000020: a0cb dfbd 7686 bbbe eb6e 9f3e dd74 08be
00000030: c022 e8bd 5384 7fbd 7561 7e3e 65d7 ea3d
00000040: 786a f13d 7ee6 863e 5e3e fb3d 8273 9abd
00000050: 513c 683c 190c 68be 4107 8cbe c77d c0bc
00000060: 9eae 593e 967f 663d 082b 6ebe 4760 003e
00000070: be1a b8be f4d8 c33e 36df 293e c071 ffbd
00000080: 5a29 70be 94a1 12be 866c 51be 2c92 6e3c
00000090: 4cd7 903e c7f1 1cbe 335a 2c3e 2cad 69be
000000a0: 15a0 0dbe 550d 80be e1f7 a43b 0498 aabe
000000b0: 7d74 88be f7a2 0a3e 5fd5 c23d 60f2 b7be
000000c0: 25d7 cf3d b602 363e 8884 78be e8ef eb3d
000000d0: 4d0d 2ebe 552a a33d a43e bc3e 8b10 d73c
000000e0: 1e6e 4fbe e25e 873e 3864 c13d 1fbc 803e
000000f0: 945b 483e 3aad 613e 9837 adbe 9d0b b23e
00000100: 4033 0e3d 7d38 a13e 8480 ccbd da6e 5d3d
00000110: 5fee a63e f807 11be bc1a a3be f09a 4abe
00000120: ff6a b83e 086f cf3e 1b1a 993d 5cc0 53be
00000130: 9759 763e d7fe d6bd ae99 db3d 83e1 dbbd
00000140: d507 a7be befb c23e 17b3 a3be b265 a4be
00000150: fc54 93be 9a3e 8a3e aeb4 44be 01e4 543e
00000160: 4a03 fdbc 9d79 6d3e 8dbc 223e 89e3 743e
00000170: c1ca 923e cb45 273e f3cc 913e 446f 7e3c
00000180: 9f30 443d 46fc bb3a a58c bebe c570 3f3d
00000190: 3919 c9be 62be 5e3e 5daf bbbe 4bbe 5f3e
000001a0: 798e 0cbe 7f22 83be 1aff aa3e f2f5 153e
000001b0: e35f 133e 4901 b33c 953d 6c3c 84ac aa3e
000001c0: aadd ac3e a1ed 16be 4e32 8fbe b11d 563e
000001d0: 0e62 a0be 935f a5be 479f a63e 0b1c b13e
000001e0: 66db 563e 9b0f a8be 9ff5 5b3e ccf4 703e
000001f0: e641 533d d590 b93e ba81 a6bc c507 a13e
00000200: 3000 afbe 76da 893e da7d 053d c56c 45be
00000210: f084 17be ffa3 713e 2edb 8b3e 952d ddbd
00000220: 87bf 23bc 7aab 09be 46ff 283d f516 cd3b
00000230: 4d8e 143e b3a1 6cbe 72de d8bd a3cc 83be
00000240: 9c19 76bd c506 28be 5f97 c13e 8d3a 1ebe
00000250: 38b8 d6bd 4c28 cdbe 9aae a5be 7380 b43e
00000260: d825 063e 18f1 b6bd fc53 9bbe 2c7a b5be
00000270: 308f b9be b195 a5be 0c30 1b3e 2087 503e
00000280: 2c17 efbc 20cf 81be 7850 903e d4b2 a03d
00000290: 3455 9b3d d029 97be 74fc 98be 4f70 ac3b
000002a0: 06ba af3e f0d7 953e 0c2f ce3c 649e a0be
000002b0: f1a1 993e 5fbb 5bbe 8482 8fbe 923a 1cbe
000002c0: e8cf 303e b019 b8be ec00 75be 598a 9d3d
000002d0: a66e c23d cc49 a83e 20d7 963e e157 2d3e
000002e0: 9dfb 1dbe 80b2 da3d 20d4 e5bc b527 993c
000002f0: 1774 e03d d919 c4be 6f72 ad3e 003c c03e
00000300: 315e a93c 55aa 02be e83a 9b3d 8187 a93d
00000310: f242 c6be c39c 023e a755 873d 40c2 b5be
00000320: 0945 a73d 9b31 3bbe 6bdc 9e3e 006c 313d
00000330: a5a9 9dbe e88d 00bb e75c 8ebe 45c1 003e
00000340: 0777 553e 7ed4 4f3e 69a5 e5bd bf18 c53e
00000350: f87e edbc 9acc 463e c608 72be 9817 23be
00000360: e47d 2cbe 787e 4dbe cca2 45be 6dea 283e
00000370: dbae 6bbe e3de eb3d 4c28 103e 7015 35be
00000380: 1908 cb3e 01f2 c1be 44f8 6dbe 22d3 8e3d
00000390: c932 fb3d f875 91be 5007 b63c 9baa 883c
000003a0: c9ed 03be eae5 5d3d 112b 61be 6c95 b9bd
000003b0: 2189 c33e c981 e6bd 783e fc3d 43ec 763e
000003c0: 1929 bebe ba89 983e d192 28bd 53ff 4abe
000003d0: c323 20be 6d3a 48be 6a97 a43d 1410 babe
000003e0: 90cb 333d cc25 a83e 76a6 233e 0a0c 743e
000003f0: b16f 2c3e dd72 a4be 0cc1 33be b2de 76be

layer1.bias f4 [128]
0.18864922 -0.14340386 -0.005997351 -0.31667718 0.4521205 -0.08906001 -0.33981293 -0.111168995
0.076840505 0.607178 -0.1659958 -0.21923386 0.08699193 0.77347857 -0.20949952 0.30898634
-0.046946667 0.5929337 0.103872485 0.5387054 0.41440958 -0.085745275 -0.22877476 0.55586636
0.627103 0.58205366 -0.13291149 -0.22738536 -0.37367985 -0.17940146 -0.18215445 0.62385756
-0.33829176 -0.35839772 -0.3269039 -0.030246673 -0.29330045 0.85659146 0.78415954 0.78620183
-0.32324362 -0.07132287 0.60154873 0.66642964 -0.19348228 -0.27948913 0.00014766263 0.35167187
-0.2366324 0.68738925 0.7462338 0.5797896 0.5093734 0.55910486 -0.403046 0.043137163
-0.28414053 0.11925644 -0.37800944 0.22119007 -0.3132256 0.5173286 -0.32458836 -0.0011780903
-0.36503208 -0.17176755 -0.37131485 -0.3386845 0.5307526 -0.13479383 -0.016970925 0.64733756
0.6024725 0.9325607 0.46756965 -0.16427784 0.27051342 -0.16198094 -0.37031794 -0.35667443
-0.059683144 0.31518 0.9623918 -0.002638033 0.17010805 -0.16921806 -0.18023068 0.8012643
0.2804734 -0.062441804 0.04817784 -0.16007018 0.7044362 0.6887189 -0.0015934475 -0.37899965
0.4969507 0.14982842 0.122026816 0.6977337 -0.13311131 -0.19861132 -0.3191756 -0.15700266
-0.25338215 0.48469916 0.6375187 0.6899456 -0.02672106 0.97511965 0.87992543 0.6394361
0.32314688 0.8055782 0.8462953 -0.0017674663 -0.13433072 -0.3834724 0.29513466 0.8010966
0.7908477 0.8919085 0.7147193 0.14235966 -0.0018180785 -7.224655e-05 0.34681982 -0.028673084
00000000: 432d 413e 76d8 12be 6d85 c4bb 8323 a2be
00000010: 577c e73e 1865 b6bd f6fb adbe 92ac e3bd
00000020: 8e5e 9d3d 0470 1b3f cefa 29be d77e 60be
00000030: d328 b23d b102 463f 0b87 56be 7533 9e3e
00000040: 264b 40bd 81ca 173f 19bb d43d 99e8 093f
00000050: 7e2d d43e 389b afbd ee43 6abe 424d 0e3f
00000060: d289 203f 7801 153f f319 08be b5d7 68be
00000070: f752 bfbe 04b5 37be b286 3abe 21b5 1f3f
00000080: 9434 adbe e87f b7be f35f a7be dfc7 f7bc
00000090: 7a2b 96be 9449 5b3f aebe 483f 8644 493f
000000a0: 3080 a5be ba11 92bd 19ff 193f 229b 2a3f
000000b0: 3820 46be 3319 8fbe e3d5 1a39 560e b43e
000000c0: c44f 72be bef8 2f3f 2e09 3f3f 176d 143f
000000d0: 4c66 023f 7f21 0f3f 0c5c cebe 98b0 303d
000000e0: de7a 91be b83c f43d 748a c1be a67f 623e
000000f0: 1b5f a0be a66f 043f 7230 a6be 276a 9aba
00000100: 7ce5 babe d5e3 2fbe fb1c bebe 0e68 adbe
00000110: 67df 073f 6507 0abe 9c06 8bbc eab7 253f
00000120: a33b 1a3f 4cbc 6e3f 4a65 ef3e 7338 28be
00000130: bc80 8a3e 55de 25be 509a bdbe 089e b6be
00000140: 5076 74bd 465f a13e 4f5f 763f d9e2 2cbb
00000150: ce30 2e3e 8047 2dbe 648e 38be a81f 4d3f
00000160: 369a 8f3e fac2 7fbd 2056 453d 70e9 23be
00000170: ee55 343f e24f 303f 3adb d0ba 3e0c c2be
00000180: 5270 fe3e 9f6c 193e 32e9 f93d ad9e 323f
00000190: 554e 08be c460 4bbe fc6a a3be 4ec5 20be
000001a0: 4ebb 81be 7d2a f83e 6d34 233f 46a0 303f
000001b0: 20e6 dabc 71a1 793f cb42 613f 16b2 233f
000001c0: 8273 a53e 5f3a 4e3f cfa6 583f 54aa e7ba
000001d0: fe8d 09be 7f56 c4be e41b 973e ab14 4d3f
000001e0: ff74 4a3f 1e54 643f d8f7 363f bbc6 113e
000001f0: 974c eeba 1283 97b8 5e92 b13e d1e3 eabc

layer2.weight f4 [128, 128]
-0.023942653 0.03790129 0.04698262 -0.07988421 -0.10032755 -0.07450355 -0.021709774 0.035998635
0.049600683 -0.03794179 -0.06898441 0.066641286 0.06514553 -0.039122175 -0.07181796 0.01563902
-0.018582512 -0.005860862 0.021480974 -0.019272493 0.06768338 0.015474687 -0.04039537 0.056936644
-0.053164862 -0.06873841 0.057377886 -0.063901156 0.005934617 -0.022246905 0.059089396 -0.01456895
-0.03911283 0.049158875 -0.07352791 0.07624894 0.008906899 0.022548882 -0.09859334 -0.05651599
0.05195477 -0.037938274 -0.0051008435 0.004281551 0.036640245 -0.049383745 -0.0071053915 0.03127657
-0.07618831 0.059825603 -0.038725015 0.05749512 0.022838563 -0.02367041 0.02005116 -0.029493846
0.009842637 0.04118393 0.061642747 0.033284627 -0.046364557 0.06252323 0.085029334 0.021886239
0.028589137 -0.058613803 -0.056211606 -0.0802322 0.06762318 0.048366014 0.064292714 -0.064608455
-0.044814378 -0.026350759 0.08021958 0.07344842 0.051102165 -0.016392117 0.06846492 0.01867159
0.03062556 -0.07558314 -0.0563607 0.07618791 0.026302801 0.021160636 0.005596198 -0.047804207
0.009934808 -0.08550674 0.031921018 -0.043199893 -0.050439693 0.0043619354 0.0048406897 -0.08261187
0.074609526 0.00974198 -0.032180395 -0.05040405 0.079177245 -0.030113526 -0.07903906 0.056177028
0.047235716 0.02676666 -0.020992016 -0.07376589 0.074156344 0.010793069 -0.0878008 -0.029425211
-0.04725862 -0.043831058 -0.018982198 0.055255696 -0.07172836 0.01646839 0.05311526 -0.031211633
0.021277595 -0.0298425 0.07601559 -0.0059948373 0.017462708 0.052915238 -0.06504501 0.00953561
-0.07765176 -0.026433915 0.0009524917 0.021135114 0.06595652 -0.071416415 0.06310772 0.02622103
-0.011346582 0.051860522 -0.06812232 -0.02358128 0.05444653 0.14139043 0.051166732 -0.044130713
0.08143524 0.0991464 -0.077051476 -0.020435207 0.10058664 -0.0829956 -0.049486898 0.26836038
0.14135252 0.1764938 -0.03706798 -0.020686122 -0.051697265 0.016058756 -0.012577267 -0.00047676064
-0.046194345 -0.023725642 0.04560521 -0.03345573 -0.026328348 0.12936631 0.19163857 0.2035957
0.04242016 0.053322624 0.16373757 0.27043492 -0.0011388818 0.00513444 -0.039802928 -0.038876284
0.07042023 -0.04388668 0.15991814 1.9338058e-05 0.05774959 -0.009405175 -0.017848358 0.08926135
0.06169582 0.07493737 0.012387748 0.11441274 -0.0052376017 0.08534146 0.02875144 -0.009549415
-0.02277236 0.0012086118 0.026516236 -0.035634637 0.10843087 -0.093609475 -0.0012584659 0.05739072
0.21122032 0.21932481 0.012372327 0.07997279 -0.044252392 0.020834314 0.05610056 0.076411664
-0.036657065 -0.038690068 0.15598108 -0.04723943 0.051141784 -0.056897353 -0.023329446 0.16517724
-0.019382313 0.06809671 -0.061092656 -0.05757365 0.050544407 0.25251412 -0.017754186 0.05391286
0.2458996 0.06424235 -0.031567395 0.17422996 -0.083490215 0.08485737 -0.021116078 0.031700116
0.06978481 0.14399482 0.005732287 0.24953721 0.026890796 0.21545976 0.18038316 0.27861097
-0.05153173 0.19693717 0.25712323 -0.07273327 0.017604617 0.019571776 0.06090528 0.28727975
0.17431526 0.2530331 0.25321233 0.046252795 -0.08810758 0.012033664 -0.07436357 0.012512836
00000000: 6223 c4bc 623e 1b3d d970 403d 559a a3bd
00000010: 8878 cdbd 5195 98bd b2d8 b1bc 4e73 133d
00000020: 162a 4b3d da68 1bbd b347 8dbd 3a7b 883d
00000030: 056b 853d 933e 20bd 4b15 93bd 671d 803c
00000040: 5a3a 98bc 790c c0bb def8 af3c 59e1 9dbc
00000050: 959d 8a3d 8b89 7d3c 9e75 25bd 6636 693d
00000060: 66c3 59bd b9c6 8cbd 1305 6b3d 9cde 82bd
00000070: 2d77 c23b 243f b6bc b907 723d 9bb2 6ebc
00000080: c634 20bd d15a 493d cd95 96bd 6728 9c3d
00000090: 3eee 113c 6fb8 b83c 4eeb c9bd 507d 67bd
000000a0: 86ce 543d 2a65 1bbd fa24 a7bb 414c 8c3b
000000b0: 1514 163d 9c46 4abd 58d4 e8bb dc1b 003d
000000c0: 9e08 9cbd b10b 753d 1f9e 1ebd 0180 6b3d
000000d0: f017 bb3c 73e8 c1bc 5542 a43c 149d f1bc
000000e0: 0343 213c 7bb0 283d 1b7d 7c3d 7655 083d
000000f0: c3e8 3dbd 2e0c 803d dc23 ae3d c54a b33c
00000100: c433 ea3c 0715 70bd 243e 66bd c850 a4bd
00000110: 067e 8a3d 711b 463d e6ab 833d 7051 84bd
00000120: 488f 37bd 8cdd d7bc 2a4a a43d 206c 963d
00000130: 8150 513d c348 86bc 5637 8c3d 2af5 983c
00000140: 74e2 fa3c 55cb 9abd 7ada 66bd 6808 9c3d
00000150: f978 d73c 1259 ad3c 5060 b73b 58ce 43bd
00000160: 9bc5 223c 281e afbd 9dbf 023d 5ff2 30bd
00000170: da99 4ebd 91ee 8e3b a69e 9e3b 6930 a9bd
00000180: e1cc 983d d39c 1f3c 97cf 03bd 7a74 4ebd
00000190: ae27 a23d a4b0 f6bc 3bdf a1bd e219 663d
000001a0: 3d7a 413d c145 db3c 73f7 abbc 9212 97bd
000001b0: 48df 973d 6ad5 303c e8d0 b3bd 240d f1bc
000001c0: 4192 41bd 3288 33bd 8e80 9bbc cc53 623d
000001d0: 52e6 92bd b8e8 863c 638f 593d 8aaf ffbc
000001e0: 5a4e ae3c 4278 f4bc 10ae 9b3d 5770 c4bb
000001f0: f40d 8f3c a6bd 583d 5136 85bd 3f3b 1c3c
00000200: e307 9fbd f08b d8bc a3b0 793a 8c23 ad3c
00000210: 3614 873d c542 92bd 9f3e 813d 7ccd d63c
00000220: 04e7 39bc b36b 543d b783 8bbd 872d c1bc
00000230: 5303 5f3d a7c8 103e 3594 513d 68c2 34bd
00000240: 85c7 a63d 450d cb3d 2acd 9dbd bc67 a7bc
00000250: 5e00 ce3d 99f9 a9bd c6b2 4abd 8866 893e
00000260: b7be 103e caba 343e 98d4 17bd f175 a9bc
00000270: 83c0 53bd a78d 833c e210 4ebc bbf5 f9b9
00000280: 4836 3dbd 475c c2bc 87cc 3a3d e008 09bd
00000290: 8cae d7bc 9a78 043e e73c 443e 647b 503e
000002a0: c3c0 2d3d d368 5a3d d2aa 273e 7276 8a3e
000002b0: 8846 95ba ce3e a83b 6508 23bd bd3c 1fbd
000002c0: 7b38 903d 85c2 33bd 95c1 233e 2a38 a237
000002d0: d68a 6c3d 2a18 1abc b836 92bc a8ce b63d
000002e0: c2b4 7c3d c478 993d fbf5 4a3c 3a51 ea3d
000002f0: 30a0 abbb 81c7 ae3d 2488 eb3c 2675 1cbc
00000300: 1a8d babc 486a 9e3a 9438 d93c a0f5 11bd
00000310: 0111 de3d 53b6 bfbd 1cf3 a4ba 8812 6b3d
00000320: 244a 583e af96 603e 4db5 4a3c c6c8 a33d
00000330: ff41 35bd b9ac aa3c b3c9 653d b87d 9c3d
00000340: b825 16bd 7a79 1ebd 81b9 1f3e 227e 41bd
00000350: 0c7a 513d 330d 69bd 651d bfbc 3924 293e
00000360: a8c7 9ebc 4a76 8b3d 4b3c 7abd 59d2 6bbd
00000370: a707 4f3d 8849 813e 3a71 91bc bbd3 5c3d
00000380: 1bcd 7b3e 7e91 833d d04c 01bd 5769 323e
00000390: ebfc aabd b3c9 ad3d a0fb acbc fbd7 013d
000003a0: 57eb 8e3d 6173 133e e9d5 bb3b af86 7f3e
000003b0: 164a dc3c 7ca1 5c3e 5db6 383e 19a6 8e3e
000003c0: ef12 53bd e6a9 493e a8a5 833e 2ef5 94bd
000003d0: 8f37 903c fd54 a03c d177 793d 5516 933e
000003e0: b37f 323e 8e8d 813e 0ca5 813e 9273 3d3d
000003f0: bf71 b4bd d828 453c ed4b 98bd a302 4d3c

layer2.bias f4 [128]
0.07369607 0.21335168 0.05189671 -0.05256049 -0.042038184 0.49655607 -0.053336933 0.5563467
-0.035087835 -0.0762403 0.05782909 -0.08510519 0.2263152 -0.019885732 0.025765771 0.107751526
0.037914395 0.04224177 0.0013561756 -0.028183782 -0.08334833 0.04338281 -0.08770746 0.029992854
-0.012667648 0.0034028497 0.44893104 -0.0656023 0.19117692 0.04314914 -0.051266372 0.068615764
0.027861964 -0.014848773 0.28347042 0.057404466 0.000116385505 0.55636996 -0.07446281 0.5670181
-0.042222828 -0.036375143 0.053172074 0.15098456 -0.016412256 0.071416885 -0.030204242 0.04962461
-0.009240523 -0.021131467 -0.054597184 0.03953771 0.5049791 -0.08407279 0.042726044 0.018256122
0.0062432103 0.0062562786 -0.084669836 0.02394607 0.07672024 -0.02120068 0.088222146 0.006531859
-0.075105354 -0.06969961 0.53550154 0.07390588 -0.03839079 -0.061508317 -0.015948033 -0.035718005
0.13538098 0.1520648 0.09925038 0.027422491 0.042494576 -0.08637601 0.16427438 -0.028176278
0.03935084 -0.022843972 0.019301932 0.0021283966 -0.08547303 0.010397129 0.07413505 -0.06720562
-0.015916323 0.1542056 -0.026792534 -0.081879646 0.013070072 -0.08756155 0.1660756 0.0922004
-0.07833991 0.04992322 0.04091708 -0.022982603 0.05628559 -0.0024244634 0.059657604 -0.058835045
-0.04179454 -0.0691382 -0.008727943 0.04892691 0.54813987 0.07882916 -0.008925302 0.00985244
0.013325265 0.010989585 -0.050635993 0.34717405 0.050484646 0.580343 -0.04950378 0.24887201
-0.035260193 0.045774814 0.0047334097 0.060739055 -0.024087688 0.11313344 -0.011954126 -0.054917727
00000000: f7ed 963d dd78 5a3e a591 543d ab49 57bd
00000010: 3b30 2cbd 993c fe3e d477 5abd bd6c 0e3f
00000020: 43b8 0fbd e023 9cbd 32de 6c3d a14b aebd
00000030: 2cbf 673e 67e7 a2bc bd12 d33c d5ac dc3d
00000040: 204c 1b3d b505 2d3d b4c1 b13a ade1 e6bc
00000050: 87b2 aabd 2cb2 313d f89f b3bd 93b3 f53c
00000060: f78b 4fbc 5802 5f3b 4ada e53e 805a 86bd
00000070: e2c3 433e 27bd 303d b0fc 51bd 6c86 8c3d
00000080: c63e e43c 4548 73bc 0923 913e f220 6b3d
00000090: fe13 f438 436e 0e3f f57f 98bd 1928 113f
000000a0: d8f1 2cbd 1afe 14bd f6ca 593d b29b 1a3e
000000b0: ff72 86bc 0443 923d e36e f7bc 2d43 4b3d
000000c0: 9065 17bc e61b adbc 4ca1 5fbd 4bf2 213d
000000d0: 4f46 013f 5b2e acbd 8101 2f3d dd8d 953c
000000e0: d893 cc3b 7801 cd3b 6167 adbd 8c2a c43c
000000f0: 801f 9d3d 0cad adbc d0ad b43d 3409 d63b
00000100: d6d0 99bd abbe 8ebd a116 093f f75b 973d
00000110: a93f 1dbd 25f0 7bbd 73a5 82bc 0b4d 12bd
00000120: 50a1 0a3e e0b6 1b3e c943 cb3d 22a5 e03c
00000130: cb0e 2e3d e8e5 b0bd 8b37 283e f0d1 e6bc
00000140: 592e 213d 4823 bbbc 161f 9e3c 927c 0b3b
00000150: 7c0c afbd b858 2a3c 1ed4 973d 1aa3 89bd
00000160: f362 82bc 13e8 1d3e 047c dbbc 84b0 a7bd
00000170: db23 563c 7853 b3bd b90f 2a3e 90d3 bc3d
00000180: ad70 a0bd 4a7c 4c3d ab98 273d 0346 bcbc
00000190: b88b 663d bfe3 1ebb 885b 743d 04fd 70bd
000001a0: c030 2bbd 5498 8dbd a5ff 0ebc 9567 483d
000001b0: e552 0c3f 2f71 a13d 6e3b 12bc 216c 213c
000001c0: 3652 5a3c a90d 343c b067 4fbd ccc0 b13e
000001d0: fdc8 4e3d 5c91 143f 7ac4 4abd 4ed8 7e3e
000001e0: fe6c 10bd 5f7e 3b3d b81a 9b3b 84c9 783d
000001f0: 8b53 c5bc 81b2 e73d 3ddb 43bc 69f1 60bd

layer3.weight f4 [3, 128]
0.006755608 0.019587545 -0.08176169 0.023206929 0.02937106 0.09915162 -0.06793571 0.23887752
-0.022328958 -0.07306889 -0.02467476 0.020132875 -0.07409612 0.040712792 0.053788293 0.0040087625
0.091479935 -0.04573565 -0.043601207 -0.02911586 -0.04779856 0.0031831656 -0.05024168 -0.07675565
0.03528957 -0.06480459 0.060021345 -0.051516123 0.13951361 0.033137154 -0.003399635 0.013964521
-0.020469716 0.039242446 0.22052252 -0.018930925 -0.024643125 0.18887179 0.07976916 0.22030763
-0.01768818 0.034304302 -0.017954232 -0.030686393 -0.069494486 0.010363615 -0.015299107 0.079130255
0.050826285 -0.02096028 -0.08170871 0.013352445 0.061862182 -0.011225574 -0.056638002 0.058484524
0.004163248 -0.045140192 0.036152992 0.06605397 0.03682735 -0.015120189 -0.0137832295 -0.040565595
0.07547192 0.080604136 0.21510714 0.04153552 -0.029451601 -0.032608654 0.063198745 0.016334461
0.06734489 0.11362742 0.018493908 0.027655363 0.04964158 -0.012697071 0.12714027 -0.03049746
-0.078765295 -0.051217332 -0.07645056 0.08110931 -0.03390666 -0.07743298 0.057013277 -0.039415527
0.0009308864 0.13688906 0.017690185 -0.04047332 -0.05087595 0.05353981 0.005478777 0.035040032
0.011186752 -0.08617996 0.053607278 0.032274608 -0.04642074 -0.040072724 -0.000665719 -0.074204355
0.049237955 -0.08041281 -0.05534472 0.085216336 0.28563747 -0.05879365 -0.062976345 -0.067269415
-0.039373547 -0.046461623 -0.059963956 0.18974972 -0.07261984 0.2419598 -0.05739049 -0.03737284
-0.01684192 0.020431917 -0.042722 0.03589347 -0.041163843 0.023728678 0.053432528 -0.053322945
-0.038624603 0.29570463 -0.010722745 0.0067556705 0.02172836 0.41961208 -0.027075287 0.5421471
-0.0010193948 -0.042832255 0.08363632 -0.092862286 0.098580904 0.07169531 0.044686068 0.048720308
0.064263225 0.00014595386 -0.03760829 0.0116130365 -0.055406913 -0.06162151 -0.071012154 0.02690518
0.08878345 -0.08063936 0.5094384 -0.023614284 0.12864496 -0.07408529 -0.00392474 0.023088666
-0.06822916 0.01637644 0.1723657 0.09053278 -0.012931819 0.46491876 -0.05940839 0.5050475
-0.004838722 -0.072312035 0.05624253 0.08156586 -0.031126602 -0.0350997 -0.04063357 -0.014755572
-0.006495998 0.008859374 0.08340764 -0.07125571 0.3657224 0.060368724 0.05558101 0.058093503
-0.027110705 0.07744962 0.082843035 0.11010904 -0.015177099 -0.06812502 0.0547826 0.04838813
0.048183102 0.0705497 0.57906127 0.08978874 -0.036823787 -0.080552295 -0.017003251 -0.07886089
0.037239514 0.08234325 0.057676587 0.01132167 0.06441046 -0.03622148 0.13674173 -0.06851741
-0.021972118 0.010225948 -0.043102622 0.008150674 0.03411096 0.0059669856 -0.05767012 0.0063808556
-0.00240692 0.06242577 -0.039710548 0.07956816 0.017066123 0.082210764 0.08141217 -0.009340966
0.05202554 -0.004713252 0.07723838 -0.054949407 -0.0964494 -0.07067852 0.06375672 -0.053576704
-0.06985769 0.029986251 -0.04170622 -0.06295289 0.53501093 -0.0035713078 0.090928614 -0.030722734
0.007533931 -0.041844156 0.031982046 0.19359073 0.065599315 0.54111445 -0.06643058 0.15519811
-0.02716861 -0.04120266 -0.0032082442 -0.046497803 0.018200744 0.038177717 0.08343887 -0.041771084
00000000: 265e dd3b 0f76 a03c ac72 a7bd 751c be3c
00000010: 949b f03c 0110 cb3d e121 8bbd 4f9c 743e
00000020: 38eb b6bc 24a5 95bd b922 cabc b3ed a43c
00000030: b5bf 97bd 75c2 263d 1d51 5c3d f05b 833b
00000040: d559 bb3d 4e55 3bbd 2e97 32bd 6284 eebc
00000050: 6cc8 43bd a89c 503b 38ca 4dbd 1132 9dbd
00000060: cc8b 103d 45b8 84bd f1d8 753d 9202 53bd
00000070: a8dc 0e3e d3ba 073d 69cc 5ebb 72cb 643c
00000080: 1bb0 a7bc b0bc 203d a8d0 613e 0715 9bbc
00000090: 61e0 c9bc 9b67 413e 035e a33d 5398 613e
000000a0: cde6 90bc ab82 0c3d c114 93bc 0862 fbbc
000000b0: 2053 8ebd 27cc 293c 1ba9 7abc 0b0f a23d
000000c0: 392f 503d e5b4 abbc e556 a7bd 37c4 5a3c
000000d0: 3363 7d3d 78eb 37bc 40fd 67bd 788d 6f3d
000000e0: db6b 883b ece4 38bd 2915 143d 4e47 873d
000000f0: 46d8 163d abba 77bc 0ed3 61bc 1c28 26bd
00000100: 0691 9a3d c813 a53d 0c45 5c3e 2621 2a3d
00000110: 7c44 f1bc a790 05bd 586e 813d d9cf 853c
00000120: 1eec 893d 7eb5 e83d 8980 973c 808d e23c
00000130: f854 4b3d 6007 50bc 0f31 023e cfd5 f9bc
00000140: b34f a1bd 44c9 51bd 1c92 9cbd a31c a63d
00000150: b6e1 0abd 2f95 9ebd c186 693d 2d72 21bd
00000160: bb06 743a a52c 0c3e 02eb 903c 5ac7 25bd
00000170: 4d63 50bd 8f4c 5b3d 5087 b33b 2386 0f3d
00000180: a348 373c 1e7f b0bd 4e93 5b3d 6132 043d
00000190: ad23 3ebd 4c23 24bd a583 2eba 74f8 97bd
000001a0: bdad 493d 79af a4bd 25b1 62bd e785 ae3d
000001b0: 133f 923e 9cd1 70bd bef9 80bd 8cc4 89bd
000001c0: 2846 21bd 8b4e 3ebd c49c 75bd c04d 423e
000001d0: b6b9 94bd 4fc4 773e 4a12 6bbd 4314 19bd
000001e0: 11f8 89bc d660 a73c 44fd 2ebd 0805 133d
000001f0: 6b9b 28bd a562 c23c 11dc 5a3d 2969 5abd
00000200: d534 1ebd 9966 973e 74ae 2fbc ac5e dd3b
00000210: acff b13c 65d7 d63e fecc ddbc 27ca 0a3f
00000220: 379d 85ba e070 2fbd 8549 ab3d 952e bebd
00000230: c9e4 c93d fed4 923d bd08 373d f28e 473d
00000240: 709c 833d 310b 1939 260b 1abd 9b44 3e3c
00000250: 5cf2 62bd d666 7cbd d26e 91bd 4168 dc3c
00000260: 19d4 b53d 4026 a5bd 8e6a 023f be72 c1bc
00000270: 81bb 033e 07ba 97bd 1b9b 80bb 7124 bd3c
00000280: bbbb 8bbd e227 863c a280 303e 4069 b93d
00000290: fbdf 53bc d509 ee3e 3656 73bd cb4a 013f
000002a0: 248e 9ebb 5518 94bd 915e 663d 000c a73d
000002b0: 37fd febc b4c4 0fbd 636f 26bd 5bc1 71bc
000002c0: 61dc d4bb e826 113c a0d1 aa3d 84ee 91bd
000002d0: f73f bb3e 3245 773d eaa8 633d 74f3 6d3d
000002e0: 4517 debc e89d 9e3d 9ca9 a93d d980 e13d
000002f0: 5ea9 78bc 2185 8bbd b863 603d a232 463d
00000300: a55b 453d 5c7c 903d 5c3d 143f 29e3 b73d
00000310: 8ad4 16bd 9af8 a4bd 674a 8bbc d181 a1bd
00000320: 7688 183d 94a3 a83d 493e 6c3d 877e 393c
00000330: a2e9 833d fa5c 14bd 0606 0c3e db52 8cbd
00000340: dffe b3bc bc8a 273c 608c 30bd 688a 053c
00000350: efb7 0b3d b486 c33b 8137 6cbd 7f16 d13b
00000360: 6bbd 1dbb 2ab2 7f3d 87a7 22bd a2f4 a23d
00000370: 41ce 8b3c 1e5e a83d 6cbb a63d da0a 19bc
00000380: bc18 553d a071 9abb 282f 9e3d a112 61bd
00000390: 4387 c5bd e6bf 90bd e292 823d 3f73 5bbd
000003a0: 8c11 8fbd baa5 f53c 24d4 2abd 72ed 80bd
000003b0: 7af6 083f 9a0c 6abb c838 ba3d 3eae fbbc
000003c0: 32df f63b c764 2bbd 9bff 023d a63c 463e
000003d0: ef58 863d 7a86 0a3f c20c 88bd 41ec 1e3e
000003e0: b490 debc 1fc4 28bd 6841 52bb 7b74 3ebd
000003f0: ba19 953c 3d60 1c3d 00e2 aa3d 2818 2bbd

layer3.bias f4 [3]
0.07781212 0.051021405 0.0972098
00000000: f65b 9f3d d2fb 503d ee15 c73d
