models/rl_models/06.03.24_with_rewards_for_each_3_seconds/best_target_dqn_model_epoch_36.pt (torch, 74158 bytes, 6 tensors)

layer1.weight f4 [128, 6]
0.34913206 0.053212035 0.39397562 0.28737763 -0.15825799 0.1434091 0.063410744 -0.2840459
-0.10036978 -0.33649328 0.28622207 -0.12220097 -0.12132506 -0.047405466 0.24439996 0.08815695
0.11807071 0.2580412 0.14486933 -0.038479783 0.043820016 -0.20826066 -0.25104892 -0.021587184
0.20872281 0.07014516 -0.18965472 0.12549372 -0.31502837 0.37208992 0.17848173 -0.08970895
-0.19071083 -0.13162374 -0.18787849 0.013372584 0.29651412 -0.10614126 0.18902557 -0.20973065
-0.12708402 -0.22970775 0.0046257763 -0.30603823 -0.24439923 0.12421168 0.087404415 -0.33008662
0.08803802 0.16638194 -0.18470053 0.09814153 -0.15583444 0.11007797 0.33963305 0.04746414
-0.15860544 0.24004218 0.10591176 0.25413772 0.18114616 0.22654364 -0.27999857 0.31602332
0.05112082 0.31549293 -0.091723345 0.04964657 0.29953477 -0.13021752 -0.29274043 -0.1818146
0.31806225 0.39099273 0.09267254 -0.2046105 0.2378828 -0.07383742 0.11663022 -0.081641726
-0.27251536 0.36583993 -0.27848005 -0.26928452 -0.29720604 0.25639364 -0.2050945 0.15506735
-0.022208473 0.18134539 0.14431903 0.23455179 0.2974 0.14519072 0.2739023 0.045668293
0.08230525 0.037507314 -0.3056213 0.04293757 -0.36091277 0.19978091 -0.34313142 0.2038562
-0.13280497 -0.24117927 0.3099853 0.12800193 0.13490683 0.035954937 0.04351411 0.3028101
0.31949323 -0.11136395 -0.26272768 0.19584863 -0.2937372 -0.3023323 0.30262318 0.31194222
0.20249161 -0.3190311 0.18933308 0.2262025 0.02931809 0.32504734 -0.011047376 0.31023693
-0.28218818 0.25060236 0.047970116 -0.14933214 -0.12538089 0.23314369 0.2599588 -0.11897018
-0.018039396 -0.1431555 0.055407114 0.021080995 0.14875814 -0.2122558 -0.097314835 -0.23621349
-0.055213604 -0.15073983 0.3473781 -0.14204158 -0.09634033 -0.36801913 -0.28614447 0.33302805
0.12956467 -0.08207185 -0.27853504 -0.32566527 -0.33297372 -0.29714432 0.13914412 0.18706588
-0.026804624 -0.23275807 0.30854946 0.119082965 0.11663519 -0.2712141 -0.27441826 0.004833794
0.32179463 0.29255038 0.05980503 -0.28563756 0.29599947 -0.16387187 -0.25776073 -0.14009833
0.15865655 -0.33036163 -0.21985067 0.07068961 0.0986785 0.3297234 0.3109113 0.1628504
-0.118686765 0.1349169 -0.03100153 0.02072143 0.09510184 -0.3571951 0.31479627 0.33928984
0.018991342 -0.11712237 0.06959068 0.07603704 -0.35579798 0.11707635 0.060587745 -0.32616937
0.07503397 -0.16794994 0.2852058 0.039800595 -0.3104373 0.0029104531 -0.26379222 0.08775909
0.19630863 0.17886831 -0.098065935 0.3768597 0.0032812972 0.17945172 -0.19731987 -0.11991266
-0.15473323 -0.1843148 -0.17733507 0.1515293 -0.21144521 0.105802774 0.1294495 -0.16248038
0.36439797 -0.34801635 -0.21341103 0.06412766 0.1126876 -0.26119035 0.020415775 0.015299324
-0.11821915 0.04975255 -0.20199081 -0.08325434 0.35088357 -0.10342842 0.1131381 0.22160774
-0.3411929 0.2736305 -0.037806366 -0.1821681 -0.14373808 -0.17967187 0.072942 -0.3599727
0.005136103 0.30102822 0.12105466 0.18374349 0.15467906 -0.295127 -0.16129011 -0.22155917
00000000: 70c1 b23e ddf4 593d 2cb7 c93e 2923 933e
00000010: 620e 22be d6d9 123e 7edd 813d 776e 91be
00000020: ac8e cdbd d948 acbe b38b 923e 8144 fabd
00000030: 4679 f8bd 3c2c 42bd fc43 7a3e a28b b43d
00000040: 0ecf f13d fa1d 843e a058 143e fa9c 1dbd
00000050: 9e7c 333d 4842 55be 7c89 80be 9bd7 b0bc
00000060: 6fbb 553e 44a8 8f3d d934 42be 6d81 003e
00000070: 664b a1be 9282 be3e eac3 363e 53b9 b7bd
00000080: b349 43be 60c8 06be 3863 40be af18 5b3c
00000090: b3d0 973e 9760 d9bd eb8f 413e a2c3 56be
000000a0: 5022 02be 8238 6bbe d393 973b 0bb1 9cbe
000000b0: cb43 7abe b162 fe3d 1601 b33d 1d01 a9be
000000c0: 474d b43d 0760 2a3e 2322 3dbe 6dfe c83d
000000d0: 1093 1fbe 8f70 e13d 62e4 ad3e c269 423d
000000e0: 7769 22be 9ecd 753e 44e8 d83d 571e 823e
000000f0: 617e 393e 0efb 673e f95b 8fbe cfcd a13e
00000100: 1164 513d 4a88 a13e 73d9 bbbd 345a 4b3d
00000110: 9f5c 993e be57 05be 13e2 95be 9b2d 3abe
00000120: 0ed9 a23e 3330 c83e 1acb bd3d 6a85 51be
00000130: 8c97 733e 1338 97bd d3db ee3d c733 a7bd
00000140: 2287 8bbe 5f4f bb3e f094 8ebe a9df 89be
00000150: 642b 98be 0746 833e 4b04 52be fac9 1e3e
00000160: 8bee b5bc 9bb2 393e 5ec8 133e 582e 703e
00000170: d044 983e e0ac 143e ec3c 8c3e ad0e 3b3d
00000180: a88f a83d 45a1 193d 657a 9cbe 4edf 2f3d
00000190: 8fc9 b8be 5e93 4c3e ecae afbe aebf 503e
000001a0: 07fe 07be b3f7 76be 65b6 9e3e f012 033e
000001b0: 0425 0a3e 7c45 133d da3b 323d ed09 9b3e
000001c0: 9e94 a33e c812 e4bd 3e84 86be 8b8c 483e
000001d0: b964 96be 4dcb 9abe 6df1 9a3e e4b6 9f3e
000001e0: f659 4f3e 0b58 a3be 88e0 413e a1a1 673e
000001f0: 7e2c f03c 9b6c a63e 0e00 35bc 60d7 9e3e
00000200: f87a 90be f44e 803e 507c 443d 86ea 18be
00000210: d963 00be 38bd 6e3e 5219 853e a3a6 f3bd
00000220: 5bc7 93bc 5b97 12be 92f2 623d 0db2 ac3c
00000230: 0e54 183e 9659 59be 004d c7bd f3e1 71be
00000240: a927 62bd 8b5b 1abe 8bdb b13e 5973 11be
00000250: 144e c5bd 016d bcbe 8781 92be a782 aa3e
00000260: 9aac 043e 4915 a8bd 259c 8ebe 99bd a6be
00000270: 887b aabe 4d23 98be cc7b 0e3e 338e 3f3e
00000280: 5f95 dbbc 2258 6ebe 32fa 9d3e c5e1 f33d
00000290: 6ede ee3d 93dc 8abe 8d80 8cbe ce64 9e3b
000002a0: 44c2 a43e 2ac9 953e 1ef6 743d 163f 92be
000002b0: 3e8d 973e 07ce 27be 37f9 83be f075 0fbe
000002c0: dd76 223e 2925 a9be 8920 61be b7c5 903d
000002d0: f417 ca3d 81d1 a83e c42f 9f3e 41c2 263e
000002e0: 0c12 f3bd a827 0a3e ecf6 fdbc fdbf a93c
000002f0: c1c4 c23d 47e2 b6be fa2c a13e 66b7 ad3e
00000300: bb93 9b3c dadd efbd 8f85 8e3d 4fb9 9b3d
00000310: 272b b6be bac5 ef3d db2a 783d acff a6be
00000320: 69ab 993d 12fb 2bbe 7f06 923e f305 233d
00000330: a3f1 9ebe 4dbd 3e3b c60f 87be 0abb b33d
00000340: 2105 493e 4129 373e cbd6 c8bd c1f3 c03e
00000350: 080b 573b 31c2 373e 380e 4abe c594 f5bd
00000360: 6372 1ebe 05bd 3cbe 5397 35be 7f2a 1b3e
00000370: 1885 58be 20af d83d 698e 043e 4261 26be
00000380: 5f92 ba3e 332f b2be 6c88 5abe 5d55 833d
00000390: c2c8 e63d beba 85be fc3e a73c 04aa 7a3c
000003a0: e21c f2bd 54c9 4b3d aed6 4ebe 4081 aabd
000003b0: 03a7 b33e 48d2 d3bd f3b4 e73d 24ed 623e
000003c0: d6b0 aebe 4c19 8c3e d9da 1abd 468a 3abe
000003d0: 1330 13be e7fb 37be 9e62 953d 574e b8be
000003e0: c14c a83b 5f20 9a3e 81eb f73d 4127 3c3e
000003f0: 3064 1e3e e31a 97be 3c29 25be 68e0 62be

layer1.bias f4 [128]
0.10337427 -0.1318122 0.07810774 -0.26002914 0.56738454 -0.056973785 -0.2774478 -0.1021374
-0.00019720201 0.97330713 -0.120530374 -0.2013776 -0.00018743757 1.1214948 -0.22089906 0.69280946
-0.006932329 1.4676207 -0.0007597708 1.4606192 1.1911747 -0.046223205 -0.19518635 1.522295
1.55882 1.5289497 -0.12187343 -0.16203587 -0.30611426 -0.16482878 -0.12645365 1.5451428
-0.31085548 -0.32928616 -0.30726022 -0.0002689245 -0.26946777 1.77926 1.71077 1.7113006
-0.296995 -0.10181531 1.5414132 1.6074086 -0.14090908 -0.24412178 -0.00017136066 1.0269791
-0.23265928 1.2056767 1.6758192 1.026716 1.0161859 0.8880483 -0.39217734 0.1791793
-0.24882929 0.3244118 -0.3518504 0.3829218 -0.26605594 0.8619104 -0.25582907 -0.015122848
-0.29589683 -0.13155115 -0.3622291 -0.32124835 0.85290915 -0.09852829 -0.00026877387 1.6298481
1.5377891 1.8425583 0.7169003 -0.15091209 0.0126668895 -0.14882399 -0.32692748 -0.32862306
-0.029008366 0.43768796 1.8690388 -0.00031697156 0.3236192 -0.1250107 -0.16558887 1.7256644
0.5173493 -0.05734957 -0.0004341402 -0.113415435 1.7955817 1.6255137 -0.00041400318 -0.33326223
1.5056219 0.3402501 -0.00021744757 1.6232946 -0.12206215 -0.18250583 -0.2707368 -0.14432116
-0.23262373 1.2253325 1.5347629 1.6205975 -0.00031237802 1.8809097 1.7934517 1.5635082
0.23049119 1.7110074 1.7634991 -0.00019276438 -0.102460936 -0.3170872 0.3632907 1.7276726
1.7139423 1.7120014 1.7272503 0.71542925 -0.025710806 -0.00040508335 0.6648434 -0.00022561134
00000000: e4b5 d33d c7f9 06be f3f6 9f3d 8a22 85be
00000010: 1d40 113f 585d 69bd a30d 8ebe 6a2d d1bd
00000020: 03c8 4eb9 a82a 793f a1d8 f6bd ee35 4ebe
00000030: e48a 44b9 248d 8f3f 5d33 62be f65b 313f
00000040: 9728 e3bb ffda bb3f 5b2b 47ba 92f5 ba3f
00000050: 6a78 983f 8b54 3dbd eede 47be 90da c23f
00000060: 6a87 c73f a0b4 c33f c798 f9bd bbec 25be
00000070: 02bb 9cbe e0c8 28be 117d 01be 3dc7 c53f
00000080: 7328 9fbe 3298 a8be 3651 9dbe 6ffe 8cb9
00000090: aef7 89be cbbe e33f 83fa da3f e60b db3f
000000a0: bb0f 98be 8c84 d0bd 074d c53f 91bf cd3f
000000b0: 784a 10be 0ffb 79be 47af 33b9 0d74 833f
000000c0: 3c3e 6ebe 9d53 9a3f 3e81 d63f 6e6b 833f
000000d0: 6112 823f 2257 633f 78cb c8be c77a 373e
000000e0: 1bcd 7ebe 4e19 a63e bc25 b4be 530e c43e
000000f0: 7c38 88be 29a6 5c3f 07fc 82be d2c5 77bc
00000100: ca7f 97be 58b5 06be 1876 b9be aa7a a4be
00000110: 4158 5a3f 33c9 c9bd 38ea 8cb9 dd9e d03f
00000120: 46d6 c43f f3d8 eb3f c786 373f b388 1abe
00000130: c988 4f3c 5165 18be 0a63 a7be 4841 a8be
00000140: f4a2 edbc a318 e03e aa3c ef3f 342f a6b9
00000150: 6ab1 a53e ce02 00be 2190 29be 92e2 dc3f
00000160: 0171 043f 62e7 6abd 509d e3b9 5a46 e8bd
00000170: 9fd5 e53f d510 d03f 910e d9b9 59a1 aabe
00000180: 38b8 c03f 4335 ae3e a302 64b9 1ec8 cf3f
00000190: b8fb f9bd cfe2 3abe 049e 8abe edc8 13be
000001a0: ea34 6ebe b2d7 9c3f 1c73 c43f bd6f cf3f
000001b0: abc6 a3b9 a6c1 f03f d38f e53f 0921 c83f
000001c0: e205 6c3e 4a02 db3f 57ba e13f cb20 4ab9
000001d0: 0ad7 d1bd 4159 a2be 3d01 ba3e 6024 dd3f
000001e0: 7662 db3f dd22 db3f 8a16 dd3f 5f26 373f
000001f0: 789f d2bc 5e61 d4b9 2d33 2a3f 1592 6cb9

layer2.weight f4 [128, 128]
-0.027766215 0.034798324 0.026668742 -0.09597112 -0.065527126 -0.083943136 -0.04053662 0.033085946
0.036746364 -0.045968704 -0.07655239 0.061111946 0.040433638 0.0051181596 -0.093180984 -0.0021717723
-0.03219845 -0.0153105855 0.0061240494 -0.025210222 0.072898515 -0.002060011 -0.050106607 0.037280764
-0.048860162 -0.0730592 0.052719623 -0.077194706 -0.016259631 -0.020440178 0.039255157 -0.021439854
-0.03594927 0.04517184 0.042253733 0.05131253 0.008188005 0.02071698 -0.09059807 -0.0519381
0.04773651 -0.028081318 -0.0046861493 0.003930865 0.019564018 -0.060491167 -0.020950204 0.012690093
-0.0625963 0.04787354 -0.03559671 0.034228962 0.00997691 -0.036896665 0.0022135805 -0.05438195
-0.028321303 0.009811161 0.043042608 0.032955244 -0.058756214 0.06811674 0.06658954 0.032537665
0.012368962 -0.07271745 -0.03424462 -0.06934103 0.072661564 0.029282004 0.04494021 -0.09407357
-0.0411742 -0.02421496 0.068142116 0.06747792 0.030320989 -0.015032965 0.040847354 0.017269848
0.0073070484 -0.0747386 -0.051793158 0.04528545 0.03388618 -0.0098879 0.005141644 -0.043921378
0.012328507 -0.0785699 0.0318078 -0.037261847 -0.05709414 0.004011249 -0.009821976 -0.100816935
0.051561445 0.015896529 -0.048085712 -0.046296556 0.07276363 -0.027674323 -0.10013804 0.054887064
0.04339662 0.03315847 -0.03750253 -0.067763634 0.054599788 0.009917233 -0.08067278 -0.027029024
-0.060252376 -0.057975903 -0.017427566 0.025928665 -0.08549297 -0.0038601337 0.13230087 -0.028666068
0.019551637 -0.044863548 0.06978732 -0.018214008 0.03389349 0.02282229 -0.08282681 -0.010753319
-0.08431468 -0.024292177 0.0102346 0.0014513104 0.08390778 -0.082699284 0.04036077 0.024094498
-0.02709517 0.061925646 -0.08189562 -0.021664543 0.03293632 0.28915316 0.0425734 -0.037992164
0.056631748 0.5495419 -0.08434614 0.44422063 0.19409984 -0.09561025 -0.06122577 0.6207921
1.2904289 0.45665434 -0.034048345 -0.034838594 -0.06482371 0.014736648 -0.029650457 0.63738245
-0.042435355 -0.021797802 0.04189912 -0.04827893 -0.024194151 1.2511922 1.316011 1.3267442
0.0389795 0.04200521 1.3163972 1.4046694 -0.019973895 -0.014112388 -0.052348778 0.11143183
0.06473603 -2.87063e-06 1.2914518 0.08233373 0.10598787 0.02539579 -0.03451803 0.1256278
0.0536001 0.075634904 -0.0051599974 0.101733394 -0.021693505 0.1469467 0.007269741 -0.023072064
-0.040154304 -0.017652847 0.024368618 -0.039937682 0.19088538 -0.09555311 -0.020080596 0.6496782
1.3597101 1.3257107 0.027680567 0.07348686 -0.05055726 0.019136367 0.033504803 0.07017724
-0.05316166 -0.011468461 1.2648836 -0.059421107 0.049866974 -0.067408115 -0.021432083 1.2895811
0.024796294 0.062486574 -0.07489383 -0.07037781 0.29310772 1.3846009 -0.035284087 0.042505242
0.3011937 0.07857085 -0.04711949 1.3100392 -0.0766845 0.07797462 -0.035067722 0.02910227
0.06417383 0.24396177 0.051229846 1.3810132 0.006177947 1.318499 1.2946414 1.4141592
-0.049804762 0.46855792 1.3690354 -0.08410881 -0.0013053223 0.0020651582 0.24850415 1.4021671
1.2989256 0.29227656 1.3906337 0.069942445 -0.09312702 -0.0053646704 -0.0524278 -0.006079762
00000000: f975 e3bc b088 0e3d 6878 da3c 828c c4bd
00000010: 1633 86bd 61ea abbd ba09 26bd 2185 073d
00000020: 5b83 163d ae49 3cbd 80c7 9cbd 8550 7a3d
00000030: be9d 253d 3cb6 a73b acd5 bebd 4b54 0ebb
00000040: 86e2 03bd 40d9 7abc 40ac c83b ab85 cebc
00000050: d14b 953d 4001 07bb 963c 4dbd b7b3 183d
00000060: 9821 48bd 10a0 95bd 88f0 573d 4218 9ebd
00000070: eb32 85bc 2972 a7bc 04ca 203d a2a2 afbc
00000080: 8b3f 13bd 1b06 393d 4012 2d3d 162d 523d
00000090: fb26 063c a8b6 a93c 7b8b b9bd 0cbd 54bd
000000a0: 5c87 433d cb0a e6bc 458e 99bb 7cce 803b
000000b0: b844 a03c 96c5 77bd c39f abbc 1cea 4f3c
000000c0: 7d32 80bd 0c17 443d dbcd 11bd ab33 0c3d
000000d0: 3276 233c f520 17bd b811 113b 9cbf 5ebd
000000e0: 1402 e8bc febe 203c 724d 303d 14fc 063d
000000f0: 5baa 70bd ca80 8b3d 1960 883d 3746 053d
00000100: 30a7 4a3c e3ec 94bd 1644 0cbd ac02 8ebd
00000110: 96cf 943d d0e0 ef3c 3a13 383d a5a9 c0bd
00000120: 47a6 28bd 745e c6bc 188e 8b3d dd31 8a3d
00000130: b963 f83c d34c 76bc 8e4f 273d 7f79 8d3c
00000140: f76f ef3b 8d10 99bd 1025 54bd 3c7d 393d
00000150: 3ccc 0a3d dc00 22bc 3c7b a83b e7e6 33bd
00000160: 82fd 493c 41e9 a0bd e548 023d e19f 18bd
00000170: 8cdb 69bd cc70 833b 5aec 20bc 1c79 cebd
00000180: 1832 533d 7039 823c 86f5 44bd 75a1 3dbd
00000190: 1905 953d 43b5 e2bc 2c15 cdbd 42d1 603d
000001a0: a7c0 313d 2dd1 073d 419c 19bd a9c7 8abd
000001b0: 07a4 5f3d e47b 223c c537 a5bd f96b ddbc
000001c0: 32cb 76bd 2478 6dbd 41c4 8ebc 5a68 d43c
000001d0: f016 afbd 4cfa 7cbb e179 073e 1ad5 eabc
000001e0: c12a a03c d7c2 37bd a8ec 8e3d 8b35 95bc
000001f0: e6d3 0a3d d0f5 ba3c 1aa1 a9bd b02e 30bc
00000200: 2dad acbd 6300 c7bc 06af 273c e539 be3a
00000210: d8d7 ab3d 3e5e a9bd 5651 253d d361 c53c
00000220: b1f6 ddbc bfa5 7d3d e4b8 a7bd d779 b1bc
00000230: 3ce8 063d e20b 943e 7261 2e3d ac9d 1bbd
00000240: b1f6 673d c7ae 0c3f abbd acbd e370 e33e
00000250: 1cc2 463e 4fcf c3bd dfc7 7abd 3bec 1e3f
00000260: c62c a53f 99ce e93e 4776 0bbd eab2 0ebd
00000270: 4bc2 84bd fb71 713c 84e5 f2bc 7f2b 233f
00000280: b2d0 2dbd 4e91 b2bc 699e 2b3d 21c0 45bd
00000290: d032 c6bc 1127 a03f 0c73 a83f c1d2 a93f
000002a0: f8a8 1f3d a80d 2c3d b47f a83f 35cc b33f
000002b0: 4ba0 a3bc a537 67bc ac6b 56bd 5f36 e43d
000002c0: 5394 843d 0ca5 40b6 4b4e a53f 969e a83d
000002d0: 2b10 d93d d50a d03c c762 0dbd 93a4 003e
000002e0: c78b 5b3d 79e6 9a3d 3215 a9bb 9959 d03d
000002f0: 94b6 b1bc 3279 163e 0237 ee3b a001 bdbc
00000300: d778 24bd b49c 90bc b2a0 c73c b295 23bd
00000310: 7577 433e 59b1 c3bd 1080 a4bc 4f51 263f
00000320: fb0a ae3f e3b0 a93f 5bc2 e23c 4780 963d
00000330: 2115 4fbd dfc3 9c3c 553c 093d 16b9 8f3d
00000340: 0ac0 59bd 36e6 3bbc b5e7 a13f 8c63 73bd
00000350: 5041 4c3d 440d 8abd 5692 afbc fe10 a53f
00000360: 9921 cb3c ecf1 7f3d f061 99bd 3e22 90bd
00000370: 3712 963e 9a3a b13f 0c86 10bd fa19 2e3d
00000380: 1036 9a3e c1e9 a03d 5e00 41bd 5daf a73f
00000390: c30c 9dbd 28b1 9f3d 2ca3 0fbd e267 ee3c
000003a0: 926d 833d 1dd1 793e 63d6 513d 0ac5 b03f
000003b0: 6070 ca3b 93c4 a83f cfb6 a53f 2b03 b53f
000003c0: 1400 4cbd d3e6 ef3e 8d3c af3f 3d41 acbd
000003d0: 5917 abba 9b57 073b df77 7e3e 367a b33f
000003e0: 3243 a63f 46a5 953e 4900 b23f fc3d 8f3d
000003f0: 61b9 bebd 1eca afbb 88be 56bd bd38 c7bb

layer2.bias f4 [128]
0.05313809 1.206493 0.048417978 -0.04829917 -0.03860926 1.2335788 -0.049018223 1.191566
-0.032266237 -0.07000588 0.13693304 -0.08359441 0.64836395 0.0784299 0.113184474 0.18345909
0.12833768 0.042151555 0.00055305654 0.028205547 -0.079487905 0.039861932 -0.080587216 0.027311811
0.062938266 0.003125357 1.1142094 -0.057448998 0.27002597 0.03964773 -0.049986206 0.063004784
0.021711225 0.079151526 0.7851777 0.1323459 -0.003337593 1.2378414 -0.037831917 1.2409444
-0.03890842 -0.035303026 0.11948161 0.21590105 -0.0150508685 0.054673065 -0.028564341 0.9846268
0.05585249 -0.019416982 -0.0501472 0.036335547 1.2577292 -0.077215075 0.70038986 0.11492525
0.0057346835 0.0057460004 -0.07697797 0.51440203 0.07741318 -0.019481134 0.16257098 0.045176726
-0.06896919 -0.06408863 1.1617122 0.1611223 -0.035273578 -0.052528106 -0.014638225 -0.030288389
0.21439226 0.2298312 0.14574288 0.10801039 0.039047714 -0.07936672 0.24157363 -0.041814514
0.036165636 -0.049233265 0.017743183 0.08229935 -0.07853899 0.008645322 0.07615388 -0.06506498
0.0187066 0.22892621 -0.0047525023 -0.07522038 -0.0094314935 -0.08045346 0.2382072 0.15193798
-0.0720024 0.047424085 0.037589516 -0.02174858 0.028755842 -0.0022285685 0.08940811 -0.054043636
-0.03838721 -0.06263957 -0.0092676 0.04495772 1.19685 0.0724472 -0.00841074 0.009054801
0.023944283 0.009372875 -0.046511933 0.5057234 0.2361144 1.2287245 -0.045490216 1.0916497
-0.031573728 0.08297728 0.0015066204 0.0886445 -0.022131998 0.20184936 0.044353567 -0.050446384
00000000: 53a7 593d 5d6e 9a3f ee51 463d 5ad5 45bd
00000010: be24 1ebd e9e5 9d3f 55c7 48bd 3c85 983f
00000020: 9a29 04bd 3e5f 8fbd 2d38 0c3e 8c33 abbd
00000030: 2efb 253f db9f a03d 43cd e73d b3dc 3b3e
00000040: f46a 033e 1ca7 2c3d fffa 103a 520f e73c
00000050: 8eca a2bd 4446 233d e90a a5bd 05bd df3c
00000060: c7e5 803d cad2 4c3b 6a9e 8e3f a44f 6bbd
00000070: d840 8a3e a865 223d 56be 4cbd a708 813d
00000080: bddb b13c 321a a23d 6801 493f af85 073e
00000090: 85bb 5abb 9671 9e3f a4f5 1abd 44d7 9e3f
000000a0: 6f5e 1fbd e899 10bd c6b2 f43d 2a15 5d3e
000000b0: eb97 76bc ddf0 5f3d c4ff e9bc 8110 7c3f
000000c0: 95c5 643d 5d10 9fbc 2667 4dbd 95d4 143d
000000d0: 45fd a03f f022 9ebd c04c 333f ee5d eb3d
000000e0: 03ea bb3b f248 bc3b a0a6 9dbd daaf 033f
000000f0: cd8a 9e3d e696 9fbc 0279 263e 3b0b 393d
00000100: b83f 8dbd e640 83bd fcb2 943f 3ffd 243e
00000110: 077b 10bd b627 57bd 2ad5 6fbc 5b1f f8bc
00000120: a589 5b3e df58 6b3e 9f3d 153e 8d34 dd3d
00000130: 7ff0 1f3d 058b a2bd 145f 773e b245 2bbd
00000140: 6b22 143d d2a8 49bd 275a 913c 908c a83d
00000150: 0dd9 a0bd 1ca5 0d3c 91f6 9b3d ca40 85bd
00000160: 953e 993c a26b 6a3e e1ba 9bbb 250d 9abd
00000170: 8d86 1abc c9c4 a4bd 97ec 733e a195 1b3e
00000180: ff75 93bd c23f 423d 77f7 193d 142a b2bc
00000190: 5f91 eb3c 2d0d 12bb 991b b73d dc5c 5dbd
000001a0: e83b 1dbd 2d49 80bd 22d7 17bc 9625 383d
000001b0: 6132 993f 335f 943d 33cd 09bc 975a 143c
000001c0: cd26 c43c b090 193c 4c83 3ebd 1777 013f
000001d0: f9c7 713e d846 9d3f f353 3abd 2dbb 8b3f
000001e0: 7453 01bd feef a93d cb79 c53a 3f8b b53d
000001f0: 2a4e b5bc 99b1 4e3e 16ac 353d dea0 4ebd

layer3.weight f4 [3, 128]
0.010178011 0.8793079 -0.06778261 0.02131899 0.02697826 0.9260013 -0.06233446 1.0494283
-0.020515393 -0.06713633 0.007649282 0.028371874 0.2705245 0.05793437 0.068866864 0.0337168
0.10173791 -0.010330709 -0.0071388157 0.0012573692 -0.043916162 0.002924096 -0.046145782 -0.07052123
0.06628749 -0.059452873 0.8852135 -0.053382564 0.16997114 0.030382678 -0.0018732598 0.012831012
-0.0034434893 0.059824616 0.26653594 0.0051421644 -0.014892827 1.0027549 0.079927094 1.0314596
-0.016262507 0.050050948 0.0045641544 0.0013651596 -0.063883506 0.0010810461 -0.0245344 0.8540458
0.06421294 -0.019250883 -0.075064965 0.012270338 0.8644046 -0.0103137 0.4013503 0.07845151
0.003817766 -0.04147287 0.050162975 0.13728604 0.13490017 -0.013896617 0.012497658 -0.014579488
0.06929905 0.074060775 1.0265635 0.058491025 -0.027053762 -0.034425005 0.058025457 -0.00963156
0.080146454 0.14457281 0.038458973 0.079832554 0.0456168 -0.011663335 0.15524176 -0.0153954085
-0.07238916 -0.03433011 -0.070216134 0.09399932 -0.031109434 -0.077456474 0.05260542 -0.029037196
0.02185567 0.17225823 0.23839907 -0.0371861 -0.031546865 0.04919402 0.0308967 0.053273417
0.0102781085 -0.10534574 0.049252518 0.03239906 -0.042282045 -0.03682192 0.01422104 -0.06815824
0.04524484 -0.07703646 -0.047772992 0.0783037 1.0900934 -0.05400482 -0.057827868 -0.06170518
-0.005739529 -0.042682074 -0.055101994 0.26425138 0.084693156 1.0476013 -0.05273062 0.630792
-0.03104514 0.03884137 -0.03925619 0.051095046 -0.03781385 0.042906012 0.06893391 -0.049006097
-0.031259708 1.1921861 -0.0076853335 0.006204054 0.019964844 1.0348383 -0.024865184 1.1236876
-0.0009350159 -0.039357256 0.09971815 -0.07388792 0.3409785 0.08540845 0.045376398 0.074256234
0.069695264 0.018366225 0.0016206347 0.030879494 -0.050902955 -0.056603026 -0.06528532 0.024715463
0.1099549 -0.07409281 1.1091744 -0.030396912 0.15512171 -0.068051055 -0.0036042077 0.021209825
-0.052113168 0.038537953 0.23310168 0.09955746 -0.00826275 1.0531032 -0.036897708 1.085978
-0.0044478606 -0.022157207 0.060247533 0.10237643 -0.028586034 -0.03603514 -0.04827834 0.6339103
-0.0032655208 0.00814523 0.07660947 -0.065504484 0.9828929 0.055481434 0.60208285 0.07933825
-0.024898246 0.07119305 0.07676973 0.2030372 0.08810191 -0.06251404 0.0679981 0.05690011
0.044271123 0.06486907 1.1519561 0.097158305 -0.033828583 -0.07671683 -0.015601865 -0.08862638
0.044561263 0.11059038 0.07259482 0.061562393 0.059102543 -0.033286523 0.15789846 -0.048684523
-0.020188281 0.008531773 -0.039605092 0.015438614 0.03130547 -0.0075510414 -0.03954008 0.005125429
0.018551439 0.101252556 0.18430439 0.07311902 0.026993027 0.07552139 0.093091935 0.012134531
0.04780223 -0.03896718 0.071001045 -0.04516881 -0.08896376 -0.064985044 0.06597316 -0.049225997
-0.064246 0.0124690365 -0.03539696 -0.057806917 1.1073692 -0.003282017 0.08347099 -0.02822384
0.024342926 -0.03628976 0.02935288 0.28280774 0.21751264 1.1053078 -0.06091295 0.74464273
-0.043967348 -0.011645983 -0.0029172436 -0.015582853 0.016724253 0.04697424 0.091267824 -0.038365867
00000000: acc1 263c 531a 613f 9cd1 8abd 2aa5 ae3c
00000010: 8301 dd3c 6c0e 6d3f 6b52 7fbd ab53 863f
00000020: e60f a8bc c67e 89bd d4a6 fa3b 226c e83c
00000030: 3082 8a3e 974c 6d3d 120a 8d3d a11a 0a3d
00000040: f75b d03d 2242 29bc baec e9bb 4fce a43a
00000050: 6fe1 33bd 31a2 3f3b 5c03 3dbd 6f6d 90bd
00000060: bcc1 873d db84 73bd 5a9d 623f ada7 5abd
00000070: ea0c 2e3e 18e5 f83c 2b88 f5ba 2a39 523c
00000080: 2aac 61bb a80a 753d 6677 883e 9a7f a83b
00000090: 0b01 74bc 465a 803f d1b0 a33d de06 843f
000000a0: f338 85bc 3902 4d3d e78e 953b 28ef b23a
000000b0: 5bd5 82bd e3b1 8d3a 5efc c8bc bfa2 5a3f
000000c0: 1382 833d 07b4 9dbc a9bb 99bd 8709 493c
000000d0: 9f49 5d3f cbfa 28bc c97d cd3e 2fab a03d
000000e0: 7c33 7a3b 75df 29bd b177 4d3d b694 0c3e
000000f0: 4523 0a3e a3ae 63bc fac2 4c3c cede 6ebc
00000100: a9ec 8d3d 2dad 973d 6f66 833f 4994 6f3d
00000110: da9f ddbc 3c01 0dbd 1aac 6d3d b1cd 1dbc
00000120: d323 a43d e50a 143e 2887 1d3d 407f a33d
00000130: afd8 3a3d 9317 3fbc b2f7 1e3e 063d 7cbc
00000140: c540 94bd bb9d 0cbd 7acd 8fbd b782 c03d
00000150: 36d9 febc 80a1 9ebd c878 573d 6adf edbc
00000160: a90a b33c 7664 303e e31e 743e 7450 18bd
00000170: 4937 01bd ab7f 493d 141b fd3c 3a35 5a3d
00000180: 8365 283c 82bf d7bd 02bd 493d e0b4 043d
00000190: f02f 2dbd 95d2 16bd 5dff 683c 8c96 8bbd
000001a0: a752 393d 4bc5 9dbd 9dad 43bd b15d a03d
000001b0: 2e88 8b3f 2834 5dbd eadc 6cbd 92be 7cbd
000001c0: a912 bcbb 66d3 2ebd a1b2 61bd f54b 873e
000001d0: 9b73 ad3d cd17 863f 10fc 57bd 967b 213f
000001e0: 6152 febc 2118 1f3d 19cb 20bd 0a49 513d
000001f0: b2e2 1abd 37be 2f3d 392d 8d3d 9eba 48bd
00000200: 2e0a 00bd 8e99 983f 40d5 fbbb 614b cb3b
00000210: 508d a33c 9575 843f 12b2 cbbc ffd4 8f3f
00000220: db1b 75ba 1335 21bd 0839 cc3d 8d52 97bd
00000230: bc94 ae3e a0ea ae3d 9adc 393d a713 983d
00000240: 64bc 8e3d c474 963c 7a6b d43a fef6 fc3c
00000250: 9e7f 50bd 93d8 67bd 4fb4 85bd 1578 ca3c
00000260: 0930 e13d f9bd 97bd 6df9 8d3f f202 f9bc
00000270: 3ad8 1e3e 5a5e 8bbd 9234 6cbb 3ac0 ad3c
00000280: 9e74 55bd f9d9 1d3d 35b2 6e3e c8e4 cb3d
00000290: 7c60 07bc 16cc 863f 0d22 17bd 5401 8b3f
000002a0: 5cbf 91bb 0883 b5bc 1ec6 763d bcaa d13d
000002b0: 422d eabc 9599 13bd 82bf 45bd f247 223f
000002c0: 5902 56bb 9273 053c 6de5 9c3d 3727 86bd
000002d0: de9e 7b3f 8040 633d 1a22 1a3f 187c a23d
000002e0: 68f7 cbbc a9cd 913d 7339 9d3d fce8 4f3e
000002f0: c66e b43d 5c07 80bd 9642 8b3d 1710 693d
00000300: a355 353d 13da 843d 4c73 933f effa c63d
00000310: d78f 0abd b71d 9dbd f79e 7fbc bf81 b5bd
00000320: df85 363d 367d e23d 98ac 943d d928 7c3d
00000330: 8215 723d 7357 08bd 22b0 213e 6c69 47bd
00000340: e561 a5bc dac8 0b3c f338 22bd 3ef2 7c3c
00000350: 2a3a 003d ba6e f7bb c7f4 21bd 37f3 a73b
00000360: 30f9 973c 805d cf3d 4aba 3c3e 6dbf 953d
00000370: 7b20 dd3c f5aa 9a3d fca6 be3d e9cf 463c
00000380: 45cc 433d 0d9c 1fbd ff68 913d ee02 39bd
00000390: a232 b6bd e116 85bd f01c 873d 33a1 49bd
000003a0: 6893 83bd ee4a 4c3c 67fc 10bd f2c6 6cbd
000003b0: 46be 8d3f 1c17 57bb d7f2 aa3d af35 e7bc
000003c0: d16a c73c 92a4 14bd 7375 f03c 2dcc 903e
000003d0: a2bb 5e3e ba7a 8d3f dc7f 79bd e8a0 3e3f
000003e0: 1b17 34bd cbce 3ebc 3a2f 3fbb 394f 7fbc
000003f0: 4d01 893c 1068 403d a0ea ba3d 8725 1dbd

layer3.bias f4 [3]
0.14228348 0.12478889 0.13027185
00000000: c3b2 113e 5191 ff3d fc65 053e
