models/rl_models/06.03.24_with_rewards_for_each_3_seconds/best_policy_dqn_model_epoch_3.pt (torch, 74148 bytes, 6 tensors)

layer1.weight f4 [128, 6]
0	0x3ebb485b	0.3657864
1	0x3cf5a1ed	0.029984439
2	0x3ec7af18	0.39000773
3	0x3e9b6ef7	0.30358097
4	0xbe477ee4	-0.19481999
5	0x3dfbc234	0.12292901
6	0x3d8cf2a3	0.06882217
7	0xbe9dbed6	-0.3080966
8	0xbddf1d45	-0.108942546
9	0xbebafaf4	-0.36519587
10	0x3e9eef0d	0.31041756
11	0xbe080c3d	-0.13285919
12	0xbdea67f6	-0.1144561
13	0xbd7fb5ef	-0.062429365
14	0x3e7de877	0.2479571
15	0x3de72c3c	0.11287734
16	0x3df03102	0.117280975
17	0x3e86a439	0.26297167
18	0x3dfb1c67	0.12261277
19	0xbd994d61	-0.07485462
20	0x3c6d11fa	0.014469618
21	0xbe675db7	-0.22594343
22	0xbe8b9ea1	-0.27269462
23	0xbcbfe6a7	-0.023425413
24	0x3e5aa9fa	0.21353903
25	0x3d616d79	0.055036042
26	0xbe6dc6d6	-0.23220381
27	0x3e01a9f1	0.12662484
28	0xbeb815de	-0.35954183
29	0x3ec31d8d	0.38108483
30	0x3e289402	0.1646271
31	0xbe001847	-0.12509261
32	0xbe7031cd	-0.23456497
33	0xbe122d5a	-0.14275113
34	0xbe50c9c8	-0.20389473
35	0x3c6dd830	0.014516875
36	0x3e90ae7a	0.28258115
37	0xbe1be4ad	-0.15223952
38	0x3e2c6f18	0.16839254
39	0xbe68fa97	-0.22751842
40	0xbe0d3775	-0.13790686
41	0xbe7f538f	-0.24934219
42	0x3ba47801	0.0050191884
43	0xbeaa1824	-0.33221543
44	0xbe880bdd	-0.2657155
45	0x3e0a3a57	0.13498817
46	0x3dc23e3f	0.09484529
47	0xbeb766e1	-0.35820678
48	0x3dcad24a	0.09903391
49	0x3e34ca32	0.17655256
50	0xbe7879ce	-0.24265215
51	0x3de66176	0.11249058
52	0xbe2e651e	-0.1703076
53	0x3da0dbaf	0.07854401
54	0x3ebba882	0.36652
55	0x3cc5675d	0.024097139
56	0xbe4f8678	-0.2026614
57	0x3e86e9b5	0.2635018
58	0x3dbc679b	0.09199449
59	0x3e7fe19c	0.24988407
60	0x3e47af64	0.195005
61	0x3e613f1b	0.21996729
62	0xbead2ddc	-0.3382405
63	0x3eb18128	0.3466885
64	0x3d0f3031	0.03495807
65	0x3ea04302	0.31301123
66	0xbdcbddc6	-0.09954409
67	0x3d5cc07d	0.05389451
68	0x3ea66e7f	0.32506177
69	0xbe1093c2	-0.14118865
70	0xbea29adc	-0.31758773
71	0xbe4a03d1	-0.19728018
72	0x3eb6d4e1	0.3570929
73	0x3ecf8121	0.40528205
74	0x3d94906a	0.07254107
75	0xbe5503b6	-0.20802197
76	0x3e774263	0.24146418
77	0xbdda0da7	-0.10647135
78	0x3ddf3af4	0.10899916
79	0xbddc663e	-0.10761689
80	0xbea67699	-0.32512358
81	0x3ec37892	0.38177925
82	0xbea38000	-0.31933594
83	0xbea3d472	-0.3199802
84	0xbe93a864	-0.2883941
85	0x3e8a0870	0.26959562
86	0xbe446709	-0.1917993
87	0x3e52947b	0.20564453
88	0xbcf9fd42	-0.03051627
89	0x3e6c5890	0.23080659
90	0x3e20ea88	0.15714467
91	0x3e72dbfe	0.23716733
92	0x3e91e282	0.28493124
93	0x3e254abe	0.16141793
94	0x3e909bbd	0.2824382
95	0x3c6c7e99	0.01443448
96	0x3d3bab44	0.04581763
97	0xba084282	-0.0005197899
98	0xbebef56f	-0.37296626
99	0x3d3ed9a7	0.04659429
100	0xbec8821a	-0.3916176
101	0x3e5e1005	0.21685798
102	0xbebe0137	-0.37110302
103	0x3e63a573	0.22231083
104	0xbe123f92	-0.14282063
105	0xbe85a181	-0.2609978
106	0x3eacca03	0.33747873
107	0x3e0f5ef5	0.14001067
108	0x3e133d47	0.14378844
109	0x3cae7baf	0.021299211
110	0x3c64b7c3	0.013959828
111	0x3eaa5496	0.3326766
112	0x3eac1c0a	0.33615142
113	0xbe16ead6	-0.1473802
114	0xbe91a344	-0.28444874
115	0x3e59feec	0.21288651
116	0xbea2edec	-0.31822145
117	0xbea7c4b6	-0.32767266
118	0x3ea8619f	0.3288698
119	0x3ead84d2	0.33890396
120	0x3e579bf2	0.21055582
121	0xbea73c37	-0.32663128
122	0x3e5d65f2	0.2162092
123	0x3e719e17	0.23595463
124	0x3d553b60	0.052058578
125	0x3eba149d	0.36343852
126	0xbca0ed67	-0.019644452
127	0x3ea06791	0.31329015
128	0xbeaee3de	-0.34158224
129	0x3e89c7a1	0.26910117
130	0x3d043407	0.03227618
131	0xbe45ae37	-0.19304739
132	0xbe1c8fce	-0.15289232
133	0x3e74cee1	0.23907043
134	0x3e8886a6	0.2666523
135	0xbde6a6be	-0.11262272
136	0xbbafb100	-0.005361676
137	0xbe0eadd7	-0.13933502
138	0x3d25ed7c	0.040509686
139	0x3bb7574d	0.005595124
140	0x3e1370bc	0.14398474
141	0xbe6be7b7	-0.23037611
142	0xbdd83bb3	-0.10558262
143	0xbe836403	-0.2566224
144	0xbd755fa0	-0.05990565
145	0xbe2786e5	-0.16360052
146	0x3ec1003f	0.376955
147	0xbe1dc3b9	-0.15406694
148	0xbdd6157a	-0.10453315
149	0xbecc858f	-0.39945647
150	0xbea60f58	-0.3243358
151	0x3eb31250	0.3497491
152	0x3e03f7c0	0.12887478
153	0xbdb6659c	-0.08906099
154	0xbe9adfc3	-0.30248842
155	0xbeb4eeae	-0.35338348
156	0xbeb903b3	-0.36135635
157	0xbea515d1	-0.32243207
158	0x3e1abbd2	0.1511071
159	0x3e4fe462	0.20301965
160	0xbcee5d30	-0.02909717
161	0xbe816680	-0.25273514
162	0x3e8f5ead	0.2800192
163	0x3d9e2934	0.077227026
164	0x3d98d6de	0.07462858
165	0xbe96b592	-0.29435402
166	0xbe988836	-0.2979142
167	0x3babf06f	0.005247168
168	0x3eaf80b0	0.34277868
169	0x3e95154b	0.29117808
170	0x3cceef92	0.02526072
171	0xbe9fc9af	-0.3120856
172	0x3e98e075	0.29858747
173	0xbe5adb74	-0.21372777
174	0xbe8f0e5c	-0.27940643
175	0xbe1bc656	-0.15212378
176	0x3e30446c	0.17213601
177	0xbeb78e34	-0.3585068
178	0xbe7446f1	-0.23855187
179	0x3d9d1618	0.0767023
180	0x3dc507e4	0.09620646
181	0x3ea72ddb	0.32652172
182	0x3e962e9f	0.29332444
183	0x3e2e6d63	0.17033915
184	0xbe1eaf69	-0.15496601
185	0x3dd94913	0.10609641
186	0xbd08715c	-0.033311233
187	0x3cbaf5d3	0.022822296
188	0x3dd420c2	0.103578106
189	0xbec64042	-0.387209
190	0x3eaf0c70	0.34189177
191	0x3ebcb986	0.36860293
192	0x3ca8de51	0.020613821
193	0xbe0241b5	-0.12720378
194	0x3d9ac6aa	0.075574234
195	0x3da907a1	0.08253408
196	0xbec5abd2	-0.3860765
197	0x3e023423	0.12715201
198	0x3d86ed07	0.06588178
199	0xbeb536c3	-0.35393342
200	0x3da6c529	0.08143074
201	0xbe3aa61b	-0.18227427
202	0x3e9e5c8d	0.30929986
203	0x3d30e084	0.043182865
204	0xbe9ec4cc	-0.3100952
205	0xb9d5fd92	-0.0004081545
206	0xbe8e6909	-0.2781451
207	0x3dfa6755	0.1222674
208	0x3e566aec	0.20939225
209	0x3e4e481f	0.201447
210	0xbde4bd29	-0.11168892
211	0x3ec483ae	0.38381714
212	0xbcf8c861	-0.030368986
213	0x3e467918	0.19382131
214	0xbe711fa6	-0.23547229
215	0xbe23f52c	-0.16011494
216	0xbe2bfe04	-0.16796118
217	0xbe4cdbbb	-0.20005696
218	0xbe450bac	-0.19242734
219	0x3e286a8d	0.16446896
220	0xbe6af4df	-0.22944973
221	0x3deb24e8	0.11481649
222	0x3e0fb40e	0.14033529
223	0xbe3489f2	-0.17630747
224	0x3eca70f9	0.39539316
225	0xbec15ae1	-0.37764648
226	0xbe6d3e4c	-0.23168296
227	0x3d8e6a82	0.069539085
228	0x3dfa6d2b	0.122278534
229	0xbe9101c2	-0.28321654
230	0x3cb57bd4	0.022153772
231	0x3c8841fb	0.016633024
232	0xbe038529	-0.12843765
233	0x3d5d378d	0.054008055
234	0xbe607cb5	-0.21922572
235	0xbdb909f0	-0.090350986
236	0x3ec2f201	0.3807526
237	0xbde5d36d	-0.11221967
238	0x3dfb78db	0.12278911
239	0x3e763242	0.2404261
240	0xbebd91fb	-0.37025437
241	0x3e98157c	0.2970389
242	0xbd2812f1	-0.04103369
243	0xbe4a6834	-0.19766313
244	0xbe1fa3e3	-0.15589862
245	0xbe47a34e	-0.1949589
246	0x3da2b955	0.079455055
247	0xbeb98a77	-0.36238453
248	0x3d370205	0.04467966
249	0x3ea74e65	0.32676998
250	0x3e231a7a	0.15928069
251	0x3e74426f	0.23853467
252	0x3e2befd1	0.16790701
253	0xbea3f2fd	-0.32021323
254	0xbe33358e	-0.17500898
255	0xbe7624ad	-0.24037428

layer1.bias f4 [128]
0	0x3e3ba48a	0.18324485
1	0xbe12643e	-0.14296052
2	0xbbd1e39a	-0.006405306
3	0xbea17747	-0.31536314
4	0x3eebcb3c	0.46053493
5	0xbdb75ece	-0.089536294
6	0xbead2a42	-0.33821303
7	0xbde2fe35	-0.110836424
8	0x3d4a216a	0.049348272
9	0x3f21c93c	0.63197684
10	0xbe292c55	-0.16520818
11	0xbe5fd07a	-0.21856871
12	0x3d682b03	0.056681644
13	0x3f4bdef2	0.7963706
14	0xbe55edda	-0.20891514
15	0x3eab3545	0.3343908
16	0xbd47b354	-0.048755005
17	0x3f228900	0.63490295
18	0x3d961c75	0.073296465
19	0x3f15c4ba	0.58503306
20	0x3ee47bc3	0.44625673
21	0xbdaf31f7	-0.08554452
22	0xbe67a3c7	-0.2262107
23	0x3f1915d4	0.5979893
24	0x3f2b2760	0.66856956
25	0x3f1f87e9	0.6231676
26	0xbe07b153	-0.13251238
27	0xbe692e4d	-0.22771569
28	0xbebe814b	-0.37208018
29	0xbe372987	-0.17886935
30	0xbe3a59bb	-0.18198292
31	0x3f2b0065	0.66797477
32	0xbeacb414	-0.3373114
33	0xbeb6f46c	-0.35733354
34	0xbea713b0	-0.32632208
35	0xbcf818a3	-0.030285185
36	0xbe95b73f	-0.29241368
37	0x3f65ec7e	0.89813983
38	0x3f535be3	0.82562083
39	0x3f53e68b	0.82773656
40	0xbea50050	-0.322268
41	0xbd91b8f1	-0.07115353
42	0x3f24b673	0.64340895
43	0x3f356258	0.70853186
44	0xbe4634e4	-0.19356114
45	0xbe8e662b	-0.27812323
46	0xba1e32af	-0.0006034774
47	0x3ec613de	0.38687032
48	0xbe70f9c7	-0.23532782
49	0x3f382ae7	0.71940464
50	0x3f49b4a2	0.7879125
51	0x3f1a5924	0.6029227
52	0x3f07d127	0.53053516
53	0x3f13c99e	0.5772952
54	0xbecdfe83	-0.4023324
55	0x3d43742b	0.04771821
56	0xbe90f683	-0.28313074
57	0x3e03714e	0.12836191
58	0xbec11c93	-0.37717113
59	0x3e6ee09c	0.23327869
60	0xbe9ee6a3	-0.31035337
61	0x3f0a0a72	0.5392219
62	0xbea5f4da	-0.3241337
63	0xbb802bc7	-0.0039114687
64	0xbeba3bca	-0.3637374
65	0xbe30950e	-0.1724436
66	0xbebfc435	-0.37454382
67	0xbead3c86	-0.33835238
68	0x3f0c248f	0.54743284
69	0xbe09cca4	-0.1345697
70	0xbc90256c	-0.01759597
71	0x3f30a08c	0.68994975
72	0x3f24ec37	0.64422935
73	0x3f793ef2	0.9736167
74	0x3ef95d8b	0.4870418
75	0xbe27b893	-0.16379003
76	0x3e8115b7	0.2521188
77	0xbe255e75	-0.16149314
78	0xbebd2cfd	-0.36948386
79	0xbeb6959b	-0.35661015
80	0xbd7376c9	-0.059439454
81	0x3ea49f98	0.3215301
82	0x3f806972	1.0032179
83	0xbb0b96b3	-0.002129954
84	0x3e3781e1	0.17920639
85	0xbe2d2cf7	-0.16911684
86	0xbe3802e5	-0.17969854
87	0x3f57c314	0.8428204
88	0x3e937142	0.28797346
89	0xbd7efd5d	-0.062253345
90	0x3d14c7fc	0.036323532
91	0xbe24588f	-0.16049407
92	0x3f403a2d	0.7508877
93	0x3f3b0acf	0.7306337
94	0xbb591269	-0.0033122546
95	0xbec1315a	-0.37732965
96	0x3f0ad5f3	0.5423271
97	0x3e213f8d	0.15746899
98	0x3dcca518	0.09992427
99	0x3f3d3724	0.7391226
100	0xbe07e5b5	-0.1327122
101	0xbe4ac81d	-0.198029
102	0xbea2f7fd	-0.31829825
103	0xbe204c05	-0.15653999
104	0xbe8152ae	-0.25258392
105	0x3f030033	0.5117218
106	0x3f2e2d40	0.68037796
107	0x3f3b46c9	0.73154885
108	0xbcd64256	-0.026154678
109	0x3f820c70	1.0160046
110	0x3f6bc6ef	0.92100424
111	0x3f2e4d19	0.6808639
112	0x3ea080ee	0.31348366
113	0x3f5887f2	0.84582436
114	0x3f6334c0	0.88752365
115	0xbb258794	-0.0025257813
116	0xbe081e55	-0.13292821
117	0xbec3dbce	-0.38253635
118	0x3e9ff6b1	0.31242898
119	0x3f57bc5b	0.8427178
120	0x3f551112	0.8322917
121	0x3f6dc36f	0.92876333
122	0x3f425ba2	0.7592107
123	0x3e2736b8	0.16329467
124	0xbbe25858	-0.006907504
125	0xba48cc26	-0.0007659815
126	0x3ebca39c	0.36843574
127	0xbce2a614	-0.027667083

layer2.weight f4 [128, 128]
0	0xbcd0eaf9	-0.025502669
1	0x3d1aca24	0.037790433
2	0x3d3f9661	0.046774272
3	0xbda3130f	-0.079626195
4	0xbde5d604	-0.11222461
5	0xbd97fc6a	-0.07421191
6	0xbcae2f4b	-0.021262785
7	0x3d12ff14	0.035887793
8	0x3d45ac74	0.048260167
9	0xbd1f59d1	-0.038904015
10	0xbd8ea967	-0.06965905
11	0x3d88129a	0.06644173
12	0x3d848cb1	0.06472147
13	0xbd59d477	-0.053181138
14	0xbd91502f	-0.07095372
15	0x3c7769c6	0.015100902
16	0xbc93c292	-0.018037114
17	0xbc885c6b	-0.01664563
18	0x3ca940e2	0.020660821
19	0xbce02629	-0.027361946
20	0x3d83cade	0.06435178
21	0x3c7410ba	0.014896566
22	0xbd3d24f6	-0.046177827
23	0x3d69e703	0.057105076
24	0xbd5920a6	-0.05300965
25	0xbd8afcd8	-0.06786507
26	0x3d6a4b16	0.057200514
27	0xbd8174c3	-0.06321099
28	0x3bc10064	0.005889939
29	0xbcb5b3a8	-0.022180393
30	0x3d6e51ca	0.05818347
31	0xbcbe97ff	-0.023265837
32	0xbd1fb4e6	-0.038990878
33	0x3d48c3b1	0.04901475
34	0xbd846c2f	-0.06465947
35	0x3d9ae4bb	0.07563158
36	0x3c117a06	0.00887919
37	0x3cb82ced	0.02248236
38	0xbdc9542e	-0.09830509
39	0xbd66cef5	-0.056349713
40	0x3d542bc8	0.051799566
41	0xbd24d5b4	-0.040242866
42	0xbba6a51a	-0.0050855996
43	0x3b8be3a1	0.004269079
44	0x3d124cf6	0.035717927
45	0xbd4c2ffc	-0.04985045
46	0xbc08ffdf	-0.008361786
47	0x3cfa1c28	0.030531004
48	0xbd96ea8f	-0.07368957
49	0x3d6e0eab	0.058119457
50	0xbd1e1e41	-0.03860307
51	0x3d698dd9	0.057020042
52	0x3cb32067	0.021866037
53	0xbcc624fd	-0.02418756
54	0x3c9fe255	0.019517103
55	0xbcea790f	-0.028622178
56	0x3c3a1738	0.011358075
57	0x3d2a85f9	0.041631673
58	0x3d78b9da	0.060724117
59	0x3cfbe923	0.030750817
60	0xbd6b2d59	-0.057416294
61	0x3d717eaa	0.058958687
62	0x3dab8bee	0.08376299
63	0x3cca5573	0.024698948
64	0x3ce32135	0.027725795
65	0xbd7082c8	-0.058718473
66	0xbd58db3d	-0.052943457
67	0xbda93930	-0.08262861
68	0x3d82bd3a	0.06383748
69	0x3d4319ac	0.047631904
70	0x3d81c931	0.06337202
71	0xbd814455	-0.063118614
72	0xbd3703c9	-0.044681344
73	0xbcd73ace	-0.026273157
74	0x3da061d1	0.07831157
75	0x3d95f7e5	0.07322673
76	0x3d4eaf4d	0.05046015
77	0xbc85e023	-0.016342228
78	0x3d8bf603	0.068340324
79	0x3c999cd1	0.018751534
80	0x3cf94b78	0.030431494
81	0xbd9dbdf9	-0.0770225
82	0xbd662c1e	-0.056194417
83	0x3d9bdf26	0.076109216
84	0x3cbb2b7c	0.022847883
85	0x3caf03a5	0.021364043
86	0x3bb6d4d4	0.0055795703
87	0xbd433738	-0.047660083
88	0x3c023712	0.0079477
89	0xbdae92ab	-0.085240684
90	0x3cf0b8a3	0.029384917
91	0xbd3a9463	-0.04555167
92	0xbd485721	-0.048911218
93	0x3b8e85f1	0.004349463
94	0x3b887b3c	0.0041650813
95	0xbda7ceb3	-0.081937216
96	0x3d993f15	0.07482735
97	0x3c3cd3f7	0.011525146
98	0xbd04d2c7	-0.032427575
99	0xbd4dd1bd	-0.05024885
100	0x3da1a7ce	0.07893334
101	0xbcf5f6a6	-0.030024838
102	0xbda04009	-0.07824714
103	0x3d73f264	0.059557334
104	0x3d40e31d	0.047091592
105	0x3cc042ef	0.023469416
106	0xbccd4483	-0.025057083
107	0xbd969e55	-0.07354418
108	0x3d95dc9a	0.07317467
109	0x3c3049e8	0.010759808
110	0xbdb3456a	-0.08753474
111	0xbcf05327	-0.029336525
112	0xbd43c9c8	-0.047799855
113	0xbd31ceec	-0.043410227
114	0xbc9b0c54	-0.018926777
115	0x3d628112	0.055298872
116	0xbd91ac16	-0.07112901
117	0x3c8605a3	0.01636011
118	0x3d74ec32	0.059795566
119	0xbcfee9ec	-0.031117402
120	0x3cadc2da	0.021211077
121	0xbcefe515	-0.02928404
122	0x3d9b39d3	0.075793885
123	0xbbdede06	-0.0068013696
124	0x3ca71e30	0.020400137
125	0x3d599d85	0.053128738
126	0xbd84ac71	-0.06478203
127	0x3c225f57	0.009910426
128	0xbd9e08d3	-0.07716527
129	0xbcd7e932	-0.026356313
130	0x3a78ead1	0.00094954396
131	0x3caa98b0	0.02082476
132	0x3d8c6cbd	0.06856678
133	0xbd925184	-0.07144454
134	0x3d80535e	0.06265901
135	0x3cd62abe	0.026143428
136	0xbc380f44	-0.011234108
137	0x3d575ee6	0.052580737
138	0xbd8b53b3	-0.06803074
139	0xbcc09667	-0.023509217
140	0x3d5de75e	0.054175727
141	0x3e15ab4d	0.14616127
142	0x3d50d7fe	0.050987236
143	0xbd328934	-0.04358788
144	0x3da5c52f	0.080942504
145	0x3dda7dd8	0.10668534
146	0xbd9d267a	-0.076733544
147	0xbc546d5c	-0.012965526
148	0x3dd142fd	0.10217855
149	0xbda9b915	-0.08287255
150	0xbd4b415b	-0.049622875
151	0x3e9356cb	0.28777155
152	0x3e4597ad	0.19296141
153	0x3e430ce5	0.19047888
154	0xbd17605a	-0.036957122
155	0xbcaafffd	-0.020874018
156	0xbd54374a	-0.05181054
157	0x3c832507	0.016008867
158	0xbc50ed7b	-0.012751932
159	0x3c4b28a2	0.012399824
160	0xbd3c9f2a	-0.04605023
161	0xbcc1c527	-0.02365358
162	0x3d3a4105	0.045472164
163	0xbd09cd59	-0.0336431
164	0xbcd70bce	-0.026250746
165	0x3e37cece	0.17949983
166	0x3e77c452	0.24195984
167	0x3e81fb86	0.2538721
168	0x3d2d3546	0.042287134
169	0x3d59c51c	0.053166494
170	0x3e5cc05e	0.21557757
171	0x3ea48cea	0.3213876
172	0xbaa7e558	-0.0012809439
173	0x3ba4c424	0.0050282646
174	0xbd23a661	-0.039953593
175	0xbd13350e	-0.03593927
176	0x3d8fbd4e	0.07018529
177	0xbd2b1be6	-0.041774653
178	0x3e57a20f	0.21057914
179	0x3b37435f	0.002796374
180	0x3d7107e3	0.058845412
181	0xbc080222	-0.00830129
182	0xbc92ab92	-0.017904077
183	0x3db77959	0.08958692
184	0x3d7bef25	0.061507363
185	0x3d99dc96	0.075127766
186	0x3c45adcb	0.012065361
187	0x3dea9b02	0.11455347
188	0xbbb21727	-0.005434889
189	0x3db275d8	0.08713883
190	0x3ce9ffac	0.028564297
191	0xbc207e7a	-0.009795779
192	0xbcbaf907	-0.022823824
193	0x3a8ac459	0.0010587081
194	0x3cd895d5	0.026438633
195	0xbd118166	-0.035523795
196	0x3de32cc6	0.11092524
197	0xbdbf2720	-0.093336344
198	0xbab01780	-0.0013434738
199	0x3d8b7a81	0.06810475
200	0x3e869a34	0.26289523
201	0x3e89a16e	0.26880974
202	0x3c5956ae	0.013265295
203	0x3da348e6	0.07972889
204	0xbd32f1cd	-0.04368763
205	0x3caa2cd9	0.020773338
206	0x3d646c65	0.055767436
207	0x3d9c0980	0.076189995
208	0xbd161685	-0.03664257
209	0xbd19936c	-0.037494108
210	0x3e527816	0.20553622
211	0xbd42170d	-0.047385264
212	0x3d52f0ec	0.051499292
213	0xbd695b39	-0.056971762
214	0xbcbe8647	-0.023257388
215	0x3e5ca868	0.21548617
216	0xbc944947	-0.018101348
217	0x3d8b0daa	0.067897156
218	0xbd797867	-0.06090584
219	0xbd6c466a	-0.05768434
220	0x3d821b45	0.063528575
221	0x3e9b4ca8	0.30331922
222	0xbc91cd17	-0.01779799
223	0x3d5c255a	0.05374656
224	0x3e7ecedf	0.24883603
225	0x3d867a33	0.065662764
226	0xbd00230b	-0.03128342
227	0x3e668d61	0.2251487
228	0xbdaa7d0b	-0.08324631
229	0x3dad3e35	0.08459131
230	0xbcaecfc6	-0.021339308
231	0x3d016f5b	0.031600337
232	0x3d8e82b7	0.06958526
233	0x3e157ebc	0.14599127
234	0x3c0ef1f1	0.0087246755
235	0x3e99c16c	0.30030382
236	0x3cda92ef	0.026681392
237	0x3e8792bc	0.26479137
238	0x3e6bbd06	0.23021325
239	0x3ea8cdbd	0.32969466
240	0xbd4dcda8	-0.050244957
241	0x3e5a16cf	0.21297763
242	0x3e9d2227	0.3069012
243	0xbd9516a2	-0.072797075
244	0x3c8dc499	0.01730566
245	0x3c9f3c57	0.019437952
246	0x3d87d020	0.066314936
247	0x3eaca971	0.33723024
248	0x3e660bac	0.2246539
249	0x3e834b60	0.25643444
250	0x3e9bacbd	0.30405226
251	0x3d3e8fc8	0.04652384
252	0xbdb47eb4	-0.08813229
253	0x3c3fddd7	0.011710606
254	0xbd958b29	-0.07301933
255	0x3c485764	0.012227867

layer2.bias f4 [128]
0	0x3d958b90	0.0730201
1	0x3e84bede	0.2592687
2	0x3d53a322	0.051669247
3	0xbd56a728	-0.052405506
4	0xbd2bb05b	-0.041916233
5	0x3f080d71	0.5314551
6	0xbd59d323	-0.05317987
7	0x3f16c448	0.5889325
8	0xbd0f440c	-0.034977004
9	0xbd9bafa7	-0.076018624
10	0x3d82685b	0.063675605
11	0xbdadecca	-0.084924296
12	0x3e7f4cf4	0.24931699
13	0xbc64ea0e	-0.013971819
14	0x3cfcbdc4	0.030852206
15	0x3de6d2c9	0.11270673
16	0x3d2f36f6	0.042777024
17	0x3d2cd0c5	0.042191286
18	0x3aaf983d	0.0013396811
19	0xbcd5f3b1	-0.026117178
20	0xbdb09fb9	-0.08624215
21	0x3d3126ae	0.04324978
22	0xbdb31479	-0.08744139
23	0x3cf4f98f	0.029904155
24	0xbc49ed2e	-0.012324614
25	0x3b5e53f8	0.003392456
26	0x3ef6bc99	0.48190764
27	0xbd85dbde	-0.06536077
28	0x3e48e5ba	0.19618884
29	0x3d3031a7	0.043016102
30	0xbd5e3e0f	-0.054258402
31	0x3d8c1dcc	0.06841621
32	0x3ce37556	0.027765911
33	0xbc26ba16	-0.010176202
34	0x3ea57e44	0.32322896
35	0x3d8166db	0.06318446
36	0xb8ed9fdf	-0.00011330819
37	0x3f16f6cc	0.5897033
38	0xbd9854ca	-0.07438047
39	0x3f19e36b	0.6011264
40	0xbd2c71f8	-0.042100877
41	0xbd13e080	-0.03610277
42	0x3d6cd24a	0.057817735
43	0x3e1faaa2	0.15592435
44	0xbc860a5f	-0.016362367
45	0x3d90e2a6	0.0707448
46	0xbcfa6209	-0.030564325
47	0x3d4aabed	0.049480367
48	0xbbe4e6be	-0.0069855144
49	0xbcac9bfe	-0.021070477
50	0xbd5ef2ee	-0.054430895
51	0x3d21726b	0.039415758
52	0x3f0a3295	0.5398343
53	0xbdabae7b	-0.08382889
54	0x3d520466	0.051273726
55	0x3cc51dc1	0.02406204
56	0x3bcbf11a	0.00622381
57	0x3bcc5eba	0.006236878
58	0xbdad2a8b	-0.0845538
59	0x3d71465c	0.05890499
60	0x3d9bfe02	0.076168075
61	0xbcad2287	-0.021134628
62	0x3dbef113	0.09323325
63	0x3c204726	0.009782588
64	0xbd995c9f	-0.07488369
65	0xbd8e560b	-0.06950005
66	0x3f11898f	0.5685052
67	0x3da3971c	0.07987806
68	0xbd1ccb62	-0.0382799
69	0xbd7a26d3	-0.061072182
70	0xbc823cd3	-0.015898144
71	0xbd121309	-0.035662685
72	0x3e0e9c5b	0.13926832
73	0x3e206906	0.15665063
74	0x3dd04b84	0.101706535
75	0x3cf5dc9a	0.030012418
76	0x3d2d834e	0.04236155
77	0xbdb05a6a	-0.08610995
78	0x3e2d334d	0.16914101
79	0xbce728f4	-0.02821777
80	0x3d20ae79	0.03922889
81	0xbcb7d6f8	-0.022441372
82	0x3c9daa88	0.019246355
83	0x3bb0ee6a	0.005399515
84	0xbdae80fe	-0.08520697
85	0x3c26aa62	0.010172458
86	0x3d96c8cb	0.07362517
87	0xbd898306	-0.06714444
88	0xbc83e2cd	-0.016099358
89	0x3e21bd65	0.15794905
90	0xbcdc8ede	-0.026923593
91	0xbda730a4	-0.08163574
92	0x3c4db47d	0.012555239
93	0xbdb2c7f9	-0.08729548
94	0x3e2fc5b7	0.17165266
95	0x3dbff98b	0.093737684
96	0xbd9ff0cd	-0.07809601
97	0x3d4c9f84	0.049956813
98	0x3d2718cb	0.04079513
99	0xbcbeb22f	-0.023278324
100	0x3d67eab8	0.05662033
101	0xbb1e63e1	-0.002416842
102	0x3d7e1b8e	0.062037997
103	0xbd70430a	-0.058657683
104	0xbd2ab0e0	-0.041672587
105	0xbd8d7070	-0.069062114
106	0xbc0e96fd	-0.008702991
107	0x3d47d075	0.048782784
108	0x3f14e0e0	0.5815563
109	0x3da0f14f	0.07858526
110	0xbc11c737	-0.008897594
111	0x3c20ec41	0.009821952
112	0x3c5b6872	0.013391601
113	0x3c33821d	0.010956314
114	0xbd4ec4f3	-0.050480794
115	0x3eb9364c	0.36174238
116	0x3d787f25	0.06066813
117	0x3f1d39bd	0.61416227
118	0xbd4a2d5b	-0.04935966
119	0x3e92c138	0.2866304
120	0xbd1094ef	-0.035298284
121	0x3d3703c0	0.04468131
122	0x3ad6448e	0.0016347335
123	0x3d776841	0.06040216
124	0xbcc4bc6b	-0.024015626
125	0x3df3f60c	0.11912164
126	0xbc408a2a	-0.011751691
127	0xbd60430d	-0.054751445

layer3.weight f4 [3, 128]
0	0x3be644cd	0.0070272447
1	0x3d765139	0.060136054
2	0xbda59aff	-0.08086204
3	0x3cbd8557	0.02313487
4	0x3cefe198	0.029282376
5	0x3e0c7411	0.13716151
6	0xbd8ab941	-0.06773616
7	0x3e8d1a07	0.2755892
8	0xbcb65fbc	-0.022262447
9	0xbd9530e7	-0.07284718
10	0xbcbd4c66	-0.023107719
11	0x3caba88b	0.020954391
12	0xbd8ed274	-0.069737345
13	0x3d27cea4	0.040968552
14	0x3d606ad6	0.054789387
15	0x3c00e9a1	0.0078682015
16	0x3dbc4279	0.09192366
17	0xbd344cdb	-0.044018608
18	0xbd31bebe	-0.043394797
19	0xbcdb27b2	-0.026752327
20	0xbd43314c	-0.047654435
21	0x3b4ff9ea	0.0031734654
22	0xbd4d277b	-0.05008648
23	0xbd9cbdd0	-0.07653391
24	0x3d23795d	0.039910663
25	0xbd844fa5	-0.064605035
26	0x3dc5d38b	0.09659489
27	0xbd549367	-0.051898386
28	0x3e1bad0a	0.15202728
29	0x3d075233	0.033037376
30	0xbb057183	-0.0020361848
31	0x3c641d15	0.013922949
32	0xbca052cc	-0.01957073
33	0x3d29212d	0.041291405
34	0x3e78b0d6	0.24286208
35	0xbc877f40	-0.01654017
36	0xbcc6dccc	-0.024275206
37	0x3e670efe	0.22564313
38	0x3da415f0	0.08011997
39	0x3e839a69	0.25703743
40	0xbc90728b	-0.017632743
41	0x3d09b236	0.03361722
42	0xbc87dc6a	-0.016584594
43	0xbcf11b1e	-0.029431876
44	0xbd8dea80	-0.06929493
45	0x3c279f11	0.0102307955
46	0xbc88712c	-0.016655527
47	0x3da18f2b	0.07888635
48	0x3d53ed88	0.0517402
49	0xbcab3505	-0.020899305
50	0xbda6d705	-0.081464805
51	0x3c5a1a6d	0.013311964
52	0x3dbc3b44	0.091909915
53	0xbc375ffc	-0.011192318
54	0xbd58ba7c	-0.05291222
55	0x3d77cf97	0.060500707
56	0x3b88033b	0.0041507757
57	0xbd38596f	-0.045007166
58	0x3cfeab5f	0.031087575
59	0x3dad1164	0.084505826
60	0x3d0f2d6c	0.034955427
61	0xbc7700a8	-0.01507584
62	0xbc4d4510	-0.012528673
63	0xbd21fd49	-0.039548192
64	0x3d9a1cc7	0.0752502
65	0x3da493e8	0.080360234
66	0x3e80f22b	0.2518476
67	0x3d305259	0.043047283
68	0xbcf08a80	-0.029362917
69	0xbd0a01e2	-0.0336932
70	0x3d8105b8	0.06299919
71	0x3c7c04b0	0.015381977
72	0x3d8b9b2b	0.06816705
73	0x3e010df8	0.12602985
74	0x3c98663e	0.01860344
75	0x3d280322	0.041018613
76	0x3d4abd27	0.049496796
77	0xbc4f64a2	-0.01265827
78	0x3e0ec5b9	0.13942613
79	0xbcf7d58a	-0.03025319
80	0xbda0cfd3	-0.07852139
81	0xbd4ceb3a	-0.050029017
82	0xbd9c1ddf	-0.07622885
83	0x3da90e0a	0.08254631
84	0xbd0a7916	-0.033806883
85	0xbd9f3161	-0.0777309
86	0x3d665b53	0.056239437
87	0xbd1ebade	-0.03875243
88	0x3ae2e49e	0.0017310565
89	0x3e18d9ed	0.14926882
90	0x3c8d1f89	0.017226951
91	0xbd25477a	-0.04035137
92	0xbd522a93	-0.051310133
93	0x3d5a9e2e	0.05337351
94	0x3c3ac266	0.011398887
95	0x3d155e2f	0.036466774
96	0x3c36bd21	0.01115349
97	0xbdb0ce87	-0.08633142
98	0x3d5ae4f3	0.053441
99	0x3d00bc29	0.031429444
100	0xbd3fb7f1	-0.04680628
101	0xbd23a36c	-0.039950773
102	0x380754dc	3.226554e-05
103	0xbd978435	-0.07398263
104	0x3d49169d	0.04909383
105	0xbda798d8	-0.081834495
106	0xbd6202c8	-0.055178434
107	0x3dadfa6b	0.08495029
108	0x3ea50778	0.3223226
109	0xbd70179e	-0.058616273
110	0xbd80911e	-0.06277679
111	0xbd895bec	-0.06706986
112	0xbd11e450	-0.035618126
113	0xbd3db76b	-0.0463175
114	0xbd74e2ca	-0.059786595
115	0x3e3db987	0.18527804
116	0xbd8ecda1	-0.06972814
117	0x3e8e8c20	0.27841282
118	0xbd6a5844	-0.057213083
119	0xbcd42047	-0.025894297
120	0xbc989f69	-0.0186307
121	0x3cab31ef	0.020897834
122	0xbd2e71c5	-0.042588968
123	0x3d12c496	0.03583201
124	0xbd281b8b	-0.041041892
125	0x3cd24df1	0.025671931
126	0x3d601b47	0.054713514
127	0xbd59c571	-0.05316681
128	0xbd1db861	-0.038505916
129	0x3eb01a9b	0.34395298
130	0xbc2c667e	-0.010522483
131	0x3bdcb04a	0.0067348825
132	0x3cb17430	0.021661848
133	0x3ee82ee6	0.4534828
134	0xbcdd1ea1	-0.026992144
135	0x3f133459	0.5750175
136	0xba853495	-0.0010162765
137	0xbd2ee562	-0.042699225
138	0x3dacbf41	0.08434916
139	0xbdbd66d5	-0.09248129
140	0x3ddcb755	0.10777155
141	0x3d92fbde	0.07176946
142	0x3d371dbb	0.044706088
143	0x3d55448c	0.052067325
144	0x3d843ac5	0.06456522
145	0x3a87405f	0.0010318867
146	0xbd1929c7	-0.037393358
147	0x3c5a4c82	0.013323905
148	0xbd624400	-0.05524063
149	0xbd7ba139	-0.06143305
150	0xbd90fa9c	-0.0707905
151	0x3cdbb9e8	0.026822045
152	0x3dbc0452	0.091805115
153	0xbda4a660	-0.08039546
154	0x3f0af6d8	0.54282904
155	0xbcc62661	-0.024188222
156	0x3e0f8933	0.14017181
157	0xbd9745c5	-0.07386354
158	0xbb80327b	-0.0039122677
159	0x3cbc8d53	0.023016607
160	0xbd8ccaf5	-0.068746485
161	0x3c979841	0.018505218
162	0x3e44bb21	0.19212009
163	0x3dbcc381	0.09216977
164	0xbc5270f3	-0.012844312
165	0x3efef8fb	0.49799332
166	0xbd6df5f4	-0.058095887
167	0x3f09b394	0.5378964
168	0xbb9e0fb6	-0.0048236502
169	0xbd920424	-0.07129696
170	0x3d687727	0.056754258
171	0x3da86a9f	0.08223461
172	0xbcfe3799	-0.03103237
173	0xbd0db7ee	-0.034599237
174	0xbd29dca2	-0.041470177
175	0xbc71075a	-0.014711225
176	0xbbd06877	-0.0063601094
177	0x3c10b2ae	0.008831663
178	0x3daa51c0	0.08316374
179	0xbd917a49	-0.07103402
180	0x3ecc8e46	0.39952296
181	0x3d768b2d	0.060191322
182	0x3d8e51d5	0.06949202
183	0x3d754863	0.059883486
184	0xbcdd68eb	-0.027027568
185	0x3d9e1e0b	0.07720574
186	0x3d9af891	0.075669415
187	0x3e03404f	0.128175
188	0xbc857cd9	-0.016294884
189	0xbd8b1c81	-0.06792546
190	0x3d6360e4	0.055512324
191	0x3d47d79d	0.04878961
192	0x3d44c485	0.048038978
193	0x3d900821	0.070328005
194	0x3f1c97f7	0.6116938
195	0x3dba5e38	0.09100002
196	0xbd166050	-0.036712945
197	0xbda63a58	-0.08116597
198	0xbc8ae1c7	-0.016953362
199	0xbda01755	-0.0781695
200	0x3d1b1f39	0.037871573
201	0x3dc07171	0.09396637
202	0x3d6c2dfc	0.05766104
203	0x3cc1e09f	0.023666678
204	0x3d838102	0.06421091
205	0xbd13e8c4	-0.036110654
206	0x3e1771fd	0.14789577
207	0xbd8b7b5c	-0.06810638
208	0xbcb3735e	-0.021905597
209	0x3c29ca37	0.010363153
210	0xbd3000e1	-0.04296959
211	0x3c1b467a	0.009477252
212	0x3d0b4f4f	0.03401118
213	0x3ba3e768	0.005001951
214	0xbd6b8bcc	-0.057506368
215	0x3bbc3cfb	0.005744574
216	0xbad29374	-0.0016065673
217	0x3d98a5d0	0.07453501
218	0xbd20e468	-0.039280325
219	0x3da274c2	0.07932426
220	0x3c84f61a	0.016230632
221	0x3da7de3e	0.08196686
222	0x3db06387	0.08612733
223	0xbbfe6c8f	-0.007764406
224	0x3d5475fd	0.051870335
225	0xbbbfa669	-0.005848695
226	0x3d9db95d	0.07701371
227	0xbd6195e9	-0.055074606
228	0xbdc600ec	-0.096681446
229	0xbd904bb0	-0.07045686
230	0x3d81a792	0.063307896
231	0xbd5ac4dd	-0.0534104
232	0xbd8ea88d	-0.06965742
233	0x3ce41cfc	0.027845852
234	0xbd2a5444	-0.04158427
235	0xbd8084d2	-0.062753335
236	0x3f1146f9	0.5674892
237	0xbb695406	-0.003560306
238	0x3db9ad4a	0.090662554
239	0xbcfae8a1	-0.030628504
240	0x3c2448ef	0.010027154
241	0xbd2ae4e5	-0.041722197
242	0x3d0296fb	0.031882267
243	0x3e45bbf4	0.1930998
244	0x3d8dd798	0.06925887
245	0x3f12d153	0.57350653
246	0xbd87a422	-0.06623103
247	0x3e3a059e	0.18166205
248	0xbcea6526	-0.028612684
249	0xbd243b38	-0.040095538
250	0xbb4f7e1b	-0.0031660858
251	0xbd3c46f6	-0.04596611
252	0x3c94a57e	0.01814532
253	0x3d22e2b9	0.039767
254	0x3dac9cdc	0.08428356
255	0xbd2a9848	-0.041649133

layer3.bias f4 [3]
0	0x3da33c1f	0.079704516
1	0x3d6ae52f	0.057347473
2	0x3dca8324	0.09888294
