models/rl_models/06.03.24_with_rewards_for_each_3_seconds/best_target_dqn_model_epoch_40.pt (torch, 74158 bytes, 6 tensors)

layer1.weight f4 [128, 6]
000000 ff ac b1 3e 39 67 60 3d ab f1 c9 3e 80 36 92 3e
       0.34702298 0.05478594 0.3944219 0.28557205
000010 4e a5 1e be 24 51 15 3e c7 9b 80 3d 01 09 90 be
       -0.15492746 0.14581734 0.06279712 -0.2813187
000020 3a 9a cb bd a4 bf aa be 3d 26 91 3e 83 ed f7 bd
       -0.09941526 -0.33349335 0.28349486 -0.12105849
000030 da 60 f9 bd 1a b1 30 bd 26 25 79 3e 84 a9 af 3d
       -0.12176676 -0.043137647 0.24330577 0.085772544
000040 bf 75 f7 3d 83 7c 83 3e b8 14 15 3e 57 37 13 bd
       0.12083005 0.25680932 0.14558685 -0.035941448
000050 e2 d0 3a 3d d6 4d 53 be 00 a4 7e be a6 2a af bc
       0.045609362 -0.20635161 -0.24867249 -0.021382641
000060 e0 52 55 3e e3 22 90 3d 72 90 3d be 99 b8 00 3e
       0.20832396 0.07037904 -0.18512133 0.12570418
000070 42 56 9f be 3e 13 be 3e dd c4 36 3e 61 74 b2 bd
       -0.31120497 0.37124056 0.17848535 -0.08713604
000080 be ac 3f be a9 86 05 be 83 92 3e be 8c 17 59 3c
       -0.1871824 -0.1303965 -0.18610577 0.013250243
000090 5f 97 97 3e a6 7f d2 bd ed 35 42 3e 30 cf 54 be
       0.29607674 -0.10278253 0.18965884 -0.20782161
0000a0 99 e0 00 be 62 03 69 be 5d 2e 96 3b 95 4b 9b be
       -0.12585677 -0.22755197 0.0045831637 -0.30331102
0000b0 db ec 77 be 03 03 fc 3d 22 54 b1 3d e8 77 a7 be
       -0.24211447 0.12305262 0.08658625 -0.3270867
0000c0 dd 98 b3 3d 89 e8 29 3e ea 0c 38 be d4 70 c7 3d
       0.08769391 0.16592611 -0.17973676 0.09738317
0000d0 4b 71 1d be 0d 81 e5 3d 3f c9 ac 3e 9d 5b 45 3d
       -0.15375249 0.11206255 0.3374729 0.048183072
0000e0 05 02 1d be a9 53 74 3e dc cb d8 3d 94 ba 82 3e
       -0.15332802 0.23860039 0.10585758 0.25532973
0000f0 06 a9 37 3e 51 fb 67 3e cb 8a 8c be 5d 0f a0 3e
       0.17935571 0.22654463 -0.2744964 0.3126172
000100 03 db 56 3d 37 6e a1 3e 7f 2c ba bd 71 88 49 3d
       0.05245496 0.315294 -0.09090518 0.049202386
000110 29 f7 97 3e 07 16 04 be 9d 7c 94 be a7 80 38 be
       0.29680756 -0.12899028 -0.29001322 -0.18017827
000120 37 6f a0 3e ba 92 c7 3e f6 56 be 3d a2 9c 51 be
       0.3133485 0.3897913 0.0929393 -0.20469907
000130 0d 87 73 3e f8 f6 93 bd 87 fd f1 3d 18 48 a4 bd
       0.23781987 -0.0722484 0.11815935 -0.08021563
000140 50 48 88 be d1 f4 ba 3e 15 00 8d be 7f a5 86 be
       -0.2661767 0.36514905 -0.27539125 -0.26298138
000150 21 8c 99 be 29 4c 83 3e 47 57 52 be be d3 17 3e
       -0.29989722 0.25644043 -0.20541106 0.14826867
000160 1f dd 9f bc 37 be 35 3e 64 eb 13 3e b5 75 6f 3e
       -0.019514618 0.17748342 0.14445263 0.23384745
000170 fd 27 99 3e ec b0 14 3e 35 a9 8b 3e 28 58 4b 3d
       0.2991332 0.14520615 0.27277532 0.04964462
000180 bf 91 ab 3d a5 af 21 3d b5 e2 99 be 5a 32 2e 3d
       0.08377408 0.03947415 -0.30055776 0.042528488
000190 9b 1c b7 be 3b ab 4a 3e f8 01 ae be 3c cb 4e 3e
       -0.35764012 0.19791882 -0.33985877 0.20194715
0001a0 50 bc 06 be c3 bb 74 be 19 43 9d 3e 39 d1 01 3e
       -0.13157773 -0.2389975 0.30715254 0.12677468
0001b0 93 33 09 3e e2 ad 22 3d cc ef 3d 3d a4 ca 99 3e
       0.1339858 0.03971661 0.046371266 0.30037415
0001c0 df 28 a4 3e e7 33 db bd d1 47 85 be 9c b2 46 3e
       0.32062432 -0.10703259 -0.26031354 0.19404072
0001d0 5c 04 95 be f6 6a 99 be 5b 87 99 3e 7c 28 9e 3e
       -0.29104888 -0.29964417 0.2998608 0.30890262
0001e0 b2 99 50 3e f2 83 a3 be 09 71 40 3e a4 bd 68 3e
       0.2037113 -0.31936604 0.1879312 0.22728592
0001f0 70 c6 d2 3c 0a 14 a5 3e 17 e3 33 bc b5 6c 9e 3e
       0.025729388 0.3224185 -0.010979435 0.30942312
000200 24 b9 8d be ad f4 7d 3e c1 d0 4a 3d 5c db 14 be
       -0.27680314 0.24800368 0.04951549 -0.14536804
000210 4c 10 fc bd 22 b0 6d 3e c0 7b 84 3e df e0 f3 bd
       -0.12307796 0.2321172 0.25875664 -0.11908125
000220 a1 e5 9a bc a0 68 12 be b9 b8 5d 3d 32 cc a5 3c
       -0.018908324 -0.14297724 0.054131243 0.02023897
000230 74 43 16 3e 24 65 57 be 4d 7c c5 bd 02 a6 6f be
       0.14674169 -0.21034676 -0.09642849 -0.2340317
000240 78 0f 60 bd 15 f6 18 be 97 2e b0 3e e3 0d 10 be
       -0.054702252 -0.14937623 0.34410545 -0.14067797
000250 61 7d c3 bd 4f bc ba be 09 bd 91 be a8 66 a8 3e
       -0.095453985 -0.36471793 -0.28464535 0.3289082
000260 ae 45 02 3e 14 8c a6 bd 6e 5a 8d be 64 34 a5 be
       0.12721893 -0.081321865 -0.27608055 -0.32266533
000270 53 f2 a8 be d7 bd 96 be 15 3a 0d 3e 80 bd 3d 3e
       -0.3299738 -0.2944171 0.13791688 0.1852932
000280 ec 8b d9 bc 32 1c 6c be b2 b4 9d 3e 11 ad f6 3d
       -0.026555978 -0.2305763 0.30801922 0.120447285
000290 57 aa f1 3d dc 9a 89 be d6 3e 8b be f4 f8 9c 3b
       0.11800068 -0.2687596 -0.27196378 0.0047904197
0002a0 a7 24 a3 3e 3b fa 95 3e dd a3 7d 3d a5 fc 90 be
       0.318639 0.29292473 0.06192385 -0.28317752
0002b0 35 b5 97 3e 77 97 23 be 80 b7 82 be f2 29 0e be
       0.29630437 -0.15975748 -0.25530624 -0.13883188
0002c0 a8 ed 20 3e f4 9b a7 be 56 08 5f be 40 60 8f 3d
       0.15715659 -0.3273617 -0.21780524 0.0700078
0002d0 39 3b c8 3d ca 79 a8 3e 7f 20 9f 3e 25 f9 24 3e
       0.09776921 0.32905418 0.3107948 0.16110666
0002e0 2e 7b ec bd a8 a8 0b 3e 3d 97 fb bc c8 36 a8 3c
       -0.11546932 0.13638556 -0.030711764 0.020533934
0002f0 0e f4 c0 3d 53 35 b5 be c3 a3 9f 3e ac 22 ac 3e
       0.0942155 -0.35392246 0.31179628 0.33620203
000300 45 2e 9a 3c ea a1 ed bd d8 43 8d 3d d9 53 9a 3d
       0.018820891 -0.11603148 0.06897706 0.07535524
000310 33 7e b4 be ca 89 ed 3d eb ee 75 3d 77 76 a5 be
       -0.35252532 0.11598547 0.060042303 -0.32316944
000320 f3 45 98 3d dd 71 2a be 09 a1 90 3e be 7c 21 3d
       0.07435217 -0.16644998 0.2824786 0.039425604
000330 46 7b 9d be a7 95 3b 3b ad d0 85 be 76 03 b2 3d
       -0.30758113 0.0028623135 -0.2613577 0.08692066
000340 e0 2e 47 3e ff 76 35 3e 9f dd c7 bd 82 6d c0 3e
       0.19451475 0.17721175 -0.09759068 0.37583548
000350 2f 86 bd 3b c1 63 35 3e 02 e4 45 be 54 96 ee bd
       0.005783818 0.17713834 -0.1932526 -0.116497666
000360 4d 05 1d be 2b 06 3b be 5f ea 33 be 09 c5 19 3e
       -0.15334053 -0.18264072 -0.17569874 0.15016569
000370 a6 90 56 be ae ba d6 3d b2 4c 03 3e 0d d8 24 be
       -0.20953616 0.10484825 0.12822226 -0.16098042
000380 6b e5 b8 3e 3f 82 b0 be e4 90 58 be a6 13 82 3d
       0.36112532 -0.3447437 -0.21149021 0.06351404
000390 91 b0 e4 3d 07 79 84 be c7 b5 a5 3c 12 4d 78 3c
       0.1116649 -0.25873587 0.02022828 0.015155094
0003a0 f2 e0 ef bd a1 ef 49 3d 3c e2 4c be 0b f8 a8 bd
       -0.11712827 0.049300794 -0.20008177 -0.082504354
0003b0 0f fa b1 3e d6 dd d1 bd c2 9c e5 3d f3 d4 60 3e
       0.34761092 -0.1024739 0.1121154 0.21956234
0003c0 52 07 ad be 95 d7 8a 3e 63 75 19 bd 52 dd 38 be
       -0.33794647 0.271176 -0.037465464 -0.18053177
0003d0 9d ca 11 be f3 4e 36 be 98 d9 97 3d 8a b9 b7 be
       -0.14237447 -0.17803554 0.074145496 -0.35883743
0003e0 d7 ab 78 3b d6 b1 99 3e 2b 4f f1 3d b2 25 39 3e
       0.0037944221 0.3001849 0.11782678 0.18080786
0003f0 5f f8 1c 3e 6d b5 95 be 07 a0 23 be 37 c8 60 be
       0.15329121 -0.2923998 -0.15979014 -0.21951376

layer1.bias f4 [128]
000000 74 2c bd 3d 10 b8 05 be 11 d6 c1 3d a8 c0 82 be
       0.092369944 -0.13058496 0.09464658 -0.2553761
000010 f4 ef 13 3f 30 15 60 bd f7 90 8b be f8 38 cf bd
       0.57788014 -0.054707706 -0.27259037 -0.10118288
000020 1c eb 0b 38 60 60 7e 3f af 81 ee bd 7c 41 4c be
       3.3359145e-05 0.99365807 -0.11645829 -0.19946855
000030 d5 a0 4c b8 43 96 94 3f d2 60 62 be 05 53 34 3f
       -4.8787177e-05 1.1608356 -0.22107247 0.7043918
000040 82 13 95 bb ce e4 c2 3f 53 57 08 b9 56 12 c2 3f
       -0.0045494447 1.5226076 -0.00013002502 1.5161846
000050 b9 ed 9d 3f ab 36 30 bd 4c d1 44 be 2a 25 c9 3f
       1.2338172 -0.043020885 -0.19220465 1.5714467
000060 c8 ba cd 3f af 03 ca 3f e3 4b f7 bd c7 df 21 be
       1.6072626 1.5782374 -0.12075021 -0.1580802
000070 62 f3 99 be ab 3f 27 be 9a a6 fa bd e3 a5 cc 3f
       -0.300685 -0.16332881 -0.12238808 1.5988125
000080 cf aa 9d be fd 0e a7 be 52 ee 9b be 24 c4 0e b8
       -0.3079438 -0.32628623 -0.3045526 -3.403811e-05
000090 f7 b5 88 be 87 be e9 3f 54 fb e0 3f 9b 10 e1 3f
       -0.26701328 1.8261269 1.7576699 1.7583193
0000a0 45 aa 96 be e5 32 d1 bd 3a 90 cb 3f b8 e1 d3 3f
       -0.2942678 -0.102147855 1.590339 1.6553259
0000b0 83 35 0b be 3f b6 76 be 3a f5 32 b7 09 44 89 3f
       -0.13594632 -0.24092959 -1.0666723e-05 1.0723888
0000c0 ac 01 6c be dc 28 9e 3f fd 95 dc 3f 6c 94 88 3f
       -0.23047513 1.2356219 1.7233273 1.0670295
0000d0 15 ca 85 3f 19 87 69 3f 22 d6 c6 be 3d 74 54 3e
       1.0452296 0.9122177 -0.38835245 0.20747466
0000e0 14 ab 7c be c5 38 a9 3e 0e a7 b2 be be 88 ca 3e
       -0.24674636 0.33051124 -0.34893078 0.3955745
0000f0 2b 6c 86 be 25 29 68 3f e5 2e 80 be 76 10 7d bc
       -0.262544 0.9068778 -0.25035778 -0.015445819
000100 4f a8 94 be 74 9e 03 be 70 fc b7 be eb 95 a2 be
       -0.2903466 -0.12853414 -0.35934782 -0.31755003
000110 a8 af 65 3f b2 77 c1 bd 03 52 08 b8 63 a5 d6 3f
       0.89721155 -0.09446658 -3.2501306e-05 1.6769222
000120 07 19 cb 3f f8 bb f1 3f 95 3f 3c 3f 3d 23 19 be
       1.5867013 1.8885489 0.7353452 -0.14954849
000130 bb d1 96 3b db ff 16 be 92 3c a5 be 13 b8 a6 be
       0.0046026385 -0.14746039 -0.32272774 -0.32562312
000140 f4 0f e8 bc f4 56 e9 3e 43 14 f5 3f 0e 4f f6 b7
       -0.02832792 0.45574152 1.9146808 -2.9362298e-05
000150 40 08 ad 3e ec 47 f9 bd ec 06 28 be 92 e5 e2 3f
       0.33795357 -0.12171921 -0.1640889 1.7726309
000160 29 8f 0b 3f 54 b7 68 bd 3e 8d 2f b8 1c 61 de bd
       0.5451532 -0.05681546 -4.1854793e-05 -0.10858366
000170 c9 eb eb 3f df 35 d6 3f 6e a0 1e 39 6c 6d a8 be
       1.8431331 1.673519 0.00015127819 -0.32895982
000180 d1 35 c7 3f 0f 48 c0 3e d0 82 45 b8 95 eb d5 3f
       1.5563298 0.37554976 -4.709029e-05 1.6712519
000190 03 a9 f7 bd db 35 39 be a5 1d 88 be 77 63 12 be
       -0.12092783 -0.1808695 -0.26585117 -0.14295755
0001a0 fa f8 6b be 3b 00 a3 3f ba 9d ca 3f bd 91 d5 3f
       -0.23044196 1.2734445 1.5829384 1.6685101
0001b0 60 26 6e b8 d2 9e f6 3f 78 82 eb 3f 4d 4e ce 3f
       -5.677936e-05 1.9267218 1.8399191 1.6117646
0001c0 f7 18 65 3e e4 07 e1 3f d4 bb e7 3f 21 d1 4d b8
       0.22372805 1.7580533 1.8104196 -4.9070575e-05
0001d0 92 cf ca bd 29 eb 9e be 34 21 c4 3e 41 23 e3 3f
       -0.09902872 -0.31038788 0.38306582 1.7745134
0001e0 b1 68 e1 3f dc 0f e1 3f b3 25 e3 3f b6 e4 46 3f
       1.7610074 1.7582965 1.774588 0.77692735
0001f0 35 c8 d4 bc 10 bf 34 b8 6d 6f 2d 3f 97 27 f7 b9
       -0.025974372 -4.3093285e-05 0.6774815 -0.00047141008

layer2.weight f4 [128, 128]
000000 67 cd da bc f9 46 0d 3d 10 75 cd 3c cf bb c2 bd
       -0.026709272 0.034491513 0.025080234 -0.09508478
000010 31 5e 74 bd 2c 61 aa bd 85 80 24 bd 6a 43 06 3d
       -0.05966014 -0.08319315 -0.04016163 0.032779135
000020 eb db 16 3d 80 f3 39 bd 55 8d 9b bd d3 f8 77 3d
       0.036830824 -0.045398235 -0.07595316 0.06054003
000030 9a ce 20 3d 57 09 38 3c fd 49 c1 bd cb ef 2d bb
       0.03925953 0.011232696 -0.0943794 -0.0026540633
000040 cf a0 02 bd cf 79 78 bc a5 ae bf 3b 36 91 cc bc
       -0.03189164 -0.01516576 0.0058496767 -0.024971586
000050 85 71 99 3d 45 36 23 bb 96 48 4b bd 41 4e 17 3d
       0.07492355 -0.0024904173 -0.04962977 0.036939863
000060 e5 50 46 bd 9a 3a 94 bd 16 fc 55 3d af b2 9c bd
       -0.04841699 -0.0723774 0.05224236 -0.07651269
000070 24 36 8c bc f4 e8 a5 bc 66 4f 1e 3d ae f5 ad bc
       -0.01711566 -0.020252682 0.03864994 -0.021235313
000080 15 da 11 bd 27 59 37 3d 08 89 2b 3d 7e 9b 4d 3d
       -0.03560837 0.044762757 0.04187873 0.050197117
000090 44 e5 04 3c 73 2d a8 3c 87 de b7 bd 9a c8 52 bd
       0.008111302 0.020529484 -0.089779906 -0.05146084
0000a0 a9 b6 41 3d ae 0b d3 bc cf 28 98 bb 56 26 7f 3b
       0.04729334 -0.025762405 -0.0046435366 0.0038932762
0000b0 e6 89 9d 3c 0f f8 76 bd 2d 7f a5 bc f8 aa 45 3c
       0.019230794 -0.06029516 -0.020202244 0.012064688
0000c0 ac ff 7d bd 2b 31 45 3d 65 68 10 bd 4b d9 07 3d
       -0.062011406 0.048142593 -0.03525581 0.03316621
0000d0 6e c0 21 3c 9c 69 17 bd 69 df dd 3a ce 86 64 bd
       0.009872539 -0.03696595 0.0016927543 -0.055792622
0000e0 5f 5e ff bc 40 c3 00 3c 73 bc 2d 3d 7d 58 0d 3d
       -0.03117293 0.007859051 0.042416047 0.034508217
0000f0 ca 6a 6e bd ff 97 8f 3d d6 4f 87 3d 80 04 04 3d
       -0.05820731 0.07011413 0.06607024 0.032230854
000100 e1 0e 46 3c 10 2f 95 bd ac 01 0b bd 60 e7 88 bd
       0.012088508 -0.07284367 -0.03393714 -0.06684756
000110 72 e1 98 3d 4b 3d ea 3c 38 78 35 3d cf 29 c5 bd
       0.07464875 0.02859368 0.044304103 -0.09627115
000120 12 1d 27 bd c1 8d c4 bc cd ec 8b 3d 26 f0 88 3d
       -0.040799208 -0.023993375 0.068322755 0.0668643
000130 91 62 f1 3c e3 10 74 bc 2f f1 20 3d c8 37 8c 3c
       0.029465945 -0.014896604 0.03929251 0.017116442
000140 4d 4e cc 3b 7c 14 96 bd 9e 30 52 bd 6a 85 32 3d
       0.00623492 -0.07328126 -0.051315896 0.043584265
000150 67 3a 14 3d 91 cd 36 bc 07 f2 a6 3b f3 39 32 bd
       0.03618851 -0.011157409 0.00509477 -0.043512296
000160 8f aa 63 3c 0a 60 9f bd f4 42 08 3d d6 6d 0f bd
       0.013895645 -0.0778199 0.033266976 -0.035016857
000170 41 bc 67 bd 15 2f 82 3b 19 8a 23 bc 22 d6 cf bd
       -0.056576017 0.003972898 -0.0099816555 -0.101482645
000180 a6 3d 51 3d b9 f7 80 3c 44 1b 46 bd 0a d9 3b bd
       0.051084183 0.015743123 -0.048365846 -0.04586128
000190 a3 9f 93 3d 12 9d e0 bc 2c 82 ce bd 10 b9 5e 3d
       0.07208183 -0.027418647 -0.10083422 0.054375708
0001a0 b3 13 30 3d 62 57 10 3d cb 36 18 bd f2 85 89 bd
       0.042987537 0.035239585 -0.03716163 -0.06715001
0001b0 b4 e9 5c 3d af f2 20 3c 90 ae a3 bd c8 53 db bc
       0.053933814 0.009823485 -0.079922795 -0.026773348
0001c0 65 b1 75 bd 34 3c 6b bd 8a 82 8d bc e5 4a c7 3c
       -0.05998363 -0.05743046 -0.01727416 0.024327705
0001d0 fc 69 ad bd 74 8b 9b bb 2a 38 06 3e 29 a6 e8 bc
       -0.084674805 -0.0047468487 0.13107362 -0.028399544
0001e0 8a a1 9e 3c e3 15 36 bd f1 aa 8d 3d bd e9 94 bc
       0.019364137 -0.044454467 0.0691737 -0.018177861
0001f0 d1 92 09 3d 92 33 ac 3c 61 b2 aa bd bc 81 2e bc
       0.03358728 0.021020684 -0.08334804 -0.010651048
000200 6d 4b af bd b0 2f c5 bc d1 7e 8f 3c 64 b1 de ba
       -0.08559308 -0.02407059 0.017516525 -0.0016990122
000210 c8 31 ac 3d 4b 30 ae bd 29 f3 16 3d 20 91 c3 3c
       0.084079325 -0.08505305 0.03685299 0.023872912
000220 14 85 ef bc bb cd 80 3d be 1b ab bd e2 cc af bc
       -0.029238261 0.0628924 -0.08354901 -0.02146
000230 63 20 f8 3c b8 13 99 3e 8a be 2c 3d ed ab 18 bd
       0.03028888 0.29897857 0.0421739 -0.037273336
000240 7e 03 59 3d 37 08 1a 3f 45 21 ad bd 57 a5 fe 3e
       0.052981846 0.60168785 -0.08453611 0.4973552
000250 72 d8 51 3e 74 1e c7 bd e4 bd 81 bd 6a 65 25 3f
       0.20492724 -0.09722605 -0.06335047 0.6460787
000260 8b fb aa 3f 74 32 f6 3e 90 34 0a bd 0e bd 18 bd
       1.3358015 0.48085368 -0.033741534 -0.03728967
000270 04 6e 88 bd 0a 36 6f 3c 50 4e 02 bd ec 4b 30 3f
       -0.06661609 0.014600286 -0.031812966 0.6886585
000280 db 39 2c bd 5a e4 b0 bc 34 15 2a 3d c8 20 4e bd
       -0.042047363 -0.021593262 0.041524127 -0.05032423
000290 1d 62 c4 bc b5 f1 a5 3f 7b 34 ae 3f f4 8b af 3f
       -0.023972565 1.2964388 1.3609766 1.3714585
0002a0 f6 1f 1e 3d 73 84 2a 3d 3a 44 ae 3f f8 75 b9 3f
       0.0386047 0.04163022 1.3614571 1.4489126
0002b0 a8 c6 b5 bc 8c eb 82 bc 7e 3d 5e bd 0c af 01 3e
       -0.022189453 -0.015981458 -0.054257862 0.12664431
0002c0 9c 52 83 3d 58 d7 87 3b d1 1a ab 3f f6 b4 b9 3d
       0.06412241 0.004145544 1.3367559 0.09067719
0002d0 da de e4 3d 61 38 ef 3c 24 a6 14 bd 30 57 09 3e
       0.11175318 0.029201688 -0.036291257 0.13412166
0002e0 f6 82 59 3d 4b 6c 9b 3d fc c8 f0 bb 30 b9 cc 3d
       0.05310341 0.075890146 -0.007348178 0.09996259
0002f0 de d0 c9 bc 8c 72 1c 3e ba 05 a5 3b f0 0e cc bc
       -0.024635728 0.15278071 0.005036083 -0.024909467
000300 d8 dc 2c bd fa 66 a3 bc ff cf c5 3c 7d 0c 22 bd
       -0.0422028 -0.019946564 0.024147032 -0.03956269
000310 9f d5 4a 3e 83 c9 c2 bd f0 2b b3 bc 51 60 33 3f
       0.19808052 -0.095110916 -0.021871537 0.7006884
000320 61 b6 b3 3f 51 68 af 3f 95 1f ee 3c d1 1a 95 3d
       1.4040033 1.370371 0.029067794 0.072805054
000330 23 33 52 bd 69 5e 9b 3c 1e b6 fc 3c 65 66 8e 3d
       -0.0513183 0.018965917 0.030848559 0.06953124
000340 de 17 61 bd 07 5f 11 bc 5c b0 a7 3f 05 c1 7a bd
       -0.054954402 -0.008872754 1.3100696 -0.061219234
000350 f1 95 4c 3d 43 ac 8d bd 62 e5 ad bc 64 dc aa 3f
       0.049947683 -0.06917622 -0.021227542 1.3348508
000360 20 f3 fc 3c 2e 92 7d 3d 82 f9 9c bd 48 dd 93 bd
       0.03087765 0.061906986 -0.07664777 -0.072199404
000370 f7 f8 9f 3e 24 e4 b6 3f 6e 62 18 bd 07 7d 2c 3d
       0.31244633 1.4288373 -0.037203245 0.042111423
000380 1d 13 9d 3e 4d 2c a4 3d e3 8c 49 bd be 79 ad 3f
       0.30678645 0.08016262 -0.049206626 1.3552778
000390 4d a7 9b bd f3 27 9e 3d d0 c9 17 bd f2 2b ec 3c
       -0.076002695 0.077224635 -0.037057698 0.028829549
0003a0 db 2b 82 3d d9 55 82 3e b3 77 61 3d 97 6e b6 3f
       0.06356021 0.25456122 0.055045795 1.4252499
0003b0 f3 d7 7a 3b 08 81 ae 3f 28 81 ab 3f 14 ae ba 3f
       0.0038275688 1.3633127 1.339879 1.4584374
0003c0 76 85 50 bd 03 61 fa 3e a3 e3 b4 3f f8 84 af bd
       -0.05090853 0.4890214 1.4131969 -0.08570284
0003d0 6a 22 91 bb b2 ba 03 3a 74 48 8b 3e bd 21 b9 3f
       -0.0044291513 0.0005025073 0.27203715 1.4463421
0003e0 d5 0e ac 3f a8 fd 96 3e 05 a8 b7 3f 83 74 98 3d
       1.3442026 0.294904 1.434815 0.07444098
0003f0 20 95 bf bd ef 81 fa bb 27 8c 4f bd 34 17 16 bc
       -0.09354615 -0.007644884 -0.05067077 -0.0091608055

layer2.bias f4 [128]
000000 5c 88 53 3d 20 2d a0 3f 3b 81 44 3d a7 04 44 bd
       0.051643714 1.2513771 0.047974806 -0.047856
000010 ad be 1c bd c4 78 a4 3f a3 f6 46 bd a0 d8 9e 3f
       -0.03826778 1.2849355 -0.048575055 1.2409859
000020 e3 e7 02 bd 88 15 8e bd 37 0a 0f 3e 57 aa a9 bd
       -0.031959426 -0.069377005 0.1396874 -0.08284443
000030 3a 2b 26 3f b0 86 aa 3d 72 98 f5 3d 26 a8 40 3e
       0.6490971 0.08326471 0.11991967 0.18814144
000040 82 11 09 3e 7e 79 2f 3d 55 2d cd 3a ab 03 09 3d
       0.13385585 0.042840473 0.0015653769 0.033450764
000050 59 41 a1 bd 0f bd 21 3d b4 81 a3 bd d4 a4 dd 3c
       -0.07873792 0.03948694 -0.07983723 0.027056135
000060 ee 78 8d 3d 1f e6 4a 3b 02 0a 95 3f 15 19 69 bd
       0.06907831 0.0030959917 1.1643679 -0.056908686
000070 90 9c 8c 3e 73 dc 20 3d 23 d3 4a bd 36 94 7f 3d
       0.27463198 0.039272737 -0.049517762 0.062397204
000080 b4 86 ac 3c 37 73 b0 3d 5a 80 53 3f ef 09 0b 3e
       0.021060325 0.086157255 0.82617724 0.13578008
000090 98 c0 58 bb ff d2 a4 3f 8f 39 fc bc df 5d a5 3f
       -0.003307378 1.2876891 -0.030789165 1.2919272
0000a0 df db 1d bd 20 92 0f bd d1 75 fd 3d 7e f4 5f 3e
       -0.038539764 -0.035051465 0.12375987 0.2187061
0000b0 fb 5b 74 bc b0 e3 56 3d 33 de e7 bc 5d d2 87 3f
       -0.014914508 0.052463233 -0.028304195 1.0611073
0000c0 c9 bb 82 3d e5 94 9d bc b4 72 4b bd 1f 6f 13 3d
       0.063834734 -0.019236038 -0.049669936 0.035994645
0000d0 c3 6b a7 3f ff bc 9c bd 46 6b 3e 3f 40 db f7 3d
       1.3079761 -0.07653236 0.74382436 0.121023655
0000e0 0f 3d ba 3b 07 9b ba 3b fb 4d 99 bd ff dc 0c 3f
       0.0056835483 0.00569475 -0.07485577 0.55024713
0000f0 a2 68 9e 3d 3b 0f 9e bc 06 b9 28 3e 6f e2 38 3d
       0.07734801 -0.019294372 0.16476831 0.04513782
000100 01 fe 8b bd 2f ff 81 bd fc 36 9b 3f d5 06 2a 3e
       -0.06835557 -0.063475005 1.2126155 0.16604169
000110 92 15 0f bd 44 33 55 bd 3a 99 6d bc 6b e3 f5 bc
       -0.03493268 -0.052050844 -0.014501864 -0.030015668
000120 0d 74 60 3e ee 0f 71 3e 01 82 16 3e 89 03 eb 3d
       0.2191927 0.23541233 0.1469803 0.11475284
000130 4a 67 1e 3d d0 01 a1 bd ff 8c 7c 3e cb 30 30 bd
       0.038672723 -0.07861674 0.2466316 -0.043015283
000140 f5 bc 12 3d 10 21 49 bd b0 f4 8f 3c 56 fa b8 3d
       0.035824735 -0.049103796 0.01757273 0.09032123
000150 d6 4f 9f bd 65 63 0c 3c e9 0a 9a 3d 13 ff 83 bd
       -0.07778899 0.008568619 0.07521612 -0.06445136
000160 10 a8 b1 3c 68 84 70 3e 80 de d7 bb af a7 98 bd
       0.021686584 0.23488009 -0.0065878034 -0.07453858
000170 79 da 47 bc 94 3b a3 bd c7 d8 75 3e 6f ad 22 3e
       -0.012198084 -0.07970348 0.24008475 0.15886472
000180 89 10 92 bd 0f 6f 40 3d 01 92 18 3d 20 7d b0 bc
       -0.0713206 0.046980914 0.037248615 -0.02154404
000190 9e 96 db 3c b7 a7 10 bb 8d 59 b3 3d ab 44 5b bd
       0.026805218 -0.0022072622 0.08757315 -0.053532284
0001a0 72 d6 1b bd 87 2a 7e bd ac 71 16 bc a2 78 36 3d
       -0.038046308 -0.062052276 -0.009182375 0.04454864
0001b0 ee bf 9f 3f bd f9 92 3d 7c 8b 08 bc 21 f5 12 3c
       1.2480447 0.0717654 -0.008334037 0.008969576
0001c0 0e 65 ce 3c 3a 2b 18 3c 99 b2 3c bd da 01 04 3f
       0.025194671 0.00928765 -0.04606876 0.51565325
0001d0 6d 36 80 3e 6c f1 a3 3f ff a6 38 bd 85 73 90 3f
       0.25041524 1.2808051 -0.045081135 1.1285254
0001e0 bd 11 00 bd a9 68 b9 3d 18 a9 c3 3a df 1e bb 3d
       -0.031266917 0.090531655 0.0014927713 0.091367476
0001f0 36 a1 b3 bc d4 98 53 3e 25 42 4c 3d 6c ac 4c bd
       -0.021927457 0.20663768 0.049867768 -0.04996912

layer3.weight f4 [3, 128]
000000 dc 64 1a 3c 14 b4 78 3f e5 8f 89 bd 9f fc ac 3c
       0.009423461 0.9714978 -0.06716899 0.021116553
000010 52 e9 da 3c 42 41 82 3f bd f2 7c bd 73 e9 91 3f
       0.026722584 1.0176165 -0.06175493 1.1399368
000020 b1 86 a6 bc 0f 3d 88 bd f3 2f 27 3c f1 53 e6 3c
       -0.020327898 -0.06652271 0.010204303 0.028116198
000030 3e 5c 88 3e 05 e6 6b 3d 06 75 8a 3d 45 11 10 3d
       0.26632875 0.05759241 0.06760602 0.03517272
000040 01 ac cc 3d 3b 00 db bb d2 1b 20 bb 05 13 88 3b
       0.09993745 -0.006683377 -0.0024430645 0.004152658
000050 7b 34 32 bd 7e d1 3d 3b 1a 47 3b bd ca 08 8f bd
       -0.04350708 0.0028963978 -0.045722105 -0.06984098
000060 46 0f 89 3d eb 48 71 bd df 2e 7a 3f 12 ae 58 bd
       0.06692366 -0.05890743 0.9772777 -0.05290038
000070 05 fc 2b 3e cb a2 f6 3c 3b 4c f3 ba b8 44 50 3c
       0.16795357 0.030106923 -0.0018562147 0.012711696
000080 5f c8 25 bb 2a 36 72 3d 2e 92 8c 3e 39 f1 b4 3b
       -0.0025296432 0.059133686 0.27455276 0.00552192
000090 1b c5 71 bc 3e fe 8b 3f 5a 50 a4 3d 32 a4 8f 3f
       -0.014756466 1.0936964 0.08023138 1.1221983
0000a0 3c f7 83 bc 43 06 42 3d 2a a0 66 3b bd 92 81 3b
       -0.016109101 0.047369253 0.003519068 0.00395426
0000b0 a4 93 81 bd 10 f8 c8 b9 ab 2b c7 bc a8 cd 72 3f
       -0.06326988 -0.00038331794 -0.024312815 0.94845057
0000c0 5f 8b 80 3d 91 4e 9c bc 33 56 98 bd d5 38 47 3c
       0.06276583 -0.019080432 -0.07438316 0.012159546
0000d0 0d e7 74 3f 96 71 27 bc 54 d3 fe 3e 79 6c a0 3d
       0.95665056 -0.010219952 0.49770606 0.078331895
0000e0 83 dd 77 3b 40 56 28 bd 81 7c 93 3d 15 28 1a 3e
       0.003782124 -0.04109788 0.072014816 0.15054353
0000f0 8b ba 27 3e 72 96 61 bc 60 7f 73 3c 1a 1f 35 bc
       0.16379754 -0.013768779 0.014861912 -0.0110547785
000100 f2 aa 8c 3d b7 47 96 3d be 0b 8f 3f cb 94 6a 3d
       0.06868543 0.07337897 1.1175458 0.057270806
000110 a9 87 db bc 85 bf 0b bd 2a 70 6b 3d 3b 68 1c bc
       -0.026798086 -0.034118194 0.057480015 -0.009546335
000120 39 bb a0 3d 7a 2c 12 3e d7 92 28 3d 27 66 a4 3d
       0.0784821 0.14274779 0.041155662 0.080272965
000130 bb 2b 39 3d e0 46 3d bc 77 f2 1c 3e d1 c1 68 bc
       0.04520772 -0.011552542 0.15326868 -0.014206366
000140 4f db 92 bd c8 6e 0b bd bb 78 8e bd b1 f0 bc 3d
       -0.07170736 -0.034041196 -0.06956621 0.09225596
000150 88 79 fc bc 1d 30 9d bd 14 82 59 3d 7a a3 eb bc
       -0.03081967 -0.076751925 0.053102568 -0.028764475
000160 99 38 c4 3c 5f 67 2e 3e 87 47 85 3e fe ea 16 bd
       0.02395277 0.1703162 0.26031134 -0.0368452
000170 82 93 e6 bc f9 ae 47 3d c7 ae 06 3d bd ed 57 3d
       -0.02814651 0.04875085 0.032881524 0.05271696
000180 4e dc 26 3c 10 cb d5 bd 4f ec 47 3d 29 73 03 3d
       0.010184361 -0.10439122 0.048809346 0.032092247
000190 25 43 2e bd 1f 6d 15 bd 76 ec 7f 3c d5 54 8a bd
       -0.042544503 -0.03648102 0.0156203415 -0.06754462
0001a0 b3 a5 37 3d d5 5f 9c bd ea dc 41 bd 7a d4 9e 3d
       0.044835757 -0.07635466 -0.04732982 0.077553704
0001b0 ab 0d 97 3f f7 1b 5b bd fa a0 6a bd e3 5e 7a bd
       1.1801046 -0.053493466 -0.057282425 -0.061125647
0001c0 f2 c5 3d bb 25 27 2d bd 6f 9a 5f bd eb 20 92 3e
       -0.0028957096 -0.04227366 -0.05459064 0.2854074
0001d0 40 64 26 3e c1 ad 91 3f 9e 07 56 bd f7 8c 39 3f
       0.1624918 1.138115 -0.052253358 0.7248072
0001e0 b2 f2 fb bc 11 99 28 3d e2 41 1f bd 4a c3 57 3d
       -0.030755375 0.0411616 -0.03888119 0.052676477
0001f0 3c 7d 19 bd c6 18 2a 3d 48 9a 8a 3d eb e9 46 bd
       -0.03747295 0.041527532 0.06767708 -0.048562925
000200 6a e2 fe bc f5 19 97 3f 90 75 f9 bb 67 7a c9 3b
       -0.031113822 1.1804796 -0.0076128915 0.0061486247
000210 1b 04 a2 3c a3 19 83 3f 07 da c9 bc a7 6a 8e 3f
       0.019777348 1.0242199 -0.024640096 1.1126298
000220 eb df 72 ba dc ab 1f bd 1b 01 cc 3d 17 ed 95 bd
       -0.0009264934 -0.038982257 0.09961148 -0.07320612
000230 e7 5d ab 3e 2c 5c b0 3d ea 16 38 3d 89 96 99 3d
       0.3347008 0.086113304 0.044943728 0.074994154
000240 bc 34 8f 3d a1 15 9d 3c b4 e5 71 3b 3d 10 ff 3c
       0.0699248 0.019175353 0.0036910595 0.031135673
000250 2c 8b 4e bd 62 c0 65 bd 98 72 84 bd 62 a7 c8 3c
       -0.050425693 -0.056091674 -0.064671695 0.024493877
000260 23 27 e2 3d 83 58 96 bd a1 9d 8c 3f e3 be f6 bc
       0.11042621 -0.07341101 1.0985605 -0.030120319
000270 13 42 1e 3e a3 1c 8a bd a2 f8 69 bb c3 2a ac 3c
       0.15454893 -0.06743743 -0.0035701175 0.021016484
000280 df 9a 4d bd ad a2 21 3d 1c 4f 6c 3e 9b 6a cc 3d
       -0.050196525 0.03946178 0.23077053 0.09981271
000290 c5 1e 06 bc 98 6f 85 3f 08 12 12 bd e4 a3 89 3f
       -0.008186047 1.0424681 -0.035661727 1.075314
0002a0 e6 59 90 bb 0c 18 a0 bc e9 21 77 3d 28 a6 d2 3d
       -0.004405248 -0.019542716 0.060335074 0.10285598
0002b0 d1 08 e8 bc b4 a7 12 bd cf ee 43 bd a2 83 20 3f
       -0.028324516 -0.035804465 -0.047835167 0.62700856
0002c0 94 11 45 bb db 31 04 3c f7 7f 9b 3d 80 e5 84 bd
       -0.0030070292 0.008068527 0.07592767 -0.06489086
0002d0 5c 0b 79 3f 4f 28 61 3d 84 88 18 3f 1f 5c a4 3d
       0.9728296 0.054970082 0.59583306 0.08025383
0002e0 6a 1a ca bc 33 68 90 3d 46 19 b1 3d 7e b2 4d 3e
       -0.024670798 0.070511244 0.08647399 0.2008762
0002f0 67 aa d9 3d 35 ae 7d bd 9a 30 8b 3d d4 df 66 3d
       0.10628205 -0.061933715 0.067963794 0.056365803
000300 af a8 33 3d 5c 98 83 3d de f3 91 3f 8f 44 c7 3d
       0.04386204 0.064255446 1.1402547 0.097298734
000310 20 4e 09 bd 41 b8 9b bd 49 3f 7d bc cb d4 b3 bd
       -0.03352177 -0.07603503 -0.015456983 -0.087808214
000320 c0 0e 38 3d e7 ff e1 3d 23 4a 94 3d 43 f8 7e 3d
       0.04493594 0.110351376 0.07240703 0.06224848
000330 92 d9 6f 3d bc 15 07 bd e4 f2 20 3e 12 f9 41 bd
       0.0585571 -0.032979712 0.15717655 -0.047356673
000340 b0 d8 a3 bc 54 91 0d 3c be af 20 bd ea a9 80 3c
       -0.020000786 0.008640606 -0.0392301 0.015706021
000350 2c 0e fe 3c ca 32 f5 bb 9b b9 1c bd 02 6a a6 3b
       0.031012617 -0.007482861 -0.038262945 0.005078555
000360 e3 c7 9d 3c 31 5e cf 3d ad e9 57 3e f7 59 94 3d
       0.019260352 0.101253875 0.21085234 0.07243722
000370 52 fe ec 3c 7f 45 99 3d bc eb bc 3d f7 08 5d 3c
       0.028929863 0.074839585 0.0922465 0.013490907
000380 92 fb 41 3d f4 13 1e bd 89 03 90 3d fa 55 37 bd
       0.047359057 -0.038593248 0.07031924 -0.044759728
000390 8b 18 b5 bd 2a d5 83 bd 11 99 85 3d 80 d0 47 bd
       -0.08842572 -0.06437142 0.06523336 -0.048782825
0003a0 b1 51 82 bd f7 67 4a 3c f0 96 0f bd 02 8b 6a bd
       -0.06363238 0.012353889 -0.035056055 -0.057261474
0003b0 9b 62 8c 3f aa 22 55 bb a2 69 a9 3d 7e 1d e5 bc
       1.0967592 -0.0032521882 0.08272101 -0.027968165
0003c0 5e 54 cb 3c 1c 3f 13 bd 82 39 ee 3c 2a 8c 9e 3e
       0.024820503 -0.035948858 0.029080156 0.30966312
0003d0 ab 38 82 3e 14 1f 8c 3f 73 34 77 bd c8 a4 3c 3f
       0.2543386 1.0946984 -0.060352754 0.73688936
0003e0 27 6a 32 bd a8 e6 28 bc 87 5e 3d bb fb e3 68 bc
       -0.043558266 -0.010308899 -0.0028895454 -0.014214511
0003f0 96 bf 87 3c 12 36 41 3d e0 dc bb 3d 11 c0 1b bd
       0.016570847 0.047170706 0.09172988 -0.038024966

layer3.bias f4 [3]
000000 f9 d8 18 3e 0f d1 00 3e 5b 62 0a 3e
       0.14926518 0.1257975 0.13514082
