models/rl_models/06.03.24_with_rewards_for_each_3_seconds/best_policy_dqn_model_epoch_26.pt (torch, 74158 bytes, 6 tensors)

layer1.weight f4 [128, 6]
000000 e9 6a b6 3e 0a 13 42 3d ae 7f c8 3e 7d 7c 96 3e
       0.3562844 0.04738144 0.39159912 0.29391852
000010 24 4c 2c be bb 5f 0b 3e b3 05 85 3d 76 f0 94 be
       -0.1682592 0.13610737 0.06495228 -0.29089707
000020 e2 77 d2 bd b4 69 b0 be ae 0d 96 3e 4d 1f 00 be
       -0.10276772 -0.34455645 0.29307312 -0.1251194
000030 60 92 ed bd cc 5b 71 bd ab f3 7c 3e 1e 81 c9 3d
       -0.116001844 -0.058925435 0.24702327 0.0983908
000040 4c 2f e2 3d 2b a3 85 3e 5e 24 0f 3e 85 4b 44 bd
       0.110441774 0.2610105 0.13978717 -0.047923584
000050 81 be 14 3d 7f 2b 5a be b1 b1 83 be 37 0d b5 bc
       0.03631449 -0.21305655 -0.25721505 -0.022101028
000060 90 3e 59 3e a5 d3 8a 3d 03 e5 4e be dd a7 02 3e
       0.21215272 0.06778649 -0.20204549 0.12759347
000070 34 f8 a6 be 00 37 bf 3e d6 6b 32 3e b1 30 cd bd
       -0.3261124 0.3734665 0.17423949 -0.10019053
000080 17 77 50 be 95 f0 09 be a1 f2 44 be b3 5b 60 3c
       -0.20357929 -0.13470681 -0.1923318 0.013693738
000090 5f 0c 97 3e 38 ad ef bd b2 a5 3d 3e 07 c5 5b be
       0.29501626 -0.11702961 0.18520239 -0.21461879
0000a0 85 4a 05 be 51 d5 70 be d2 15 9b 3b 54 68 a0 be
       -0.13016708 -0.23518874 0.004732826 -0.31329596
0000b0 ed 1e 80 be 67 4d 02 3e b0 36 b7 3d ec dc ac be
       -0.25023594 0.12724839 0.08945978 -0.337623
0000c0 85 97 b4 3d d2 6d 26 3e bd f2 50 be 71 90 cb 3d
       0.088179626 0.1625283 -0.20405097 0.099396594
0000d0 a1 70 2a be b8 3e c9 3d e1 ab b1 3e 18 36 33 3d
       -0.16644527 0.09826416 0.34701446 0.04375276
0000e0 14 a3 30 be 46 76 7b 3e f0 66 d5 3d 2a 66 80 3e
       -0.1724971 0.24556836 0.104200244 0.25077945
0000f0 c6 72 3f 3e a7 2a 67 3e 55 d3 96 be 4c d1 a6 3e
       0.18696126 0.22574864 -0.2945811 0.32581556
000100 4a 64 40 3d 45 b9 a1 3e 9f 60 c0 bd 6b 43 50 3d
       0.046970643 0.31586662 -0.09393429 0.050845545
000110 a1 de 9c 3e f3 7f 08 be 0d 64 99 be 21 91 3e be
       0.30638602 -0.13330059 -0.29959145 -0.1861005
000120 25 da a8 3e ec 10 c8 3e 95 b4 b6 3d cb 3b 51 be
       0.3297893 0.3907541 0.08921162 -0.20432965
000130 c0 86 70 3e 4a db a4 bd 3d f5 ec 3d ba 41 b4 bd
       0.23488903 -0.080496386 0.11570213 -0.08801599
000140 50 5d 94 be 20 31 be 3e f8 fb 93 be ba 74 92 be
       -0.28977442 0.37146854 -0.28903174 -0.2860468
000150 7f 41 96 be d2 dd 86 3e bb d6 45 be 70 cf 2d 3e
       -0.29346845 0.2634111 -0.19320194 0.16973662
000160 8f fa b1 bc 87 9f 4f 3e 47 74 15 3e 45 50 70 3e
       -0.021725921 0.20275699 0.14595138 0.2346812
000170 05 e2 94 3e 21 f3 16 3e ef f5 8c 3e f8 85 09 3d
       0.2907869 0.14741184 0.27531382 0.03357503
000180 52 fb 9a 3d c4 f5 f4 3c b9 8e a4 be e8 14 34 3d
       0.07567467 0.029902346 -0.3214014 0.04396525
000190 6a 0f bd be 95 7c 51 3e 20 80 b3 be a1 5b 56 3e
       -0.36925822 0.2045768 -0.3505869 0.20933391
0001a0 be 5e 0a be 5a 0d 7c be 8e eb a2 3e a3 02 07 3e
       -0.13512704 -0.24614468 0.3182034 0.131846
0001b0 4d cd 10 3e b5 cb f9 3c fa 05 24 3d 47 ad a0 3e
       0.14140816 0.030492643 0.040044762 0.313822
0001c0 e5 78 a4 3e fd a7 f1 bd 8a 9c 89 be 10 5e 4d 3e
       0.32123485 -0.11799619 -0.26877242 0.20055413
0001d0 c9 d6 99 be 60 40 9e be 71 8b 9e 3e 8f a2 a3 3e
       -0.3004668 -0.3090849 0.3096576 0.3195996
0001e0 08 4d 4c 3e b7 88 9e be 78 90 49 3e 81 ee 64 3e
       0.1995126 -0.3096368 0.19684017 0.22356607
0001f0 9e 08 41 3d 93 d8 ab 3e b5 c9 37 bc c6 3a 9e 3e
       0.04712736 0.3356367 -0.011217524 0.30904216
000200 60 c5 99 be 52 e6 83 3e 07 a1 27 3d 02 95 27 be
       -0.30033398 0.25761658 0.040925052 -0.16365436
000210 8e f4 06 be ac 63 71 3e 6a 97 86 3e 3c 55 f2 bd
       -0.13179228 0.23573178 0.26287395 -0.118326634
000220 cc eb 7d bc b1 ac 12 be f5 50 5f 3d fb 72 9f 3c
       -0.015498113 -0.14323689 0.054520566 0.019464007
000230 21 b9 19 3e 42 8a 5e be 93 e7 cb bd bf 7e 77 be
       0.15012027 -0.21732429 -0.09956279 -0.24169444
000240 ac 6a 67 bd 8a dd 1d be 26 11 b6 3e 59 f5 14 be
       -0.056498215 -0.15416542 0.35559958 -0.14546718
000250 7d dd c9 bd 6c fc c0 be c9 34 97 be d0 39 ad 3e
       -0.09856699 -0.37692583 -0.2953246 0.3383317
000260 fb 89 05 3e 18 f1 ab bd 63 11 92 be 68 99 aa be
       0.13040917 -0.08395594 -0.2852889 -0.33320165
000270 73 72 ae be 49 a5 9b be 72 ed 11 3e 9e 1d 44 3e
       -0.34071693 -0.3039954 0.14250734 0.19151923
000280 63 d8 e0 bc f3 f4 73 be c2 ff 9c 3e 95 a0 e7 3d
       -0.027446931 -0.2382391 0.30663878 0.113099255
000290 a7 7c e2 3d c8 04 8e be d6 b9 8f be 9f 40 a2 3b
       0.11058932 -0.27738023 -0.2807147 0.004951551
0002a0 bc b0 a9 3e 74 06 95 3e 1e 23 5b 3d ab 4d 94 be
       0.3314265 0.29106486 0.053500287 -0.28965506
0002b0 7b 14 97 3e cc 0f 33 be 6c 21 87 be f6 f7 12 be
       0.29507813 -0.17486495 -0.26392686 -0.14352402
0002c0 ac 52 26 3e f8 00 ad be 88 63 66 be b8 47 94 3d
       0.16242474 -0.33789802 -0.22498906 0.07240242
0002d0 6e 15 d0 3d 0b 22 a8 3e 11 6b 9d 3e 7e fa 2b 3e
       0.101603374 0.32838473 0.30745748 0.16794774
0002e0 d0 f4 04 be dc b2 02 3e 59 14 02 bd db a5 ad 3c
       -0.12984014 0.12763542 -0.031757686 0.02119725
0002f0 2a 54 c7 3d e2 17 bb be c9 08 a5 3e 02 ed b1 3e
       0.0973285 -0.3654166 0.32233265 0.34751135
000300 81 2e 9f 3c a7 7a f5 bd 4a f8 91 3d d1 57 9f 3d
       0.019431354 -0.11986285 0.071274355 0.077804215
000310 c1 60 ba be 87 62 f5 3d 9e 1c 7e 3d 7b db aa be
       -0.36401942 0.11981683 0.06203901 -0.33370575
000320 6a 2d 9d 3d db 14 30 be 80 88 95 3e c2 e1 26 3d
       0.07674678 -0.17195456 0.29205704 0.040742643
000330 b7 c6 a2 be 17 e2 46 3b 33 31 8a be e1 0b b8 3d
       -0.31792232 0.0030347162 -0.2699066 0.08986641
000340 c0 d0 4d 3e 81 6c 3b 3e c3 ac cb bd 86 ba c0 3e
       0.20099163 0.1830311 -0.09945061 0.37642306
000350 ac e4 ea bb 78 bd 3d 3e fd da 57 be fc e4 07 be
       -0.007168373 0.18529308 -0.21079631 -0.13270944
000360 34 4e 22 be 70 4c 41 be ed cc 39 be bd ba 1e 3e
       -0.15850145 -0.18876815 -0.18144579 0.15500923
000370 97 a6 5d be a0 d3 dd 3d 9e b6 07 3e 11 3d 2a be
       -0.2164558 0.1083138 0.13253257 -0.16624857
000380 49 fe be 3e cf 64 b6 be 6d cb 5f be 92 7d 86 3d
       0.3730338 -0.35623786 -0.21854945 0.065669194
000390 b7 38 ec 3d f3 e2 88 be cb 1a ab 3c 0b 55 80 3c
       0.11534255 -0.2673565 0.0208868 0.015665552
0003a0 ad b9 f7 bd 8b b2 50 3d e4 bf 53 be b0 78 ae bd
       -0.12095962 0.05095152 -0.20678669 -0.08519113
0003b0 9e dc b7 3e 7e bb d8 bd a8 34 ed 3d 24 30 68 3e
       0.35910505 -0.10582636 0.11582309 0.22674614
0003c0 71 e6 b2 be 1c 47 8f 3e 21 63 1e bd 84 f5 3e be
       -0.34941438 0.2798394 -0.038668755 -0.18648344
0003d0 14 b2 16 be 82 31 3c be 95 d4 97 3d 17 9b b7 be
       -0.14716369 -0.1837826 0.07413594 -0.35860512
0003e0 3d 1e 7f 3c 5e 5e 9d 3e 5e dd 08 3e a1 2e 4b 3e
       0.015571174 0.3073606 0.13365695 0.19842006
0003f0 01 40 22 3e e5 9c 9a be 0b 05 29 be 68 23 68 be
       0.15844728 -0.30197826 -0.1650583 -0.22669756

layer1.bias f4 [128]
000000 85 39 02 3e fc 21 0a be a8 c2 f9 3c 54 9c 8c be
       0.12717254 -0.13489527 0.030488327 -0.2746302
000010 e0 5a 0a 3f 26 9f 88 bd ef be 95 be a0 16 d6 bd
       0.54044914 -0.0667098 -0.29247233 -0.10453534
000020 fa 74 d3 b8 18 3c 6b 3f 0e 56 06 be 24 1f 53 be
       -0.000100830526 0.9188857 -0.13118765 -0.20617348
000030 92 13 d6 b7 37 36 83 3f e4 53 56 be 1c 7e 27 3f
       -2.5519901e-05 1.025092 -0.20930439 0.654268
000040 ad 73 7f bc 94 b3 a7 3f 91 df 6a 38 e2 bd a6 3f
       -0.015591544 1.3101678 5.599816e-05 1.3026698
000050 a3 e7 86 3f 45 c9 70 bd 41 bc 4f be 7a 89 b0 3f
       1.053944 -0.058785696 -0.20286657 1.3791955
000060 d0 26 b5 3f 3b 63 b1 3f 66 8f ff bd 3e d7 32 be
       1.415247 1.3858408 -0.12478523 -0.17464921
000070 79 6b a4 be af a4 2c be 92 e1 0f be f2 1e b2 3f
       -0.32113245 -0.16859697 -0.14050892 1.3915694
000080 44 04 a3 be 01 74 ac be 36 11 a1 be 64 52 df bb
       -0.31839192 -0.33682254 -0.31458443 -0.0068152416
000090 e3 1f 8d be ff 00 d2 3f 76 0a c9 3f f7 13 c9 3f
       -0.2756339 1.6406554 1.5706317 1.5709218
0000a0 bc 91 9b be ad 58 c0 bd 14 df b2 3f 6b 88 bb 3f
       -0.30384624 -0.093919136 1.3974328 1.4651006
0000b0 2a d0 1d be 50 d7 7e be 18 e1 88 38 fe 76 66 3f
       -0.1541144 -0.24886823 6.526912e-05 0.9002532
0000c0 96 5c 73 be 25 40 90 3f de 72 c4 3f d2 0c 6c 3f
       -0.23765787 1.1269575 1.5347555 0.9220706
0000d0 66 90 6d 3f eb 55 52 3f 56 2f ca be 2b 97 05 3e
       0.9279846 0.8216235 -0.3948924 0.13045947
0000e0 34 bd 81 be 4d 11 9b 3e 85 b5 b8 be 35 c2 b2 3e
       -0.25339663 0.30286637 -0.36075988 0.34913793
0000f0 b7 88 8d be 86 45 42 3f 64 89 8b be 3e 2c 6b bc
       -0.27643368 0.75887334 -0.27253258 -0.01435381
000100 1f d0 a0 be 64 2b 12 be 43 51 be be 77 d4 a7 be
       -0.31408784 -0.14274365 -0.37171373 -0.32779285
000110 e0 b6 40 3f e9 4f d8 bd f7 d1 64 b8 28 85 bf 3f
       0.75279045 -0.10562117 -5.455498e-05 1.4962511
000120 c2 6c b2 3f e1 4c da 3f 8a 5a 2b 3f b4 0a 1e be
       1.393944 1.7054712 0.66935027 -0.1543377
000130 df 01 15 3d 52 e7 1b be dd 6d ad be 17 1d ac be
       0.036378738 -0.1522496 -0.33872882 -0.33615944
000140 c4 97 03 bd bd 9d ca 3e c2 dd dd 3f fb 2f 8b b8
       -0.032127157 0.3957347 1.73333 -6.6369736e-05
000150 9b 77 91 3e 0b 3d 0b be a5 71 2d be db 00 cb 3f
       0.28411564 -0.13597505 -0.16937883 1.5859636
000160 17 3d d1 3e 31 84 70 bd 76 c9 09 b8 b9 ff 05 be
       0.4086692 -0.058719818 -3.285097e-05 -0.13085832
000170 91 fa d3 3f ce e2 bd 3f d5 1c d5 37 e5 58 af be
       1.6560842 1.483484 2.5405005e-05 -0.3424751
000180 3e d7 ad 3f 02 38 89 3e 6a 55 ce b6 bb 9e bd 3f
       1.3581312 0.26800543 -6.149222e-06 1.4814066
000190 58 f2 ff bd 6d 55 3f be f0 96 92 be ed 4a 17 be
       -0.12497395 -0.18684931 -0.2863078 -0.14774676
0001a0 b7 d1 73 be 1b 31 8a 3f 9e 0c b2 3f 48 47 bd 3f
       -0.23810469 1.0796236 1.39101 1.4787378
0001b0 34 7d 1f bb bf 59 df 3f ae dd d3 3f 2b c8 b5 3f
       -0.0024336101 1.7449263 1.6552026 1.4201711
0001c0 7b 44 7a 3e 92 2c c9 3f 7a f6 cf 3f 37 d7 bb b8
       0.24440186 1.5716727 1.6247094 -8.956942e-05
0001d0 48 f9 e7 bd 01 6f ad be ec 18 a9 3e 44 4f cb 3f
       -0.113268435 -0.33873752 0.33026826 1.5883565
0001e0 7b 68 c9 3f bd 74 c9 3f 7b 50 cb 3f 0b d5 11 3f
       1.573501 1.5738751 1.5883936 0.569657
0001f0 e5 b1 d9 bc cf c6 61 b9 25 21 21 3f d9 89 1c bc
       -0.026574085 -0.00021531734 0.629412 -0.00955435

layer2.weight f4 [128, 128]
000000 20 3b f4 bc c4 fb 11 3d 56 de 07 3d eb 1b c9 bd
       -0.02981335 0.035640493 0.03317102 -0.09819778
000010 82 b1 b4 bd a5 02 b0 bd 89 e5 29 bd 56 ad 0a 3d
       -0.088229194 -0.085942544 -0.041478667 0.033856712
000020 e7 58 19 3d 5c bf 3b bd 2c 14 9c bd aa 25 80 3d
       0.0374383 -0.04583679 -0.07621035 0.06257184
000030 fa 6b 3d 3d 15 aa a8 bc 60 bb af bd 09 06 cd 3a
       0.046245553 -0.020588914 -0.08580661 0.0015642057
000040 bb 0a 07 bd 19 6e 80 bc 0f 5e 11 3c f1 6e d3 bc
       -0.032969218 -0.015677499 0.008872523 -0.025809737
000050 51 c9 86 3d 97 da c3 3a 2d 27 52 bd b6 35 1c 3d
       0.06581367 0.0014942464 -0.051306892 0.03813716
000060 86 cc 4c bd 15 22 99 bd 6b 07 5d 3d 54 f3 a1 bd
       -0.049999736 -0.07477204 0.053962152 -0.07907739
000070 99 22 31 bc f8 4d ab bc 07 f1 2f 3d 3c d8 b3 bc
       -0.010811471 -0.020911202 0.04295447 -0.021953695
000080 8b c1 16 bd 01 51 3d 3d 58 45 31 3d 11 56 69 3d
       -0.03680567 0.04621983 0.043279022 0.056966845
000090 30 4f 09 3c ad 9b ad 3c 7e e1 bd bd 42 a6 59 bd
       0.008380696 0.021192396 -0.09271525 -0.05313707
0000a0 c5 16 48 3d 19 d6 11 bd 46 10 9d bb b1 f6 83 3b
       0.04884984 -0.03560457 -0.0047931997 0.0040272106
0000b0 d9 c1 b7 3c 7d a8 70 bd 1c 2f b4 bc ff cf 8b 3c
       0.022431301 -0.058754433 -0.02199512 0.017066954
0000c0 46 56 83 bd fc c8 44 3d dd 4f 15 bd 50 21 24 3d
       -0.0641294 0.048043236 -0.036453117 0.04007083
0000d0 49 0d 43 3c 9e 76 0c bd f0 4e c0 3b 59 43 3f bd
       0.011905023 -0.03429281 0.005868785 -0.046695087
0000e0 33 87 75 bc 1b 83 9e 3c b5 41 3d 3d 6d 8d e6 3c
       -0.014985847 0.019349625 0.04620524 0.028143609
0000f0 aa 4b 76 bd c0 d3 79 3d 46 5a 8e 3d 6c 6e 08 3d
       -0.060130753 0.060992956 0.06950812 0.03330843
000100 96 86 77 3c 6a 6c 8e bd a6 b0 12 bd 60 b7 9c bd
       0.015107771 -0.06954272 -0.035812996 -0.076521635
000110 2c 59 86 3d ad c8 08 3d c4 62 47 3d bb 27 a9 bd
       0.06559977 0.033394504 0.048678175 -0.08259531
000120 16 82 2c bd dd ed ca bc 2f e2 8b 3d 12 5a 8d 3d
       -0.042116247 -0.024771625 0.068302505 0.06901945
000130 2b b2 0f 3d b6 20 7c bc 3c 79 45 3d 71 ce 90 3c
       0.035082024 -0.015388658 0.04821132 0.017676564
000140 8f 6f 5a 3c a6 04 9f bd 46 0e 59 bd 05 a9 59 3d
       0.013332262 -0.077645585 -0.052992128 0.053139705
000150 66 06 d5 3c 8c f8 5d bb 0b 57 ac 3b 82 1c 38 bd
       0.026004028 -0.003387007 0.0052594 -0.044949062
000160 4a ba fe 3b 10 c5 a4 bd 91 0e df 3c a8 d1 34 bd
       0.007773672 -0.08045399 0.027228625 -0.044145256
000170 64 78 6f bd 01 99 86 3b 85 e1 ef bb 48 8f c2 bd
       -0.058464423 0.004107595 -0.007320585 -0.09499985
000180 4e 1b 58 3d a5 61 85 3c 55 51 36 bd e0 30 42 bd
       0.052760415 0.016281912 -0.044511158 -0.047409892
000190 18 87 98 3d 42 f8 e7 bc 95 33 c1 bd 44 14 66 3d
       0.07447642 -0.02831662 -0.094336666 0.05617167
0001a0 41 f6 35 3d e2 56 d5 3c fb 1f 1d bd de ef 8d bd
       0.0444243 0.026042406 -0.038360577 -0.06930517
0001b0 a1 18 6e 3d b3 57 26 3c 94 13 a9 bd fb ae e2 bc
       0.058128957 0.010152745 -0.08255687 -0.027671328
0001c0 34 b5 6f bd f8 14 73 bd f4 3d 92 bc bc 7b 0a 3d
       -0.05852242 -0.05934617 -0.017851807 0.03380941
0001d0 8f 4c b3 bd 70 e3 a7 3a 16 a2 0a 3e e5 71 f0 bc
       -0.08754837 0.001280887 0.13538393 -0.029351184
0001e0 90 06 a4 3c 72 f8 3b bd d8 6a 92 3d 9a ea 85 bc
       0.02002266 -0.045891233 0.07149285 -0.016347218
0001f0 b5 f2 0b 3d 05 13 00 3d 0b b0 9f bd 4e 64 34 bc
       0.03416701 0.03126814 -0.077972494 -0.011010243
000200 00 32 a6 bd 12 95 cb bc 8c fa 59 3a e9 81 d2 3b
       -0.081150055 -0.024851356 0.00083152275 0.006424178
000210 77 3a a8 3d 8a 1d a2 bd f5 55 3c 3d 3c f1 c9 3c
       0.08214276 -0.079157904 0.045980413 0.024651162
000220 12 1e bd bc f1 b7 77 3d c0 19 9e bd 72 af b5 bc
       -0.023085628 0.060478155 -0.07719755 -0.022178385
000230 2c 0e 1d 3d 1e c8 87 3e f1 07 39 3d a0 3e 20 bd
       0.038343593 0.26519865 0.04517359 -0.039122224
000240 43 a9 80 3d f5 41 ce 3e 56 7c a6 bd 86 1c 96 3e
       0.06282284 0.40284696 -0.08129184 0.29318637
000250 61 a3 2d 3e 26 2c bb bd 5a 30 72 bd 75 90 0b 3f
       0.16956855 -0.0913928 -0.059128143 0.545173
000260 5e f7 93 3f 0c f9 c6 3e 7c 9e 0e bd f7 55 03 bd
       1.1559865 0.38861883 -0.03481911 -0.032064404
000270 63 19 7d bd c7 0e 77 3c c4 67 ce bc ec 97 f9 3e
       -0.06179179 0.015079207 -0.025195964 0.4874872
000280 4d 06 32 bd e8 c6 b6 bc c5 af 2f 3d 17 3f 37 bd
       -0.04346304 -0.022311643 0.042892236 -0.0447379
000290 39 c2 ca bc bb dc 8e 3f be 52 97 3f 6b b8 98 3f
       -0.024750816 1.1161112 1.1822126 1.193128
0002a0 c9 84 23 3d e9 9e 3e 3d a9 5a 97 3f b3 f0 a2 3f
       0.039921556 0.046538267 1.1824542 1.2729706
0002b0 e8 f2 6f bc 4b 36 05 bc 3a b8 4c bd 12 66 99 3d
       -0.014645316 -0.00813062 -0.04998038 0.074901715
0002c0 88 bc 87 3d 82 ef 23 bc c9 1c 94 3f 07 d1 7e 3d
       0.06627756 -0.010005834 1.1571285 0.062211063
0002d0 1f 87 c0 3d ac c9 98 3c 0e 37 f1 bc 76 de e2 3d
       0.09400772 0.018650852 -0.029445197 0.11077587
0002e0 c8 84 67 3d 97 b3 9a 3d 4c 5d a3 ba 61 59 d8 3d
       0.056523114 0.07553785 -0.0012463718 0.10563923
0002f0 65 21 92 bc 16 42 0a 3e 4c fc 63 3c 86 ca aa bc
       -0.01783819 0.13501772 0.013915133 -0.020848524
000300 1f dd 0d bd 5e e4 49 bc b5 41 cc 3c ae ee 18 bd
       -0.034634706 -0.012322513 0.024933675 -0.037336998
000310 db cc 33 3e ba ba bf bd 06 33 69 bc af 60 00 3f
       0.17558615 -0.09361787 -0.014233356 0.5014753
000320 73 08 9d 3f 79 99 98 3f 6b 9e ce 3c 45 02 9a 3d
       1.2268203 1.1921836 0.025222024 0.07519964
000330 44 41 3f bd 09 7d a0 3c 60 c4 21 3d 20 3b 93 3d
       -0.0466931 0.019590871 0.03949392 0.071890116
000340 ad a9 43 bd 25 2b 82 bc 32 aa 90 3f 75 de 69 bd
       -0.047769237 -0.015889714 1.130194 -0.057096917
000350 df 0b 51 3d 11 98 86 bd f2 c7 b3 bc ee df 93 3f
       0.05103671 -0.06571973 -0.021945927 1.1552713
000360 f0 6b 5b 3c ba 20 83 3d da b7 8f bd fd f1 89 bd
       0.0133924335 0.064027265 -0.07017489 -0.06735609
000370 ba bb 73 3e fe 51 a0 3f 9e 44 f2 bc d9 dd 40 3d
       0.23802081 1.2525022 -0.029573735 0.04708657
000380 d9 69 92 3e 7c 1c 97 3d 22 0f 2d bd 31 89 96 3f
       0.2859638 0.0737848 -0.04225076 1.1760617
000390 3b cd a0 bd f9 8c a3 3d 97 60 04 bd b1 04 f4 3c
       -0.078516446 0.07985873 -0.032318678 0.029787393
0003a0 c7 95 86 3d d6 31 61 3e 32 a4 22 3d de d9 9f 3f
       0.065715365 0.21991667 0.03970737 1.2488363
0003b0 42 ab 48 3c f5 a9 97 3f d8 8a 94 3f a5 2c a4 3f
       0.012247862 1.1848742 1.1604872 1.2826124
0003c0 12 7e 48 bd ed a8 d1 3e 2c 4d 9e 3f 43 22 a7 bd
       -0.048948355 0.40949193 1.2367301 -0.08160832
0003d0 ef 1b 5c 3b e8 37 fe 3b ec f3 46 3e bd a0 a2 3f
       0.0033585986 0.0077581294 0.19428986 1.2705303
0003e0 e5 17 95 3f 00 59 91 3e d9 1e a1 3f f1 a7 80 3d
       1.1647917 0.28388214 1.2587539 0.06282032
0003f0 8e 7f bf bd 37 c7 bf ba f4 bc 6a bd dc 6c c7 ba
       -0.09350501 -0.0014631514 -0.057309106 -0.0015214938

layer2.bias f4 [128]
000000 45 ec 78 3d b0 28 89 3f 57 e1 4a 3d c3 64 4a bd
       0.0607722 1.0715542 0.049531307 -0.0494125
000010 8b 00 22 bd e5 bb 8a 3f 03 7f 4d bd 10 9d 85 3f
       -0.0395513 1.0838591 -0.050169956 1.0438557
000020 cf 51 07 bd 47 e1 92 bd a3 30 fa 3d 31 3b af bd
       -0.033037003 -0.071718745 0.12216308 -0.08556212
000030 74 15 22 3f 57 77 75 3d 97 92 c2 3d 35 41 2c 3e
       0.63313985 0.059928264 0.09500616 0.1682175
000040 ba c0 e2 3d 7f f7 22 3d 80 73 27 ba 8f 69 5a 3c
       0.11071916 0.039786812 -0.0006387755 0.013330831
000050 5d a6 a6 bd 13 22 27 3d b8 e6 a8 bd 07 00 e5 3c
       -0.081372 0.04080398 -0.08247131 0.027954115
000060 16 9b 34 3d 00 bc 51 3b e2 e7 77 3f 7b ec 70 bd
       0.044093214 0.0032002926 0.968382 -0.058819275
000070 7f 9b 82 3e 77 41 26 3d 8d a7 51 bd dc 30 84 3d
       0.2550926 0.040589776 -0.05118518 0.06454632
000080 22 76 ce 3c ba 4c 75 3d e4 ac 2e 3f 87 12 f1 3d
       0.025202814 0.059887625 0.6823256 0.11771112
000090 89 fe 5f bb eb 5a 8b 3f 31 ac 3a bd 78 38 8b 3f
       -0.0034178814 1.0887121 -0.04557437 1.0876608
0000a0 40 3a 23 bd 4f c3 19 bd bc f4 d7 3d 02 39 50 3e
       -0.039850473 -0.037539776 0.10544726 0.20334247
0000b0 7d 70 7c bc b6 a2 80 3d 97 9c ef bc 1d fe 48 3f
       -0.015407679 0.06281035 -0.029249473 0.78512746
0000c0 9c e2 23 3d 2e ec a2 bc 5d 50 52 bd 8f 56 18 3d
       0.040011033 -0.01988801 -0.05134617 0.037191924
0000d0 43 78 8e 3f ab fe a1 bd 3c ab 14 3f 5e 43 c5 3d
       1.1130451 -0.07909902 0.5807378 0.0963199
0000e0 92 72 c0 3b 5d d8 c0 3b 8e f1 a2 bd 05 c6 d3 3e
       0.005873033 0.0058851675 -0.07956229 0.41362014
0000f0 32 e6 9c 3d b7 72 a3 bc 0d 2f 18 3e f9 5d 16 3d
       0.07661094 -0.019952161 0.14861698 0.036710713
000100 3f 8e 90 bd 1b 69 86 bd 56 ee 81 3f d9 c2 13 3e
       -0.07058381 -0.06563016 1.0150859 0.14429797
000110 02 fd 13 bd 41 30 5c bd f8 71 75 bc 66 10 fe bc
       -0.03612996 -0.053756956 -0.014980786 -0.031013679
000120 17 06 4c 3e 05 42 5b 3e 48 52 0a 3e 4d 5d b8 3d
       0.19924198 0.21411903 0.1350795 0.09002171
000130 50 cc 23 3d d4 66 a6 bd 7c b2 67 3e 74 aa 16 bd
       0.03998977 -0.08125082 0.2262668 -0.03678365
000140 6d a4 17 3d 41 92 37 bd 28 dc 94 3c 50 bb 83 3d
       0.037022043 -0.044817213 0.018171385 0.064322114
000150 dc b4 a4 bd e7 fe 10 3c a1 1c a2 3d ff 68 88 bd
       -0.08042309 0.008849836 0.07915617 -0.066606514
000160 46 8b 23 3c eb 74 5a 3e 59 f5 0f bc 20 8f 9d bd
       0.009981936 0.21333663 -0.008786523 -0.076933146
000170 5a 5b fb bb 98 a0 a8 bd 4c 5a 67 3e a2 50 0c 3e
       -0.007670802 -0.08233756 0.2259304 0.13702634
000180 00 f8 96 bd 2b cf 46 3d 72 79 1d 3d b1 5f b6 bc
       -0.07371521 0.048537415 0.038445897 -0.022262426
000190 a4 bc 16 3d 29 8f 15 bb 0f 3b ad 3d df 9f 62 bd
       0.036800995 -0.0022820926 0.0845853 -0.055328246
0001a0 10 01 21 bd 62 71 83 bd 27 59 1b bc c5 5d 3c 3d
       -0.039307654 -0.064181104 -0.009481705 0.045987863
0001b0 28 b2 85 3f 30 e1 97 3d 68 f5 0c bc 98 dc 17 3c
       1.0444994 0.07415998 -0.008603431 0.009268902
0001c0 15 c7 9c 3c aa 12 1d 3c b7 12 43 bd 55 3d ed 3e
       0.019137898 0.009586969 -0.04762527 0.46335855
0001d0 e6 4a 47 3e 51 b9 89 3f ab ba 3e bd 09 77 78 3f
       0.19462165 1.0759679 -0.04656474 0.97056633
0001e0 a9 7b 04 bd 6f 38 91 3d 34 09 ca 3a 7c b4 ae 3d
       -0.032344494 0.07090842 0.001541412 0.085305184
0001f0 c4 83 b9 bc 9f 47 3e 3e bf e5 c9 3c 14 8a 53 bd
       -0.022645839 0.18582009 0.024645684 -0.051645353

layer3.weight f4 [3, 128]
000000 87 e3 46 3c 09 d0 1f 3f d1 f9 8d bd c6 da b2 3c
       0.012139208 0.6242681 -0.06932414 0.021832835
000010 85 44 e2 3c 12 24 2c 3f 51 cc 82 bd 2b 7a 4c 3f
       0.027620563 0.6724254 -0.063866265 0.79873914
000020 b5 eb ab bc fb a6 8c bd 2d 1a b5 3a 0d f8 ed 3c
       -0.020986417 -0.068677865 0.0013817005 0.029048944
000030 83 d3 95 3e f2 b9 5c 3d d7 dc 86 3d d5 b0 e5 3c
       0.29262933 0.05388827 0.065850906 0.028038422
000040 a0 ca cb 3d e7 1c 95 bc 96 e0 95 bc c7 3c 9b bb
       0.09950757 -0.018202258 -0.018295567 -0.00473747
000050 0a 17 38 bd 9c 31 44 3b c7 92 41 bd 70 ef 93 bd
       -0.044943847 0.0029936796 -0.04725912 -0.072234035
000060 d3 e2 7c 3d 3a 2c 79 bd e1 79 21 3f b0 ea 5f bd
       0.061739754 -0.060833193 0.630766 -0.054667175
000070 a3 fe 2e 3e b8 db fe 3c c1 4f fb ba 60 22 57 3c
       0.17089324 0.03111063 -0.0019173549 0.013130754
000080 df 06 ee bb f6 10 66 3d 6f 9a 80 3e 4d 60 03 3a
       -0.0072640027 0.05616852 0.25117823 0.00050116034
000090 2f b0 79 bc 37 4c 40 3f a6 ec a6 3d eb c5 47 3f
       -0.015239759 0.75116295 0.08150606 0.78036374
0000a0 28 61 88 bc d3 02 58 3d 09 f2 a9 b8 34 6a c6 bb
       -0.01664789 0.05273707 -8.1036305e-05 -0.006055141
0000b0 90 fd 85 bd 3a 46 da 3b 20 b8 cd bc 8f cc 17 3f
       -0.06542504 0.0066612037 -0.025112212 0.59296507
0000c0 ae c6 7b 3d 35 85 a1 bc a7 3d 9d bd 4d c6 4d 3c
       0.061468773 -0.019716838 -0.07677775 0.012559486
0000d0 7d 1a 1c 3f 9a d6 2c bc 07 e1 39 3e 15 ac 98 3d
       0.6097792 -0.010549212 0.18152247 0.07454697
0000e0 4b 16 80 3b 2f c8 2d bd bc 11 3b 3d 23 e8 e0 3d
       0.0039089075 -0.042427238 0.04567121 0.109817766
0000f0 4e 56 aa 3d a4 f1 68 bc 2f 84 ec 3b d1 31 ae bc
       0.083172426 -0.014217768 0.007217906 -0.021263989
000100 67 4e 91 3d 2f 2f 9b 3d f2 7a 46 3f 90 1f 61 3d
       0.07095032 0.07577359 0.7753135 0.05496174
000110 de e2 e2 bc d2 48 10 bd e5 48 73 3d 71 a1 21 bc
       -0.02769607 -0.035225697 0.05939569 -0.009865151
000120 1f 91 9f 3d 35 54 14 3e 03 3e 0a 3d 45 18 9d 3d
       0.077913515 0.14485247 0.033750545 0.07670645
000130 77 4a 3f 3d fe a6 43 bc 09 ba 1f 3e c4 04 95 bc
       0.046701875 -0.0119416695 0.1559831 -0.018190749
000140 bf c2 97 bd 8e d5 0e bd 7f 4f 93 bd 43 0d bc 3d
       -0.07410192 -0.03487163 -0.07192897 0.09182217
000150 26 8c 02 bd 51 7d a2 bd 65 6e 67 3d 38 7c f3 bc
       -0.031871937 -0.079340585 0.056501765 -0.029722318
000160 67 5b 90 3c 8b 86 30 3e 1f ff 41 3e 6e d2 1b bd
       0.017621709 0.17238824 0.18944977 -0.03804248
000170 4a 4c 17 bd 88 45 4e 3d 10 87 e2 3c 22 f9 4a 3d
       -0.03693799 0.05035928 0.027652293 0.049553998
000180 52 41 2c 3c e5 d2 dc bd 95 87 4e 3d 15 dd 07 3d
       0.01051362 -0.107824124 0.05042227 0.033169825
000190 44 3f 25 bd 90 54 1a bd fb f9 42 3c c1 be 8e bd
       -0.040343538 -0.0376783 0.01190042 -0.06969977
0001a0 ed a3 3d 3d 30 98 a1 bd 06 3d 48 bd 80 39 a4 3d
       0.04629891 -0.078903556 -0.04888632 0.0801878
0001b0 22 2b 57 3f 2a 77 62 bd b6 79 72 bd fc 6e 81 bd
       0.8405019 -0.055289425 -0.059198104 -0.06319997
0001c0 81 76 34 bc 00 09 33 bd a3 f5 66 bd 48 aa 38 3e
       -0.011014582 -0.043709755 -0.0563866 0.18033707
0001d0 d3 44 0e bd 27 1c 4c 3f c6 13 5d bd 00 02 be 3e
       -0.034733605 0.7973046 -0.053973936 0.371109
0001e0 c4 44 02 bd 5a a9 0e 3d e8 a6 24 bd f7 b2 45 3d
       -0.03180386 0.034829475 -0.040198237 0.048266377
0001f0 bb 6b 1e bd 87 e9 21 3d ba 42 87 3d 51 71 4d bd
       -0.03867696 0.03952935 0.06604524 -0.050156895
000200 0f ab fb bc 2c ba 93 3f 76 f3 00 bc 4d 34 d0 3b
       -0.030721216 1.154119 -0.007870546 0.006353891
000210 1f 69 a7 3c 66 6d 7e 3f 49 9b d0 bc 35 be 8a 3f
       0.020435868 0.9938568 -0.02546467 1.0839297
000220 aa dc 7a ba e2 10 25 bd 8f dd c5 3d 8e d4 9a bd
       -0.00095696247 -0.040299304 0.096613996 -0.07560073
000230 a1 01 c3 3e 40 3e a8 3d 40 e5 39 3d 51 68 90 3d
       0.3808718 0.08214998 0.045384645 0.07051147
000240 cf c1 8c 3d 48 bf 4b 3c 85 16 38 bc 25 9d db 3c
       0.068729036 0.012435742 -0.011235838 0.02680833
000250 d4 68 55 bd a6 5a 6d bd 84 dc 88 bd 0c 51 cf 3c
       -0.052101925 -0.057947777 -0.06682685 0.0253072
000260 44 b9 db 3d fa 3f 9b bd 3e c1 88 3f 92 f9 fe bc
       0.10728696 -0.07580562 1.0683973 -0.031124864
000270 e9 7c 21 3e 8f 86 8e bd 5c d1 71 bb d6 f5 b1 3c
       0.15770306 -0.06959259 -0.003689847 0.021723669
000280 f1 19 69 bd ea d0 0f 3d 3a d8 66 3e 44 19 ca 3d
       -0.056909505 0.035111345 0.22543421 0.098681
000290 b1 88 0a bc d2 93 81 3f 5a 92 27 bd 98 c8 85 3f
       -0.008455441 1.0123236 -0.040911056 1.0451841
0002a0 56 41 95 bb 8f cb f3 bc fe 99 74 3d be 30 c8 3d
       -0.004554908 -0.02976015 0.05971717 0.09774922
0002b0 0f ca ef bc d1 0c 05 bd eb 4e 4a bd 3a 1b 15 3f
       -0.029271154 -0.032482926 -0.04939167 0.5824467
0002c0 11 e0 8c bb c7 9b 08 3c f0 a1 a0 3d 6c 4f 89 bd
       -0.0042991717 0.008337921 0.07843387 -0.06704602
0002d0 84 a3 70 3f 80 83 68 3d c3 d3 0c 3f c7 0d 9b 3d
       0.93999505 0.056766033 0.5501062 0.07570987
0002e0 9f e0 d0 bc ab 4f 95 3d 5f 1e a0 3d 2b b3 3e 3e
       -0.025497733 0.07290586 0.07818293 0.18623035
0002f0 6b 93 d3 3c 91 2f 83 bd cc ae 85 3d 1b 29 61 3d
       0.02582713 -0.06405557 0.065274805 0.05497084
000300 3f 8b 39 3d 48 02 88 3d 3e 8d 8e 3f 22 33 c5 3d
       0.04529881 0.0664106 1.1136854 0.096288934
000310 0c b8 0d bd df df a0 bd d7 f4 82 bc 5b b7 b9 bd
       -0.03459935 -0.078552 -0.01598589 -0.090681754
000320 03 05 33 3d 03 dc e5 3d 50 3c 8d 3d 4a 15 74 3d
       0.04370595 0.112236045 0.06896269 0.059590615
000330 4c b2 77 3d a8 7f 0b bd 4a c0 24 3e 45 be 5a bd
       0.06047277 -0.03405729 0.16088977 -0.05340411
000340 b4 3d a9 bc bd d9 18 3c c2 14 26 bd 60 11 6f 3c
       -0.020659305 0.009329257 -0.04054714 0.014591545
000350 5f 62 03 3d b6 54 fd bb 96 5c 2c bd 06 cf ab 3b
       0.032076236 -0.0077310456 -0.042080484 0.005243185
000360 6d ad 5e 3c 1f b8 cf 3d 38 65 b3 3d 6a 41 99 3d
       0.013591153 0.1014254 0.0875954 0.0748318
000370 04 3d b2 3c 6e 2e 9e 3d bf 0e bf 3d ac 88 01 3c
       0.02175761 0.077236995 0.093289845 0.00790612
000380 ae 5b 48 3d de 77 23 bd fd ea 94 3d 8f 4d 3d bd
       0.048915558 -0.039909236 0.07271383 -0.046216544
000390 11 a7 b4 bd 16 3f 88 bd 9e 24 88 3d a3 69 4e bd
       -0.08820928 -0.06652658 0.06647609 -0.05039371
0003a0 9d bb 86 bd 24 34 51 3c 65 7e 14 bd bd 63 72 bd
       -0.06578753 0.012768779 -0.03625335 -0.05917715
0003b0 40 86 88 3f 76 1e 5c bb 9a f4 ae 3d e9 ac ec bc
       1.066597 -0.0033587492 0.08542748 -0.028891044
0003c0 12 97 a9 3c 8c 26 18 bd 3f 12 f6 3c 55 c7 3d 3e
       0.020701919 -0.037146136 0.030037997 0.1853307
0003d0 f7 56 00 3e ce 42 88 3f 7b 76 7f bd ac 3a 32 3f
       0.12533174 1.0645387 -0.06236885 0.69620776
0003e0 b6 4c 38 bd a9 7c 99 bc a5 be 43 bb 71 44 ba bc
       -0.044995032 -0.0187362 -0.0029868272 -0.022737714
0003f0 82 29 8c 3c e7 d1 3d 3d 4b d1 b7 3d 78 e8 20 bd
       0.017109636 0.046342757 0.08975466 -0.0392842

layer3.bias f4 [3]
000000 bf 5e 02 3e 57 0a e6 3d ba b8 f9 3d
       0.12731455 0.11232441 0.12193437
