models/rl_models/06.03.24_with_rewards_for_each_3_seconds/best_policy_dqn_model_epoch_36.pt (torch, 74158 bytes, 6 tensors)

layer1.weight f4 [128, 6]
00000000: 15ba b23e 6b2d 5a3d 1bb0 c93e b41a 933e
00000010: 98fa 21be 7ed2 123e 76d6 813d a466 91be
00000020: bc83 cdbd 4140 acbe dc83 923e 3b37 fabd
00000030: 0156 f8bd 14af 41bd fd43 7a3e c298 b43d
00000040: 10fc f13d 971d 843e c08f 143e 9398 1cbd
00000050: c06f 343d 5937 55be 7482 80be 3bce b0bc
00000060: 40b2 553e 81ad 8f3d df28 42be 5f79 003e
00000070: 1041 a1be d477 be3e e3f3 363e d73c b7bd
00000080: f805 43be 58c1 06be 1059 40be f80c 5b3c
00000090: e9e7 973e 2ad9 d8bd 0fc4 413e b3b8 56be
000000a0: 481b 02be 012c 6bbe 008c 973b 37a9 9cbe
000000b0: 8636 7abe 6c55 fe3d b4f7 b23d 85f8 a8be
000000c0: 4249 b43d e466 2a3e 3e12 3dbe 5aec c83d
000000d0: 3f82 1fbe 0762 e13d bfdb ad3e 3090 423d
000000e0: 885e 22be 24bc 753e 8be7 d83d fb14 823e
000000f0: 1a79 393e 9b03 683e 734f 8fbe ccc4 a13e
00000100: b995 513d c681 a13e 11d0 bbbd 454f 4b3d
00000110: cf54 993e b650 05be 3bda 95be 3a24 3abe
00000120: c7d3 a23e d631 c83e 28d4 bd3d 5878 51be
00000130: 2e9e 733e 8326 97bd 53db ee3d 2e1a a7bd
00000140: a57d 8bbe a146 bb3e cf8b 8ebe f1d7 89be
00000150: a623 98be 4c4c 833e 8af0 51be 45c1 1e3e
00000160: 0811 b5bc 0ab2 393e 29c7 133e ce33 703e
00000170: d641 983e 68a6 143e 083c 8c3e b315 3b3d
00000180: abfa a83d 5c81 1a3d 9955 9cbe ecd5 2f3d
00000190: 2fc0 b8be 6f88 4c3e 90a5 afbe bfb4 503e
000001a0: fff6 07be 2eeb 76be cfad 9e3e e80b 033e
000001b0: 1f26 0a3e c59b 133d d65f 323d b705 9b3e
000001c0: 7197 a33e 48f2 e3bd 8082 86be 2779 483e
000001d0: 0462 96be a3c8 9abe fae4 9a3e 1ba9 9f3e
000001e0: 6d47 4f3e 395d a3be a4cb 413e 518e 673e
000001f0: 2744 ef3c 985e a63e 0eb1 34bc 42d8 9e3e
00000200: c06f 90be d547 803e 49ab 443d c6e0 18be
00000210: e32e 00be 78d9 6e3e 2429 853e b0ac f3bd
00000220: dbff 93bc bc98 12be 4bcd 633d 6177 ae3c
00000230: 0486 183e a64e 59be d842 c7bd 6fd5 71be
00000240: f11b 62bd b853 1abe 2ad2 b13e 876b 11be
00000250: ec43 c5bd db62 bcbe 9f5f 92be 3494 aa3e
00000260: ecd9 043e b10c a8bd 1d95 8ebe 01b5 a6be
00000270: f072 aabe 771b 98be c474 0e3e 0d84 3f3e
00000280: a889 dbbc a34b 6ebe 5911 9e3e a351 f43d
00000290: 554e ef3d 8bd5 8abe 8579 8cbe 385c 9e3b
000002a0: 93bf a43e 9bcd 953e b61c 753d e332 92be
000002b0: 1390 973e e9bb 27be 2ff2 83be 246e 0fbe
000002c0: 456e 223e 911c a9be cd14 61be e6bd 903d
000002d0: c519 ca3d 3dd3 a83e 872b 9f3e 5abb 263e
000002e0: 33e5 f2bd be24 0a3e a7e9 fdbc 65b7 a93c
000002f0: 99ba c23d e6d8 b6be 6224 a13e 06ae ad3e
00000300: eb8b 9b3c 57d1 efbd 877e 8e3d 7ab1 9b3d
00000310: c521 b6be 37b9 ef3d 5a1e 783d 14f7 a6be
00000320: 98a3 993d 7af2 2bbe aefe 913e 5bfd 223d
00000330: 2ce9 9ebe 5da1 3e3b de08 87be 22b1 b33d
00000340: b3fa 483e 9c1f 373e 1fc2 c8bd 66f4 c03e
00000350: d53c 593b 44b9 373e 5df3 49be 8f80 f5bd
00000360: cd69 1ebe dfb2 3cbe f18d 35be ae22 1b3e
00000370: 287a 58be 31a4 d83d 6187 043e aa58 26be
00000380: fd88 ba3e d325 b2be b27c 5abe 554e 833d
00000390: 07bd e63d b6b3 85be 6436 a73c be9c 7a3c
000003a0: 5d10 f2bd 65be 4b3d becb 4ebe a878 aabd
000003b0: a29d b33e 58c7 d3bd 39a9 e73d 69e1 623e
000003c0: 75a7 aebe 4412 8c3e 08d3 1abd e480 3abe
000003d0: 4228 13be 86f2 37be fa5d 953d ee4d b8be
000003e0: 23c4 a73b 5719 9a3e f0ba f73d d319 3c3e
000003f0: 9a5b 1e3e 1313 97be a420 25be add4 62be
0.34907594 0.05326597 0.3939217 0.2873131 -0.1581825 0.14338109 0.06339733 -0.2839862
-0.10034892 -0.33642772 0.28616226 -0.122175656 -0.12125779 -0.047286108 0.24439998 0.08818199
0.11815655 0.25803825 0.14507961 -0.038231444 0.044051886 -0.20821895 -0.25099528 -0.021582713
0.20868778 0.07015515 -0.18960904 0.125463 -0.3149495 0.37200797 0.17866473 -0.08947151
-0.19045246 -0.13159692 -0.18783975 0.013369791 0.2966912 -0.10588296 0.18922447 -0.20968895
-0.1270572 -0.22966005 0.0046248436 -0.3059785 -0.24434862 0.12418637 0.08738652 -0.33002105
0.08803035 0.16640812 -0.1846399 0.098107055 -0.15577029 0.11005025 0.33956715 0.04750079
-0.15856373 0.23997551 0.10591038 0.25406632 0.18112603 0.22657625 -0.27990302 0.31595457
0.051168177 0.31544322 -0.09170545 0.049636144 0.29947516 -0.1301907 -0.2926806 -0.18177882
0.31802198 0.39100522 0.09268981 -0.20456064 0.2379081 -0.073803924 0.116629265 -0.0815929
-0.27244297 0.36577323 -0.2784104 -0.26922563 -0.29714698 0.25644147 -0.20501915 0.15503414
-0.022102848 0.18134323 0.14431442 0.23457262 0.2973773 0.14516604 0.2738955 0.04567499
0.08250936 0.037721023 -0.30534056 0.04292862 -0.36084124 0.1997392 -0.34306002 0.20381449
-0.13277815 -0.24113151 0.3099198 0.1279751 0.13491105 0.036037225 0.043548428 0.30277798
0.31951478 -0.11130196 -0.2627144 0.19577466 -0.29371655 -0.302312 0.3025282 0.31183705
0.2024209 -0.3190706 0.18925339 0.22612883 0.029207302 0.32494044 -0.011028541 0.31024367
-0.28210258 0.25054803 0.048014913 -0.14929494 -0.12517886 0.23325145 0.2600795 -0.11898172
-0.018066337 -0.14316076 0.055615705 0.021297159 0.14894873 -0.21221408 -0.09729546 -0.23616575
-0.05520243 -0.15070999 0.34730655 -0.14201175 -0.09632096 -0.3679417 -0.28588578 0.33316195
0.12973756 -0.08205546 -0.2784814 -0.3255997 -0.33290815 -0.29708454 0.1391173 0.18702717
-0.026799038 -0.2327104 0.3087261 0.119296335 0.116848625 -0.27116045 -0.27436462 0.0048327707
0.3217741 0.29258427 0.059841834 -0.28554448 0.29602107 -0.16380276 -0.2577071 -0.14006859
0.15862377 -0.33029607 -0.21980591 0.0706747 0.098681964 0.32973662 0.31087896 0.16282406
-0.118601225 0.13490579 -0.030995203 0.020717332 0.09508247 -0.35712355 0.3147307 0.33921832
0.018987617 -0.1170985 0.06957727 0.0760221 -0.3557264 0.11705249 0.06057582 -0.3261038
0.07501906 -0.16791716 0.28514618 0.0397924 -0.3103727 0.002908788 -0.26373953 0.0877402
0.19626884 0.17883152 -0.09802651 0.3768646 0.003314783 0.17941767 -0.19721742 -0.11987411
-0.15470047 -0.18427609 -0.17729928 0.15149948 -0.21140349 0.10578192 0.12942268 -0.1624476
0.3643264 -0.34794483 -0.2133663 0.06411425 0.11266523 -0.2611367 0.020411678 0.015296159
-0.11819527 0.04974212 -0.20194909 -0.083237946 0.35081202 -0.10340756 0.113115735 0.221563
-0.34112135 0.27357686 -0.03779891 -0.1821323 -0.14370826 -0.17963609 0.07293315 -0.35996956
0.005119817 0.30097458 0.120962024 0.18369226 0.1546463 -0.2950674 -0.16125733 -0.22151442

layer1.bias f4 [128]
00000000: fdcd d23d bff2 06be 5a30 a13d f7fb 84be
00000010: ff55 113f 206b 68bd 7fe7 8dbe 7a22 d1bd
00000020: 225f 37b9 3e57 793f 8db9 f6bd fe2a 4ebe
00000030: 69e4 1db9 19b8 8f3f 061f 62be 4573 313f
00000040: a3dd dbbb 6e1d bc3f 54fa 3bba 3338 bb3f
00000050: 2fac 983f 8e2e 3dbd 29aa 47be c315 c33f
00000060: 0ec2 c73f e8ef c33f 818b f9bd eca5 25be
00000070: c9ac 9cbe 48c0 28be 426d 01be a407 c63f
00000080: dd1f 9fbe 9a8f a8be 8449 9dbe aadf 75b9
00000090: a6f0 89be 15f8 e33f b933 db3f 3c45 db3f
000000a0: ea07 98be a181 d0bd b187 c53f 75f9 cd3f
000000b0: e03c 10be 24e8 79be 3062 18b9 2ea8 833f
000000c0: bf31 6ebe 2174 9a3f 43bb d63f 6298 833f
000000d0: ec30 823f 1988 633f 0ec3 c8be e078 383e
000000e0: 42b7 7ebe 863a a63e 4d1a b4be 8e3b c43e
000000f0: bb17 88be ae04 5d3f 59ee 82be 5751 78bc
00000100: 9671 97be b7a6 06be 4b7c b9be 1679 a4be
00000110: 7eb7 5a3f 6fbe c9bd 944d 80b9 bad9 d03f
00000120: d210 c53f 9311 ec3f a6ae 373f e280 1abe
00000130: 505e 4a3c 805d 18be 8e54 a7be b038 a8be
00000140: be30 edbc 225d e03e d974 ef3f 5863 96b9
00000150: 83e7 a53e b7e9 ffbd 8987 29be d91b dd3f
00000160: 16b6 043f e1da 6abd bc7d e5b9 be2a e8bd
00000170: c810 e63f dd4a d03f 4598 c8b9 b894 aabe
00000180: e0f5 c03f 6ad1 ae3e 7095 4bb9 1102 d03f
00000190: 73ee f9bd 6dd9 3abe 6d93 8abe 1bc1 13be
000001a0: 6728 6ebe 5e11 9d3f 97ae c43f 95a9 cf3f
000001b0: f0ac 87b9 0efa f03f 19c9 e53f 965b c83f
000001c0: 7bbd 6b3e 293c db3f 8bf3 e13f 99f0 2fb9
000001d0: cc50 d1bd f74c a2be 0a53 ba3e 7c5d dd3f
000001e0: dd9b db3f 585c db3f e34f dd3f 4fad 373f
000001f0: ee95 d3bc 8f22 c3b9 c25d 2a3f f8c2 ea37
0.102931954 -0.13178538 0.078705505 -0.25973484 0.56771845 -0.056742787 -0.2771568 -0.10211654
-0.0001748768 0.97398746 -0.1204711 -0.20133588 -0.00015057776 1.1228057 -0.22082147 0.6931651
-0.0067097708 1.4696481 -0.00071707857 1.4626526 1.1927546 -0.046186976 -0.19498505 1.5241016
1.5606096 1.5307589 -0.121848114 -0.16176575 -0.30600575 -0.164796 -0.12639335 1.5471082
-0.31078997 -0.3292206 -0.3072015 -0.00023448342 -0.26941413 1.7810084 1.712516 1.7130504
-0.29693538 -0.10180975 1.5432035 1.6091753 -0.14085722 -0.24404961 -0.00014532427 1.0285699
-0.23261164 1.206669 1.6775898 1.0280879 1.017118 0.88879544 -0.39211315 0.1801486
-0.24874595 0.32466525 -0.35176316 0.38326687 -0.26580605 0.86335266 -0.2557247 -0.015156112
-0.29578847 -0.13149534 -0.3622764 -0.3212363 0.85436237 -0.098507755 -0.00024471863 1.6316445
1.5395758 1.8442863 0.7175087 -0.15088227 0.012351587 -0.14879417 -0.32681698 -0.3285575
-0.028953906 0.43821055 1.8707534 -0.00028684246 0.32403192 -0.124957494 -0.16555609 1.7274123
0.5184034 -0.057337645 -0.00043771963 -0.113362774 1.7973871 1.6272846 -0.00038260422 -0.33316588
1.5075035 0.34144145 -0.00019415258 1.6250631 -0.12203684 -0.18247004 -0.27065602 -0.14429133
-0.232576 1.2270925 1.536578 1.6223627 -0.00025878055 1.8826311 1.7951995 1.565295
0.230215 1.7127734 1.7652448 -0.0001677893 -0.10220489 -0.31699345 0.3639148 1.7294154
1.7156941 1.7137556 1.7290004 0.7174882 -0.025828328 -0.00037219046 0.66549313 2.7985763e-05

layer2.weight f4 [128, 128]
00000000: 33c6 e3bc a881 0e3d 0f02 da3c 5a82 c4bd
00000010: f923 86bd c9e1 abbd 2201 26bd 197e 073d
00000020: 4a4e 163d be75 3cbd 33dc 9cbd 4043 7a3d
00000030: 2f54 253d aa8c a83b 76eb bebd 4330 12bb
00000040: 7edb 03bd fbcb 7abc a7d0 c63b b97a cebc
00000050: 9c40 953d f4ff 0abb a631 4dbd e4ab 183d
00000060: 7017 48bd 4398 95bd 99e5 573d 4e10 9ebd
00000070: 45bc 85bc 9169 a7bc 9682 203d 4099 afbc
00000080: b937 13bd bafc 383d a509 2d3d c4d8 513d
00000090: f31f 063c 10ae a93c 1a82 b9bd 1cb2 54bd
000000a0: 347d 433d ab0f e6bc 7486 99bb 74c7 803b
000000b0: a7c6 9f3c cff3 77bd 8b0a acbc 70be 4e3c
000000c0: 752b 80bd 08da 433d 0bc6 11bd 5ae5 0b3d
000000d0: bea2 223c f157 17bd 7094 0d3b 04ee 5ebd
000000e0: 01b5 e8bc 5962 1f3c 0114 303d 18d5 063d
000000f0: d99d 70bd 446e 8b3d 803d 883d 2f3f 053d
00000100: b5b0 493c 5006 95bd 1d3c 0cbd 0a06 8ebd
00000110: 15bc 943d 695a ef3c 45cf 373d 36cb c0bd
00000120: af9d 28bd 4c54 c6bc 676f 8b3d d52a 8a3d
00000130: 4ed9 f73c 5340 76bc 6900 273d 7772 8d3c
00000140: 4216 ed3b 3321 99bd 201a 54bd bd2b 393d
00000150: f7ad 0a3d a213 23bc a472 a83b 86dd 33bd
00000160: 2ca0 493c a9e0 a0bd 5a23 023d 35bd 18bd
00000170: 14cf 69bd c469 833b d4c9 21bc 4c95 cebd
00000180: 2827 533d 6832 823c a02e 45bd 4f97 3dbd
00000190: 46fd 943d 87a9 e2bc 5c2f cdbd 89c5 603d
000001a0: 45b7 313d 40bb 073d 7094 19bd a1c0 8abd
000001b0: 3162 5f3d 4c73 223c 2d2f a5bd 4060 ddbc
000001c0: 5104 77bd a86b 6dbd 39bd 8ebc 00c4 d33c
000001d0: 930d afbd a963 80bb d972 073e 95c8 eabc
000001e0: 2922 a03c 76b9 37bd a0e5 8e3d 8d9a 95bc
000001f0: 5ccd 0a3d 9559 ba3c f4bd a9bd 5225 30bc
00000200: 5b9d acbd 3bf6 c6bc 8039 2b3c bf2f be3a
00000210: 8c09 ac3d a655 a9bd be48 253d ab57 c53c
00000220: feea ddbc 0517 7e3d 4cb0 a7bd 7670 b1bc
00000230: 34e1 063d 783a 943e 1058 2e3d e835 1bbd
00000240: f8ea 673d cd22 0d3f 13b5 acbd 545b e43e
00000250: b222 473e 27c5 c3bd 99ba 7abd 4f37 1f3f
00000260: 8c61 a53f 7856 ea3e 3f6f 0bbd e2ab 0ebd
00000270: 43bb 84bd 7765 713c 06d9 f2bc ce9d 233f
00000280: 51c7 2dbd ec87 b2bc d195 2b3d f9b5 45bd
00000290: a828 c6bc bf5b a03f baa7 a83f 6e07 aa3f
000002a0: 62a0 1f3d 1005 2c3d 84b4 a83f 2a00 b43f
000002b0: b397 a3bc f12b 67bc bf60 56bd 6d3c e53d
000002c0: 4b8d 843d 419f 6039 f482 a53f ca53 a93d
000002d0: d777 d93d a612 d13c bf5b 0dbd 8eea 003e
000002e0: 0e80 5b3d 541d 9b3d 9a0c a9bb 416a d03d
000002f0: 35ad b1bc 64af 163e 7d2a ee3b 7af7 bcbc
00000300: 3f70 24bd e594 90bc 8a96 c73c 1a8d 23bd
00000310: d2b9 433e 31a7 c3bd 7877 a4bc 58c3 263f
00000320: 013f ae3f 77e5 a93f 6ca1 e33c 7378 963d
00000330: 1a08 4fbd 0abc 9c3c 4d35 093d 4eb1 8f3d
00000340: 1ab5 59bd 1715 3abc 4d1c a23f 1457 73bd
00000350: 3487 4c3d 3c06 8abd f688 afbc aa45 a53f
00000360: 47be cc3c 97e4 7f3d 2a5a 99bd 6f1a 90bd
00000370: 1080 963e 8b6e b13f 467e 10bd 9810 2e3d
00000380: be5c 9a3e ba29 a13d 36f6 40bd 13e4 a73f
00000390: f204 9dbd 92a8 9f3d 609b 0fbd 615b ee3c
000003a0: 8a66 833d 1732 7a3e 01b0 523d f7f8 b03f
000003b0: 3866 ca3b 2ef9 a83f 70eb a53f 2c37 b53f
000003c0: a0d5 4bbd 6d5e f03e 6b70 af3f a538 acbd
000003d0: c10e abba 9350 073b cf44 7f3e 16ae b33f
000003e0: e377 a63f d6be 953e 2c34 b23f 6c8b 8f3d
000003f0: 3baf bebd bec0 afbb 8635 56bd 952e c7bb
-0.02780447 0.03479162 0.02661231 -0.09595175 -0.0654983 -0.083926745 -0.040528424 0.03307924
0.036695756 -0.046010725 -0.07659187 0.06109929 0.040363487 0.0051437216 -0.09322254 -0.0022306598
-0.032191746 -0.015307422 0.0060673538 -0.025205003 0.07287714 -0.002120969 -0.050096177 0.037273303
-0.048850477 -0.07304432 0.052709196 -0.077179536 -0.016325125 -0.02043608 0.039187036 -0.02143538
-0.035941813 0.045162894 0.042245526 0.051232114 0.008186328 0.020712882 -0.09058018 -0.05192767
0.047726825 -0.028083643 -0.0046852175 0.0039300267 0.019503905 -0.06053525 -0.021001121 0.012618646
-0.06258289 0.047815353 -0.03558926 0.034154274 0.009926496 -0.0369491 0.0021603368 -0.05442621
-0.028406622 0.009728038 0.042987827 0.032918066 -0.058744285 0.06808141 0.06652355 0.03253096
0.012310197 -0.07276595 -0.034237016 -0.069347456 0.07262436 0.029217916 0.044875402 -0.094137594
-0.041166004 -0.024210118 0.06808358 0.06746451 0.030254986 -0.0150299845 0.040771876 0.017266495
0.0072353194 -0.074770354 -0.051782727 0.045207728 0.033857312 -0.009953411 0.0051406194 -0.043912433
0.012306254 -0.078553505 0.031771995 -0.037289817 -0.05708225 0.004010411 -0.00987478 -0.1008707
0.051551014 0.015893176 -0.04814017 -0.046286877 0.072748706 -0.027668728 -0.10018799 0.054875884
0.04338767 0.03313756 -0.037495077 -0.06775022 0.054537002 0.009915184 -0.08065639 -0.027023435
-0.06030685 -0.057963997 -0.017424213 0.025850296 -0.08547511 -0.0039181304 0.13227405 -0.028660098
0.019547539 -0.044854604 0.06977391 -0.018262172 0.033887252 0.022747794 -0.08288184 -0.010751085
-0.08428451 -0.024287334 0.010450721 0.0014510079 0.084002584 -0.08268289 0.040352575 0.024089655
-0.027089592 0.062033672 -0.08187923 -0.02166007 0.032929614 0.28950858 0.04256445 -0.037893206
0.056620568 0.55131227 -0.08432975 0.44600928 0.19446829 -0.09559088 -0.06121311 0.6219377
1.2920394 0.45769095 -0.03404164 -0.03483189 -0.0648103 0.014733664 -0.0296445 0.63912666
-0.04242641 -0.021793328 0.041890923 -0.048269246 -0.024189308 1.2527999 1.3176186 1.3283517
0.038971312 0.041997015 1.3180089 1.406255 -0.019969797 -0.014109598 -0.052338358 0.11193166
0.06472262 0.00021421631 1.2930589 0.082679346 0.10618561 0.025521588 -0.034511324 0.12589476
0.05358892 0.07573953 -0.005158973 0.10176516 -0.021689037 0.14715344 0.0072682486 -0.023067225
-0.04014611 -0.017649123 0.024363775 -0.039929487 0.19113854 -0.095533736 -0.020076498 0.6514182
1.3612977 1.3273152 0.027786933 0.073471926 -0.050544836 0.019132633 0.033498097 0.0701624
-0.053151228 -0.011357567 1.2664887 -0.059409216 0.049933627 -0.0673947 -0.021427613 1.2911885
0.024993075 0.06247386 -0.074879006 -0.07036292 0.2939458 1.386186 -0.035276674 0.042496294
0.30148882 0.07869287 -0.047109805 1.3116478 -0.07666959 0.07795824 -0.035060287 0.029096307
0.06416042 0.2443317 0.05143738 1.3825978 0.006176736 1.3201044 1.2962475 1.4157462
-0.049764276 0.4694704 1.3706182 -0.084092416 -0.0013050662 0.0020647391 0.24928592 1.4037502
1.3005337 0.2924716 1.3922172 0.070090145 -0.09310766 -0.005363553 -0.052297138 -0.006078551

layer2.bias f4 [128]
00000000: 5c6b 593d 1fa3 9a3f c647 463d 32cb 45bd
00000010: 521c 1ebd 9523 9e3f 2ebd 48bd 6fbf 983f
00000020: 9222 04bd 7557 8fbd 334e 0c3e f42a abbd
00000030: 4afd 253f 7ddb a03d 8b22 e83d fafd 3b3e
00000040: 848a 033e 57a2 2c3d 07d0 0b3a 3837 e83c
00000050: f6c1 a2bd ac3d 233d 5102 a5bd 4cb1 df3c
00000060: 4d36 813d dac7 4c3b 85d9 8e3f 2b43 6bbd
00000070: e14e 8a3e 105d 223d 67b3 4cbd 9f01 813d
00000080: d039 b13c 5d6f a23d 3d65 493f 25a1 073e
00000090: ceaf 5abb dbac 9e3f 3179 1abd 2115 9f3f
000000a0: d955 1fbd a0eb 0fbd f4f5 f43d d72c 5d3e
000000b0: 688b 76bc 02d3 5f3d 47f3 e9bc 24c5 7c3f
000000c0: 5a84 653d c707 9fbc 375c 4dbd bdcc 143d
000000d0: 4338 a13f 9d1a 9ebd 96a6 333f 96a9 eb3d
000000e0: a3e0 bb3b cc3e bc3b 8499 9dbd 31fe 033f
000000f0: 01b4 9e3d 508e 9fbc 1e8a 263e 422b 393d
00000100: b038 8dbd de39 83bd d3ee 943f 891e 253e
00000110: 3073 10bd c71c 57bd a8c8 6fbc da12 f8bc
00000120: 58a4 5b3e 227b 6b3e f443 153e 0d89 dd3d
00000130: e9e7 1f3d 6d82 a2bd c47f 773e f188 2bbd
00000140: 9b1a 143d 7ea3 49bd 5652 913c cbea a83d
00000150: 75d0 a0bd 149e 0d3c 0ede 9b3d c239 85bd
00000160: e065 993c 5b90 6a3e 8b00 9bbb 4e05 9abd
00000170: c080 1bbc 31bc a4bd b4fa 733e 63c1 1b3e
00000180: 2e6e 93bd 9a35 423d a0ef 193d b520 b2bc
00000190: 37bd eb3c 5705 12bb 6707 b73d 2451 5dbd
000001a0: 1034 1dbd 2542 80bd 55cf 17bc 341c 383d
000001b0: 536f 993f 5e57 943d 2bc6 09bc c652 143c
000001c0: 9133 c43c d888 193c 2679 3ebd 2780 013f
000001d0: 4f1b 723e 5e85 9d3f 924a 3abd 08e5 8b3f
000001e0: 6c4c 01bd c54b aa3d a36f c53a e071 b53d
000001f0: c844 b5bc 67d0 4e3e 0435 363d ee95 4ebd
0.0530809 1.2081031 0.048408292 -0.048289485 -0.038601227 1.2354609 -0.04900854 1.1933421
-0.03225953 -0.06999103 0.13701706 -0.08357802 0.64839613 0.07854364 0.113347135 0.18358603
0.12845808 0.042147007 0.00053334277 0.028346643 -0.07947151 0.039853737 -0.080570824 0.027306221
0.06309185 0.003124705 1.1160132 -0.057437103 0.27013305 0.039639533 -0.04997578 0.06299137
0.021634012 0.07931397 0.786701 0.13245066 -0.0033368948 1.2396501 -0.037713233 1.2428323
-0.03890023 -0.03513682 0.11960974 0.21599136 -0.0150478855 0.054644592 -0.028558386 0.9873831
0.056034423 -0.019412888 -0.05013677 0.036328066 1.2595295 -0.0771992 0.70176065 0.11506955
0.005733566 0.0057447907 -0.076952964 0.5155974 0.07749177 -0.01947704 0.16263625 0.04520727
-0.06895578 -0.06407522 1.1635383 0.1612493 -0.0352661 -0.05251768 -0.0146352425 -0.030282427
0.21449411 0.2299619 0.14576703 0.10817156 0.039039526 -0.07935033 0.24169832 -0.041878644
0.036158185 -0.049228184 0.017739456 0.08247908 -0.0785226 0.008643646 0.07610713 -0.06505157
0.018725336 0.2290663 -0.0047302893 -0.07520543 -0.009491146 -0.08043707 0.23826104 0.1521049
-0.071987495 0.0474144 0.03758204 -0.021744112 0.028776748 -0.0022281015 0.08936959 -0.05403246
-0.03837973 -0.06262616 -0.00926574 0.04494877 1.1987098 0.072432265 -0.008409063 0.009052938
0.02395037 0.009371005 -0.046502255 0.5058617 0.2364323 1.2306325 -0.045481272 1.092927
-0.031567022 0.08315233 0.0015063178 0.088596106 -0.022127524 0.20196687 0.044484153 -0.050435953

layer3.weight f4 [3, 128]
00000000: af26 263c 0910 623f 94ca 8abd ca9b ae3c
00000010: caf5 dc3c 6d03 6e3f 2645 7fbd 55cd 863f
00000020: 4e07 a8bc be77 89bd 8c8a fb3b 6760 e83c
00000030: 8e6c 8a3e ee30 6d3d c41b 8d3d 602c 0a3d
00000040: 764d d03d 3db8 27bc 024e e5bb 75d0 ad3a
00000050: 0ed8 33bd 0b98 3f3b 36f9 3cbd 9e65 90bd
00000060: f0c4 873d 5778 73bd 0693 633f f59b 5abd
00000070: 5ff7 2d3e d3d7 f83c a87b f5ba 3a2e 523c
00000080: 1ecc 62bb 3ef5 743d e9a3 883e 6d2b a83b
00000090: 88f4 73bc 06d4 803f c9a3 a33d 9280 843f
000000a0: eb31 85bc 638e 4d3d 187e 953b cb20 b63a
000000b0: 53ce 82bd 89c4 833a 36f2 c8bc 5a9a 5b3f
000000c0: f386 833d 32ac 9dbc d5b3 99bd 60ff 483c
000000d0: 493f 5e3f 33f2 28bc 5675 cf3e 38a4 a03d
000000e0: 3726 7a3b ddd6 29bd eca7 4e3d fc1d 0d3e
000000f0: af5b 0a3e e9a2 63bc cc1a 4d3c af03 6ebc
00000100: a1e5 8d3d 5da5 973d 1de0 833f 2a7f 6f3d
00000110: 2394 ddbc 34fa 0cbd 959f 6d3d ddc5 1dbc
00000120: ba14 a43d d6f8 133e 2fbb 1d3d 2e7c a33d
00000130: 4fcf 3a3d 6d0d 3fbc 82e2 1e3e d1f8 7bbc
00000140: ed38 94bd aea1 0cbd adc5 8fbd 3c81 c03d
00000150: f1cb febc ea98 9ebd f655 573d e8d2 edbc
00000160: 302d b33c 6d55 303e b8a0 743e 9c48 18bd
00000170: 2b02 01bd 8475 493d 8556 fd3c 4b15 5a3d
00000180: eb5c 283c 93b4 d7bd dab2 493d d8ad 043d
00000190: 6453 2dbd beca 16bd 74f6 683c 848f 8bbd
000001a0: 4549 393d 73bd 9dbd 75a3 43bd 1955 a03d
000001b0: dd01 8c3f 6f28 5dbd 66d0 6cbd 4db1 7cbd
000001c0: 961a babb 04ca 2ebd e8a6 61bd da6d 873e
000001d0: 802c ae3d 7091 863f 21f1 57bd f473 223f
000001e0: 1c45 febc e855 1f3d 81c2 20bd c752 513d
000001f0: dada 1abd 62b9 2f3d 8e13 8d3d 76b0 48bd
00000200: ca12 00bd 848c 983f fac7 fbbb f240 cb3b
00000210: b884 a33c 5769 843f 23a7 cbbc fac7 8f3f
00000220: 570f 75ba 7b2c 21bd d63c cc3d bc4a 97bd
00000230: dd7a ae3e 86b0 ae3d 15b4 383d 3601 983d
00000240: a84a 8e3d 2455 973c d7f4 e93a 48a1 fd3c
00000250: ae74 50bd d7cc 67bd 47ad 85bd ed6d ca3c
00000260: 820d e13d 28b6 97bd 2ced 8d3f adf5 f8bc
00000270: 0db0 1e3e 5257 8bbd 0c28 6cbb dab6 ad3c
00000280: ad9c 55bd ec54 1d3d 299b 6e3e d1af cb3d
00000290: 7459 07bc d8bf 863f 4bcb 16bd 0ff5 8a3f
000002a0: 84b7 91bb 0b16 b5bc d1d3 753d f3a5 d13d
000002b0: bf20 eabc b3b6 13bd 5ab5 45bd a034 223f
000002c0: 6138 67bb 8a6c 053c 96dd 9c3d 2f20 86bd
000002d0: 2a87 7b3f c534 633d d60f 1a3f c04b a23d
000002e0: 79ec cbbc d9c5 913d 796d 9d3d cacc 4f3e
000002f0: 6263 b53d 5400 80bd 2849 8b3d 1c57 693d
00000300: 434c 353d 0bd3 843d 4566 933f ef8d c63d
00000310: cf88 0abd e415 9dbd b291 7fbc 5f78 b5bd
00000320: eaa7 353d a530 e23d 3ed6 943d e6ef 7b3d
00000330: fc08 723d 6b50 08bd 4f86 213e 262f 47bd
00000340: 4d59 a5bc 3dea 0b3c 5b30 22bd b7ea 783c
00000350: 2233 003d 3562 f7bb 2be3 21bd 9fea a73b
00000360: 6062 983c 8612 cf3d d34b 3d3e 98b7 953d
00000370: c48f dd3c 20a3 9a3d 85bf be3d 68f4 443c
00000380: 1dc2 433d 7793 1fbd 2b61 913d 8cf9 38bd
00000390: eb35 b6bd d90f 85bd a72f 873d 0b97 49bd
000003a0: 608c 83bd fe3f 4c3c 93f4 10bd 6dba 6cbd
000003b0: 07b2 8d3f 2c0c 57bb 3fea aa3d f629 e7bc
000003c0: 7f23 c83c ba9c 14bd ef68 f03c b4c9 903e
000003d0: ebf9 5e3e 7a6e 8d3f 9672 79bd 5c8c 3e3f
000003e0: ba0d 34bd 4006 3dbc 1425 3fbb 0beb 7dbc
000003f0: 45fa 883c 8b84 3f3d 468d ba3d b51d 1dbd
0.010141059 0.8830572 -0.0677692 0.02131452 0.02697267 0.9297398 -0.062321804 1.0531412
-0.020511296 -0.06712292 0.007676428 0.02836628 0.27035946 0.05790799 0.068900615 0.033733726
0.101710245 -0.010236797 -0.0069978246 0.0013260978 -0.043907218 0.0029234912 -0.046136104 -0.07050632
0.0662936 -0.059440937 0.88896215 -0.05337139 0.16988896 0.03037635 -0.0018728869 0.012828404
-0.0034606527 0.059804194 0.26687554 0.00513213 -0.014889844 1.0064704 0.07990224 1.0351737
-0.016259154 0.05018462 0.0045621507 0.0013895271 -0.063870095 0.0010053079 -0.024529558 0.85782397
0.06422224 -0.019247148 -0.07505003 0.012267917 0.86815315 -0.010311651 0.40519208 0.07843822
0.003816975 -0.041464675 0.05045311 0.1378097 0.13511537 -0.013893821 0.012518596 -0.014527245
0.06928564 0.074045874 1.0302769 0.058470882 -0.027048176 -0.0344183 0.058013517 -0.009629694
0.08011766 0.14450392 0.03850859 0.0798267 0.04560786 -0.011660916 0.15516093 -0.015379147
-0.0723742 -0.034333877 -0.070201255 0.093996495 -0.031103106 -0.0774401 0.052572213 -0.029031232
0.021872133 0.17220087 0.23889434 -0.03717862 -0.03149621 0.049184337 0.030925045 0.053242963
0.01027606 -0.10532489 0.04924283 0.032392353 -0.042315856 -0.036814444 0.014218915 -0.06814483
0.04523589 -0.0770215 -0.047763307 0.07828731 1.0938069 -0.05399364 -0.05781593 -0.061692525
-0.005679439 -0.042673126 -0.055090815 0.26450998 0.085045815 1.0513134 -0.052720193 0.6345818
-0.031038813 0.038900286 -0.039247993 0.051104333 -0.03780637 0.042901404 0.068884954 -0.04899641
-0.03126792 1.1917882 -0.007683751 0.0062028104 0.019960746 1.0344647 -0.02485997 1.1232903
-0.0009348294 -0.03934906 0.09972541 -0.07387301 0.34078112 0.08529763 0.045093615 0.07422106
0.06947833 0.018473215 0.0017849457 0.030960694 -0.050892524 -0.056591835 -0.06527191 0.02471062
0.109889045 -0.074077904 1.1088004 -0.030390585 0.15496846 -0.068037644 -0.0036034612 0.021205354
-0.05215137 0.038411066 0.23301376 0.09945644 -0.008261073 1.0527296 -0.03681497 1.0856036
-0.0044469256 -0.022105237 0.060016457 0.102367304 -0.028580068 -0.036062907 -0.048268653 0.6336155
-0.0035281407 0.0081435535 0.07659452 -0.06549107 0.9825312 0.055470247 0.60180414 0.079246044
-0.024893032 0.071178146 0.07686896 0.20292965 0.088568464 -0.062500626 0.06801063 0.05696784
0.044262182 0.06485566 1.1515585 0.096950404 -0.033821877 -0.07670191 -0.015598701 -0.088608496
0.04434959 0.110444345 0.07267426 0.06150808 0.0590906 -0.033279818 0.15773891 -0.04862895
-0.020184183 0.0085397335 -0.039596897 0.015192679 0.031298764 -0.007549549 -0.039523285 0.0051244046
0.018601596 0.10110955 0.18485956 0.07310408 0.027046092 0.07550645 0.09313873 0.012021162
0.047792543 -0.038958993 0.070986114 -0.04515986 -0.08897003 -0.06497163 0.06600886 -0.04921631
-0.06423259 0.012466429 -0.035389494 -0.057794977 1.1069955 -0.0032813651 0.0834546 -0.02821825
0.024430988 -0.03628228 0.029346911 0.28278887 0.21775024 1.104934 -0.060900293 0.7443292
-0.043958403 -0.011537135 -0.0029166387 -0.015497933 0.0167209 0.046757262 0.09108977 -0.03835841

layer3.bias f4 [3]
00000000: f8d4 113e 81aa ff3d e786 053e
0.14241397 0.12483693 0.13039742
