models/rl_models/07.03.24_with_rewards_for_each_3_seconds/best_target_dqn_model_epoch_34.pt (torch, 74158 bytes, 6 tensors)

layer1.weight f4 [128, 6]
000000 af 8d 43 be 1f f6 38 be 32 24 64 be 65 9b 0a 3d
       -0.19097017 -0.18062638 -0.22279432 0.033839602
000010 f1 1a 29 be bd 39 23 3e a7 1e 84 3c 18 89 01 3e
       -0.16514184 0.15939994 0.016127897 0.12649953
000020 e3 fa 2e 3e 90 a8 7e b8 ad 62 99 3e 24 d4 8d 3e
       0.17087893 -6.0715305e-05 0.29958096 0.27700913
000030 46 66 ae be 28 92 fe 3d d2 61 a1 be 1d f2 af 3e
       -0.34062403 0.12430221 -0.31519943 0.34364405
000040 b0 ed 81 3e c7 3f 9c be 1d e8 1f 3d 7e 51 5e 3e
       0.25376654 -0.30517408 0.03903972 0.21710774
000050 53 53 a4 3d 63 80 a5 be 9f 06 b9 3e 4d 7a 4e be
       0.08023705 -0.32324514 0.36137864 -0.20163842
000060 5b 16 3f 3d ad 46 a4 3e b6 3c 25 3e d4 1f 8b 3c
       0.04665218 0.3208517 0.1613644 0.01698295
000070 5f 6a b8 bd 44 67 6e 3e 5c f7 f8 3c f9 0e c4 3e
       -0.09004664 0.2328158 0.030391388 0.38292673
000080 15 4d 01 3e fc 7a 74 be 74 17 48 be 9e 4d a7 be
       0.1262706 -0.2387504 -0.19540197 -0.32676405
000090 99 4e 3d 3e c9 14 6a be d7 3b ad be a1 1f 05 be
       0.18487014 -0.22859491 -0.33834717 -0.13000347
0000a0 4e 11 b3 3e 1c 4b 47 3e 0a 60 f2 3c aa 91 b8 be
       0.3497414 0.19462246 0.02958681 -0.36048633
0000b0 46 37 04 be ac 4b 9e bd a1 3c ca bd a0 48 51 3e
       -0.1291171 -0.07729277 -0.09874845 0.2043786
0000c0 58 0b 92 bd 86 df a8 bd a0 a6 a7 3e e0 71 88 be
       -0.0713107 -0.08245759 0.32744312 -0.2664938
0000d0 e8 71 41 be a2 8e ed 3c 43 41 40 3e 6f 14 b1 be
       -0.18891108 0.028998677 0.18774895 -0.34585902
0000e0 b0 bf 44 3e d7 af c5 3d 7e 00 8e be 3f 3c 67 3e
       0.19213748 0.096526794 -0.2773475 0.22581576
0000f0 f1 81 c3 3e d8 e0 ac be a9 18 7c 3e 50 52 84 3e
       0.38185075 -0.33765292 0.24618782 0.2584405
000100 b1 cc 3f be 60 bc af bd bd 36 23 3e 96 96 ff bd
       -0.18730427 -0.085808516 0.1593885 -0.12479894
000110 95 48 d8 bc 5e 3a 0f be ff ea 61 bd ff 66 93 be
       -0.026401797 -0.13987109 -0.05515575 -0.28789517
000120 5e f8 be be 88 6b 24 be b8 a6 c7 bd 17 52 df 3d
       -0.37298864 -0.16056645 -0.09748596 0.10904329
000130 7a a0 dd 3d bd b9 0a 3e 9d 6c a1 3e e3 28 fc bd
       0.10821624 0.13547416 0.31528178 -0.12312486
000140 45 05 a7 bd 33 c6 a6 3e 32 84 ab 3e 95 0d 39 3d
       -0.08155302 0.3257309 0.33499295 0.04517897
000150 97 c4 5f 3e 1d de e5 3d 2b a6 43 be db f6 8a be
       0.21852337 0.11224005 -0.19106357 -0.2714146
000160 26 76 5b 3c 17 6a 48 3e 32 ea 14 be f1 32 a8 3e
       0.013394868 0.1957172 -0.14542463 0.32851365
000170 79 b4 bf bd a5 e2 3d be 14 08 0a bd a8 bf ba be
       -0.09360594 -0.1854349 -0.03369911 -0.36474347
000180 ff f1 b8 3d 6b 7e dd 3d 51 93 1a be 66 51 92 3e
       0.09030532 0.10815128 -0.15095259 0.28577727
000190 8f 3e ac 3e 0b 0c 5d be d6 64 43 be 8e b2 d4 3d
       0.33641478 -0.21586625 -0.19081435 0.10385619
0001a0 9d c3 a7 3e 73 15 9e be d2 6f f7 3d f6 89 26 be
       0.3276643 -0.3087574 0.12081875 -0.16263565
0001b0 43 51 35 3e 57 85 b6 be e2 06 6c bc 0c 5f d7 3d
       0.1770678 -0.35648605 -0.014405938 0.10516176
0001c0 26 24 7b bd 70 37 7c bc 95 1e 8f bc 52 bd a2 3d
       -0.06131377 -0.015394077 -0.017470637 0.07946266
0001d0 d2 0d 80 be de 46 aa 3e 1c 69 9d be 09 df 3b be
       -0.25010544 0.33257192 -0.30744255 -0.183468
0001e0 62 4a 25 3e 26 35 bc 3e 18 62 63 be c9 f8 a8 be
       0.16141656 0.367593 -0.22205389 -0.33002308
0001f0 0b 7f 71 be e9 8d 86 be f9 ae 7f be 00 ee 99 3e
       -0.2358362 -0.26280144 -0.2496909 0.30064392
000200 e2 93 b6 3e 6c 84 be bd 52 ad a1 be 47 d9 b2 bd
       0.356597 -0.09302601 -0.31577545 -0.087328486
000210 00 53 a9 be d2 8c 31 be 0b 4c 3a be 6b f8 9a be
       -0.33071136 -0.17338875 -0.1819307 -0.30267653
000220 e9 83 96 3e cc 92 2c 3e 83 43 ba be 19 2c 05 be
       0.29397514 0.16852874 -0.36379632 -0.13005103
000230 3f 64 9c 3e 90 22 46 be 00 95 2b be b5 d1 09 3e
       0.30545232 -0.19349122 -0.16756058 0.13458903
000240 c5 9e 5f 3e e0 a9 d8 bc c3 c4 91 be ad a0 22 3e
       0.2183791 -0.02644819 -0.2847043 0.15881605
000250 34 d8 a0 3e b3 41 a7 be bd cb be 3e 79 10 2e 3d
       0.3141495 -0.32667312 0.37264815 0.04249618
000260 8f dd 58 bd 9a 1a fe 3d 36 88 4f 3d 7c da fa 3d
       -0.05294567 0.124074176 0.05066701 0.12248704
000270 1f 6d c8 3d de cd ac 3e 49 a9 ae be 30 2a f1 bc
       0.09786438 0.33750814 -0.3411353 -0.029439062
000280 ee eb 5f bc d3 ac e7 bc 03 de bc bb 2f 4b bb be
       -0.01366709 -0.028280651 -0.0057637705 -0.36580798
000290 e9 22 93 3e c9 b5 13 be fa 9b 80 3e 7b 0a be be
       0.28737572 -0.14424814 0.25119 -0.3711737
0002a0 3e 9c 91 3e d0 b1 8e be bf cd 95 bd 81 e4 a2 3e
       0.28439516 -0.27870035 -0.073146336 0.3181496
0002b0 63 d2 81 3e 6d 2f 92 3d 90 7b 4d 3e e3 bc a6 be
       0.25355825 0.07137952 0.20066667 -0.32565984
0002c0 d3 1d 65 be 56 ed a2 be c5 53 65 bd 5b 77 95 3b
       -0.22374658 -0.31821698 -0.055988092 0.0045613474
0002d0 8b 1d 58 be 2c 6f c0 3e f7 3f cf 3c 9c a3 a9 be
       -0.2110502 0.37584817 0.025299056 -0.33132637
0002e0 bf 85 25 be 3e ac af 3e 74 93 8c be ca e8 b9 3e
       -0.16164301 0.34311098 -0.27456248 0.36310416
0002f0 e3 58 b6 be 98 c8 0f 3e c3 cf 02 be 49 d1 9f 3e
       -0.3561469 0.14041364 -0.12774567 0.3121436
000300 f3 c9 b0 3c 9b fd 92 be d0 3f 9e 3e 5b 0a b9 3c
       0.021580672 -0.2870911 0.3090806 0.022587946
000310 ad 2f ac be 8e 42 b4 3e 86 6d 4e be e6 ed 50 3d
       -0.33630124 0.35207027 -0.20158967 0.051008128
000320 ec 9b 51 3e af f6 5e be f3 4c f5 3d 6b c6 5a bc
       0.20469636 -0.2177379 0.119775675 -0.013352971
000330 b0 40 46 be 86 34 ae be b2 b5 83 3e 94 b0 50 3e
       -0.19360614 -0.34024447 0.2572456 0.20379859
000340 4e 95 38 be f7 24 b5 3c d9 2e 92 be ea a1 91 be
       -0.18025705 0.022112353 -0.28551367 -0.28443843
000350 62 d3 28 be e8 bc 7b 3d 20 19 89 bc b2 6b df bd
       -0.16486886 0.061459452 -0.016735613 -0.10909213
000360 ee 35 dc bd 8a f6 46 be 8e a5 ba 3d 33 fd b0 3e
       -0.10752474 -0.19429985 0.09113608 0.34568176
000370 35 12 1e 3e cb 87 85 3e ab 08 f2 3d 0e 27 8f 3e
       0.15436633 0.26080164 0.118180595 0.27959484
000380 dc b1 2a 3e b1 87 67 bd a0 3a 0e 3e ed 08 21 bd
       0.1666941 -0.05652589 0.13889551 -0.039315153
000390 26 88 a6 3e 51 0d 94 3e 16 ce 8a be 72 05 46 be
       0.32525748 0.2891641 -0.27110356 -0.19338015
0003a0 81 5e ee 3c 50 ac 2e 3d 8a af 9e be 7a e6 ed 3a
       0.029097797 0.0426448 -0.309933 0.0018150352
0003b0 09 6e 8c be c7 5c b4 bc f0 84 8f 3e a9 19 9b 3e
       -0.274277 -0.022016896 0.2803111 0.30293015
0003c0 f4 6d d1 bd 34 7d ad be 16 fe 90 be a3 7a 75 3e
       -0.1022605 -0.33884585 -0.28318852 0.23972563
0003d0 7b 7c b4 be c2 a7 ab 3e 72 61 99 3e d8 30 84 3d
       -0.3525122 0.33526427 0.29957157 0.06454629
0003e0 8f af 90 be 4e d9 bc bd 03 e1 97 3e b2 ff 80 3e
       -0.2825894 -0.09221135 0.29663858 0.2519508
0003f0 6b 1f bd be 5a 61 89 3e 31 35 8a 3e 6d 3c aa 3e
       -0.36938033 0.26832086 0.26993707 0.33249226

layer1.bias f4 [128]
000000 51 e6 81 be 3d 02 2a 3f 7b e2 66 3f 53 97 52 bd
       -0.2537103 0.66409665 0.9018933 -0.051413845
000010 ef 8a b7 be d8 4a 38 be ce 66 b7 bc 4b f9 b4 be
       -0.35848185 -0.179973 -0.022387888 -0.35346445
000020 72 5e c6 3f e2 79 cf bd e0 0b 85 3f 42 e5 e7 3f
       1.5497572 -0.10130669 1.0394249 1.8116839
000030 cc ee d8 3f 42 76 e0 b9 09 bf bd 3e 4b e8 59 be
       1.6947875 -0.00042812718 0.3705981 -0.21280019
000040 eb bf 41 3f e1 92 7f be 41 af e0 bd 24 dd a3 ba
       0.7568347 -0.24958374 -0.10970927 -0.0012501818
000050 18 f5 8a bd 38 01 b8 3f 6f b1 37 be ab f0 34 bd
       -0.06785029 1.4375372 -0.1793878 -0.04417483
000060 48 00 a3 be b7 f9 72 3f d7 84 8d 3f 4b d6 33 be
       -0.31836152 0.94912285 1.1056165 -0.17562215
000070 a0 d3 06 3f d3 1b c4 b9 e6 70 c1 3f 0f 14 2d b9
       0.52666664 -0.00037404764 1.5112579 -0.00016506038
000080 4e a1 e6 bc 43 9c db 3f 8c 1e c2 3f 57 ef de bd
       -0.028153088 1.7157062 1.5165572 -0.10885494
000090 06 da 0f bd 8b 19 0e 3e 86 e9 9c b8 02 27 d0 3f
       -0.035120033 0.13876931 -7.482157e-05 1.6261904
0000a0 a6 2d dc 3f 16 a4 35 be df 92 7e 3f 1e 8e 9e be
       1.7201431 -0.17738375 0.9944286 -0.30967802
0000b0 68 74 11 be 04 6d 69 be cd 0a 14 3a 3b c4 a0 be
       -0.14204562 -0.22795492 0.00056473614 -0.31399712
0000c0 82 9c dd bd 20 3b 73 be f9 bb 36 be 5f 7a b8 3f
       -0.10820867 -0.23753023 -0.17845143 1.4412345
0000d0 23 60 be be 85 91 90 bd b9 6d d2 3f fa 11 a0 b9
       -0.37182721 -0.07059006 1.6439735 -0.00030530972
0000e0 5f 00 99 be 5a cb cc 3f 95 b2 83 be f5 f4 1f bd
       -0.29883096 1.5999558 -0.25722185 -0.03905197
0000f0 17 bb 94 be e9 18 b7 3f 9e 18 d4 3f 60 37 a2 3f
       -0.29048988 1.4304477 1.6570013 1.2673149
000100 25 ec dd 3e 2a e7 c5 3f 1c 02 dc 3f de 47 94 be
       0.43344226 1.5461171 1.7188144 -0.2896108
000110 ee d7 d9 3f 97 70 05 bd f0 66 ad be 52 25 d5 3f
       1.7019022 -0.032578077 -0.33867598 1.6652014
000120 76 c9 ef bd 01 ed 19 bd ad c3 94 be 11 44 95 be
       -0.117083475 -0.03757954 -0.2905554 -0.29153493
000130 33 a1 8c bd 86 c2 dc 3f a4 66 48 be 88 bd 13 bc
       -0.06866684 1.7246864 -0.19570404 -0.009017356
000140 05 fd 0c be 93 b3 9e bc cc d4 31 be 32 1b e7 3f
       -0.13768394 -0.019372737 -0.17366332 1.8055174
000150 41 96 e4 3f 3d eb 87 3f 61 e0 d9 3f 76 b9 9a be
       1.7858354 1.0618664 1.70216 -0.3021962
000160 05 3e 98 bd ec de c0 3f d0 3c a8 be 87 87 b7 3a
       -0.07433704 1.506803 -0.32858896 0.0014002182
000170 cc a4 4e be 3d 8a e2 3f 70 23 9f bc 0a 7f f3 bd
       -0.20180053 1.7698437 -0.019426078 -0.11889465
000180 93 a4 d1 bc bd 9b 1c bd 1f da 8b b9 aa 65 8c 3f
       -0.02559117 -0.03823446 -0.0002667466 1.0968525
000190 3d 89 e6 3f af 9b 65 bd 89 95 1f be 29 3a 4d be
       1.8010632 -0.056056675 -0.15584387 -0.20041718
0001a0 5e ad a3 bd 5d e0 fe bc 3b bc af 3f af 5a 20 3f
       -0.079920515 -0.031112844 1.3729318 0.6263837
0001b0 43 70 d3 3f 6e 6d fc bc dc 30 d3 3c 8d af 4a 3e
       1.6518635 -0.030813899 0.025780134 0.1979353
0001c0 40 b7 57 bd a9 1a 1d bd 1b 6a e0 3f ef e4 4a be
       -0.052664995 -0.038355503 1.7532381 -0.19813894
0001d0 62 ea e1 3f 5c 99 e4 3f 81 32 14 be c3 f6 ba 3f
       1.7649653 1.7859302 -0.1447239 1.4606556
0001e0 2f 1c 4f 3f 07 15 97 3f 26 1a 5c 3f db 61 a8 bd
       0.8090238 1.1803292 0.859774 -0.082217894
0001f0 3c 4f 8a be d1 2a e4 3f 6a a1 9d bd 91 41 3e 3b
       -0.27013576 1.7825567 -0.07696803 0.002903078

layer2.weight f4 [128, 128]
000000 15 66 c0 bc 6b 9d fb bc 0c 69 8f bd 05 63 85 3c
       -0.023486177 -0.030714711 -0.07002458 0.016282568
000010 d3 57 82 bd 27 5c 99 bd aa 6a 2f bb f5 d5 84 bd
       -0.063644074 -0.0748828 -0.0026766458 -0.064861216
000020 8a 1b eb bc a2 40 a5 3d ef d0 42 bc b9 42 14 3d
       -0.028699655 0.08068968 -0.011890634 0.036196444
000030 db f1 a2 bd da d9 2f bd f4 fd 8d 3d d3 9d bb 3c
       -0.079562865 -0.04293237 0.06933203 0.022902405
000040 d4 66 45 3d 1e 07 48 bb bc 54 c6 bc 92 0f 6c bd
       0.048193768 -0.003052182 -0.024210326 -0.057632037
000050 1f e2 fa 3b a9 db 97 3d cf a9 99 bd 57 df 5e bd
       0.0076563503 0.07414944 -0.075030915 -0.054412212
000060 a4 58 7d bd 1a be 09 3c 1a 12 3c bd 95 29 a3 3b
       -0.061852112 0.00840714 -0.0459157 0.004979322
000070 e4 cb fa 3c c2 7e 6a bd b8 5e d0 bc 12 c1 d1 3b
       0.0306148 -0.057249792 -0.02543579 0.0064011896
000080 66 88 dc bc 8c 5d a6 bd 25 39 66 3d 26 62 90 bd
       -0.026920509 -0.081233114 0.05620684 -0.0704997
000090 d3 76 f5 3c da 2b 77 3d 97 42 a0 bd 6e cb 2e 3d
       0.029963886 0.060344554 -0.07825201 0.042674474
0000a0 9a 46 a0 bc 2e de 2c bd d8 09 65 3d 4a a0 06 3d
       -0.019564915 -0.042204075 0.05591759 0.032867707
0000b0 6a 28 6f 3d 46 36 24 3d fb 1a 72 bd 60 f7 96 3d
       0.05838815 0.04009082 -0.05910776 0.07371402
0000c0 92 d6 45 3d b3 42 ba bb be 9c 87 bd 84 2a e1 bc
       0.048300333 -0.0056842207 -0.06621693 -0.027486093
0000d0 0c 72 9f 3b d6 97 c5 bc ca ef 6c bd c7 8b a2 3d
       0.0048658904 -0.024120253 -0.05784587 0.07936817
0000e0 06 5c 36 3c e9 9f 1d bd ed 19 9d 3d f7 63 35 3c
       0.011130339 -0.03848258 0.076709606 0.011071197
0000f0 23 cd 71 3a d0 ce 3f bd 19 be 65 3c f5 6b 79 bd
       0.0009223988 -0.04682809 0.014022374 -0.06089397
000100 91 0e 9b bc ca ec ed bc c1 15 82 bb 59 ef 17 3d
       -0.018927844 -0.029043574 -0.0039698784 0.037093494
000110 1f d0 48 3d c8 56 10 bd 4f ec 86 3d 6c 0b 61 3c
       0.049026605 -0.03523901 0.06588041 0.013735633
000120 50 57 a0 bd 1b 05 80 3d 78 07 a0 3d 4a 3d c2 3b
       -0.078291535 0.06250974 0.078139246 0.0059277164
000130 4b 5a 72 bd bb e6 c1 bc a8 1a 12 bc 7f 85 1e 3c
       -0.05916814 -0.023669591 -0.008917488 0.009675383
000140 67 da 34 3c d2 61 6c bc 12 64 3a 3d 07 7e 21 bd
       0.011038399 -0.014427619 0.04550559 -0.03942683
000150 6b d7 76 3d 7a 4b 4c bd 56 6d 8f 3d fe f5 04 3c
       0.060264032 -0.049876668 0.07003276 0.00811529
000160 d3 fc 92 bc 74 8e 62 3d 63 6d 89 bc 40 b1 c1 3a
       -0.017942822 0.055311635 -0.016775792 0.0014777556
000170 17 58 a5 bc 8f ae 9d bc c5 7f 2c bd b5 a2 29 3d
       -0.020183606 -0.019248275 -0.042114038 0.041414935
000180 e9 76 99 3d 82 2c a5 bd ba 00 3a 3d 5f 57 3b 3c
       0.074933834 -0.0806513 0.04541085 0.011434405
000190 38 27 be 3c 3d 29 9d bd 98 d2 84 bd f2 22 7c 3d
       0.02321206 -0.07673881 -0.0648548 0.061556764
0001a0 eb bc 71 3d 7b 9f ba 3c 8b 22 84 bd 47 bd 38 bd
       0.059018057 0.022781124 -0.06451901 -0.045102384
0001b0 98 73 87 bd 24 80 4b bc cb 30 94 3c 1c 55 5c bd
       -0.06613845 -0.012420688 0.018089673 -0.053792104
0001c0 42 19 a2 bd 45 43 14 bd 4b 6d a9 bc 67 4f dd bc
       -0.07914974 -0.036196966 -0.020681998 -0.027015401
0001d0 a6 09 99 3d 7e 2f 30 bd da 76 2f bd cd 4c 88 3d
       0.074725434 -0.043014042 -0.042837955 0.066552736
0001e0 8b eb 9b 3d 52 a7 6b bd b2 c8 d5 bc ec 9d 01 3d
       0.07613286 -0.057532616 -0.026096676 0.031644747
0001f0 0c 70 87 3d 08 b5 10 3d d3 96 45 bd 64 8c cc bc
       0.06613168 0.035328895 -0.04823954 -0.024969287
000200 05 77 9f bd ac 12 79 bc c6 3a 9c bc 75 d0 a6 3d
       -0.07786373 -0.015202206 -0.019070994 0.08145229
000210 d4 f6 46 3d 9e d3 84 3d 08 3a 9f 3c da 37 6f 3d
       0.048575237 0.06485675 0.019436851 0.058402874
000220 4a 2e 77 3b 92 6b 5c bc 7b 68 1b 3d 60 a5 71 3d
       0.00377168 -0.013453381 0.037941437 0.058995605
000230 2b 86 85 bd f5 be fe 3c b0 f1 c7 3d f6 e6 ad 3c
       -0.06519731 0.031096915 0.09762895 0.021228295
000240 bb 72 93 3d a7 f8 1a bd d9 40 94 bd 3e 28 dc 3d
       0.071996175 -0.03783479 -0.07238931 0.10749863
000250 8a 1a 8e 3c 01 e7 8a 3d ee 83 d4 bc fa 05 56 3d
       0.01734664 0.06782342 -0.025941815 0.052251793
000260 c3 a6 02 bd 85 34 1b 3d 60 2d c9 3d 92 7c 4a bd
       -0.031897318 0.037891883 0.09823108 -0.049435206
000270 c6 d4 16 3c 1e 88 dd bc cc 02 08 bd 9a 37 ee bb
       0.009206003 -0.027042445 -0.033205792 -0.007269812
000280 33 d9 34 3d 35 d3 3d bd 86 53 ae 3c aa 42 64 3b
       0.04415245 -0.046344 0.021280061 0.0034829774
000290 d7 33 b2 3d 2c a5 07 3d e9 95 1a 3d 13 3a 9d bb
       0.08701294 0.033116505 0.03774062 -0.0047981828
0002a0 85 09 0f 3d 2d 55 5f bc f8 5b d6 3c f6 c8 84 3d
       0.034921188 -0.013631147 0.026166901 0.06483643
0002b0 ef ee 80 3d 8e 58 4d 3d 1a ea a6 3d 86 17 02 3e
       0.06295573 0.05013328 0.0815012 0.12704286
0002c0 f4 c2 cc 3d 6d 1f 0e bd 61 d5 e6 39 ec e6 80 bc
       0.09998122 -0.03469794 0.00044027998 -0.015735112
0002d0 a5 ca 7f bc 52 9a b4 3d 66 5d 8f 3d e9 27 e6 b8
       -0.015612279 0.08818497 0.07000236 -0.000109746885
0002e0 0c 08 46 3b 78 6d 97 bd aa 94 2d bd 63 4c 95 3c
       0.0030217199 -0.073939264 -0.042378105 0.0182249
0002f0 7e 31 cf 3d 15 05 82 3d c0 ac 28 bd ae 33 40 bd
       0.10116862 0.063486256 -0.041180372 -0.046924286
000300 ec a4 b6 3d 79 dd 78 bb 7c 2a a1 bd 73 43 f7 3b
       0.08918175 -0.0037973805 -0.078694314 0.0075458824
000310 18 f8 b6 bd 12 f7 82 3c 48 59 82 bc e9 06 62 bd
       -0.08934039 0.015986953 -0.015911713 -0.05518237
000320 b8 12 16 bc 5a a7 69 3d 8e 57 07 3d b5 bf ed 3d
       -0.009159736 0.057044365 0.033042483 0.11608831
000330 f4 12 bf 3d 27 5d 26 bd f2 b1 a3 3c fa c6 3a bd
       0.09329787 -0.04061618 0.019982312 -0.045599915
000340 63 d7 9f 3d 3a 63 0f bd ec ec 0b be a6 be 2c 3d
       0.07804754 -0.03500674 -0.13664597 0.042174004
000350 83 06 ac bd 81 6e 33 3d 27 2d 87 bd 43 2e 21 3e
       -0.083996795 0.043806557 -0.06600409 0.15740304
000360 82 4a 27 3d 4a 27 87 bd 50 55 b3 3d 6c 7e 32 bc
       0.04084254 -0.06599291 0.087565064 -0.010894399
000370 0a 72 2b 3d 62 3a d6 b9 46 2a 84 3d 97 90 a6 3b
       0.041856803 -0.0004086076 0.064533755 0.0050831544
000380 57 ce cd 3d 52 fb 82 bc 87 7d 2a bd 0d 54 bc 3d
       0.10049122 -0.01598898 -0.04162362 0.09195719
000390 55 a0 02 bc b0 94 45 bd df 7a e0 3c cf 43 ad bc
       -0.007972796 -0.048237503 0.02740234 -0.021150498
0003a0 c3 10 78 3d 48 89 0a bb 79 67 8a 3d fd 56 12 3d
       0.06056286 -0.0021138955 0.06758017 0.03572749
0003b0 f2 e0 4d bd 38 32 56 bc a0 a4 ff bd 47 db 48 bd
       -0.050263353 -0.0130734965 -0.124825716 -0.049037244
0003c0 9b 82 de bb 84 49 a4 bd 20 3b 40 bd 14 1b 8f 3d
       -0.0067904717 -0.080218345 -0.046931386 0.069875866
0003d0 b4 cb 86 bd 63 c6 8c 3c 79 97 27 bd 6f 17 91 3d
       -0.06581822 0.017184442 -0.04091594 0.07084548
0003e0 3e 53 99 3c c8 84 04 3e 06 99 b6 3d 69 3d 64 3d
       0.01871645 0.12941277 0.08915906 0.055722628
0003f0 28 69 4e 3d a2 b2 3a 3c d2 44 98 3d 1a fc b9 3d
       0.050393254 0.011395128 0.074350014 0.09081288

layer2.bias f4 [128]
000000 72 1e 4f 3d 66 d7 45 3d 84 b2 13 bd 72 81 20 bd
       0.050566144 0.048301123 -0.036058918 -0.03918595
000010 24 ce 50 bd e8 89 ba 3d 23 28 21 3d 2a b9 83 3d
       -0.05097784 0.09108335 0.039344918 0.064318016
000020 dc 0d 7f 3f 6d 00 03 3e f7 ca 8d 3c 51 49 0f bd
       0.9963052 0.12793131 0.017308695 -0.03498203
000030 64 75 2c 3e 33 6a bf bc 8e 0e 00 3d cc 72 a1 3e
       0.16841656 -0.02336607 0.03126388 0.31532896
000040 bc 33 51 3f d3 27 c9 bc 06 8e 1e 3f 96 ba 49 bc
       0.81719565 -0.024555122 0.6193546 -0.012312552
000050 2c f0 53 3e dc fc ad 3d c2 ee 85 3c eb ee 53 3d
       0.20697087 0.08495495 0.0163492 0.05174152
000060 4a 84 31 3e c2 92 4c 3d ba 92 29 3f 82 41 89 3d
       0.1733562 0.049944647 0.6623951 0.06701948
000070 b9 5e 4c 3d 68 27 9d bd a9 55 4a 3e 4c 40 f2 3e
       0.049895022 -0.07673532 0.1975924 0.4731468
000080 ad 1f 8d 3e fb d6 7d 3f 19 e4 3f 3d 6b 47 7e 3d
       0.2756323 0.9915616 0.04684839 0.06207983
000090 a3 ef 5d 3d 14 02 2a bb 12 18 51 3e ce d9 fa bc
       0.054183614 -0.002594118 0.20419338 -0.030621435
0000a0 f1 01 7d 3f fa 72 77 3e b4 47 09 bd 5b a7 f1 b9
       0.9883109 0.24164954 -0.033515647 -0.00046091792
0000b0 f7 1e 20 bd d8 81 30 bd 01 34 2a bd 99 36 e8 bc
       -0.03909203 -0.04309258 -0.0415535 -0.028346347
0000c0 c6 88 d5 3c 90 ac 2d bd 08 2a ad bd c4 7c 8d 3c
       0.026066195 -0.042400897 -0.084552824 0.017271407
0000d0 4f 54 87 bd 7e 43 e7 bb 59 95 49 bd 03 1f 71 3d
       -0.066078775 -0.0070576062 -0.049214695 0.058867466
0000e0 21 3c 10 3e 2a dd 87 3d 25 b5 ec 3d 62 22 8a 3d
       0.14085437 0.066339806 0.11557988 0.06744839
0000f0 4a 51 71 3d 60 b4 6f 3f 01 bb 62 bd 35 b9 62 bd
       0.058915414 0.93634605 -0.055354122 -0.05535241
000100 13 e3 81 3d 45 dc 4f 3e 35 be 8d bd ab 03 80 3f
       0.06342139 0.2029887 -0.06921045 1.0001119
000110 66 5b 64 bc e9 e6 1a 3d 1e fc c1 bc bd e5 5b bd
       -0.013937807 0.03781787 -0.02367979 -0.053685892
000120 f7 e6 04 bd 5d d0 c7 bc eb 42 18 3e 26 c8 8d 3c
       -0.032446828 -0.024391348 0.14869277 0.017307352
000130 54 cb e9 3d 0c 09 2a 3e 89 c3 92 3d c8 2d 7e bd
       0.11415735 0.16605014 0.071662016 -0.06205538
000140 8d 88 23 3f 64 5f 3f bd 63 3b 71 3c 8b 33 83 3d
       0.63880235 -0.04672183 0.014723632 0.064063154
000150 4a df d4 3c 51 36 7a 3f f7 ce 2f bd db 6f cc bc
       0.025985379 0.9773913 -0.042921986 -0.02495568
000160 d6 16 d4 3c dd a7 20 bd ad a4 89 3d 81 26 1c 3c
       0.025889795 -0.039222587 0.067208625 0.009530664
000170 19 c1 9e bb f0 99 7f bd 1a 83 8f bb b7 56 96 bd
       -0.0048447964 -0.062402666 -0.004379642 -0.07340758
000180 ce 3d 1b 3e 72 08 83 3b f3 c6 0d 3e 83 5d bb 3f
       0.15160295 0.0039988095 0.13845424 1.4637913
000190 85 11 75 3f 1b a3 80 bd 6e fe e0 3d bb ed 34 bd
       0.9572986 -0.0628111 0.109860286 -0.04417203
0001a0 06 e3 62 3b 01 51 98 bc 9c 9d 19 3e 6c 37 55 3f
       0.003462018 -0.018593313 0.1500153 0.8328769
0001b0 60 84 4c 3d 6d 77 0c bd 46 f2 79 3d 8a dc 19 bd
       0.04993093 -0.03429358 0.061022066 -0.037563838
0001c0 7b 3a 7d bd b6 1b 21 bd fd fe fb 3c d0 9a 3a 3f
       -0.06182335 -0.039333068 0.030761236 0.72892475
0001d0 c0 b8 90 bd c2 9a 62 bd d1 a6 19 3d 37 93 8e bd
       -0.07066488 -0.05532337 0.037512604 -0.06961673
0001e0 ff 47 47 3d c5 63 eb 3d e9 41 63 3d 94 af 81 3e
       0.048652645 0.11493639 0.05548278 0.25329268
0001f0 d4 6d 86 3d 9f f0 03 bc 17 3a 2e bd 35 bb c4 bc
       0.06563917 -0.008052974 -0.042535868 -0.024015049

layer3.weight f4 [3, 128]
000000 a6 ca 40 3d 99 c7 27 3d db 74 64 3d eb bc 12 3d
       0.04706826 0.040961836 0.055775505 0.035824697
000010 e6 6e ba 3b cf b0 e4 3c 5a 07 d8 3b 7a 3e 70 3d
       0.0056894897 0.02791634 0.0065926732 0.058653332
000020 0d 1b 81 3f df a4 98 3d 80 53 6f 3d 80 82 75 3d
       1.008638 0.07453322 0.05842924 0.059938908
000030 30 14 fc 3c 86 c1 3a bd 23 12 6c 3d 30 76 be 3d
       0.030771345 -0.045594715 0.057634484 0.09299886
000040 b3 e8 70 3f 47 67 66 3d d8 bb 94 3d 7e 7f 80 bd
       0.9410507 0.056250837 0.07262391 -0.06274317
000050 28 c0 a5 3d 55 4c 05 3c 65 93 a6 bc 65 e4 01 3d
       0.080932915 0.008135875 -0.020333955 0.031711955
000060 d5 94 12 bc 4c 63 b7 3d a0 6b 92 3d 6a 87 4e bd
       -0.008946617 0.08954486 0.07149434 -0.05042211
000070 1f 1c 22 3d de 1c 6b 3d f4 18 97 39 93 b5 28 3d
       0.0395776 0.057400577 0.00028819556 0.041188788
000080 9b 86 d2 3d ae a0 73 3f c5 99 ba 3d 23 31 6e 3d
       0.1027958 0.9516705 0.091113605 0.05815233
000090 3b 4e f4 bc ca cf 6b 3d 46 71 b2 3d 8c 70 4e bd
       -0.02982246 0.05757121 0.087130114 -0.0504003
0000a0 1c 05 6a 3f 11 4e 1b 3c c0 ee 02 3c 38 e8 d5 3c
       0.91414046 0.009479062 0.007991493 0.026111707
0000b0 65 e9 8d bb d1 e6 7c bd 7f 7f 72 bb bb 49 49 bc
       -0.0043308013 -0.06174356 -0.0037002263 -0.012285645
0000c0 1b 68 45 bc 60 21 a4 3d 80 0d 9e bd eb 53 a9 3d
       -0.012048746 0.08014178 -0.07717419 0.08267959
0000d0 f1 ac aa bc 7e f7 9b bd f7 06 1f bd 74 84 56 bd
       -0.020834418 -0.07615565 -0.038825 -0.05237241
0000e0 2d f0 89 3d 08 8d a1 bd f3 d1 aa 3d f4 e3 47 3d
       0.06735263 -0.07888228 0.08340826 0.048801377
0000f0 6a e6 5e bd 0e 15 7f 3f ef b5 95 3d 01 60 0e 3c
       -0.05441896 0.996415 0.07310092 0.008689881
000100 04 01 d2 bc a3 03 70 3d bd cb 00 3d d0 65 80 3f
       -0.02563525 0.05859722 0.0314443 1.0031071
000110 dc 4f d1 bb cb 1d 31 3c 20 82 ac bc 74 fa 8d 3d
       -0.006387694 0.010810326 -0.021058142 0.06932536
000120 87 80 84 3c 8f f2 7a 3a 18 54 61 3d 08 80 90 3c
       0.016174568 0.0009572887 0.05501184 0.017639175
000130 c6 79 a3 3d 90 06 32 bc b4 8f 08 3d f0 05 a9 3c
       0.07982211 -0.010865822 0.03334017 0.020632714
000140 bc da 7a 3e 3a 81 84 bd 78 b4 0f bd 9f 6c 98 bd
       0.24497503 -0.064699605 -0.035084218 -0.07442593
000150 de b4 0d 3d a2 78 53 3f 22 fa 79 3d 5e 36 0f bd
       0.034596317 0.82605946 0.06102956 -0.034963958
000160 72 3a a6 bd a8 f3 8d 3b e2 a9 92 3d 19 cb 02 bb
       -0.08116616 0.0043320246 0.07161309 -0.0019957481
000170 10 d6 88 bd 52 0c ec bc 94 ad 6a 3d 8c 2a a0 bd
       -0.06681454 -0.028814469 0.057294443 -0.07820615
000180 be e6 ce 3d 87 47 99 3d 30 ef 23 bd c5 34 59 3f
       0.10102604 0.07484346 -0.04002303 0.84846145
000190 f5 cd 6f 3f de 8c 00 3d ab 7b e4 3d 33 99 b6 3c
       0.9367364 0.03138434 0.111564 0.022289848
0001a0 6e fe 4c bc 51 2b 8a bd 32 d9 43 3d 08 53 78 3f
       -0.012511833 -0.06746543 0.047814555 0.97001696
0001b0 1a 37 ea bc 77 ee c8 bc bd 7e f2 bc 96 b7 94 3d
       -0.028590728 -0.024527771 -0.02960145 0.07261579
0001c0 4b 36 9b bd 62 1f 61 bd de 60 31 bc 47 dc 9f 3d
       -0.07578715 -0.05496157 -0.010826318 0.078056864
0001d0 35 2f 06 bd 1d 4b 1b bd 7f 38 91 3d a7 94 43 3d
       -0.032759864 -0.03791343 0.07090854 0.047749188
0001e0 ea 17 80 3d 2c 53 80 3d 8e 62 a5 bc a4 b0 14 3e
       0.06254561 0.06265864 -0.020188596 0.14520508
0001f0 42 1e 6f 3d 39 dc 34 bd 86 b4 d2 bb f3 87 9c bd
       0.058378465 -0.044155333 -0.0064302115 -0.07643118
000200 a4 cf cd 3c f7 61 0f 3d 0a e7 01 3d f8 d6 2d 3d
       0.025123425 0.035005536 0.031714477 0.04244134
000210 b9 c9 a1 3d ff e5 70 3d c7 30 99 3d 4b 45 83 3b
       0.07899804 0.05881309 0.07480007 0.004006063
000220 99 3c 7f 3f 7d 8d fe 3d 4d b2 a5 3c 30 97 4e bd
       0.9970184 0.124293305 0.020226622 -0.050437152
000230 0c b7 c4 3c 40 4c 0b bc a3 84 89 3b 4f b3 cf 3d
       0.024013065 -0.008502066 0.0041967197 0.10141622
000240 49 4a 5d 3f 08 08 70 bd b5 c4 f0 3d a2 3a 3b bd
       0.86441475 -0.05860141 0.11756269 -0.045710213
000250 59 66 61 3d d4 41 99 3d 3d ec 93 bd 2d 37 75 bc
       0.055029247 0.07483259 -0.07222793 -0.014966768
000260 d1 b7 95 3d f3 14 c9 3c e2 62 cc 3d bd f2 42 bd
       0.07310451 0.024546122 0.09979798 -0.047594775
000270 58 72 de 3c e3 1f 8c bc 64 06 06 3d 15 b3 ff 3d
       0.027154133 -0.017105049 0.03272094 0.12485329
000280 1b 41 d1 3d b8 fa 87 3f 88 5a da 3c cc c2 66 bd
       0.10217496 1.0623388 0.026654497 -0.056338117
000290 9a 75 fe 3b b5 eb 0d 3d 34 5b 83 3d e6 60 43 3d
       0.007765484 0.034648616 0.0641388 0.04769983
0002a0 44 5c 80 3f 26 c0 64 3d 24 2b 88 bc ba e6 5e 3d
       1.0028157 0.05584731 -0.016622134 0.054419257
0002b0 dc 06 a9 3c 69 a8 3c 3d 11 23 ae 3d 58 6a d9 bb
       0.020633154 0.046059046 0.08502782 -0.0066349916
0002c0 0a 1d 6c 3d 79 47 18 3c 27 44 b6 bc 45 7f a1 3d
       0.05764488 0.009294384 -0.022249294 0.07885603
0002d0 c2 43 b2 bc 64 ae 21 3d 7a 49 cd bd 96 36 1e bd
       -0.021760825 0.039472952 -0.1002378 -0.038626276
0002e0 c4 69 3b 3c ca 8d eb 3b 8f 82 33 bd 8a d8 45 bd
       0.011438791 0.0071885334 -0.043825682 -0.04830221
0002f0 62 9d 19 bd 47 60 7e 3f 08 b8 88 bd 1a 71 1c bd
       -0.037503608 0.9936566 -0.06675726 -0.0381938
000300 6e fd 7b 3d e6 b2 a9 3d 53 15 71 bd 1c 6c 77 3f
       0.061520986 0.08286075 -0.058858227 0.96649337
000310 1b 5d eb ba a7 2e 55 3d 7b 71 00 3d 82 51 dd 3c
       -0.0017956825 0.052046444 0.031358223 0.027016405
000320 8e ef 35 bd 09 f1 dd 3c 61 75 64 3d df f3 a5 3d
       -0.04441791 0.027092474 0.055776004 0.08103155
000330 da 8a 2b bd c7 6e 19 3d a0 d0 03 3c 0e bb 1d 3c
       -0.041880466 0.03745916 0.008045346 0.009627117
000340 29 13 9a 3e fd 78 8b bd 62 2e f8 3a c2 09 a6 bd
       0.30092743 -0.06810186 0.0018934722 -0.0810733
000350 1d cb cc 3d 66 e5 57 3f a7 51 81 3d 17 58 a6 3d
       0.09999678 0.8433441 0.06314402 0.081222706
000360 45 09 7b bd c3 3a ba bc cd b0 1b 3b 8d 20 c5 3d
       -0.061288137 -0.022733098 0.0023756505 0.09625349
000370 43 e1 73 bd 25 71 08 bd 76 3b 54 3c 72 f0 81 bc
       -0.059541 -0.033311028 0.01295363 -0.015861724
000380 c2 03 c1 3d cd 0b 94 3d 57 70 aa 3d bf 3a 44 3f
       0.09424545 0.07228813 0.083222084 0.7665214
000390 2f 89 86 3f 12 ed 23 bd a9 43 aa 3d ca 20 b0 3c
       1.0510615 -0.04002101 0.083136864 0.02150001
0003a0 57 59 99 bd 00 bb d7 bd 98 20 a4 bb 51 34 57 3f
       -0.07487743 -0.10533714 -0.0050087683 0.84064204
0003b0 a6 85 05 bd fe ca b5 3d 4e 3e 99 3d e8 87 a1 3d
       -0.03259816 0.08876608 0.07482587 0.0788725
0003c0 9c 6e c4 bc 95 5d 13 3d 1c 12 88 bc 7c 1e 59 3d
       -0.023978524 0.03597792 -0.016610198 0.053007588
0003d0 48 c8 8e 3d 73 cb a1 3d 67 52 2c 3d 9e 9d 84 bc
       0.06971794 0.07900133 0.042070772 -0.016188439
0003e0 83 4d 3a 3c 25 b2 89 3d 79 bf 9b 3d 04 9b bd 3d
       0.011371019 0.067234315 0.0760488 0.092580825
0003f0 93 af 9d 3c f4 ce 96 3d 41 7e a7 3d 83 0b 3f bd
       0.01924876 0.07363692 0.08178378 -0.046641838

layer3.bias f4 [3]
000000 17 72 8b bb d3 db d3 3b 76 f2 5a 3e
       -0.004255544 0.006465414 0.21381554
