models/rl_models/07.03.24_with_rewards_for_each_3_seconds/best_policy_dqn_model_epoch_58.pt (torch, 74158 bytes, 6 tensors)

layer1.weight f4 [128, 6]
000000 0a 2e 3a be 97 26 30 be ae 35 59 be bf ff 03 3d
       -0.18181625 -0.17202221 -0.21211883 0.03222632
000010 5f 07 21 be 41 6b 1b 3e ac 04 43 3c f6 ed fb 3d
       -0.15725468 0.15177633 0.011902969 0.12301247
000020 e4 8c 39 3e 18 6f 62 bb 41 8d 93 3e 56 98 90 3e
       0.18120152 -0.003455108 0.28818706 0.28241223
000030 cc 39 ad be d8 4f fc 3d 17 9f 99 be f3 1b a0 3e
       -0.33833158 0.123199165 -0.30004188 0.31271324
000040 87 15 7c 3e 03 be 94 be dd 4f fd 3c 0a 13 53 3e
       0.24617587 -0.29051217 0.03092187 0.20612732
000050 f6 48 b6 3d 4c bc a0 be 3a cf af 3e a0 ad 37 be
       0.08900635 -0.3139366 0.3433779 -0.17937326
000060 99 17 31 3d 87 ae 9c 3e 14 52 34 3e ec aa 77 3c
       0.043235395 0.30601904 0.17609435 0.015116435
000070 9b 02 ae bd 30 a2 7a 3e 77 21 d7 3c 23 8e b9 3e
       -0.08496591 0.24475932 0.026261074 0.36241254
000080 9b bd f1 3d 19 ac 68 be 2b 6f 3e be be 2b 9f be
       0.118037425 -0.227219 -0.18597095 -0.3108806
000090 5e c0 2c 3e 15 20 60 be 79 36 a1 be b5 41 06 be
       0.16870257 -0.21887238 -0.31486872 -0.13111003
0000a0 df f8 a9 3e 74 9d 45 3e 31 cd e6 3c 20 c2 af be
       0.33197686 0.19298345 0.028174015 -0.34327793
0000b0 4b 7b fb bd ed ef 96 bd 23 b1 c0 bd 9b 4f 47 3e
       -0.12279376 -0.07369981 -0.09408786 0.19463961
0000c0 47 23 8b bd f4 cb a0 bd 0e 93 9f 3e 3a d6 81 be
       -0.06793838 -0.07851401 0.3116688 -0.25358754
0000d0 c8 3b 38 be e3 48 e2 3c 93 22 37 3e 97 ad a8 be
       -0.17991555 0.027622646 0.17884283 -0.3294494
0000e0 81 48 3b 3e 2f 26 bc 3d d8 64 87 be d3 38 5c 3e
       0.18289377 0.091869704 -0.26444125 0.21506052
0000f0 a1 f9 bd 3e 56 b6 a5 be 8c 4e 80 3e c2 b6 81 3e
       0.37104514 -0.32365674 0.25059927 0.25334746
000100 fe 99 38 be d3 ad 85 bd 1f 18 1a 3e c2 fd f3 bd
       -0.18027493 -0.06527295 0.15048264 -0.11913635
000110 f8 d4 d2 bc 6a 9a 08 be 6d 22 57 bd 24 5c 8c be
       -0.025736317 -0.13340154 -0.052523065 -0.27414048
000120 fc f2 b5 be 3f 81 1c be 3a 1b be bd db b5 d4 3d
       -0.35536945 -0.15283678 -0.09282537 0.10386249
000130 25 21 d3 3d 17 1e 04 3e ca 22 9a 3e a6 51 05 be
       0.10309056 0.12902103 0.30104667 -0.13019428
000140 87 19 74 bd 8c 33 9f 3e 26 ee 9c 3e d5 96 7c 3d
       -0.059594657 0.31094015 0.30650443 0.061667282
000150 7f 4e 4e 3e fe 05 e3 3d 7e 74 2b be e6 d6 87 be
       0.20147131 0.11085127 -0.16743657 -0.26531142
000160 3b 68 89 3c 28 12 4e 3e 24 33 13 be 88 c3 9d 3e
       0.016773334 0.20124114 -0.14374977 0.3081324
000170 73 ab bf bd a0 f2 34 be 6e 6c 03 bd 23 f0 b1 be
       -0.09358873 -0.17670679 -0.03208583 -0.34753522
000180 7b d0 a9 3d 02 f6 da 3d ee b6 01 be e9 c2 89 3e
       0.082917176 0.106914535 -0.12667438 0.26906517
000190 ca 45 a6 3e 6d d2 40 be 55 08 3a be 1e 7b ca 3d
       0.3247512 -0.18830271 -0.18167241 0.09886764
0001a0 0b b0 9f 3e bc bd 96 be 6c b0 eb 3d 64 76 1e be
       0.31188998 -0.2944163 0.11508259 -0.1547485
0001b0 02 90 2c 3e cd b5 ad be 9e d9 60 bc 99 17 cd 3d
       0.1685181 -0.33927765 -0.013723759 0.100142665
0001c0 91 3c 6f bd a8 3f 70 bc 2d cb 56 bc 72 65 9b 3d
       -0.05840737 -0.014663614 -0.013109964 0.075877085
0001d0 b9 23 65 be ae 0e a4 3e 13 f3 95 be 9c 2e 24 be
       -0.22376908 0.3204245 -0.29287013 -0.16033405
0001e0 07 99 19 3e e3 ef b1 3e 64 49 5b be 37 e5 a0 be
       0.14999782 0.34753332 -0.21414715 -0.31424877
0001f0 44 fa 65 be 0d e6 7f be d1 60 76 be 23 95 91 3e
       -0.2245875 -0.24990101 -0.2406037 0.28434095
000200 45 ca ac 3e f5 87 b5 bd df 02 9a be b1 4c aa bd
       0.3374807 -0.08863822 -0.30080315 -0.08315409
000210 6e 3f a1 be f0 1b 29 be 81 7c 31 be cd a0 93 be
       -0.31493706 -0.16514564 -0.1733265 -0.2883362
000220 4c 2c 8f 3e 3a 7f 24 3e f9 73 b1 be bd 49 fd bd
       0.27963483 0.16064158 -0.34658793 -0.1236758
000230 a0 0c 95 3e 12 97 3c be 6e 81 23 be 0f 36 03 3e
       0.29111195 -0.18417004 -0.15967342 0.1281359
000240 dd 3f 4b 3e 2a 72 b6 bc c6 30 86 be 3a 11 11 3e
       0.1984858 -0.022271235 -0.26209086 0.14166728
000250 94 a8 9a 3e 38 ae 9a be f3 dc b4 3e 62 84 2e 3d
       0.3020674 -0.30211043 0.3532482 0.04260672
000260 2f 43 ef bc 84 a5 ee 3d d2 fe 4e 3d ea b4 0d 3e
       -0.02920684 0.11652663 0.050535984 0.13838544
000270 3a 3c b4 3d 0c 35 a7 3e 7b a1 9d be c4 ea 08 bd
       0.0880055 0.3265766 -0.30787262 -0.033427015
000280 a9 46 08 bc aa a7 1e bc 0b 02 b4 bb a5 7b b2 be
       -0.008317628 -0.009683529 -0.0054934076 -0.34859958
000290 d9 1e 8c 3e 0e a3 0c be 88 e4 74 3e 66 17 b5 be
       0.27367285 -0.13734075 0.23915303 -0.35369414
0002a0 44 19 8b 3e 33 7a 87 be c1 07 3c bd 99 7c 9b 3e
       0.27167714 -0.26460418 -0.045905832 0.30368498
0002b0 64 19 78 3e 2f e8 bb 3d 0e c8 43 3e 51 a9 9e be
       0.24228436 0.09175145 0.19119284 -0.30988553
0002c0 aa 1e 5a be cc 25 9b be 05 51 5a bd aa 37 8e 3b
       -0.2130076 -0.30302274 -0.053299922 0.0043401318
0002d0 98 bd 52 be 4d 59 b5 3e 53 3b a6 3c 0a 90 a1 be
       -0.20580137 0.35419694 0.02029196 -0.31555206
0002e0 ce 81 1d be 6b 63 a7 3e f3 c5 8a be ab eb b1 3e
       -0.15381548 0.32693037 -0.27104148 0.34750113
0002f0 17 ab a9 be a8 e6 fe 3d da bb f5 bd 10 41 9c 3e
       -0.33138344 0.12446338 -0.119987205 0.3051839
000300 4f 69 a8 3c 49 fd 8b be 25 e5 96 3e d2 3a b0 3c
       0.020558028 -0.2734168 0.29471698 0.021512423
000310 1b 1c a4 be dc 97 ab 3e bb a8 44 be 5d fb 46 3d
       -0.32052693 0.33514297 -0.1920499 0.048579562
000320 f5 9c 47 3e 89 60 54 be 8f 8d e9 3d c3 77 50 bc
       0.19493468 -0.2073995 0.11403953 -0.012723866
000330 32 b5 3c be 01 0b a6 be 89 86 7a 3e 6c c2 46 3e
       -0.18428496 -0.3243027 0.24465384 0.19410104
000340 c4 c5 2f be 69 67 ac 3c 33 43 8b be 63 c4 8a be
       -0.17165285 0.021045404 -0.27199706 -0.27102956
000350 d0 bf 20 be 57 cc 6f 3d 7a 7d 82 bc c1 cd d4 bd
       -0.1569817 0.058544483 -0.015928973 -0.10390807
000360 9f 70 dd bd 04 2c 44 be b4 e5 b8 3d 22 a9 a5 3e
       -0.108124964 -0.19157416 0.090281874 0.323556
000370 98 f9 0f 3e 0f b0 80 3e 16 b1 da 3d 5b 2d 8a 3e
       0.14060056 0.25134322 0.10678308 0.26987728
000380 f5 8c 30 3e 84 ba 73 bd 12 11 0b 3e 56 0b c0 bc
       0.17241271 -0.059504047 0.1358073 -0.023442905
000390 76 02 9e 3e 3d 90 8d 3e 2e d5 71 be 86 50 3d be
       0.30861253 0.27649108 -0.23616478 -0.18487749
0003a0 9c 94 ed 3c ff f3 80 3d b7 4a 97 be 3c 9b e2 3a
       0.029001527 0.062965386 -0.2954919 0.0017288695
0003b0 63 d2 85 be e7 af ab bc 87 dd 88 3e 05 c2 93 3e
       -0.26137075 -0.0209579 0.26731512 0.28858963
0003c0 46 72 c7 bd f7 62 a5 be f1 30 8a be 41 bb 69 3e
       -0.09738593 -0.32302067 -0.26990464 0.22825338
0003d0 f7 cc ab be 30 94 a3 3e 28 7f 8c 3e b6 3b 59 3d
       -0.33554813 0.31948996 0.27440763 0.05303546
0003e0 68 cf 87 be 05 55 ca bd 74 37 8c 3e b7 85 79 3e
       -0.26525426 -0.098794974 0.27386057 0.24367414
0003f0 42 a0 b5 be 9b 0f 84 3e a9 52 8d 3e 11 c5 a0 3e
       -0.3547383 0.25793156 0.27602127 0.3140035

layer1.bias f4 [128]
000000 cd 2f 77 be 0d dd 2c 3f cf a6 72 3f 22 b6 15 bd
       -0.24139328 0.67524797 0.9478578 -0.03655065
000010 92 5a a3 be 2f c1 31 be eb ee 5d bc 5f 3f ac be
       -0.31905037 -0.1735885 -0.013545732 -0.33642098
000020 fe 19 cd 3f eb a1 c5 bd 5e 0f 88 3f a3 cb ec 3f
       1.6023557 -0.09650024 1.062969 1.8499645
000030 f1 cf de 3f 3b a9 5e 3b 3c b2 c0 3e 1f 63 54 be
       1.7407209 0.003397538 0.37635982 -0.20740937
000040 f9 e6 42 3f 8c 68 73 be bd fb d5 bd 53 3c 3d 3c
       0.76133686 -0.2377035 -0.10448406 0.011550027
000050 9b 31 8a bd 7b 21 bf 3f e7 e1 2e be 79 37 2c bd
       -0.06747743 1.4932092 -0.17078362 -0.04204509
000060 cc a3 96 be b3 fb 75 3f a6 3f 8d 3f a0 34 2b be
       -0.29421842 0.9608719 1.1035049 -0.16719294
000070 f4 f7 0c 3f 3f b1 ba b9 e0 e5 c7 3f 92 7a 9a 3a
       0.55065846 -0.00035608743 1.5617027 0.0011785796
000080 e3 9d db bc 51 6a e1 3f 98 4f c9 3f af 59 d4 bd
       -0.026808685 1.761057 1.5727415 -0.10368668
000090 90 ae f3 bc ba 9e 09 3e 31 c5 f4 3a 5f a9 d6 3f
       -0.029746324 0.13439456 0.001867449 1.6770438
0000a0 df fa e1 3f a7 f3 28 be 80 ec 80 3f 55 2c 97 be
       1.7654685 -0.16499196 1.0072174 -0.2952601
0000b0 87 f3 f9 bd 38 69 5e be ce 25 b3 3a 7f 46 9c be
       -0.12204652 -0.21719825 0.0013667883 -0.30522534
0000c0 77 88 b1 bd 7a 11 5a be 24 29 31 be 7f 0d be 3f
       -0.08668607 -0.2129573 -0.1730085 1.4847869
0000d0 9e 46 ad be e7 24 53 bd c8 c8 d8 3f a0 c2 8b ba
       -0.3384294 -0.051548865 1.6936274 -0.0010662861
0000e0 b5 02 92 be 80 46 d3 3f d0 fc 6c be 8d 72 18 bd
       -0.2851769 1.650589 -0.23143315 -0.03721862
0000f0 a8 a6 8e be ea e3 bd 3f dc 31 da 3f e1 91 a7 3f
       -0.27861524 1.4835179 1.7046466 1.3091394
000100 53 41 df 3e f8 be ca 3f 8f ce e1 3f 77 d6 84 be
       0.43604526 1.5839529 1.7641162 -0.25944874
000110 cf a9 df 3f 1d cb fd bc 1f 66 a7 be 95 37 db 3f
       1.7473696 -0.030980641 -0.326951 1.7126337
000120 cc bc e8 bd ab 17 9e bc 1d df 7b be ae 82 82 be
       -0.11364135 -0.019298395 -0.2459683 -0.25490326
000130 7a f4 4d bd 9e 8d e2 3f b0 f4 28 be 3f fb 4d bc
       -0.05028198 1.7699468 -0.16499591 -0.012572109
000140 53 5f e6 bd 25 fd 6f 3a 00 39 3a be c8 da eb 3f
       -0.112486504 0.0009154848 -0.18185806 1.8426142
000150 06 ed e9 3f 9f 0f 8c 3f 0b af df 3f 2c e8 98 be
       1.8275459 1.0942267 1.7475294 -0.29864633
000160 67 e6 90 bd 80 8f c8 3f 94 d7 a2 be ac 3d c6 3b
       -0.07075196 1.5668793 -0.31805098 0.0060498323
000170 0d dc 44 be 32 0f e8 3f cf 2d 1e ba 41 da e7 bd
       -0.19224568 1.8129637 -0.00060340477 -0.113209255
000180 73 01 d7 bb 60 95 6f bc 79 3e 85 b9 50 32 90 3f
       -0.006561452 -0.014623016 -0.00025414283 1.1265354
000190 3d cf eb 3f 45 98 5a bd cd 1b 18 be 29 f8 2d be
       1.8422619 -0.05336787 -0.14854355 -0.16989197
0001a0 5f d4 9b bd 88 c0 f2 bc b3 6a b6 3f 86 82 2d 3f
       -0.07608866 -0.029632822 1.4251312 0.6777729
0001b0 63 9a d9 3f 7a 72 f0 bc c6 6b 9d 3c 96 17 4c 3e
       1.700024 -0.029351462 0.01921643 0.19930872
0001c0 83 08 95 bd 26 d3 18 bd 07 33 e6 3f 71 59 41 be
       -0.07277014 -0.03731074 1.7984322 -0.18881775
0001d0 fa 90 e7 3f b6 f4 e9 3f 36 13 f8 bd 7a 36 c2 3f
       1.8091118 1.8277805 -0.12113039 1.5172875
0001e0 6b 1f 54 3f 65 8e 9e 3f 5b 51 5c 3f 49 4e a0 bd
       0.8286044 1.2387205 0.8606164 -0.07827432
0001f0 b2 00 6c be 50 87 e9 3f 0c 6e 78 bd be c1 23 3c
       -0.2304714 1.8244419 -0.060651824 0.009994922

layer2.weight f4 [128, 128]
000000 90 44 b7 bc b3 ae ef bc 6c c4 88 bd 7b b1 7d 3c
       -0.02237156 -0.029258108 -0.066780895 0.015484209
000010 98 f9 77 bd 87 04 92 bd 4b 27 27 bb 07 a7 7c bd
       -0.060540766 -0.0712977 -0.0025505598 -0.061682727
000020 f9 fc df bc fa 42 9d 3d cf 7f 39 bc e3 21 0d 3d
       -0.027342306 0.076787904 -0.011321976 0.034456145
000030 e8 29 9b bd 3a 8d 27 bd 4e 62 87 3d 49 ce b2 3c
       -0.07576352 -0.04090617 0.06610547 0.02182688
000040 ca e2 3b 3d a0 7b 3e bb 3e c9 bc bc bf e1 60 bd
       0.04587058 -0.0029065385 -0.023045179 -0.05490279
000050 6c fe ee 3b 09 84 90 3d 2c 52 92 bd bf 4a 54 bd
       0.007293513 0.07056434 -0.07144579 -0.051829096
000060 da 4f 71 bd 74 22 03 3c 90 42 33 bd 91 5c 9b 3b
       -0.058914043 0.00800382 -0.04376465 0.0047412594
000070 7f e9 ee 3c ff 69 5f bd 6a 76 c6 bc 73 bf c7 3b
       0.029164074 -0.054544445 -0.024226386 0.0060958206
000080 bd 1b d2 bc fa 49 9e bd ba 35 5b 3d 99 a4 89 bd
       -0.025647992 -0.07728954 0.053518035 -0.06720848
000090 73 b7 e9 3c 75 6c 6b 3d 1e b9 98 bd 54 95 26 3d
       0.028529858 0.05747648 -0.07457183 0.040669754
0000a0 c4 bc 98 bc 9c ca 24 bd 06 0c 5a 3d a4 04 00 3d
       -0.018644698 -0.040232286 0.053234123 0.031254426
0000b0 0d c9 63 3d d4 50 1c 3d 74 8c 66 bd bc 9f 8f 3d
       0.05561166 0.03816302 -0.05628629 0.07012889
0000c0 14 4b 3c 3d 2a 73 b1 bb 18 01 81 bd c8 6e d6 bc
       0.045970038 -0.00541534 -0.06299037 -0.026175871
0000d0 8a fb 97 3b 07 10 bc bc f7 b3 61 bd 1b cd 9a 3d
       0.00463814 -0.022956861 -0.05510327 0.07558652
0000e0 7c 8c 2d 3c 4d 48 16 bd 4c c2 95 3d 29 a1 2c 3c
       0.010592576 -0.036690045 0.0731245 0.01053647
0000f0 7b 43 66 3a ef b8 36 bd ac ba 5a 3c 45 9e 6d bd
       0.0008783859 -0.04460996 0.01335017 -0.058012266
000100 f2 b6 93 bc 29 a1 e2 bc 23 84 77 bb bb 97 10 3d
       -0.018031571 -0.027664738 -0.0037767969 0.03530095
000110 a1 44 3f 3d 65 9a 09 bd a9 50 80 3d c3 51 56 3c
       0.04669631 -0.033594508 0.06265385 0.013081017
000120 f5 cb 98 bd 51 d8 73 3d 5f 83 98 3d 85 f7 b8 3b
       -0.07460777 0.059532467 0.07446932 0.005644741
000130 d1 c7 66 bd 9f a7 b8 bc 13 31 0b bc 7e 24 17 3c
       -0.056342904 -0.022540865 -0.008495587 0.009225009
000140 0f 23 2c 3c db 2e 61 bc 88 94 31 3d e1 d7 19 bd
       0.0105064055 -0.013744081 0.04335454 -0.037559394
000150 08 18 6b 3d af ad 42 bd 41 c8 88 3d 8a e3 fc 3b
       0.057395965 -0.04752892 0.066788204 0.0077175545
000160 96 fc 8b bc fc ba 57 3d bd d1 82 bc 41 76 b8 3a
       -0.017088216 0.052668557 -0.015969152 0.0014073328
000170 4d 58 9d bc f3 56 96 bc 33 6c 24 bd 23 8f 21 3d
       -0.019207144 -0.018352007 -0.04014225 0.039443146
000180 48 1f 92 3d ae 30 9d bd 30 31 31 3d d6 87 32 3c
       0.07134873 -0.076753005 0.0432598 0.010896644
000190 ed 31 b5 3c 9b d1 95 bd ad a0 7c bd 5f 2c 70 3d
       0.022118533 -0.0731537 -0.06167667 0.058636066
0001a0 45 34 66 3d f3 cf b1 3c 23 54 7b bd be ed 2f bd
       0.05620219 0.021705603 -0.061359536 -0.042951338
0001b0 f2 d7 80 bd df f0 41 bc c0 11 8d 3c df eb 51 bd
       -0.06291188 -0.011837213 0.017220378 -0.051250335
0001c0 ff 64 9a bd 61 22 0d bd b9 59 a1 bc 7b d5 d2 bc
       -0.07538795 -0.034456614 -0.019696103 -0.025736561
0001d0 02 b2 91 3d b8 db 27 bd 79 32 27 bd 27 b1 81 3d
       0.071140304 -0.040981025 -0.04081962 0.06332617
0001e0 eb 93 94 3d 06 80 60 bd 3e 81 cb bc 1a af f6 3c
       0.072547756 -0.054809593 -0.0248419 0.030112792
0001f0 66 d4 80 3d 28 ef 09 3d 18 0f 3c bd f6 e9 c2 bc
       0.06290512 0.033675343 -0.045912832 -0.023793202
000200 10 00 98 bd dd 9c 34 bc 56 28 78 bc c8 df b1 3d
       -0.07421887 -0.011023727 -0.015146336 0.08685261
000210 a8 f9 46 3d 38 af 81 3d e4 15 9f 3c 87 d7 63 3d
       0.048577935 0.063322484 0.019419618 0.055625465
000220 62 1e 0c 3a d5 00 52 bc f3 b3 42 3c 09 0a 23 3d
       0.00053451036 -0.012817581 0.011883724 0.039804492
000230 43 64 85 bd cc a2 e8 3c b3 95 cb 3d ba a9 b2 3c
       -0.06513264 0.02839794 0.09940662 0.021809448
000240 05 6c 8d 3d 0a a1 13 bd 34 20 8d bd d6 70 a9 3d
       0.06905369 -0.03604225 -0.06890908 0.08273475
000250 98 9e 92 3c 76 a6 87 3d d2 4f ca bc 87 be 4b 3d
       0.017897889 0.06623547 -0.024696264 0.049742248
000260 ac c2 fb bc cc 02 0d 3d 1b 3f c4 3d 15 f1 40 bd
       -0.030732475 0.034426495 0.09582349 -0.047104914
000270 40 63 bb 3b 67 0a d3 bc a3 49 f4 bc fb 6e 9a 3b
       0.0057186186 -0.025761796 -0.029820269 0.004712937
000280 f4 21 2c 3d 2f 58 41 bd 40 fb 8c 3c 1f 52 59 3b
       0.042024568 -0.04720324 0.01720965 0.003316052
000290 b0 a3 a2 3d d4 b3 0c 3d e0 a6 19 3d 8a dd f9 bb
       0.07941377 0.034351185 0.03751266 -0.0076252865
0002a0 46 83 f7 3c d9 92 40 bc 48 fb ed 3c 7b 8e 7c 3d
       0.030213963 -0.011753761 0.029050484 0.061659317
0002b0 ee 18 71 3d 8c a7 43 3d 7a 55 9c 3d 49 c7 fa 3d
       0.058861665 0.047767207 0.07633491 0.12245042
0002c0 9c a0 c7 3d e6 45 02 bd 52 95 a1 3e 6f 82 06 3d
       0.09747431 -0.03180494 0.31559235 0.032839235
0002d0 42 10 88 bc a0 5b a4 3d 29 40 82 3d d9 1b 58 3b
       -0.016609315 0.080252886 0.06359894 0.0032975583
0002e0 03 40 9b 3b 98 8f 96 bd 1c 92 19 bd fe 10 8e 3c
       0.0047378554 -0.07351607 -0.037492856 0.017342087
0002f0 8e 32 c8 3d 11 b2 79 3d b1 0f 2d bd 00 4e 41 bd
       0.097752675 0.060960833 -0.042251293 -0.047193527
000300 43 81 b1 3d 1e 1b fc 3c aa 90 9f bd 35 cf 00 3c
       0.08667233 0.03077465 -0.07791264 0.007861902
000310 51 a2 b4 bd 77 1e 79 3c 43 f0 cb bc 80 d6 63 bd
       -0.08820022 0.015205017 -0.02489484 -0.055624485
000320 d3 00 82 bb 32 53 5d 3d 00 79 f0 3c fc 77 d1 3d
       -0.0039673834 0.05403442 0.029354572 0.10227963
000330 77 df b6 3d 69 f1 2a bd 98 35 78 3c 7f 7e 22 bd
       0.08929341 -0.041734133 0.0151494965 -0.039671417
000340 a8 11 9e 3d 64 cd 14 bd ae c2 28 be 53 34 1a 3d
       0.077182114 -0.03632869 -0.16480514 0.037647557
000350 61 32 aa bd 34 72 37 3d 3f 0b 87 bd 14 f6 97 3e
       -0.0831039 0.044786647 -0.06593942 0.2967993
000360 f0 36 1f 3d f0 90 80 bd 8a ec a4 3d c8 24 cd bc
       0.03887075 -0.06277645 0.08052929 -0.025041953
000370 78 5e 23 3d a7 18 62 bb 38 1b 7f 3d 05 7d 9e 3b
       0.039885014 -0.0034499557 0.062281817 0.004836681
000380 8a 6e a1 3d e2 02 8b bc f5 69 22 bd 4b 8a 86 3d
       0.07882412 -0.016969148 -0.03965183 0.06569346
000390 d5 53 2e bc 1f 0d 3c bd d5 ca d5 3c d0 e8 9c bc
       -0.010640104 -0.04591095 0.026097694 -0.019153982
0003a0 63 51 6c 3d a2 ed 03 bb 9c 31 ab 3d 5c 08 d5 3c
       0.057694804 -0.0020130654 0.083590716 0.026004963
0003b0 01 9a 50 bd c4 ea 4b bc c5 59 ef bd d1 5e 32 bd
       -0.05092812 -0.012446109 -0.11687044 -0.043547455
0003c0 ac 58 23 3c b1 69 98 bd 24 a3 43 bd 40 7e 88 3d
       0.0099698715 -0.07442034 -0.047763005 0.06664705
0003d0 ce a9 86 bd f4 0b 5a 3c 67 5e 48 bd 0c ce 83 3d
       -0.065753564 0.013308514 -0.048918154 0.06435785
0003e0 86 f5 e5 bb cd 60 fe 3d d3 c7 bc 3d 35 4d 59 3d
       -0.007017794 0.12420807 0.09217801 0.053052146
0003f0 35 dd 43 3d fb 33 ff 3b ea 19 91 3d d7 9f b4 3d
       0.04781838 0.007788179 0.07085021 0.088195495

layer2.bias f4 [128]
000000 03 4d 45 3d 7b d2 87 3d 9b 7d 56 bc 42 f2 18 bd
       0.048169147 0.06631943 -0.01309147 -0.03734041
000010 e0 dd 46 bd 78 d5 e6 3d a5 6f 80 3d 55 e2 9b 3d
       -0.04855144 0.11271185 0.062712945 0.07611529
000020 b4 b7 83 3f 4c 6a 17 3e ea 06 15 3d f6 cc 14 bd
       1.0290437 0.14786643 0.036383547 -0.03632828
000030 29 29 22 3e 10 5c b6 bc f9 7e 38 3d 31 73 a6 3e
       0.15836014 -0.022260696 0.045042966 0.3250976
000040 dd b9 5e 3f db 3e 1a bd c5 aa 21 3f a5 db 62 bc
       0.87002355 -0.0376576 0.631512 -0.013846313
000050 6c ae 62 3e 92 aa d2 3d 6e b9 7e 3c c0 7d 48 3d
       0.22136849 0.1028644 0.01554714 0.04894805
000060 47 37 42 3e 02 3c 89 3d bd 3e 2d 3f dc a5 82 3d
       0.18966399 0.06700899 0.67673856 0.063792914
000070 6a 29 84 3d 95 94 a0 bd ad 3b 59 3e d9 f7 f3 3e
       0.064532116 -0.0784084 0.21214171 0.4765003
000080 73 e9 92 3e 61 d4 84 3f 2c a9 83 3d 9b 12 34 3d
       0.28693733 1.0377313 0.06428751 0.043963056
000090 07 6b 53 3d 82 ee 21 bb 13 2b 60 3e 98 f6 ee bc
       0.05161574 -0.0024708812 0.21891432 -0.02917032
0000a0 5d 37 84 3f 92 9c 82 3e 37 05 04 bd 10 20 e6 b9
       1.0329396 0.2551008 -0.032231536 -0.00043892907
0000b0 bb 98 18 bd 2a 4e f4 bc 5a d8 1c bd 2e 33 dd bc
       -0.03725503 -0.029822428 -0.038292266 -0.027001943
0000c0 08 42 cb 3c 62 8e 25 bd 46 16 a5 bd a6 1c 88 3c
       0.02481176 -0.04041899 -0.08060889 0.016615223
0000d0 a9 b8 80 bd 13 40 dc bb db 09 40 bd 28 4d 65 3d
       -0.06285221 -0.0067215054 -0.0468844 0.055981785
0000e0 d2 14 1a 3e 84 41 81 3d 35 25 e5 3d 76 e1 5b 3d
       0.15047005 0.06311324 0.11188737 0.053681813
0000f0 b6 cb 65 3d 76 00 79 3f 8f e4 57 bd 3c b4 82 bd
       0.056102477 0.9726633 -0.052708205 -0.06382033
000100 0a 2a 77 3d 47 96 60 3e 8f 22 87 bd 3d ff 84 3f
       0.060342826 0.21932326 -0.065983884 1.0390393
000110 e2 fd a1 bb a3 53 17 3d 5d bb b8 bc eb 83 51 bd
       -0.0049435953 0.036944997 -0.02255028 -0.051151197
000120 28 c7 fc bc 8e 26 0e bc e1 30 2b 3e 80 2c 87 3c
       -0.030856684 -0.008676184 0.16717865 0.016500711
000130 29 8f db 3d ce 13 37 3e 8e 6b ac 3d 75 18 72 bd
       0.10720665 0.17878649 0.08418952 -0.059105355
000140 57 48 26 3f 15 52 36 bd d9 ba 65 3c b1 90 79 3d
       0.6495413 -0.044511873 0.014021599 0.060929004
000150 ce 00 c6 3c ae 66 86 3f eb 9e 7a bc b1 de c4 b9
       0.024170306 1.0500085 -0.015296678 -0.0003754995
000160 84 ea c9 3c 2f 15 19 bd 14 b0 78 3d 1c f9 00 3d
       0.024647959 -0.037373718 0.060714796 0.03148757
000170 ad 5a 97 bb 31 6f 73 bd fb ea c8 bb b0 00 8f bd
       -0.0046189637 -0.059432212 -0.0061315275 -0.06982553
000180 14 3e 2d 3e 49 3f 79 3b e7 62 1f 3e d1 30 c0 3f
       0.16918212 0.0038032106 0.15565072 1.5014898
000190 81 c2 76 3f c1 0e 73 bd d9 b2 ff 3d c6 34 2c bd
       0.9639054 -0.059340242 0.12485284 -0.042042516
0001a0 ec 09 58 3b 5f f9 90 bc 9b cd 1d 3e 19 3b 64 3f
       0.0032964898 -0.017697034 0.15410464 0.89152676
0001b0 86 e2 42 3d 87 83 0f bc 43 39 94 3d c3 61 63 bc
       0.04757931 -0.008759386 0.07237484 -0.013878289
0001c0 77 33 71 bd 80 7e 19 bd 8f de ea 3c 90 5c 3d 3f
       -0.05888697 -0.037474155 0.028670577 0.73969364
0001d0 89 f2 89 bd 79 c6 57 bd c7 cb 63 3d 2d d0 83 bd
       -0.06735713 -0.052679513 0.05561426 -0.06436191
0001e0 66 93 82 3d 3d 1f 09 3e c4 42 9e 3d 89 6c 87 3e
       0.0637577 0.13390823 0.07727578 0.26449993
0001f0 74 a9 7f 3d 3a 2b 84 3c 01 9f 92 bc 5e 44 bb bc
       0.062417462 0.016133893 -0.017898085 -0.022859748

layer3.weight f4 [3, 128]
000000 64 a1 37 3d df 83 38 3d e5 b2 76 3d 10 c3 0b 3d
       0.04483165 0.045047637 0.0602292 0.034121573
000010 5c 9f b1 3b 7a 33 27 3d eb 2a 4a 3c 16 43 81 3d
       0.0054206084 0.040820576 0.012339334 0.06311624
000020 8b 75 82 3f 37 f1 9a 3d 87 23 83 3d 79 cc 77 3d
       1.0192121 0.07565539 0.06403261 0.060497735
000030 7c 59 3d 3e fc f1 31 bd a5 c4 82 3d 81 e2 be 3d
       0.18491167 -0.043443665 0.06385163 0.09320546
000040 88 1a 75 3f 32 8a 65 3d dd 8a 95 3d 60 ca 70 bd
       0.9574361 0.056039996 0.07301877 -0.05878675
000050 ed d8 ac 3d 89 e6 83 3c d3 7f 9e bc 13 1c ee 3c
       0.08439813 0.016101139 -0.01934806 0.029066121
000060 92 70 23 bb 6a 67 bf 3d 40 84 92 3d c5 c0 44 bd
       -0.0024938923 0.093458965 0.07154131 -0.0480354
000070 df aa 1f 3d 25 af 5e 3d 6b f2 fc 3b 7b e7 5d 3d
       0.038981315 0.05436625 0.007719328 0.054175835
000080 a2 5b d0 3d cd 6e 77 3f 30 1f c0 3d 3c a4 3c 3d
       0.101737276 0.96653444 0.093809485 0.046055064
000090 80 9c e8 bc f9 a5 60 3d 0a 87 b8 3d 8a ab 44 bd
       -0.028394938 0.054845784 0.09010132 -0.048015155
0000a0 64 35 6e 3f 07 9e 73 3c c0 0e f9 3b c5 a0 cb 3c
       0.9305022 0.01486922 0.0076006353 0.024856934
0000b0 bf 4d 87 bb a4 b6 67 bd 17 17 ff 3d 3e be 3f bc
       -0.004129141 -0.056570664 0.12455576 -0.011703072
0000c0 f8 e3 3b bc d5 3d 9c 3d db b5 96 bd 4d 1f 9f 3d
       -0.011467926 0.07628981 -0.07358905 0.07769642
0000d0 5f 99 a2 bc da 9f 94 bd 31 9a 17 bd 01 3d 4c bd
       -0.019848524 -0.07257052 -0.037012283 -0.049862865
0000e0 a4 72 8f 3d 85 e5 99 bd 2a e2 ab 3d d3 fe 41 3d
       0.07004288 -0.075144805 0.08392747 0.04736216
0000f0 5b 51 54 bd b0 f3 80 3f fd 6f 8e 3d 9a 19 5a 3c
       -0.0518354 1.0074368 0.06954954 0.013311768
000100 d4 fa c7 bc f1 b7 7e 3d 71 39 f5 3c 6e c2 81 3f
       -0.024411596 0.06218714 0.029934617 1.013746
000110 56 a3 12 3c 5d 6f ea 3c 8e 6e a4 bc ce 5e 87 3d
       0.008950075 0.028617555 -0.020072248 0.066098794
000120 a9 05 7c 3c ca 58 11 3c a0 71 75 3d 7f bf 89 3c
       0.015382209 0.008871267 0.059922814 0.016814945
000130 2a 65 a7 3d d9 37 94 bb 90 71 18 3d 5e f2 a0 3c
       0.081735924 -0.004523259 0.037217677 0.01964682
000140 b0 4f 88 3e fc 06 7c bd 44 08 09 bd ff 14 91 bd
       0.26623297 -0.0615301 -0.03345515 -0.07084083
000150 d4 8a 04 3d 46 df 58 3f b8 4f 83 3d 96 bf 8e bc
       0.03235896 0.8471569 0.064116895 -0.01742534
000160 e0 26 9e bd 02 58 87 3b 4c 53 79 3d 6c ec 29 3b
       -0.077222586 0.0041303644 0.060870454 0.0025928272
000170 6a 3a 82 bd b3 de e0 bc b7 a1 59 3d 43 a3 98 bd
       -0.06358798 -0.027449941 0.05313274 -0.07453015
000180 27 9d cf 3d e7 ef 91 3d 9f 5c 04 bd 6b 2f 5e 3f
       0.10137396 0.07125836 -0.032314893 0.86791104
000190 b5 fe 73 3f c4 40 f4 3c 3b d9 f1 3d ab c9 ad 3c
       0.9531053 0.029816039 0.118090115 0.021214327
0001a0 db 53 43 bc ab 8f 83 bd fc 3a 56 3d 0c d2 7b 3f
       -0.011921848 -0.06423887 0.052302346 0.9836738
0001b0 d3 26 df bc 9b f2 91 bc 02 eb f0 bc 7e 4c 9b 3d
       -0.027240193 -0.017815879 -0.029408935 0.07582949
0001c0 ad de 93 bd 63 64 56 bd a6 f3 28 bc 66 c7 9c 3d
       -0.072202064 -0.05234183 -0.010311997 0.0765522
0001d0 2b 33 ff bc 79 f3 13 bd 85 c6 95 3d ea f7 4d 3d
       -0.031152328 -0.036120865 0.07313255 0.050285257
0001e0 1f 6a 85 3d fe 0f 88 3d a3 1f a5 bb ae 25 12 3e
       0.065143816 0.06643675 -0.005039172 0.14272186
0001f0 84 bf 63 3d 56 d1 c0 bc 69 5f 36 3c 54 30 95 bd
       0.055602565 -0.02353732 0.011131146 -0.072846085
000200 1f 16 c4 3c 59 32 20 3d cd a4 10 3d 41 b5 25 3d
       0.02393633 0.039110515 0.035313416 0.04045606
000210 b1 1c 9a 3d d4 bf 84 3d 94 43 9b 3d 3c d8 2a 3c
       0.07525004 0.06481901 0.07581249 0.010427531
000220 12 a8 81 3f aa 19 fb 3d 81 80 d3 3c 7d 43 2f bd
       1.0129416 0.122607544 0.025818111 -0.04278897
000230 af f9 ee 3d 9a b0 04 bc 8c 51 35 3c 55 85 cf 3d
       0.11668717 -0.008098746 0.011066806 0.10132853
000240 db 92 63 3f b0 07 45 bd 3e a6 ed 3d b7 fc 2d bd
       0.8889596 -0.048103034 0.11603974 -0.042477336
000250 e3 c0 70 3d 99 ed 99 3d 11 d4 8c bd c5 94 59 bc
       0.0587777 0.07516021 -0.06876386 -0.013280098
000260 ce 5c 98 3d a7 83 f2 3c 38 1d cb 3d 03 9f 39 bd
       0.07439576 0.029603792 0.099176824 -0.04531766
000270 1e 7d d7 3c e4 70 3a bc 7b 77 10 3d b7 76 02 3e
       0.026304778 -0.011379454 0.035270195 0.12740599
000280 3f 7d d0 3d c1 05 8a 3f 6d b1 05 3d 9d 10 54 bd
       0.10180139 1.0783006 0.03263991 -0.051773656
000290 0d 5c f2 3b 0f 50 07 3d c7 6e 89 3d b3 04 3a 3d
       0.007396227 0.033035334 0.06710582 0.045414638
0002a0 b2 65 82 3f 6d ad 73 3d 2c 8c 81 bc a6 51 54 3d
       1.0187285 0.059491564 -0.01581391 0.05183568
0002b0 4a f3 a0 3c ea 07 0d 3d b2 a0 83 3e e5 22 cf bb
       0.01964726 0.034431376 0.25708538 -0.0063212984
0002c0 63 ee 60 3d d9 ef 10 3c 9e 74 ad bc 38 de 9a 3d
       0.054914843 0.008846247 -0.021173771 0.07561916
0002d0 a1 c3 a9 bc d8 03 1a 3d 8a 99 c3 bd 9c dc 16 bd
       -0.020723166 0.037601322 -0.095507696 -0.036831483
0002e0 e8 66 7b 3c 18 68 e0 3b 68 40 13 bd 11 1b 1d bd
       0.015344359 0.0068483464 -0.035950094 -0.03835589
0002f0 be 45 12 bd 97 48 81 3f 62 1c 82 bd 65 ca ab bc
       -0.035711043 1.0100278 -0.0635307 -0.020970533
000300 11 09 70 3d d4 ef ae 3d 26 97 65 bd f7 4a 7c 3f
       0.058602396 0.08541837 -0.05605235 0.9855189
000310 2c 1b 3b 3c 8b a5 df 3d fc 98 f4 3c 6f d7 d2 3c
       0.0114200525 0.10920247 0.029858105 0.025737492
000320 1c 21 2d bd 46 ad f9 3c 23 b3 79 3d eb e5 9d 3d
       -0.042267904 0.030478131 0.060961854 0.07709869
000330 0f 59 01 bd 01 a5 1a 3d 6f c3 46 3c 6a 63 16 3c
       -0.031579074 0.037755016 0.012131556 0.009178976
000340 de 77 91 3e 57 dd 84 bd fc 6e ec 3a d1 f9 9d bd
       0.28411764 -0.0648753 0.0018038447 -0.07713664
000350 ca 9a bf 3d af 56 5e 3f 87 64 88 3d 62 c7 9d 3d
       0.093556955 0.8685102 0.06659799 0.07704045
000360 45 23 6f bd 3b 6b b1 bc 1e cc 68 3b 93 ea c3 3d
       -0.058383245 -0.021657577 0.0035522054 0.09566226
000370 5b 36 68 bd 7f d5 01 bd e2 01 65 3c cf 41 77 bc
       -0.056692462 -0.031697746 0.0139775 -0.015091374
000380 6f 92 c4 3d 79 f0 8c 3d 41 34 a7 3d 31 81 4b 3f
       0.095982425 0.06881804 0.081642635 0.79494005
000390 6d 93 88 3f 33 92 1b bd ea 8e b1 3d 3e ce a7 3c
       1.0669991 -0.037981223 0.08669837 0.020484086
0003a0 b9 01 92 bd 8c 73 cd bd fc 04 a6 3a a3 ae 5d 3f
       -0.07129235 -0.100318044 0.001266628 0.865946
0003b0 e4 f2 fd bc e0 62 b0 3d de 56 83 3d 02 02 a4 3d
       -0.030999608 0.08612609 0.06413053 0.080081955
0003c0 aa fd ba bc ad 53 0c 3d 2f 6b 81 bc 70 bd 5f 3d
       -0.022826035 0.034259487 -0.01579818 0.05462402
0003d0 a2 2c 88 3d 43 1e 9a 3d d0 85 3d 3d 54 80 28 bc
       0.06649138 0.07525303 0.04627019 -0.010284502
0003e0 66 e3 93 3c c5 e5 8b 3d dd dc 98 3d 2e 35 bf 3d
       0.018052768 0.068309344 0.07464001 0.09336315
0003f0 f3 57 96 3c 74 cb 98 3d 02 cc a9 3d a8 04 36 bd
       0.018352484 0.074606806 0.082908645 -0.044438034

layer3.bias f4 [3]
000000 cb c7 c4 3b 7f 22 02 3d 1f 3f 5c 3e
       0.0060052625 0.03177118 0.21508454
