models/rl_models/07.03.24_with_rewards_for_each_3_seconds/best_policy_dqn_model_epoch_31.pt (torch, 74158 bytes, 6 tensors)

layer1.weight f4 [128, 6]
-0.19215357 -0.18171875 -0.22415978 0.034044422 -0.16614318 0.16040128 0.016576331 0.12655915
0.16905582 0.00028555648 0.30062613 0.2756815 -0.3420026 0.12475472 -0.3173369 0.34663484
0.25508392 -0.30712944 0.0399546 0.21857008 0.07942042 -0.32457232 0.3636787 -0.20421135
0.04628761 0.32354787 0.15799488 0.016407402 -0.08985478 0.2297407 0.030797547 0.38548148
0.12727769 -0.24025181 -0.19663158 -0.3288127 0.18791056 -0.2312479 -0.34154543 -0.12896563
0.35073122 0.1947935 0.029768864 -0.36267102 -0.12993638 -0.07779346 -0.09934597 0.20565304
-0.071765885 -0.08295826 0.3294458 -0.26813236 -0.19009449 0.029180737 0.18893236 -0.34804377
0.19332089 0.0971185 -0.27898607 0.2271812 0.3832319 -0.3394337 0.24550952 0.25909966
-0.18811509 -0.088568404 0.16058491 -0.12546328 -0.02641601 -0.14078152 -0.05549711 -0.2897157
-0.3753555 -0.16156779 -0.09807766 0.109726034 0.10889897 0.13629344 0.3192314 -0.123678654
-0.083105385 0.3296366 0.3371626 0.044346686 0.22077338 0.111656226 -0.1947769 -0.27217156
0.012170357 0.1943158 -0.14592402 0.3308866 -0.093827076 -0.1850403 -0.03231368 -0.36533752
0.09081254 0.108142115 -0.15513818 0.287578 0.33773935 -0.22053343 -0.19199775 0.10449342
0.32966697 -0.3107526 0.121560924 -0.163637 0.17816015 -0.35867074 -0.014496967 0.10579898
-0.061700664 -0.015490799 -0.01792328 0.079773866 -0.25380066 0.33424526 -0.30949867 -0.18668018
0.16268237 0.37016225 -0.22321224 -0.33202577 -0.23729265 -0.26444 -0.25093517 0.30278727
0.35910448 -0.09361773 -0.31777814 -0.08787466 -0.33271405 -0.1744811 -0.18302305 -0.3044971
0.29579574 0.16956758 -0.365981 -0.13087031 0.30727285 -0.19467463 -0.16856192 0.13540831
0.22093666 -0.027747704 -0.28841418 0.16103359 0.31503168 -0.3305605 0.37486267 0.042467456
-0.056843724 0.12467526 0.05066303 0.11960526 0.09853049 0.33887306 -0.3465546 -0.0295384
-0.014464751 -0.03177537 -0.005800753 -0.3680215 0.2891961 -0.14515842 0.25282857 -0.37354058
0.2858881 -0.2806152 -0.07735191 0.31982458 0.25505114 0.06806949 0.20194112 -0.32766253
-0.22511202 -0.32021967 -0.05632946 0.0045897933 -0.21188332 0.3786118 0.025854997 -0.33332905
-0.16264436 0.34529576 -0.27434817 0.3637831 -0.35955244 0.14320056 -0.13007887 0.3129217
0.021717217 -0.2889116 0.31108335 0.02272449 -0.33831018 0.35425496 -0.20286413 0.05132674
0.20597081 -0.21910335 0.120503895 -0.013438313 -0.19478954 -0.34242922 0.25888416 0.20507303
-0.1813494 0.0222489 -0.2873341 -0.2862591 -0.1658702 0.061846346 -0.016838023 -0.10977487
-0.10606354 -0.19605625 0.09150006 0.34999725 0.15478833 0.2622576 0.11978548 0.28037584
0.1654812 -0.05597855 0.13866602 -0.04180368 0.32733157 0.29071265 -0.27573875 -0.19447981
0.029020518 0.03987834 -0.31193575 0.0018264138 -0.27591556 -0.02215344 0.28213197 0.30475053
-0.102897726 -0.34103063 -0.2850092 0.2411821 -0.35469696 0.33726695 0.3044228 0.0640156
-0.2844692 -0.08967389 0.29753134 0.25355765 -0.37172526 0.2697737 0.26846802 0.33451682
00000000: e8c3 44be 7b14 3abe 248a 65be 2a72 0b3d
00000010: 7021 2abe 3c40 243e 16cb 873c b998 013e
00000020: f81c 2d3e beb6 9539 abeb 993e 2026 8d3e
00000030: f71a afbe 677f ff3d fb79 a2be 1f7a b13e
00000040: 5c9a 823e 1240 9dbe 6fa7 233d d6d0 5f3e
00000050: 2ca7 a23d 582e a6be 1834 ba3e c81c 51be
00000060: 1498 3d3d 11a8 a53e 69c9 213e d168 863c
00000070: c805 b8bd 2541 6b3e 234b fc3c d45d c53e
00000080: 1555 023e 9204 76be ca59 49be 235a a8be
00000090: a06b 403e 40cc 6cbe 0bdf aebe 910f 04be
000000a0: 0b93 b33e f277 473e d5dd f33c 04b0 b9be
000000b0: 0b0e 05be 2d52 9fbd e675 cbbd b696 523e
000000c0: fef9 92bd 05e6 a9bd 1fad a83e a548 89be
000000d0: 21a8 42be 710c ef3c 7c77 413e cb32 b2be
000000e0: e9f5 453e 10e6 c63d 43d7 8ebe 30a2 683e
000000f0: f936 c43e 41ca adbe d966 7b3e b6a8 843e
00000100: 3ea1 40be 5a63 b5bd 5f70 243e 7279 00be
00000110: 6366 d8bc 0829 10be f050 63bd 9e55 94be
00000120: 992e c0be 0772 25be f1dc c8bd 0bb8 e03d
00000130: 6c06 df3d 8290 0b3e 4c72 a33e 3c4b fdbd
00000140: 2833 aabd 21c6 a83e 94a0 ac3e dfa4 353d
00000150: 6b12 623e 05ac e43d 9873 47be 125a 8bbe
00000160: 2d66 473c b9fa 463e 1b6d 15be f869 a93e
00000170: 6928 c0bd 347b 3dbe 595b 04bd 850d bbbe
00000180: edfb b93d 9d79 dd3d 8bdc 1ebe 6c3d 933e
00000190: 2cec ac3e 84d3 61be 0f9b 44be a500 d63d
000001a0: 1cca a83e f71a 9fbe eff4 f83d 7590 27be
000001b0: 9d6f 363e b1a3 b7be b084 6dbc 23ad d83d
000001c0: d6b9 7cbd 1fcd 7dbc d8d3 92bc 7b60 a33d
000001d0: 29f2 81be 3222 ab3e 9c76 9ebe 1729 3fbe
000001e0: 3596 263e e885 bd3e c091 64be 48ff a9be
000001f0: d8fc 72be ae64 87be 937a 80be ef06 9b3e
00000200: 8bdc b73e a7ba bfbd d1b3 a2be a1f7 b3bd
00000210: 7f59 aabe 2cab 32be 656a 3bbe 0be7 9bbe
00000220: 8a72 973e 20a3 2d3e dd61 bbbe de02 06be
00000230: de52 9d3e c958 47be 7f9b 2cbe 7aa8 0a3e
00000240: 383d 623e 274f e3bc 06ab 93be fde5 243e
00000250: d54b a13e 3a3f a9be 00ee bf3e 5bf2 2d3d
00000260: f7d4 68bd be55 ff3d 0a84 4f3d 9af3 f43d
00000270: 5bca c93d c580 ad3e 9b6f b1be 84fa f1bc
00000280: 90fd 6cbc e426 02bd 3e14 bebb 506d bcbe
00000290: 8311 943e 69a4 14be bf72 813e b640 bfbe
000002a0: ed5f 923e ccac 8fbe ae6a 9ebd 0cc0 a33e
000002b0: 1096 823e 0468 8b3d a7c9 4e3e 62c3 a7be
000002c0: c483 66be d5f3 a3be b8b9 66bd fa65 963b
000002d0: f1f7 58be 68d9 c13e dccd d33c 1baa aabe
000002e0: 3e8c 26be 9bca b03e 5d77 8cbe c741 ba3e
000002f0: 4217 b8be 2ba3 123e 6533 05be 4637 a03e
00000300: 4ee8 b13c 39ec 93be 5146 9f3e b628 ba3c
00000310: fe36 adbe e860 b53e 9dbb 4fbe fd3b 523d
00000320: 03ea 523e a15c 60be bfca f63d 5f2c 5cbc
00000330: e976 47be e252 afbe 778c 843e aafe 513e
00000340: a8b3 39be 5343 b63c 751d 93be 8e90 92be
00000350: e1d9 29be 9852 7d3d e5ef 89bc a6d1 e0bd
00000360: d737 d9bd f8c2 48be 6264 bb3d d732 b33e
00000370: d580 1e3e a146 863e 1752 f53d 6c8d 8f3e
00000380: e773 293e c449 65bd 77fe 0d3e 563a 2bbd
00000390: 0198 a73e 4ad8 943e a12d 8dbe b725 47be
000003a0: 70bc ed3c 7857 233d 0bb6 9fbe 4764 ef3a
000003b0: ce44 8dbe 227b b5bc 9a73 903e 4308 9c3e
000003c0: 0bbc d2bd 919b aebe baec 91be 71f8 763e
000003d0: d79a b5be 41ae ac3e 4edd 9b3e 9c1a 833d
000003e0: f2a5 91be f2a6 b7bd 0756 983e 4fd2 813e
000003f0: c652 bebe c71f 8a3e a474 893e ca45 ab3e

layer1.bias f4 [128]
-0.25534886 0.66009754 0.8890958 -0.05307459 -0.3651036 -0.1808774 -0.023628287 -0.35564914
1.5371373 -0.10194391 1.0336903 1.8006909 1.6828429 -0.00010443226 0.3685972 -0.2137313
0.75329673 -0.25119784 -0.110392004 -0.0033641132 -0.068051666 1.4245036 -0.18048017 -0.044447925
-0.32232556 0.94394743 1.1020516 -0.17671451 0.52079743 -0.00037635898 1.4995412 0.00018819747
-0.02832377 1.7044058 1.5039737 -0.10953767 -0.03559476 0.13979723 0.0008975583 1.6142735
1.7089245 -0.17859559 0.9882145 -0.31168076 -0.14605156 -0.22941078 0.0011261724 -0.31548673
-0.11279056 -0.24125102 -0.17957594 1.4288188 -0.3770053 -0.073532745 1.6320035 -1.6035106e-05
-0.30054688 1.5880791 -0.26135877 -0.03930231 -0.29199874 1.4178879 1.6450862 1.2585977
0.4314068 1.5343485 1.7075992 -0.29428053 1.689953 -0.032782897 -0.3401076 1.6532464
-0.116596766 -0.040954825 -0.29764485 -0.29704857 -0.07143219 1.7134762 -0.20088647 -0.008745941
-0.14203577 -0.023610938 -0.17178269 1.7947047 1.7746048 1.0492674 1.6902391 -0.3016792
-0.074792184 1.4933544 -0.3299755 0.0009255414 -0.20307496 1.7586166 -0.02479545 -0.119622864
-0.028280078 -0.04246198 -0.00026834675 1.0893695 1.7898302 -0.05639804 -0.15684524 -0.20548458
-0.08042119 -0.0313096 1.3603948 0.61642057 1.6399345 -0.031007346 0.026878439 0.19730565
-0.049586777 -0.038449265 1.7420487 -0.19938335 1.7537522 1.7746717 -0.1478682 1.4473495
0.80414677 1.1672662 0.8570962 -0.082718566 -0.27616984 1.7713103 -0.079685725 0.001952776
00000000: 16bd 82be 27fc 283f c89b 633f be64 59bd
00000010: dcee babe ed37 39be 1c90 c1bc a517 b6be
00000020: eac0 c43f f8c7 d0bd f74f 843f 0a7d e63f
00000030: 6567 d73f a502 dbb8 c6b8 bc3e 61dc 5abe
00000040: 0ed8 403f 019d 80be 3415 e2bd 7478 5cbb
00000050: ac5e 8bbd 2256 b63f cbcf 38be 070f 36bd
00000060: db07 a5be 8aa6 713f 0710 8d3f a6f4 34be
00000070: fb52 053f 0c52 c5b9 f7f0 bf3f e056 4539
00000080: 4007 e8bc f829 da3f 3682 c03f 4955 e0bd
00000090: d0cb 11bd 0127 0f3e 1e4a 6b3a 84a0 ce3f
000000a0: 0abe da3f c3e1 36be a0fb 7c3f 9f94 9fbe
000000b0: 8a8e 15be a9ea 6abe 139c 933a 7a87 a1be
000000c0: bdfe e6bd 820a 77be c1e2 37be 89e3 b63f
000000d0: d706 c1be 5698 96bd 7ee5 d03f 2183 86b7
000000e0: 48e1 99be 2d46 cb3f d1d0 85be 76fb 20bd
000000f0: dc80 95be 5a7d b53f 2f92 d23f bb19 a13f
00000100: 5ae1 dc3e 8865 c43f 9c92 da3f f0ab 96be
00000110: 6150 d83f 5c47 06bd 9522 aebe 949d d33f
00000120: 49ca eebd 3fc0 27bd e864 98be c016 98be
00000130: 0a4b 92bd 3053 db3f 2fb5 4dbe 234b 0fbc
00000140: d371 11be ba6b c1bc cde7 2fbe e2b8 e53f
00000150: 4026 e33f 654e 863f c159 d83f b275 9abe
00000160: a52c 99bd 3d26 bf3f 8cf2 a8be 08a0 723a
00000170: e2f2 4fbe 591a e13f d41f cbbc d5fc f4bd
00000180: 9fab e7bc 9dec 2dbd e4b0 8cb9 7670 8b3f
00000190: 2819 e53f a201 67bd 0a9c 20be 8d6a 52be
000001a0: ddb3 a4bd 7f3e 00bd 6b21 ae3f bdcd 1d3f
000001b0: 60e9 d13f 1e03 febc 2c30 dc3c 7e0a 4a3e
000001c0: 811b 4bbd fa7c 1dbd 74fb de3f 262b 4cbe
000001d0: f47a e03f 7128 e33f c36a 17be c042 b93f
000001e0: 90dc 4d3f fb68 953f a86a 5b3f 5a68 a9bd
000001f0: 2266 8dbe 4cba e23f 4532 a3bd 4af4 ff3a

layer2.weight f4 [128, 128]
-0.023634102 -0.030908156 -0.07047979 0.016384978 -0.064053714 -0.075337924 -0.0026937136 -0.065270856
-0.028881708 0.081190355 -0.011964597 0.036424 -0.08006354 -0.043205466 0.069741674 0.023044033
0.04848962 -0.0030706727 -0.024358252 -0.05799614 0.007704712 0.07460456 -0.07548602 -0.05475357
-0.062239006 0.008458345 -0.046208195 0.005010614 0.030808246 -0.057613906 -0.025595097 0.0064410158
-0.02709119 -0.081733786 0.056548204 -0.070954874 0.030145949 0.060711592 -0.07875268 0.04294756
-0.019690083 -0.04247032 0.056258958 0.033072527 0.058752265 0.040341157 -0.05947187 0.074169114
0.048596185 -0.005718357 -0.06662657 -0.027656777 0.0048971833 -0.024268178 -0.05820998 0.07986884
0.01119861 -0.038720883 0.077164724 0.01113947 0.00092808815 -0.04712395 0.014107713 -0.061280865
-0.019041628 -0.029225636 -0.003995481 0.037321065 0.049322456 -0.035466626 0.06629005 0.013820975
-0.07879221 0.06291938 0.07863992 0.005964698 -0.059532262 -0.023817517 -0.00897439 0.009737968
0.011106672 -0.014518645 0.045778677 -0.039677165 0.060628146 -0.050195277 0.07048791 0.008166495
-0.018056605 0.055652995 -0.016878203 0.001487001 -0.020308774 -0.019368125 -0.0423721 0.04166527
0.07538895 -0.08115197 0.045683935 0.01150382 0.02335999 -0.07719392 -0.06526444 0.061943654
0.059382167 0.022917671 -0.06492865 -0.045375474 -0.06654809 -0.01250034 0.01820345 -0.05413347
-0.07965041 -0.03642452 -0.020807166 -0.027186086 0.07518053 -0.04328713 -0.04311105 0.066962376
0.07658798 -0.05789673 -0.02625598 0.031849567 0.06654132 0.035556443 -0.04853539 -0.025128592
-0.07836442 -0.016273396 -0.020114696 0.07988468 0.048115328 0.06497868 0.019039499 0.05876699
0.003794629 -0.013538722 0.042572103 0.060871147 -0.06560695 0.031159896 0.09664134 0.021102428
0.07200323 -0.038062364 -0.07284444 0.11158778 0.017192237 0.068077184 -0.02610112 0.052570406
-0.03239136 0.038073786 0.09806587 -0.049738657 0.009468043 -0.027213125 -0.033673614 -0.009684847
0.04442554 -0.04663986 0.021416606 0.0035043128 0.087872595 0.0324743 0.037327934 -0.004826753
0.03514804 -0.014271349 0.025230354 0.06524607 0.06324672 0.050451893 0.081883065 0.12759532
0.09985135 -0.035477467 0.00043890387 -0.021319937 -0.015745206 0.08901841 0.070457466 -0.0010848853
0.0027214757 -0.07439446 -0.043528415 0.018338684 0.101548575 0.063733324 -0.041430708 -0.047097426
0.08907184 -0.006418382 -0.079194985 0.0071178786 -0.08988659 0.016089363 -0.014672157 -0.055523746
-0.010367397 0.057112183 0.03327349 0.11814213 0.09346997 -0.040866517 0.02047059 -0.046901435
0.0776623 -0.035006434 -0.13116676 0.042620182 -0.08449747 0.043194134 -0.06641373 0.1367983
0.041092876 -0.06640255 0.088221885 -0.008510214 0.04210714 -0.00041109673 0.06440227 0.0051144464
0.104062654 -0.016118038 -0.041873954 0.09642553 -0.0080240015 -0.048533354 0.027573016 -0.021824593
0.060943563 -0.0021266968 0.06401349 0.03701697 -0.05058197 -0.013153149 -0.12595361 -0.05027009
-0.010404268 -0.0810392 -0.047227237 0.070331074 -0.06622786 0.017286852 -0.039683126 0.07130063
0.02334728 0.12999196 0.08808814 0.056063984 0.05040569 0.0114634 0.07444431 0.09071007
00000000: 4e9c c1bc 1a33 fdbc b557 90bd ca39 863c
00000010: 982e 83bd c54a 9abd 0489 30bb baac 85bd
00000020: 5599 ecbc 2147 a63d 2807 44bc 5531 153d
00000030: 5af8 a3bd 37f8 30bd b9d4 8e3d d7c6 bc3c
00000040: 0d9d 463d 573d 49bb f58a c7bc 5c8d 6dbd
00000050: cf77 fc3b 47ca 983d 6a98 9abd 4845 60bd
00000060: 54ee 7ebd df94 0a3c ce44 3dbd 1430 a43b
00000070: 9361 fc3c 8ffc 6bbd cfac d1bc 280f d33b
00000080: 58ee ddbc 0b64 a7bd 179f 673d ca50 91bd
00000090: a3f4 f63c b8ac 783d 1649 a1bd c8e9 2f3d
000000a0: 194d a1bc 5cf5 2dbd cb6f 663d 0f77 073d
000000b0: 37a6 703d c53c 253d c798 73bd fae5 973d
000000c0: cb0c 473d 0e61 bbbb 8373 88bd 7790 e2bc
000000d0: 8d78 a03b 0fce c6bc 976d 6ebd 4692 a33d
000000e0: 607a 373c ca99 1ebd 8a08 9e3d 5382 363c
000000f0: f14a 733a 0b05 41bd 0924 673c a501 7bbd
00000100: 30fd 9bbc 9a6a efbc 86ec 82bb f9dd 183d
00000110: 5806 4a3d 7445 11bd 14c3 873d 5f71 623c
00000120: cf5d a1bd e0db 803d f70d a13d 8373 c33b
00000130: 1ad8 73bd f41c c3bc 5209 13bc 008c 1f3c
00000140: c2f8 353c 9cdf 6dbc 6c82 3b3d 8684 22bd
00000150: 3855 783d 9099 4dbd f75b 903d c3cc 053c
00000160: 72eb 93bc 65f4 633d 2844 8abc 79e7 c23a
00000170: 965e a6bc e7a9 9ebc 5e8e 2dbd 34a9 2a3d
00000180: 8665 9a3d 0133 a6bd 141f 3b3d 857a 3c3c
00000190: 735d bf3c d917 9ebd 5da9 85bd a1b8 7d3d
000001a0: b73a 733d d7bd bb3c 50f9 84bd a2db 39bd
000001b0: 5d4a 88bd 3ace 4cbc 671f 953c 0fbb 5dbd
000001c0: c11f a3bd e131 15bd ca73 aabc 5bb5 debc
000001d0: 40f8 993d d84d 31bd 3695 30bd 9223 893d
000001e0: 29da 9c3d 1f25 6dbd c816 d7bc b174 023d
000001f0: d146 883d a2a3 113d 0ccd 46bd 7ada cdbc
00000200: 867d a0bd c94f 85bc 93c7 a4bc 949a a33d
00000210: 9414 453d 8b13 853d b9f8 9b3c a8b5 703d
00000220: 4faf 783b 84d1 5dbc 1660 2e3d 0654 793d
00000230: f05c 86bd 0a43 ff3c e5eb c53d 00df ac3c
00000240: 6e76 933d 48e7 1bbd 772f 95bd 2288 e43d
00000250: bcd6 8c3c 0d6c 8b3d 04d2 d5bc 1154 573d
00000260: cdac 04bd 42f3 1b3d c2d6 c83d c3ba 4bbd
00000270: da1f 1b3c 0fee debc 58ed 09bd 31ad 1ebc
00000280: 8ef7 353d 7009 3fbd e171 af3c 9da8 653b
00000290: 8cf6 b33d c603 053d 2de5 183d bd29 9ebb
000002a0: 64f7 0f3d 60d2 69bc e3af ce3c bb9f 853d
000002b0: 7f87 813d a5a6 4e3d 4fb2 a73d 59a8 023e
000002c0: dd7e cc3d d250 11bd ae1c e639 26a7 aebc
000002d0: 17fc 80bc 494f b63d 014c 903d b632 8eba
000002e0: c95a 323b 1f5c 98bd da4a 32bd 023b 963c
000002f0: b3f8 cf3d 9e86 823d 3fb3 29bd 3be9 40bd
00000300: 4c6b b63d 4a51 d2bb fb30 a2bd 183d e93b
00000310: 7616 b8bd d7cd 833c 7d63 70bc de6c 63bd
00000320: 04dc 29bc 77ee 693d c849 083d 80f4 f13d
00000330: 2f6d bf3d a663 27bd f0b1 a73c b81b 40bd
00000340: 690d 9f3d e862 0fbd 9450 06be 8092 2e3d
00000350: 020d adbd 55ec 303d ec03 88bd db14 0c3e
00000360: 0151 283d 0ffe 87bd adad b43d 6d6e 0bbc
00000370: 8978 2c3d 7888 d7b9 56e5 833d 1697 a73b
00000380: cd1e d53d fa09 84bc 0684 2bbd c07a c53d
00000390: 1a77 03bc e9ca 46bd cee0 e13c 7dc9 b2bc
000003a0: f59f 793d 0d60 0bbb 8119 833d 1b9f 173d
000003b0: 0a2f 4fbd 4e80 57bc fcf9 00be 03e8 4dbd
000003c0: aa76 2abc e1f7 a5bd 5971 41bd bd09 903d
000003d0: 79a2 87bd 289d 8d3c c68a 22bd 1106 923d
000003e0: cc42 bf3c 9d1c 053e 8e67 b43d 59a3 653d
000003f0: 3276 4e3d fcd0 3b3c 4276 983d 34c6 b93d

layer2.bias f4 [128]
0.050884753 0.045214873 -0.0400619 -0.039436284 -0.051296454 0.08751986 0.035751987 0.061956756
0.9872897 0.12453807 0.0136611555 -0.035568416 0.16549997 -0.023513999 0.028631693 0.31316465
0.8064199 -0.023134097 0.6152561 -0.010171897 0.20400168 0.082102284 0.01645161 0.052088972
0.17087919 0.046712853 0.65807444 0.06742912 0.04725729 -0.07719646 0.19529332 0.47205848
0.27311942 0.9814999 0.043570384 0.06388604 0.054524977 -0.002609764 0.20119825 -0.030814882
0.97855973 0.23932457 -0.033720467 -0.0004637626 -0.039342366 -0.044373173 -0.043894473 -0.028518654
0.0262255 -0.042673998 -0.08509808 0.01733832 -0.066488415 -0.0071002766 -0.049510546 0.059231576
0.13875212 0.066749446 0.1152122 0.068776526 0.059285812 0.9282132 -0.055695474 -0.053967975
0.06383103 0.20001268 -0.06962009 0.9912936 -0.01512741 0.035815086 -0.023827715 -0.054027252
-0.032651648 -0.026597893 0.14532442 0.017409762 0.11435104 0.16399859 0.069317885 -0.062442273
0.6282288 -0.04701769 0.014814663 0.064472795 0.02623346 0.96253 -0.04745876 -0.027761951
0.0260491 -0.039472923 0.06794134 0.0066545564 -0.0048760893 -0.06280659 -0.004286178 -0.07386272
0.14829575 0.004024412 0.13612565 1.4535358 0.9541914 -0.06322074 0.107005104 -0.04444512
0.0034833532 -0.018707091 0.14870176 0.8214383 0.050249543 -0.037682585 0.059783626 -0.041342773
-0.06221024 -0.039583404 0.031009763 0.72494555 -0.071120046 -0.055664733 0.034456253 -0.0708729
0.04586054 0.11171983 0.05255122 0.2508896 0.06604881 -0.011136547 -0.045699522 -0.024162974
00000000: 886c 503d 3b33 393d f217 24bd f187 21bd
00000010: 3b1c 52bd 9d3d b33d ad70 123d 5ec6 7d3d
00000020: 05bf 7c3f d10d ff3d 0ad3 5f3c 30b0 11bd
00000030: d378 293e 6ea0 c0bc 038d ea3c 1e57 a03e
00000040: 8971 4e3f b883 bdbc 6c81 1d3f 07a8 26bc
00000050: d1e5 503e 3e25 a83d 87c5 863c 3f5b 553d
00000060: f4fa 2e3e fa55 3f3d 9177 283f 4718 8a3d
00000070: dc90 413d 2d19 9ebd f9fa 473e a6b1 f13e
00000080: 4fd6 8b3e 9443 7b3f dc76 323d afd6 823d
00000090: 9555 5f3d 9308 2bbb ea06 4e3e 7e6f fcbc
000000a0: e482 7a3f 8011 753e 791e 0abd 2a25 f3b9
000000b0: 7625 21bd a5c0 35bd b1ca 33bd f49f e9bc
000000c0: dcd6 d63c eeca 2ebd e747 aebd 1809 8e3c
000000d0: 142b 88bd 70a9 e8bb 92cb 4abd cf9c 723d
000000e0: 0915 0e3e efb3 883d 60f4 eb3d b5da 8c3d
000000f0: aed5 723d 619f 6d3f f020 64bd 860d 5dbd
00000100: d8b9 823d 20d0 4c3e fa94 8ebd 6bc5 7d3f
00000110: f5d8 77bc d7b2 123d 5732 c3bc ae4b 5dbd
00000120: bcbd 05bd d3e3 d9bc edcf 143e eb9e 8e3c
00000130: e130 ea3d 3fef 273e 89f6 8d3d 78c3 7fbd
00000140: 9ad3 203f 9f95 40bd 33b9 723c 500a 843d
00000150: 8ee7 d63c 5e68 763f 1e64 42bd 086d e3bc
00000160: ec64 d53c 5cae 21bd d424 8b3d 770e da3b
00000170: 9ac7 9fbb bea0 80bd 1173 8cbb 5645 97bd
00000180: d7da 173e 37df 833b 8664 0b3e 760d ba3f
00000190: e345 743f e079 81bd 7e25 db3d 160c 36bd
000001a0: f848 643b 9d3f 99bc 4645 183e c849 523f
000001b0: 77d2 4d3d 0e59 1abd addf 743d 0a57 29bd
000001c0: 2ad0 7ebd 3522 22bd 3008 fe3c 0896 393f
000001d0: 63a7 91bd b400 64bd 0022 0d3d d025 91bd
000001e0: 43d8 3b3d 5ecd e43d f33f 573d 9a74 803e
000001f0: 9944 873d 1076 36bc 6c2f 3bbd 6ef1 c5bc

layer3.weight f4 [3, 128]
0.047364112 0.040725924 0.055038873 0.036052257 0.0057236254 0.025894187 0.0058578704 0.058124527
1.0039765 0.07474955 0.057731222 0.059615128 0.026848985 -0.0458678 0.056840394 0.09317313
0.9356629 0.055944744 0.072355606 -0.064322844 0.08090417 0.007040307 -0.020459123 0.0320154
-0.010028797 0.08894943 0.071284674 -0.05074072 0.03954232 0.057740767 -0.0008062543 0.038911752
0.10319988 0.94628084 0.090883166 0.058227215 -0.030004514 0.057935335 0.08707972 -0.050718915
0.9086196 0.0088577075 0.008042698 0.026271014 -0.004356404 -0.062612504 -0.015413269 -0.012359609
-0.012122709 0.080642454 -0.07767162 0.08312529 -0.020959586 -0.076610744 -0.039075345 -0.052691024
0.06707663 -0.07938295 0.08332742 0.048827164 -0.054760326 0.9913921 0.07355606 0.007850661
-0.025794555 0.058209695 0.03164912 0.9983664 -0.008050034 0.009095755 -0.021187276 0.069735
0.016276978 -0.00023558042 0.054184422 0.017752972 0.079764895 -0.011607114 0.032917343 0.020757882
0.16905962 -0.065109245 -0.035311785 -0.074881054 0.034712568 0.81993973 0.06079481 -0.037751812
-0.081666835 0.004357627 0.07280114 -0.0025991204 -0.06722418 -0.02899652 0.05764406 -0.07870682
0.101087786 0.075298585 -0.041268725 0.8423696 0.93134844 0.03158916 0.110465415 0.022426395
-0.012591485 -0.06787507 0.047300328 0.964631 -0.028772786 -0.025561811 -0.029562842 0.07229638
-0.07624229 -0.05530293 -0.010894589 0.07804434 -0.032964684 -0.03814098 0.07080634 0.047390796
0.06229241 0.061972715 -0.022431439 0.14562948 0.058742568 -0.047245078 -0.00900655 -0.07688631
0.02528273 0.035753466 0.031192204 0.04271444 0.07949871 0.05806817 0.074369535 0.00312395
0.98963064 0.124652274 0.019309964 -0.051555194 0.021556104 -0.008553271 0.0031158805 0.10138139
0.8563118 -0.06014188 0.11767984 -0.04703887 0.05586389 0.07460862 -0.07268308 -0.01516368
0.07274838 0.02348104 0.09981237 -0.047890626 0.027224895 -0.017815059 0.032008577 0.1241792
0.10210728 1.0552883 0.026510768 -0.056768022 0.007813925 0.034853436 0.06491862 0.047995683
0.9955771 0.056284 -0.016724544 0.054760624 0.020758322 0.047358114 0.05375486 -0.0066756196
0.058008995 0.009351275 -0.02238584 0.07939577 -0.021897368 0.03972329 -0.10087502 -0.03887662
0.010839726 0.007234048 -0.044819165 -0.049624987 -0.037731156 0.98627317 -0.0671669 -0.040017493
0.06190788 0.08318796 -0.059222337 0.95873797 -0.003228587 0.052068282 0.031563044 0.027187085
-0.044690996 0.026485773 0.05527275 0.081532225 -0.04330376 0.037362438 0.0074411924 0.0096873315
0.24816814 -0.0685115 0.0019054236 -0.08157397 0.10093652 0.83484465 0.063261144 0.08173198
-0.06167503 -0.022869645 0.0023051004 0.09633456 -0.059905123 -0.03351585 0.012909698 -0.015964134
0.094277844 0.07274328 0.08318599 0.75787187 1.0440265 -0.040271346 0.08253255 0.021636553
-0.075332575 -0.10597436 -0.0058350316 0.83217734 -0.03280298 0.08859635 0.07619587 0.07851149
-0.02412645 0.036205493 -0.016712908 0.052746505 0.0701581 0.079502 0.042421173 -0.016978296
0.011162517 0.0670227 0.0762204 0.09241012 0.019368649 0.07300197 0.08139332 -0.046937697
00000000: df00 423d 3ad0 263d 7170 613d 88ab 133d
00000010: 408d bb3b 0c20 d43c 61f3 bf3b fc13 6e3d
00000020: 4d82 803f 4b16 993d 9377 6c3d fe2e 743d
00000030: 67f2 db3c e0df 3bbd 79d1 683d 8ed1 be3d
00000040: 9b87 6f3f 5126 653d 2d2f 943d b2bb 83bd
00000050: 16b1 a53d 60b2 e63b e499 a7bc 9422 033d
00000060: d34f 24bc 1e2b b63d b3fd 913d 80d5 4fbd
00000070: 21f7 213d 9581 6c3d cf5a 53ba ee61 1f3d
00000080: 755a d33d 763f 723f f420 ba3d a97f 6e3d
00000090: 07cc f5bc 9a4d 6d3d da56 b23d a3be 4fbd
000000a0: 4b9b 683f eb1f 113c 85c5 033c 4f36 d73c
000000b0: 2ac0 8ebb fc3a 80bd f087 7cbc f57f 4abc
000000c0: 549e 46bc df27 a53d 4c12 9fbd 983d aa3d
000000d0: 70b3 abbc 18e6 9cbd 780d 20bd 8bd2 57bd
000000e0: 795f 893d 8793 a2bd 91a7 aa3d fefe 473d
000000f0: 5d4c 60bd dfcb 7d3f 8fa4 963d 0fa0 003c
00000100: 1a4f d3bc 4a6d 6e3d 82a2 013d f194 7f3f
00000110: 4ae4 03bc 5d06 153c f090 adbc 39d1 8e3d
00000120: 4c57 853c 2306 77b9 7cf0 5d3d ae6e 913c
00000130: c75b a33d c42b 3ebc 56d4 063d 6f0c aa3c
00000140: f71d 2d3e ff57 85bd 17a3 10bd 3d5b 99bd
00000150: c42e 0e3d 92e7 513f fb03 793d a5a1 1abd
00000160: f140 a7bd 6dca 8e3b c418 953d 0156 2abb
00000170: d5ac 89bd 1c8a edbc 2e1c 6c3d 0b31 a1bd
00000180: 1d07 cf3d 2536 9a3d 6509 29bd 89a5 573f
00000190: da6c 6e3f a363 013d b13b e23d 8fb7 b73c
000001a0: 844c 4ebc 1602 8bbd fdbd 413d 0ff2 763f
000001b0: e8b4 ebbc 0167 d1bc c62d f2bc 2010 943d
000001c0: eb24 9cbd 5385 62bd 387f 32bc b6d5 9f3d
000001d0: fa05 07bd b739 1cbd ea02 913d da1c 423d
000001e0: 5326 7f3d 1ad7 7d3d 23c2 b7bc e51f 153e
000001f0: 0c9c 703d 0e84 41bd 3590 13bc 9276 9dbd
00000200: ba1d cf3c 3a72 123d cb86 ff3c 56f5 2e3d
00000210: 38d0 a23d e4d8 6d3d 0e4f 983d 2fbb 4c3b
00000220: 6f58 7d3f b149 ff3d ee2f 9e3c 8a2b 53bd
00000230: 6d96 b03c 0523 0cbc cd33 4c3b 0ca1 cf3d
00000240: 4037 5b3f 5557 76bd 2102 f13d d5ab 40bd
00000250: 89d1 643d 67cc 983d deda 94bd 1571 78bc
00000260: 1afd 943d 4f5b c03c 6e6a cc3d f628 44bd
00000270: be06 df3c e3f0 91bc 6d1b 033d aa51 fe3d
00000280: 9f1d d13d b013 873f 1c2d d93c 9685 68bd
00000290: fa05 003c 7ac2 0e3d 0ef4 843d 1f97 443d
000002a0: 24de 7e3f 0d8a 663d e901 89bc ad4c 603d
000002b0: 5b0d aa3c 95fa 413d 0e2e 5c3d 28bf dabb
000002c0: d79a 6d3d 1736 193c 8262 b7bc 409a a23d
000002d0: 1c62 b3bc e3b4 223d 9097 cebd 173d 1fbd
000002e0: 1b99 313c 980b ed3b 4d94 37bd 9243 4bbd
000002f0: fc8b 1abd 667c 7c3f cd8e 89bd 62e9 23bd
00000300: 1e93 7d3d 735e aa3d 1f93 72bd da6f 753f
00000310: b496 53bb 8d45 553d 4048 013d 73b7 de3c
00000320: e80d 37bd b1f8 d83c ae65 623d 5efa a63d
00000330: 495f 31bd 5b09 193d 3fd5 f33b 9db7 1e3c
00000340: ca1f 7e3e c24f 8cbd 68bf f93a 4110 a7bd
00000350: ceb7 ce3d 61b8 553f 0f8f 813d 1963 a73d
00000360: f59e 7cbd 1f59 bbbc 2b11 173b 0e4b c53d
00000370: 135f 75bd ea47 09bd 3383 533c 37c7 82bc
00000380: be14 c13d 6efa 943d 6b5d aa3d e403 423f
00000390: a9a2 853f 91f3 24bd d306 a93d 243f b13c
000003a0: f747 9abd 1609 d9bd cb33 bfbb 9309 553f
000003b0: 6b5c 06bd 0172 b53d 950c 9c3d a2ca a03d
000003c0: d5a4 c5bc 364c 143d 82e9 88bc b80c 583d
000003d0: 0daf 8f3d f2d1 a23d d3c1 2d3d 1116 8bbc
000003e0: fde2 363c 3343 893d 7119 9c3d 8441 bd3d
000003f0: 00ab 9e3c 0f82 953d 8ab1 a63d be41 40bd

layer3.bias f4 [3]
-0.006656725 0.0028773448 0.21304375
00000000: a820 dabb d691 3c3b 2428 5a3e
