models/rl_models/07.03.24_with_rewards_for_each_3_seconds/best_target_dqn_model_epoch_43.pt (torch, 74158 bytes, 6 tensors)

layer1.weight f4 [128, 6]
000000 9e 69 3f be 9b 23 35 be 0c 5d 5f be 82 bd 07 3d
       -0.18692634 -0.17689364 -0.21812838 0.033139713
000010 f8 99 25 be c2 b8 1f 3e 97 ae 71 3c 36 e9 00 3e
       -0.16172016 0.15597823 0.014751098 0.12588963
000020 80 22 37 3e 16 19 8d ba 2c 5a 97 3e 01 f2 90 3e
       0.17884254 -0.0010764922 0.29560983 0.28309634
000030 12 d8 ad be 5e 0c 00 3e 41 9d 9c be 4d 0d a9 3e
       -0.3395391 0.12504718 -0.30588725 0.3301796
000040 2b cc 80 3e 37 bc 97 be a5 32 12 3d 42 b3 58 3e
       0.25155768 -0.29635784 0.03569283 0.21162131
000050 8e 8f af 3d 09 48 a3 be 14 c0 b4 3e bd c9 42 be
       0.08572303 -0.31890896 0.35302794 -0.1902227
000060 67 17 3f 3d ed 83 a1 3e 72 31 31 3e b5 9d 90 3c
       0.046653178 0.31545964 0.17304018 0.017653326
000070 ec 8d b1 bd 0e 41 79 3e c2 56 ee 3c 10 9d bf 3e
       -0.086696476 0.24341223 0.029094104 0.37424517
000080 c5 e0 fb 3d 2a 46 6f be 9a d6 43 be 57 be a3 be
       0.12298731 -0.23366609 -0.19124833 -0.31981155
000090 dd 25 35 3e 8c 86 65 be be bb a7 be 6b 8e 06 be
       0.17690225 -0.22414607 -0.32760423 -0.13140266
0000a0 b6 1e af 3e 62 1f 47 3e 5a 47 ed 3c 26 bf b4 be
       0.34203118 0.19445565 0.028964687 -0.35302085
0000b0 63 59 01 be 23 18 9b bd 92 18 c6 bd 06 d3 4c 3e
       -0.12631755 -0.07572963 -0.09672655 0.20002374
0000c0 0a e1 8e bd 8d 5e a5 bd a7 25 a4 3e fd 93 85 be
       -0.069765165 -0.08074675 0.32059976 -0.2608947
0000d0 d7 4d 3d be 2c 85 e8 3c 99 1f 3c 3e ea 41 ad be
       -0.18486725 0.028383814 0.18371429 -0.3383935
0000e0 a1 9b 40 3e c8 8b c1 3d 9b 22 8b be 1a 75 62 3e
       0.18809368 0.09450489 -0.2717484 0.22114983
0000f0 a2 fc c0 3e c0 51 a9 be c6 2b 80 3e a8 0d 83 3e
       0.37692744 -0.33070183 0.25033396 0.25596356
000100 c8 b5 3b be a6 f3 98 bd 9c 70 1f 3e 95 5a fa bd
       -0.18331063 -0.07468347 0.15570301 -0.122243084
000110 5d 88 d4 bc 2d 58 0c be d9 23 5d bd 91 37 90 be
       -0.02594393 -0.13705511 -0.053989265 -0.28167394
000120 02 f0 ba be 8f ea 20 be a9 82 c3 bd f2 8a da 3d
       -0.36511236 -0.15714477 -0.09546406 0.10671033
000130 fe f2 d8 3d da db 07 3e 45 52 9d 3e 57 4c 02 be
       0.10593222 0.1326746 0.3072683 -0.12724434
000140 5f 00 93 bd 60 b0 a2 3e ca a3 a4 3e e2 3d 57 3d
       -0.07177805 0.31775188 0.3215621 0.05254925
000150 3f 15 58 3e 61 36 e6 3d b4 b2 35 be 58 9b 89 be
       0.21101855 0.11240841 -0.17743951 -0.2687633
000160 16 49 80 3c a2 4f 4e 3e bb 25 13 be 0c 0f a4 3e
       0.01565985 0.20147565 -0.14369862 0.3204273
000170 81 1c be bd a6 ef 39 be 31 2a 07 bd 24 ed b6 be
       -0.092827804 -0.18157825 -0.03299922 -0.357278
000180 bb a8 b3 3d 6f b2 de 3d 5b b5 0b be 5e c1 8e 3e
       0.08772417 0.10873877 -0.136434 0.27881902
000190 f2 38 aa 3e ba a0 4c be c5 40 3f be f4 3c d0 3d
       0.3324657 -0.19983187 -0.18677051 0.10167876
0001a0 a4 42 a4 3e f1 e5 9a be 22 57 f2 3d fd 08 23 be
       0.32082093 -0.30253556 0.118330255 -0.15921398
0001b0 bf 7e 31 3e d3 b2 b2 be e3 15 67 bc 72 e9 d2 3d
       0.17333506 -0.34902057 -0.014104339 0.102984324
0001c0 43 e3 75 bd 5b e6 76 bc b8 f7 7e bc 39 b6 a0 3d
       -0.060031187 -0.015069569 -0.01556199 0.07847256
0001d0 eb 14 72 be 2a 91 a7 3e 17 de 99 be 37 4b 2f be
       -0.23640792 0.3272794 -0.30052254 -0.17118536
0001e0 6d ee 20 3e c4 0b b8 3e b0 48 5f be d0 77 a5 be
       0.15715952 0.35946476 -0.21805072 -0.32317972
0001f0 5a 66 6c be 06 b0 83 be c5 39 7b be a9 5b 96 3e
       -0.23085919 -0.25720233 -0.24533756 0.29366806
000200 5a 5e b2 3e fb 84 ba bd 57 2c 9e be c2 06 af bd
       0.3483761 -0.09107395 -0.30893204 -0.08546211
000210 07 d2 a5 be 4e ba 2d be 87 79 36 be fd c8 97 be
       -0.323868 -0.16965601 -0.17819797 -0.2964553
000220 7b 54 93 3e d3 11 29 3e ff 70 b6 be 36 4e 02 be
       0.2877539 0.16510706 -0.35633084 -0.12725148
000230 d1 34 99 3e 81 fe 41 be 07 14 28 be d2 f3 06 3e
       0.29923108 -0.18944742 -0.1641389 0.13178948
000240 77 6c 56 3e 63 f3 c0 bc a8 4c 8b be dd a5 1a 3e
       0.20939814 -0.023553556 -0.27206922 0.15102334
000250 8b 8b 9e 3e 11 50 a0 be 28 c5 ba 3e 0d 00 32 3d
       0.30965838 -0.31311086 0.36478543 0.04345708
000260 1b e4 1c bd 8e d9 f8 3d bb 29 53 3d f0 e1 08 3e
       -0.038303476 0.1215087 0.05155347 0.13367438
000270 15 d5 c0 3d f1 aa aa 3e bf 13 a5 be 69 51 fa bc
       0.09415642 0.33333543 -0.32241628 -0.030556398
000280 18 7d 2f bc 82 99 81 bc 0f ff b8 bb ab 78 b7 be
       -0.010710977 -0.015820269 -0.0056456397 -0.3583425
000290 7a f3 8f 3e 5b 86 10 be 62 bc 7b 3e 6b 14 ba be
       0.28115445 -0.14113753 0.24583581 -0.36343703
0002a0 69 15 8f 3e 25 db 8a be a8 a5 67 bd 1b 0c a0 3e
       0.27946022 -0.2712032 -0.056554466 0.31259236
0002b0 e9 dc 7f 3e 1f f4 ad 3d 7c 2f 49 3e ea 3b a3 be
       0.24986614 0.08493828 0.1964702 -0.31881648
0002c0 ae 56 60 be 5b 6c 9f be a0 8c 60 bd ed 47 92 3b
       -0.21908066 -0.31137356 -0.05482161 0.0044641406
0002d0 16 f0 54 be fa c4 bb 3e 29 1a c2 3c a3 22 a6 be
       -0.2079471 0.3667372 0.023694115 -0.324483
0002e0 c6 04 22 be 04 f6 ab 3e 6d 4b 8c be db 16 b6 3e
       -0.15822133 0.33586133 -0.27401295 0.35564312
0002f0 ac 9b b0 be c0 a9 07 3e ac ea ff bd ce 59 9e 3e
       -0.34493768 0.13248348 -0.12495932 0.3092789
000300 e8 fb ac 3c 2c ce 8f be 5b 0d 9b 3e d7 37 b5 3c
       0.021116212 -0.28086984 0.30283627 0.022121353
000310 b4 ae a8 be 0a 70 b0 3e 29 10 4a be 4c 78 4c 3d
       -0.32945788 0.3446048 -0.19732727 0.04991941
000320 52 26 4d 3e 62 32 5a be 43 34 f0 3d 9c 49 56 bc
       0.2003415 -0.21308282 0.11728718 -0.013079073
000330 a1 1c 42 be 9a 9d aa be cf d7 80 3e fa 3a 4c 3e
       -0.18956234 -0.33323365 0.2516465 0.19944373
000340 ca c2 34 be 73 52 b1 3c fe 00 8f be 26 82 8e be
       -0.17652431 0.02164576 -0.27930444 -0.2783367
000350 69 52 25 be 0b 73 76 3d 3d 3b 86 bc 8d a4 da bd
       -0.16144718 0.060168307 -0.016385669 -0.10675917
000360 7d be df bd 9a 57 46 be 97 ac ba 3d 53 37 ab 3e
       -0.10925005 -0.19369355 0.0911495 0.33440647
000370 94 5d 17 3e 9d a0 83 3e 97 e7 e7 3d da 70 8d 3e
       0.14781791 0.25708476 0.11323469 0.2762516
000380 38 2c 30 3e 34 97 6c bd 3a c9 0d 3e 1e 03 f2 bc
       0.17204368 -0.057761386 0.13846293 -0.029542502
000390 48 28 a3 3e 10 61 91 3e bc 45 81 be 6b 9f 41 be
       0.3186667 0.28394365 -0.25248516 -0.1890847
0003a0 10 71 f1 3c 03 95 60 3d eb 72 9b be 84 d7 e8 3a
       0.029472858 0.05482961 -0.30361113 0.0017764424
0003b0 26 90 89 be 43 8a b0 bc 4a 9b 8c 3e 3b ea 97 3e
       -0.2686779 -0.021550303 0.27462226 0.2967089
0003c0 5a f8 cc bd 90 f5 a9 be b4 ee 8d be f3 61 70 3e
       -0.10008307 -0.33195162 -0.2772118 0.23474865
0003d0 f7 a9 b0 be c9 26 a8 3e 20 e0 92 3e 70 3f 73 3d
       -0.34504673 0.3284209 0.2868662 0.05938667
0003e0 0d 36 8d be 9a 17 c6 bd 4d b8 92 3e ff 4c 7d 3e
       -0.275803 -0.096724704 0.28656235 0.24736403
0003f0 d2 6e b9 be 83 5a 87 3e ca 61 8d 3e 1b 86 a6 3e
       -0.36217362 0.26436242 0.2761367 0.3252419

layer1.bias f4 [128]
000000 5b 2c 7e be 9f b2 2d 3f d4 a1 72 3f f0 4d 30 bd
       -0.24821608 0.6785068 0.9477818 -0.043043077
000010 16 dd ab be 5e 13 35 be 06 ff 91 bc c7 26 b1 be
       -0.33567113 -0.17683169 -0.0178218 -0.34599897
000020 25 e1 cc 3f 59 09 cb bd 64 11 88 3f ac 78 ed 3f
       1.6006209 -0.09913892 1.0630307 1.8552451
000030 21 ff de 3f b9 f7 c1 b8 e6 bc c1 3e 0a b9 56 be
       1.7421609 -9.249099e-05 0.3783943 -0.20969024
000040 b0 9d 44 3f a6 28 7a be 1b e8 db bd d3 23 da 3b
       0.7680311 -0.24429569 -0.1073763 0.0066571026
000050 6f 73 89 bd 6f 97 be 3f eb de 33 be 27 1e 31 bd
       -0.0671147 1.4889964 -0.17565505 -0.043241646
000060 83 0b 9c be 91 52 77 3f 9e dc 8e 3f c7 03 30 be
       -0.30477533 0.9661036 1.1161077 -0.17188941
000070 a6 16 0c 3f c3 f7 bf b9 ec 72 c7 3f c4 ac 44 3a
       0.5472206 -0.00036614956 1.5581946 0.0007502551
000080 29 da e1 bc be 98 e1 3f 57 aa c8 3f 88 2b da bd
       -0.027569847 1.7624738 1.5676984 -0.10652834
000090 00 94 04 bd a5 40 0c 3e f0 69 84 39 2e 6d d6 3f
       -0.032367706 0.13696535 0.00025255932 1.6752069
0000a0 08 29 e2 3f 8d e9 30 be fd c3 81 3f 87 54 9b be
       1.7668772 -0.17276593 1.0137936 -0.30337927
0000b0 7a c1 02 be 7e a5 64 be 75 45 62 3a 9e 44 9e be
       -0.12769118 -0.22328755 0.0008631566 -0.30911726
0000c0 d8 b6 be bd 82 3d 65 be 16 de 2d be 85 64 bd 3f
       -0.093122184 -0.22386745 -0.1697925 1.4796301
0000d0 3f d6 b4 be 2a 66 6e bd 72 bd d8 3f 8b ca 0a b9
       -0.35319707 -0.0582029 1.6932814 -0.00013236159
0000e0 d3 f4 95 be ce 0a d3 3f 5e 66 78 be bd 9a 1c bd
       -0.2928835 1.6487672 -0.242578 -0.038233507
0000f0 75 e4 91 be a1 66 bd 3f 90 5e da 3f 98 b1 a6 3f
       -0.2849461 1.4796945 1.7060108 1.3022947
000100 b5 69 e1 3e 6a dc cb 3f c5 fc e1 3f 0b 7e 8b be
       0.4402596 1.592664 1.7655264 -0.272446
000110 2c d9 df 3f b4 92 02 bd 78 55 a9 be 4b 66 db 3f
       1.7488151 -0.03187819 -0.3307302 1.7140592
000120 fc 46 f3 bd 86 7b cf bc a3 7d 87 be 31 c7 8a be
       -0.118787736 -0.025327455 -0.2646304 -0.27105096
000130 35 bd 6c bd 45 bc e2 3f 11 36 34 be 62 1f 3d bc
       -0.05779763 1.7713705 -0.1759875 -0.011543127
000140 66 bf fa bd e8 99 97 bb 3d b9 34 be 66 92 ec 3f
       -0.122435376 -0.0046265014 -0.17648788 1.8482177
000150 d1 85 ea 3f d6 62 8c 3f 99 dd df 3f 65 81 98 be
       1.8322088 1.0967662 1.7489501 -0.2978622
000160 97 0e 95 bd ed ec c7 3f 56 ae a5 be b2 d5 8c 3b
       -0.072781734 1.5619179 -0.3235957 0.0042979354
000170 7c 43 4a be d6 86 e8 3f 9e 1f 8b bb 5a 66 ee bd
       -0.19752306 1.8166149 -0.0042457124 -0.11640616
000180 34 df 6b bc b5 a8 ba bc 3c fc 88 b9 8c 1e 90 3f
       -0.0143964775 -0.022785524 -0.0002612787 1.1259322
000190 26 67 ec 3f 8a d4 60 bd fb 43 1c be 85 9d 3a be
       1.8468978 -0.054890193 -0.15260307 -0.18224151
0001a0 65 2c a0 bd 23 76 f9 bc f9 da b5 3f 87 26 2a 3f
       -0.078209676 -0.03045184 1.420745 0.6646504
0001b0 10 b9 d9 3f 2b 19 f7 bc 0d 9a b4 3c 05 c6 4d 3e
       1.7009602 -0.030163368 0.022046113 0.2009507
0001c0 6b 0b 8a bd 1b 1e 1b bd 44 61 e6 3f e0 c0 46 be
       -0.06740459 -0.037870508 1.7998433 -0.19409513
0001d0 e2 e5 e7 3f 40 8e ea 3f bf e8 06 be b2 92 c1 3f
       1.811703 1.8324661 -0.13174723 1.5122893
0001e0 68 db 53 3f 42 8f 9d 3f 57 4b 5e 3f e2 e0 a4 bd
       0.8275666 1.2309344 0.8683371 -0.080507055
0001f0 21 ac 7d be 7e 21 ea 3f 36 6d 88 bd 76 c2 e9 3b
       -0.24772693 1.8291471 -0.06661455 0.0071337773

layer2.weight f4 [128, 128]
000000 14 42 bc bc 63 55 f6 bc 2f 82 8c bd 22 85 82 3c
       -0.022980727 -0.030070012 -0.06860768 0.015932623
000010 c4 02 7f bd b9 2c 96 bd e4 b9 2b bb 12 f8 81 bd
       -0.062258497 -0.07332749 -0.0026203329 -0.06346144
000020 3e 39 e6 bc a9 bf a1 3d de ac 3e bc 4b 13 11 3d
       -0.028103467 0.078978844 -0.011637894 0.03541879
000030 e0 70 9f bd d3 1f 2c bd 11 20 8b 3d 4f cb b7 3c
       -0.07785201 -0.042022537 0.067932256 0.022435812
000040 c5 42 41 3d 0f e3 43 bb ad 30 c2 bc 08 1e 67 bd
       0.047182817 -0.0029889976 -0.023704851 -0.056425124
000050 22 a5 f5 3b 3b ac 94 3d 61 7a 96 bd 98 1c 5a bd
       0.007496492 0.07259413 -0.07347561 -0.053249925
000060 8b f6 77 bd 37 e0 06 3c 96 3f 38 bd 9a a8 9f 3b
       -0.060537856 0.008232168 -0.044982515 0.004872394
000070 33 90 f5 3c 45 a6 65 bd 1e e9 cb bc 78 4b cd 3b
       0.029975986 -0.05606677 -0.024891432 0.0062651
000080 96 ed d7 bc 93 dc a2 bd 00 72 61 3d 5c 62 8d bd
       -0.026358407 -0.079522274 0.05504036 -0.06903526
000090 23 5e f0 3c 2a 13 72 3d 53 e1 9c bd ed 27 2b 3d
       0.029341763 0.059100308 -0.07660165 0.041786123
0000a0 f5 e4 9c bc 35 5d 29 bd b3 42 60 3d 67 c2 03 3d
       -0.019152144 -0.041348655 0.05475111 0.03216782
0000b0 ba 0f 6a 3d 4d b5 20 3d 4a 02 6d bd f2 c7 93 3d
       0.057143904 0.039235402 -0.05786351 0.07215871
0000c0 83 b2 41 3d 2f 70 b6 bb db be 84 bd 5e 63 dc bc
       0.047289383 -0.0055675725 -0.06481715 -0.02690285
0000d0 c0 23 9c 3b c7 73 c1 bc 3f f0 67 bd cc 0a 9f 3d
       0.004765004 -0.023614777 -0.0566256 0.07765731
0000e0 82 89 32 3c 7b 70 1a bd 7f ea 99 3d 73 91 31 3c
       0.010897042 -0.037704926 0.0751543 0.0108379
0000f0 72 b4 6c 3a f3 b5 3b bd f4 f6 60 3c fa 44 74 bd
       0.0009029574 -0.045827817 0.013730753 -0.059636094
000100 23 df 97 bc 6f dd e8 bc f7 85 7e bb eb bf 14 3d
       -0.018539017 -0.0284259 -0.0038837173 0.03631584
000110 10 ac 44 3d 28 58 0d bd 6c 0e 84 3d 46 44 5c 3c
       0.048015654 -0.0345079 0.06448063 0.013444012
000120 27 f4 9c bd 67 9f 7a 3d 93 ab 9c 3d 39 19 be 3b
       -0.07663756 0.061187174 0.07649913 0.0058013466
000130 9a 41 6d bd aa c2 bd bc d6 ee 0e bc ad 4c 1b 3c
       -0.05792389 -0.023164112 -0.008723935 0.00947873
000140 e3 07 31 3c 24 6b 67 bc 8e 91 36 3d 15 00 1e bd
       0.010805103 -0.014124665 0.044572406 -0.038574297
000150 bb be 71 3d 1e 15 48 bd 04 86 8c 3d 1b 18 02 3c
       0.059019785 -0.048848264 0.06861499 0.0079403175
000160 64 cd 8f bc 4e c7 5d 3d 80 8f 86 bc 2f 8d bd 3a
       -0.017553993 0.05414515 -0.016425848 0.0014461632
000170 1e d7 a1 bc 21 7f 9a bc cc fe 28 bd bc 21 26 3d
       -0.019755896 -0.018859448 -0.04125862 0.040559515
000180 7b 47 96 3d 89 ab a1 bd 36 2e 36 3d db 84 37 3c
       0.073378526 -0.07894046 0.044477664 0.011201109
000190 f3 2e ba 3c cf f9 99 bd b5 f4 81 bd 13 d3 76 3d
       0.022727465 -0.0751835 -0.06345502 0.06025989
0001a0 3a a4 6c 3d f7 cc b6 3c a8 44 81 bd c3 ea 34 bd
       0.057773806 0.022314532 -0.06311923 -0.0441692
0001b0 b5 95 84 bd 4e 58 47 bc 5d 01 91 3c b8 bd 57 bd
       -0.06473867 -0.01216705 0.017700845 -0.052671164
0001c0 47 98 9e bd d7 13 11 bd 52 ec a5 bc 54 a7 d8 bc
       -0.07743888 -0.03541931 -0.020254288 -0.026446976
0001d0 38 da 95 3d 51 6e 2c bd 12 c5 2b bd ea 6e 85 3d
       0.073170125 -0.042097393 -0.041935988 0.06515296
0001e0 1d bc 98 3d 4c bc 66 bd 18 53 d1 bc 9e a3 fd 3c
       0.07457755 -0.056331918 -0.025552318 0.030961808
0001f0 29 92 84 3d eb ac 0d 3d c4 72 41 bd 65 51 c8 bc
       0.0647319 0.034588736 -0.04722859 -0.024452874
000200 3f 28 9c bd df 93 52 bc 96 c8 8a bc 00 b4 ad 3d
       -0.07624864 -0.012852638 -0.01694135 0.08481598
000210 a5 9f 48 3d de 1b 83 3d a4 87 a1 3c 2a 1f 6a 3d
       0.048980374 0.064017996 0.019717999 0.057158627
000220 ee f2 0f 3a ae d2 57 bc 9f a5 cd 3c 71 0b 57 3d
       0.00054912164 -0.013172789 0.025103388 0.052501146
000230 06 22 89 bd a2 47 f6 3c 09 45 cb 3d 79 0d ae 3c
       -0.066959426 0.030063454 0.09925277 0.021246659
000240 ad 47 91 3d 39 c9 17 bd 6b 11 91 bd db 4b c3 3d
       0.07093749 -0.037057135 -0.070834 0.09535953
000250 66 24 8f 3c fc 4e 88 3d 54 0e d0 bc 60 90 51 3d
       0.01747341 0.0665569 -0.025397457 0.051163077
000260 cc 8a ff bc a4 85 15 3d 35 bd c7 3d 84 58 46 bd
       -0.031194113 0.036504403 0.09752885 -0.04842426
000270 62 1d fd 3b 40 dc d8 bc 3e 42 03 bd ad 74 85 ba
       0.00772445 -0.02647221 -0.032045595 -0.0010181867
000280 af 06 31 3d 9e bf 46 bd 5d e8 90 3c 84 7b 5f 3b
       0.043219265 -0.048522584 0.017688924 0.003410072
000290 d7 6c ab 3d 7c 8a 0b 3d 77 6e 1b 3d 57 7e 00 bc
       0.08370369 0.034067616 0.037947144 -0.007842622
0002a0 0b 85 fe 3c f9 e7 4c bc 8c 77 e5 3c 13 eb 81 3d
       0.0310693 -0.0125064785 0.028011106 0.06343665
0002b0 eb 16 7b 3d fa 0e 49 3d 13 95 a2 3d 18 93 ff 3d
       0.061301153 0.04908655 0.0793859 0.12479228
0002c0 4f 2b cb 3d 53 82 07 bd e9 c2 21 3e 4b 52 4c 3c
       0.0992037 -0.03308327 0.15797009 0.012470792
0002d0 b9 b9 81 bc dc 45 ad 3d ec fd 85 3d 7d 6c eb 3a
       -0.01583563 0.0846059 0.065425724 0.0017961409
0002e0 d1 f0 6c 3b bc b7 9a bd bd 14 23 bd f5 1c 92 3c
       0.003615428 -0.07554576 -0.0398147 0.017836073
0002f0 c0 b1 cb 3d 35 04 7f 3d 04 0a 32 bd 26 27 40 bd
       0.099460125 0.06225987 -0.043466583 -0.046912335
000300 87 1f b5 3d 44 a8 44 3b 43 23 a4 bd 32 12 02 3c
       0.08843904 0.003000752 -0.08014538 0.007938908
000310 54 9f b9 bd 2f 19 80 3c 55 fc a6 bc 0b 1e 6a bd
       -0.090635926 0.015637008 -0.020383993 -0.057157557
000320 03 51 d0 bb b9 25 65 3d 95 11 01 3d fe db e0 3d
       -0.0063573136 0.05594418 0.03151091 0.1097946
000330 6a e6 bb 3d 70 ba 2f bd b3 36 92 3c a5 33 2e bd
       0.09174807 -0.04290241 0.017848348 -0.04252972
000340 fe f7 9f 3d 97 33 12 bd c8 b0 1a be 4a 72 25 3d
       0.07810973 -0.03569373 -0.15106499 0.040392198
000350 0b ea ae bd 8e 2e 37 3d 02 c9 8a bd 0b 4d 70 3e
       -0.08540734 0.044722132 -0.067766204 0.2346689
000360 89 c9 23 3d bc 4e 84 bd 3a ff ad 3d d2 1e 92 bc
       0.03998712 -0.0646033 0.08495946 -0.017836962
000370 11 f1 27 3d ea 54 68 bb 0e a8 82 3d 9e 0f a3 3b
       0.041001383 -0.0035451003 0.0637971 0.004976227
000380 c1 77 b8 3d 78 58 85 bc 8e fc 26 bd e8 28 a2 3d
       0.09007216 -0.016277537 -0.0407682 0.079179585
000390 d8 50 33 bc a1 70 41 bd b8 b3 db 3c 3f 8f a3 bc
       -0.010944568 -0.047226552 0.026819095 -0.019965766
0003a0 13 f8 72 3d 65 ab 07 bb 29 ba 9d 3d 2c df fe 3c
       0.059318613 -0.0020701524 0.07701523 0.031112276
0003b0 d8 6b 56 bd 9e bc 51 bc aa d7 f8 bd a6 36 3d bd
       -0.05234894 -0.0128013175 -0.1215051 -0.046194695
0003c0 01 55 15 3b 63 69 9f bd 92 0a 49 bd 03 3c 8c 3d
       0.0022786262 -0.07783773 -0.049082346 0.06847384
0003d0 91 67 8a bd a4 42 60 3c 2c 8a 37 bd cf 8b 87 3d
       -0.06758035 0.013687763 -0.044809505 0.06618463
0003e0 25 aa c2 3b 2d 11 02 3e 25 eb ba 3d 42 76 5f 3d
       0.005940693 0.12701865 0.091268815 0.05455614
0003f0 eb bd 4a 3d c0 51 03 3c 4e 9e 95 3d 67 4f b8 3d
       0.049497526 0.008015096 0.07305585 0.0899952

layer2.bias f4 [128]
000000 72 b4 4a 3d d5 08 75 3d 41 c9 b3 bc 78 1a 1d bd
       0.049488492 0.059822876 -0.021946551 -0.03835532
000010 8a 58 4c bd 73 61 d6 3d c8 c2 5b 3d 21 ac 94 3d
       -0.049889125 0.10467806 0.053652555 0.072593935
000020 28 34 83 3f d0 52 10 3e 7b d7 f3 3c 84 ec 0f bd
       1.0250292 0.1409409 0.029765835 -0.03513767
000030 34 f6 29 3e 16 59 bb bc 19 25 26 3d 26 c0 a5 3e
       0.16597825 -0.022869628 0.040562723 0.3237316
000040 e6 c5 5b 3f d6 3c 05 bd 45 20 22 3f ee 17 69 bc
       0.85848844 -0.03252872 0.6333049 -0.014226897
000050 96 ed 5e 3e d0 72 c5 3d df 10 83 3c dc f8 4e 3d
       0.2177032 0.09641039 0.015999256 0.0505303
000060 1c d4 3c 3e a8 d4 7b 3d 93 a3 2d 3f 9f 63 86 3d
       0.18440288 0.0614821 0.6782772 0.0656197
000070 14 60 74 3d e0 18 9f bd d0 be 54 3e ee 13 f5 3e
       0.05966194 -0.077684164 0.20775914 0.47866768
000080 6d dd 91 3e f0 c1 83 3f c6 9c 6f 3d e1 74 57 3d
       0.28489247 1.029356 0.05849912 0.0526017
000090 e0 3c 59 3d 1b 81 26 bb ba 3f 5c 3e 4b 9d f5 bc
       0.05303657 -0.0025406543 0.21508685 -0.02998223
0000a0 58 37 83 3f 3b cd 80 3e c2 f1 06 bd aa 8e ec b9
       1.0251265 0.25156578 -0.032945402 -0.0004511972
0000b0 f1 c0 1c bd 3e 6d 11 bd 4e 6f 0f bd 74 6f e3 bc
       -0.03826994 -0.035504572 -0.035018258 -0.027763106
0000c0 2c 13 d1 3c fb 20 2a bd df a8 a9 bd c1 ef 8c 3c
       0.025521837 -0.04153536 -0.08284163 0.017204167
0000d0 6c 76 84 bd 59 7c e2 bb 4a 71 45 bd 52 06 6c 3d
       -0.064679 -0.006911796 -0.048203744 0.057623215
0000e0 56 bd 17 3e 47 ff 84 3d 1c af eb 3d 7e 9a 76 3d
       0.1481832 0.06494003 0.11508009 0.06020593
0000f0 b2 34 6c 3d d2 cc 77 3f da f3 5d bd f8 1f 7c bd
       0.05766744 0.96796906 -0.054187633 -0.061553925
000100 3d 26 7e 3d e5 8e 5b 3e 52 e0 8a bd e7 43 84 3f
       0.062048186 0.21441229 -0.06781067 1.0333222
000110 2f fb 04 bc db cc 2b 3d 0d d8 bd bc c4 55 57 bd
       -0.008116527 0.041943412 -0.02317431 -0.052572027
000120 14 09 02 bd 9f 71 7a bc 4b eb 24 3e 43 ea 8a 3c
       -0.03174694 -0.015285878 0.16105382 0.016957408
000130 7d 97 e4 3d 75 2d 33 3e 8b 3f a4 3d 8d c3 78 bd
       0.111617066 0.17497809 0.08019932 -0.060733367
000140 9b 1f 28 3f 1b 4f 3b bd b2 22 6c 3c a8 55 80 3d
       0.65673226 -0.045729738 0.014412569 0.06266338
000150 3b 0e cb 3c d4 23 84 3f 57 57 d9 bc 09 f5 32 bc
       0.024787059 1.0323434 -0.026530905 -0.010922679
000160 3c a1 cf 3c 65 3d 1d bd 6e a4 84 3d a6 30 b8 3c
       0.025345437 -0.03838863 0.06476675 0.022484135
000170 db 82 9b bb b5 2f 7a bd 44 90 91 bb 49 27 93 bd
       -0.004745824 -0.061080653 -0.0044422466 -0.071852274
000180 93 7c 27 3e 8f 2a 80 3b 60 12 19 3e 12 34 c0 3f
       0.16356115 0.0039113234 0.14948416 1.5015891
000190 d9 63 78 3f d9 c9 7b bd 9e ba f5 3d 37 1b 31 bd
       0.97027355 -0.061471794 0.11998485 -0.043238845
0001a0 e0 1b 5e 3b 93 21 95 bc 07 fa 1d 3e b1 8d 60 3f
       0.0033891127 -0.018204486 0.15427409 0.87716204
0001b0 f5 49 48 3d 70 6b a0 bc 01 a5 8b 3d f2 16 c1 bc
       0.048898656 -0.01958248 0.06818581 -0.023570511
0001c0 2b da 77 bd b5 a6 1d bd 33 78 f4 3c ad 63 3e 3f
       -0.060510796 -0.038489062 0.029842472 0.74370843
0001d0 4c b0 8d bd 9c d3 5d bd 07 58 46 3d 7c 73 88 bd
       -0.069183916 -0.054156885 0.048423793 -0.06662652
0001e0 93 64 70 3d 68 4f 02 3e 96 8c 8c 3d 63 5a 86 3e
       0.058689665 0.12725604 0.06862752 0.26240835
0001f0 f1 8f 83 3d 26 80 c3 3b ae f3 e8 bc 26 97 c0 bc
       0.06423939 0.005966204 -0.028436508 -0.023509573

layer3.weight f4 [3, 128]
000000 95 a6 3c 3d ad 5b 32 3d 44 39 71 3d 7c 8d 0f 3d
       0.046057303 0.04354446 0.058892503 0.03504704
000010 62 9c b6 3b d2 b8 10 3d 0a 37 16 3c b4 75 7b 3d
       0.0055728415 0.03533251 0.009168396 0.061391547
000020 3e 6a 83 3f 48 c1 98 3d 4f 01 7d 3d 8b c9 79 3d
       1.0266798 0.074587405 0.061768826 0.060983222
000030 d7 cd 9f 3d 02 ef 36 bd e5 4e 7b 3d 1d 1a be 3d
       0.07802933 -0.04466153 0.061354537 0.092823245
000040 ee 2d 76 3f ca 0e 6c 3d bd a5 97 3d 13 71 77 bd
       0.96163833 0.05763129 0.07404659 -0.06041057
000050 bd be aa 3d 67 38 47 3c 6c 12 a3 bc 9b a8 fb 3c
       0.08337162 0.012159443 -0.019906245 0.030720046
000060 ba 7f b2 bb 36 cb bc 3d d9 e6 94 3d 34 28 4a bd
       -0.005447355 0.09218447 0.07270593 -0.049354747
000070 46 ae 23 3d 9c e6 67 3d 0e 53 87 3b ee 2e 48 3d
       0.039961122 0.05661641 0.004129774 0.04887288
000080 3f 7d d0 3d 66 e0 78 3f b0 9e be 3d 4c 62 63 3d
       0.10180139 0.97217405 0.09307611 0.055513665
000090 8a 35 ef bc 3f e2 66 3d a1 34 b7 3d f8 12 4a bd
       -0.029200334 0.05636811 0.08945585 -0.049334496
0000a0 07 49 6f 3f 74 a8 4a 3c dd 10 00 3c 9e 72 d1 3c
       0.93470806 0.012369264 0.0078165205 0.025567349
0000b0 82 0b 8b bb bd 7a 75 bd 4a ef 56 3d ad 25 45 bc
       -0.004243315 -0.059931505 0.052474298 -0.012032908
0000c0 0c 44 41 bc 67 a0 a0 3d 0d de 9a bd 6e c7 a5 3d
       -0.011796009 0.07843094 -0.07561884 0.08094679
0000d0 f8 2b a7 bc 10 c8 98 bd 5f c2 1b bd da 0e 52 bd
       -0.020406708 -0.07460034 -0.038027164 -0.051283695
0000e0 2b 39 8d 3d bc 0d 9e bd 49 37 ac 3d e5 e6 45 3d
       0.068956695 -0.077174634 0.08408982 0.0483159
0000f0 34 23 5a bd da e7 81 3f 81 86 92 3d f1 be 40 3c
       -0.05325623 1.014888 0.07154561 0.011764274
000100 6a 8b cd bc eb ad 78 3d 99 16 fc 3c ce b6 82 3f
       -0.025090892 0.060712736 0.030772494 1.0212038
000110 c2 30 ad 39 ab 7e 96 3c 27 01 a9 bc 91 1c 8b 3d
       0.0003303346 0.018370947 -0.020630432 0.06792558
000120 a4 a2 81 3c e6 e3 a3 3b 01 8a 6d 3d 42 7d 8d 3c
       0.015824623 0.005001533 0.05799294 0.017271642
000130 39 f3 a5 3d 92 63 04 bc 92 25 10 3d f7 84 a5 3c
       0.08103032 -0.00808038 0.03519208 0.020205004
000140 2f 4b 8f 3e 57 a3 81 bd 07 c6 0c bd 31 3d 95 bd
       0.27987048 -0.06329983 -0.03436854 -0.07287062
000150 e4 30 0b 3d 78 62 59 3f ae 38 80 3d 2b 25 ce bc
       0.033982173 0.84915876 0.06260811 -0.025164207
000160 79 b9 a2 bd c5 15 8b 3b c2 ef 8a 3d c4 d7 74 37
       -0.07945532 0.0042445385 0.067840114 1.459377e-05
000170 2d f8 85 bd fc 1a e7 bc ac 46 65 3d 73 cb 9c bd
       -0.065414764 -0.02821111 0.0559756 -0.07655992
000180 76 fe ce 3d 19 18 96 3d 93 4d 14 bd 7e db 5e 3f
       0.10107128 0.07328815 -0.036206793 0.8705367
000190 52 12 75 3f d8 9f fb 3c ba 7c ed 3d af c6 b2 3c
       0.9573108 0.030715868 0.11596055 0.021823255
0001a0 4a bb 48 bc 6e 4d 87 bd db a8 4e 3d 86 4e 7d 3f
       -0.012251684 -0.066065654 0.050454002 0.9894794
0001b0 1a 63 e5 bc ae 95 ad bc a3 4c f9 bc c7 43 98 3d
       -0.028001357 -0.021189537 -0.030432051 0.074348025
0001c0 dd 06 98 bd 3c 58 5c bd 5a 8e 2d bc 36 b9 a0 3d
       -0.07423184 -0.053795084 -0.010593021 0.07847826
0001d0 52 51 03 bd af 1b 18 bd 4f 70 94 3d 50 94 4a 3d
       -0.032059975 -0.037135776 0.07247984 0.049457848
0001e0 80 30 83 3d 06 a4 85 3d 9d 96 49 bc 9b 89 13 3e
       0.06405735 0.065254256 -0.012303975 0.14407961
0001f0 92 05 6a 3d 81 b2 07 bd 35 d2 3d 3b 85 58 99 bd
       0.05713422 -0.03312922 0.0028964404 -0.07487587
000200 8e 7d c9 3c 4a 2d 23 3d bd c9 03 3d da 47 2a 3d
       0.024596002 0.039838113 0.032174814 0.04157243
000210 be 48 9e 3d ad b4 75 3d de d1 9b 3d ca 0e db 3b
       0.07728718 0.05998676 0.07608388 0.0066851126
000220 9b f9 81 3f 98 ff 00 3e b2 b6 b7 3c d1 53 43 bd
       1.0154299 0.12597501 0.022425983 -0.047687355
000230 34 a5 a5 3d 5d 6e 08 bc e4 97 dc 3b 06 63 d3 3d
       0.080881506 -0.008327094 0.006731974 0.103216216
000240 cd f5 62 3f 88 75 60 bd fe 0b ef 3d bb f9 32 bd
       0.8865631 -0.054799587 0.11672209 -0.043695193
000250 2f cd 74 3d bd 05 9a 3d cf bc 90 bd 4e 70 6c bc
       0.05976599 0.07520626 -0.070672624 -0.014431072
000260 c2 3e 99 3d 8f aa db 3c 95 7c cb 3d ac ce 3e bd
       0.07482673 0.026814727 0.099358715 -0.046583816
000270 25 9d d3 3c 8c d0 81 bc 39 aa 0b 3d 18 3c 00 3e
       0.025831768 -0.015846513 0.034097884 0.12522924
000280 cb a0 d4 3d d0 57 8a 3f 55 9e 00 3d 88 a6 6f bd
       0.10382231 1.0808048 0.031400997 -0.058508426
000290 5f 0b f9 3b d2 0d 0b 3d 5b aa 8c 3d d5 3c 3f 3d
       0.0076002325 0.033948727 0.0686843 0.046688873
0002a0 0c b7 82 3f 6d ce 74 3d 09 4d 85 bc 80 23 5a 3d
       1.0212111 0.059767175 -0.016272085 0.05325651
0002b0 e3 85 a5 3c b2 10 2b 3d 19 cd 51 3e be f4 d4 bb
       0.020205444 0.04176397 0.20488395 -0.006498902
0002c0 ab 2a 67 3d 0b 18 15 3c a3 71 b2 bc fc fb 9c 3d
       0.056437176 0.009099971 -0.021782702 0.0766525
0002d0 3e 71 ae bc 69 2d 1e 3d f9 00 c9 bd f5 04 1b bd
       -0.021294232 0.038617525 -0.09814639 -0.037846524
0002e0 56 7b 56 3c 5f a4 e6 3b 52 13 28 bd 93 53 37 bd
       0.013090929 0.0070386375 -0.04103405 -0.044757437
0002f0 f4 6d 16 bd 39 99 81 3f 25 da 85 bd c3 e3 06 bd
       -0.036725953 1.0124885 -0.065357484 -0.032932054
000300 c3 af 76 3d a6 aa b0 3d a2 fc 6b bd f4 82 7c 3f
       0.060226213 0.086262986 -0.057613976 0.9863732
000310 75 80 14 3b 61 21 76 3d 1d 6c fb 3c 48 a9 d8 3c
       0.0022659574 0.060090426 0.0306912 0.026447907
000320 0a 1d 32 bd d3 62 e7 3c 24 04 74 3d e6 72 a2 3d
       -0.043484725 0.028245365 0.05957426 0.079320714
000330 f0 ad 19 bd d1 44 1a 3d e5 1d 22 3c a0 8b 1a 3c
       -0.037519395 0.037663285 0.009894823 0.009432703
000340 eb 74 9c 3e 1a 9b 88 bd b2 15 f3 3a c9 88 a2 bd
       0.3055795 -0.06670208 0.0018545894 -0.07936246
000350 1d 17 c6 3d 0a b8 5d 3f 76 46 89 3d f2 30 9e 3d
       0.09672377 0.86608946 0.067028925 0.07724179
000360 fa c9 75 bd 3f 68 b6 bc eb c4 0e 3b 0d f7 c8 3d
       -0.060007073 -0.022266505 0.0021784853 0.09812746
000370 92 c8 6e bd 42 93 05 bd b9 cf 4d 3c 7d 3f 7e bc
       -0.058296748 -0.03261114 0.012561732 -0.0155180665
000380 ba f6 c6 3d 5f dc 90 3d bd 66 a9 3d 36 71 4a 3f
       0.09715028 0.070732825 0.08271549 0.79078996
000390 c8 e4 88 3f 19 6c 20 bd 76 c5 ab 3d d7 60 ac 3c
       1.0694818 -0.03916559 0.08387272 0.02104227
0003a0 e9 29 96 bd 66 45 d3 bd a4 af 40 bb 76 10 5d 3f
       -0.073322125 -0.10315971 -0.0029401565 0.8635324
0003b0 c3 a7 02 bd 36 fb b4 3d 36 b5 8f 3d 9b b4 a4 3d
       -0.03189827 0.08836977 0.07016985 0.0804226
0003c0 8d 4a c0 bc 27 2e 10 3d b2 31 85 bc dc a8 5a 3d
       -0.023473049 0.035200264 -0.016259048 0.053383693
0003d0 65 ea 8b 3d 78 4a 9e 3d 7a 95 3d 3d 44 83 6a bc
       0.068318166 0.077290475 0.04628513 -0.014313523
0003e0 cb e2 85 3c b9 d2 89 3d ec 42 97 3d f1 4f c0 3d
       0.016343495 0.06729645 0.07385811 0.093902476
0003f0 25 80 9a 3c a0 c6 97 3d f2 3a a6 3d ae 01 3b bd
       0.018859932 0.074109316 0.08116712 -0.0456559

layer3.bias f4 [3]
000000 8d e6 29 3b 37 0a ae 3c 42 b0 5d 3e
       0.0025924772 0.021245105 0.21649268
