models/rl_models/07.03.24_with_rewards_for_each_3_seconds/best_target_dqn_model_epoch_36.pt (torch, 74158 bytes, 6 tensors)

layer1.weight f4 [128, 6]
00000000: 3a96 42be b311 38be ab06 63be 14f0 093d
00000010: 8e49 28be 5a68 223e b902 7f3c 52b6 013e
00000020: 4771 2f3e 3f87 04ba 7518 993e d9de 8d3e
00000030: c86e aebe 158c fc3d e50c a1be c520 ae3e
00000040: bb11 813e e5fd 9bbe adde 1b3d 353f 5d3e
00000050: 01d5 a43d 7110 a5be f42e b83e e0b8 4cbe
00000060: f826 403d a7df a33e 8947 273e a11f 8f3c
00000070: 7eac b5bd 543d 703e a314 f53c 7fef c23e
00000080: 2952 003e 612e 73be 4c03 47be fc6d a6be
00000090: 62b3 3a3e d798 68be 6a93 acbe 8c21 06be
000000a0: 5758 b23e d7fb 453e 7a2f f13c 3ead b7be
000000b0: f58b 03be 3789 9dbd 2c45 c9bd 223e 503e
000000c0: fe4c 91bd 230e a8bd 3dd5 a63e 8fc6 87be
000000d0: 737a 40be 125e ec3c cc49 3f3e 0330 b0be
000000e0: 3bc8 433e 62b8 c43d 2d55 8dbe b81e 663e
000000f0: cfe9 c23e 40fe abbe 3d39 7c3e 7c06 843e
00000100: 31b4 3ebe 4516 acbd 442a 223e cdad febd
00000110: 64a8 d8bc bf8a 0ebe 78cd 60bd a5a8 92be
00000120: e900 bebe 259a 23be 43af c6bd 9034 de3d
00000130: f382 dc3d 6c0e 0a3e db49 a03e 0524 fbbd
00000140: 269f a4bd 3faa a53e 2fab aa3e 8f92 3b3d
00000150: b59e 5d3e 5f78 e63d 4bc5 41be 83cb 8abe
00000160: 5e25 693c 726c 483e 94dd 14be 600e a73e
00000170: d409 c0bd 30eb 3cbe c35c 09bd 3cdb b9be
00000180: 842f b73d cbf1 dd3d 5a67 18be 205d 913e
00000190: aed5 ab3e 8a75 5abe 616d 42be 10a8 d33d
000001a0: 3af2 a63e 0557 9dbe 423f f63d 93b8 25be
000001b0: d76c 343e eba0 b5be 52d6 6abc 8e54 d63d
000001c0: 8ee0 79bd d6f3 7abc 023b 8bbc cb02 a33d
000001d0: 0d83 7dbe 9daa a93e 6663 9cbe b8a2 39be
000001e0: e8e7 233e ff0e bb3e 9dc7 62be 6627 a8be
000001f0: 7b4e 70be 98e2 85be 77d4 7ebe ff01 993e
00000200: be81 b53e f78c bdbd efdb a0be dbf4 b1bd
00000210: 9d81 a8be 66a8 30be 9f67 39be 113a 9abe
00000220: 8fc5 953e 69c1 2b3e 175f b9be c880 04be
00000230: e5a5 9b3e 1b2b 45be 9dc3 2abe 6426 093e
00000240: 4efd 5c3e 214d d3bc bff4 90be fa50 203e
00000250: cc50 a03e 215a a6be bfcc bd3e 9a2f 303d
00000260: e427 50bd a7cf fc3d 50c2 513d 6e97 fd3d
00000270: be1b c63d ec41 ac3e 9e2a adbe e853 f5bc
00000280: c88c 55bc 8777 dcbc 27ed bbbb c366 babe
00000290: 8f64 923e 6ff7 12be 0ae3 7f3e 0613 bdbe
000002a0: 2014 913e e283 8dbe 5b44 90bd 5b49 a23e
000002b0: a4a9 813e 383c 963d 1271 4c3e 80eb a5be
000002c0: 4c00 64be f31b a2be 3e36 64bd 01b9 943b
000002d0: 6eab 57be c831 bf3e 10dc c93c 39d2 a8be
000002e0: 5cb4 24be d2c7 ae3e 3dd3 8cbe 673b b93e
000002f0: 2895 b5be d03f 0d3e 4bb1 01be 0ce1 9e3e
00000300: 86e5 af3c 413f 92be 6f7e 9d3e ef25 b83c
00000310: 4a5e abbe 225e b33e 0863 4dbe 68e3 4f3d
00000320: 6e91 503e 28d9 5dbe 631c f43d b8b4 59bc
00000330: 3b49 45be 1a50 adbe 610a 833e 16a6 4f3e
00000340: e2b0 37be 8b40 b43c 7f70 91be 90e3 90be
00000350: ff01 28be 5079 7a3d cf6d 88bc 2b4e debd
00000360: b061 ddbd 65f8 45be b66b b93d a786 af3e
00000370: 825a 1d3e 51c7 843e 1527 ef3d 38ea 8e3e
00000380: ecb8 2a3e 75a4 69bd e384 0e3e dba1 1cbd
00000390: 29ad a53e 72a6 933e 2b58 89be fd1b 45be
000003a0: a1e7 f23c a74c 343d ffe3 9dbe eab5 ec3a
000003b0: b8c2 8bbe 5b78 b3bc dccd 8e3e 4f5b 9a3e
000003c0: 7663 d0bd 26a5 acbe bc3f 90be 134a 743e
000003d0: 0f98 b3be 5fd6 aa3e 3b91 973e f6c0 833d
000003e0: 9632 90be 0f36 c0bd c131 973e 0a12 803e
000003f0: d640 bcbe 8215 893e 0f5a 8a3e 4752 a93e
-0.1900262 -0.17975502 -0.22170512 0.033676222 -0.16434309 0.1586012 0.015564614 0.12667206
0.17133056 -0.00050555536 0.29901472 0.27709082 -0.34068894 0.12331406 -0.3145515 0.34009376
0.2520884 -0.30467144 0.038054157 0.21606143 0.0804844 -0.32239106 0.35973322 -0.19992399
0.046912163 0.3200657 0.16335882 0.017471137 -0.08870791 0.23460895 0.029917067 0.38073346
0.12531342 -0.23748161 -0.19434851 -0.32505786 0.18232492 -0.22714554 -0.33706218 -0.13098735
0.34833023 0.1933435 0.029441584 -0.3587436 -0.12846358 -0.07692187 -0.098276466 0.20336202
-0.07094763 -0.08205821 0.32584563 -0.26518676 -0.1879671 0.02885345 0.18680495 -0.3441163
0.1911935 0.09605481 -0.27604046 0.22472656 0.38069007 -0.33592415 0.2463121 0.25786197
-0.18623425 -0.08402685 0.15836436 -0.124354936 -0.026447482 -0.13920115 -0.05488345 -0.2864429
-0.3711007 -0.1597677 -0.09701397 0.10849869 0.10767164 0.13482064 0.31306347 -0.122627296
-0.08038168 0.3235645 0.33333728 0.045794066 0.21642573 0.11253428 -0.18922918 -0.27108392
0.0142301 0.19572619 -0.1453765 0.32628155 -0.093768746 -0.18449092 -0.03353573 -0.36300075
0.0894461 0.10837134 -0.14883175 0.2839136 0.33561462 -0.213339 -0.18987037 0.1033479
0.3260668 -0.30730453 0.12023784 -0.1618369 0.17619644 -0.35474333 -0.0143333245 0.10465346
-0.061005168 -0.015316924 -0.01699591 0.07959517 -0.24757023 0.3313798 -0.30544585 -0.18128479
0.16006434 0.3653488 -0.22146459 -0.3284256 -0.23467438 -0.2614944 -0.24885736 0.29884335
0.35450548 -0.092554025 -0.31417796 -0.086892806 -0.32911387 -0.17251739 -0.18105935 -0.30122426
0.29252288 0.16772999 -0.3620536 -0.12939751 0.30400005 -0.19254725 -0.16676183 0.13393551
0.21581003 -0.025793614 -0.28311726 0.1565589 0.31311643 -0.32490638 0.3707027 0.043014146
-0.050819293 0.12344294 0.0512107 0.123823985 0.0967326 0.33644044 -0.33821577 -0.029947236
-0.013034053 -0.026912464 -0.005735058 -0.36406526 0.28592345 -0.14352201 0.24988952 -0.36928576
0.28335667 -0.2763968 -0.07044288 0.3169659 0.25324738 0.073357046 0.19965008 -0.32406235
-0.22265738 -0.3166195 -0.055715792 0.0045386557 -0.21061489 0.37342668 0.024641067 -0.32972887
-0.16084427 0.34136826 -0.27504912 0.36178133 -0.3546536 0.13793874 -0.12665288 0.31031072
0.02147175 -0.28563884 0.30760524 0.022479026 -0.33470374 0.35032755 -0.20057309 0.05075398
0.20367977 -0.2166487 0.11919477 -0.013287716 -0.19266216 -0.33850175 0.25593856 0.202782
-0.17938569 0.022003433 -0.2840614 -0.28298616 -0.16407011 0.06115085 -0.016653923 -0.10854753
-0.10809648 -0.19333036 0.09053747 0.3428242 0.15366557 0.25933316 0.11677376 0.2791307
0.16672105 -0.057041604 0.1391788 -0.038240295 0.32358673 0.28837925 -0.2682508 -0.19248958
0.029651465 0.044018414 -0.3083801 0.0018059586 -0.27296996 -0.021907976 0.27891433 0.30147788
-0.10175221 -0.33719748 -0.28173625 0.23856382 -0.3507695 0.33366677 0.2960299 0.06433289
-0.28163594 -0.09385311 0.29530147 0.25013763 -0.36768216 0.26774222 0.27021834 0.33070585

layer1.bias f4 [128]
00000000: 003b 81be 8288 2a3f 7a2b 693f 16d3 4ebd
00000010: 9d33 b5be 6ab6 37be 0fe7 b8bc df14 b4be
00000020: d89f c73f 646f cebd e48b 853f abf9 e83f
00000030: da1e da3f 210d a1b8 07f0 bd3e 3584 59be
00000040: 761a 423f 484f 7ebe b991 dfbd 8b09 9138
00000050: 4150 8bbd d34a b93f 03cd 36be 3f0c 34bd
00000060: 8a18 a2be 4bbd 733f 6fad 8d3f dff1 32be
00000070: 93d3 073f 5e24 c3b9 3e96 c23f 9001 c5b9
00000080: c783 e5bc d7b9 dc3f e45e c33f d0d1 ddbd
00000090: fda1 0fbd 6776 0c3e 78cd 05b8 4256 d13f
000000a0: f44a dd3f 5d3a 35be 3480 7f3f 9bc5 9dbe
000000b0: 26c4 0ebe 1c4f 68be 8986 d038 fb5f a0be
000000c0: e3ac d8bd 5f7a 71be 94bd 35be 48b4 b93f
000000d0: 30d7 bcbe e071 8dbd 8e9e d33f 16b9 78b8
000000e0: df51 98be 71f9 cd3f 8ba3 82be 9223 1fbd
000000f0: f43e 94be d853 b83f bd47 d53f f6fd a23f
00000100: dc07 de3e aef0 c63f 371f dd3f 9bef 92be
00000110: adfc da3f 46c5 04bd 309a acbe b555 d63f
00000120: 52e0 f1bd 962d 13bd 1314 92be 2382 93be
00000130: 6e1c 8abd 78df dd3f 5af9 44be d809 24bc
00000140: bdb2 0abe 8fd7 8abc 82de 31be f828 e83f
00000150: d1b3 e53f c5db 883f c203 db3f 02a6 98be
00000160: ab7f 97bd 5338 c23f ecc5 a7be 4172 b23a
00000170: 4e9a 4dbe aba7 e33f 60b8 88bc 7a4e f2bd
00000180: c2f5 c4bc 2abf 11bd ce2e 8bb9 c705 8d3f
00000190: d9a6 e73f 287e 64bd 26c4 1ebe aa2d 4abe
000001a0: fbdb a2bd c59c fdbc a5ef b03f c10e 223f
000001b0: e79f d43f d529 fbbc 2d10 cc3c a8c1 493e
000001c0: 62c8 5dbd b0d1 1cbd 9686 e13f 7aed 49be
000001d0: 6f07 e33f b0b7 e53f 2304 12be bc48 bc3f
000001e0: 5bfb 4f3f 6d5a 983f f71f 5c3f 7890 a7bd
000001f0: a625 88be b848 e53f 9f49 9bbd 9f6f 2f3b
-0.25240326 0.66614544 0.91081965 -0.050494276 -0.3539094 -0.17940679 -0.022571115 -0.35172173
1.5595655 -0.1007984 1.0433316 1.8201193 1.7040665 -7.679524e-05 0.3709719 -0.21241839
0.75821626 -0.24834931 -0.10916466 6.915916e-05 -0.068024166 1.447596 -0.17851643 -0.04395699
-0.31659347 0.95210713 1.1068553 -0.17475079 0.5305721 -0.00037220394 1.52021 -0.00037575932
-0.028016938 1.7244214 1.5263333 -0.10831034 -0.035066593 0.13717042 -3.190103e-05 1.6354449
1.7288499 -0.17698045 0.99805 -0.30814824 -0.13942012 -0.22686428 9.943272e-05 -0.31323227
-0.105798505 -0.23581837 -0.177481 1.4508142 -0.36882925 -0.069064856 1.6532762 -5.9300182e-05
-0.29749963 1.6091748 -0.25515398 -0.038852282 -0.2895428 1.4400587 1.6662518 1.2733753
0.4336537 1.55422 1.7275151 -0.2869843 1.710836 -0.032414697 -0.33711386 1.6744906
-0.11810364 -0.035932146 -0.2853094 -0.28810224 -0.06743704 1.7333822 -0.19235745 -0.010012113
-0.13544746 -0.01694849 -0.17370036 1.8137503 1.7945501 1.0692068 1.7110522 -0.29814154
-0.073973976 1.5173439 -0.3276819 0.0013614373 -0.20078394 1.7785543 -0.01668948 -0.118313745
-0.024042968 -0.0355827 -0.00026547018 1.1017388 1.8097793 -0.055784374 -0.15504512 -0.19743982
-0.07952114 -0.030958543 1.3823134 0.6330376 1.6611298 -0.030659596 0.024910057 0.1970278
-0.054146178 -0.03828591 1.7619197 -0.19719496 1.7736644 1.7946682 -0.1425939 1.4709697
0.81242913 1.1902596 0.85986274 -0.08181852 -0.26591223 1.7912817 -0.075824015 0.0026769412

layer2.weight f4 [128, 128]
00000000: 9e6e bfbc d159 fabc c1b4 8ebd b4b7 843c
00000010: 82ac 81bd cd9d 98bd 3e86 2ebb a42a 84bd
00000020: faea e9bc 3f6f a43d 7ad9 41bc 5f84 133d
00000030: 7820 a2bd 6ef5 2ebd a352 8d3d 67b9 ba3c
00000040: 5f6f 443d a90f 47bb 475d c5bc 02df 6abd
00000050: 879e f93b 4f1d 973d 75eb 98bd d0c1 5dbd
00000060: 0c15 7cbd c912 093c ae2d 3bbd 3258 a23b
00000070: 4a88 f93c ea4f 69bd 3a54 cfbc 94b6 d03b
00000080: df6a dbbc 298c a5bd 9e1b 653d cca3 8fbd
00000090: 4346 f43c 4afb 753d 3271 9fbd 02e7 2d3d
000000a0: 3575 9fbc cb0c 2cbd 51ec 633d f9f4 053d
000000b0: daf7 6d3d e364 233d 6bea 70bd 0639 963d
000000c0: 1ddf 443d 475e b9bb 6df1 86bd fd0c e0bc
000000d0: a9a0 9e3b 61a0 c4bc 3abf 6bbd 64ba a13d
000000e0: 9a77 353c 8fe1 1cbd 935b 9c3d 8b7f 343c
000000f0: 939c 703a 5bd7 3ebd 92a0 643c 1a2d 78bd
00000100: 3750 9abc 3abc ecbc 706a 81bb ff30 173d
00000110: aad8 473d 6e98 0fbd fe40 863d e4ed 5f3c
00000120: eb85 9fbd 09c6 7e3d 1336 9f3d d545 c13b
00000130: bb29 71bd 46ef c0bc 4e5c 11bc c1bd 1d3c
00000140: fbf5 333c 4231 6bbc a67f 393d a4ac 20bd
00000150: dba6 753d d541 4bbd 96b8 8e3d ad4a 043c
00000160: 793e 92bc ed70 613d 12c2 88bc cbb9 c03a
00000170: b486 a4bc 35f0 9cbc 62ae 2bbd 52d1 283d
00000180: 8fb8 983d 1f5b a4bd 4e1c 393d f372 3a3c
00000190: c32f bd3c e36a 9cbd 4727 84bd 58df 7a3d
000001a0: 5b8c 703d 0fbb b93c 3a77 83bd dbd8 37bd
000001b0: 47c8 86bd e884 4abc 7172 933c 9537 5bbd
000001c0: df47 a1bd eb84 13bd e89b a8bc e031 dcbc
000001d0: 4c4b 983d 124b 2fbd 6e92 2ebd 7ca1 873d
000001e0: 312d 9b3d c276 6abd 34be d4bc 9bf2 003d
000001f0: bbc4 863d aef6 0f3d 5e9f 44bd e681 cbbc
00000200: a2a5 9ebd cad1 6cbc 5cc3 95bc 8cde a93d
00000210: ce96 473d ca63 833d eba9 a03c 4a07 6e3d
00000220: bafd 753b 0b4e 5bbc cc59 053d cfc3 683d
00000230: dada 84bd 25b6 fb3c 7b7b c93d 78a1 a93c
00000240: fcfb 923d 4d3a 1abd 7f82 93bd 36f2 d23d
00000250: e117 8a3c 4540 893d 7079 d3bc 7cfb 543d
00000260: f80e 02bd 360a 193d be1b c93d 1e85 49bd
00000270: 37a2 0c3c 976a dcbc 6306 09bd cbdf a2bb
00000280: c7f4 333d c0db 3cbd 1a6f ad3c 2325 633b
00000290: 63da af3d 6725 093d 5307 1b3d b97b 9cbb
000002a0: 125e 0e3d 805c 5abc 5e0f dc3c a51d 843d
000002b0: c55e 7f3d 104e 4c3d 6395 a53d f102 013e
000002c0: 5da2 cc3d a5a4 0cbd 6ff6 eb39 b067 47bc
000002d0: 00e9 81bc 9785 b23d 39aa 8e3d 11c2 1e3a
000002e0: 4c4c 2e3b 1eaf 96bd b73e 2abd 098e 943c
000002f0: 8351 cd3d ff51 803d 5ddb 27bd 8b54 41bd
00000300: 1962 b63d 261b 97ba 1959 a0bd 79c0 fa3b
00000310: ac13 b6bd c14b 823c 5e4f 90bc 62e9 60bd
00000320: 0234 06bc 9870 683d fc04 053d d391 e83d
00000330: fd3b be3d c48b 25bd 94b4 9c3c 29a8 36bd
00000340: 732c a03d 019a 11bd 36c8 12be bdc8 283d
00000350: 2035 abbd c90d 353d d681 86bd 5909 2e3e
00000360: 1f79 263d f97b 86bd 6af4 b03d e964 65bc
00000370: a7a0 2a3d e42f d5b9 a324 843d 34bf a53b
00000380: 6f7e c53d 590e 85bc 24ac 29bd 1401 b23d
00000390: 04f5 01bc 3b9d 44bd 565d df3c 1308 abbc
000003a0: 33e0 763d f7dd 09bb b1a3 913d f8f5 0b3d
000003b0: 74d6 4cbd ba27 55bc 980d ffbd 0644 45bd
000003c0: f32b 56bb e525 a4bd a943 3fbd 956e 8e3d
000003d0: 6320 86bd 121b 8c3c f5e3 2ebd 1559 903d
000003e0: f5c1 593c f669 033e 2385 b83d e21f 633d
000003f0: d40e 4d3d 36ce 393c fc97 973d 53d1 b93d
-0.023368176 -0.030560406 -0.0696807 0.016200878 -0.063317314 -0.07451973 -0.0026630308 -0.064534456
-0.028554428 0.08029031 -0.011831636 0.03601491 -0.07916349 -0.04271453 0.06900527 0.022793485
0.047957774 -0.0030374324 -0.02409233 -0.057341583 0.007617775 0.07378637 -0.07466785 -0.054139912
-0.06154351 0.008366295 -0.04569786 0.0049543614 0.030460496 -0.056960978 -0.025308717 0.0063694213
-0.026784359 -0.08083374 0.05593454 -0.07013664 0.02981866 0.0600541 -0.07785262 0.042456634
-0.019465068 -0.042004388 0.05564529 0.032704327 0.058097698 0.039891135 -0.05881731 0.07335095
0.04806434 -0.0056569907 -0.06589017 -0.027349943 0.0048409295 -0.024002256 -0.057555415 0.07896879
0.0110758785 -0.038301047 0.07634654 0.011016737 0.0009178605 -0.046592098 0.013954299 -0.060589887
-0.018837078 -0.028898347 -0.003949456 0.03691196 0.04879061 -0.035057478 0.06555365 0.013667557
-0.07789215 0.06220058 0.07773986 0.005898217 -0.058877688 -0.023551594 -0.008872105 0.00962776
0.010983939 -0.014355006 0.04528775 -0.039227143 0.05997358 -0.04962333 0.06968801 0.008074445
-0.017852055 0.055039335 -0.016694102 0.0014703808 -0.020083763 -0.019157508 -0.04191435 0.04121525
0.07457077 -0.080251925 0.04519301 0.011379945 0.023094064 -0.076375745 -0.06452804 0.061248153
0.058727603 0.022672204 -0.06419225 -0.044884544 -0.065811686 -0.012360789 0.017998906 -0.053519804
-0.078750364 -0.036015432 -0.020582154 -0.026879251 0.07436237 -0.042796202 -0.042620115 0.066225976
0.07576979 -0.057242163 -0.025969602 0.031481367 0.06580492 0.03514736 -0.048003547 -0.024842214
-0.07746436 -0.0144543145 -0.018281631 0.082944006 0.048727803 0.06415518 0.019612273 0.05811242
0.0037535266 -0.013385306 0.03255634 0.056827363 -0.06487055 0.030726502 0.09838005 0.020706877
0.071769685 -0.037653256 -0.072026245 0.10300104 0.01685709 0.067017116 -0.025814742 0.051997647
-0.031752557 0.037363254 0.098197445 -0.049199216 0.008583597 -0.026906295 -0.033453356 -0.004970526
0.04393461 -0.046108007 0.021171141 0.0034659586 0.08586576 0.033482935 0.03784878 -0.004775491
0.03475768 -0.013327718 0.026862796 0.06450967 0.06234624 0.049879134 0.08085134 0.12598778
0.09991906 -0.034336705 0.000450063 -0.012170717 -0.015858173 0.087168865 0.06966061 0.000605614
0.002659577 -0.0735762 -0.041563716 0.018134134 0.10025313 0.062656395 -0.040980686 -0.047199767
0.089054294 -0.0011528477 -0.07829494 0.007652339 -0.08890471 0.015905263 -0.01761597 -0.05491007
-0.008191111 0.056748003 0.032475457 0.11355939 0.092887856 -0.040416494 0.019129075 -0.044593964
0.07820978 -0.03554726 -0.14334187 0.041207064 -0.08359742 0.0442026 -0.06567733 0.16995753
0.040642854 -0.06566615 0.08640368 -0.01400111 0.041657116 -0.00040662207 0.064523004 0.0050581936
0.09643256 -0.016242193 -0.04142393 0.08691612 -0.007931951 -0.04800151 0.027266186 -0.020877874
0.060272407 -0.0021036842 0.071113 0.03417012 -0.050009206 -0.01300996 -0.12453765 -0.048160575
-0.0032680004 -0.0801504 -0.046695385 0.069546856 -0.06549146 0.017102752 -0.042697866 0.07048241
0.013290872 0.1283339 0.09009769 0.055450328 0.05006297 0.011340668 0.074020356 0.090731286

layer2.bias f4 [128]
00000000: f413 4e3d 3032 4b3d 4346 0bbd 0db0 1fbd
00000010: a6c3 4fbd 951b be3d 4bab 283d 78ef 853d
00000020: b40b 803f 3a97 043e 5c2d 9c3c 3f03 0ebd
00000030: 3e44 293e be72 bebc 9454 053d 50bb a13e
00000040: 4052 533f 498e cfbc a055 1f3f c6dc 5bbc
00000050: de22 553e 9b9c b03d 7143 853c 4d6f 523d
00000060: ab94 323e 91ff 523d 3262 2a3f 3196 883d
00000070: c70c 513d 0a91 9cbd e840 4b3e 4d27 f23e
00000080: 798c 8d3e 96ca 7f3f 9c5e 463d bc2b 7c3d
00000090: 1cd2 5c3d b130 29bb 6c51 523e 3596 f9bc
000000a0: 09e7 7e3f 1f4d 783e 9add 08bd cb76 f0b9
000000b0: 924d 1fbd b6ac 2dbd 951c 2bbd 1219 e7bc
000000c0: 487e d43c 91d0 2cbd 7558 acbd 8d5b 8b3c
000000d0: fea8 86bd f725 e6bb e39d 48bd 72ee 6f3d
000000e0: cd10 113e d931 873d be99 ec3d 0a11 883d
000000f0: d31c 703d 1d49 713f 7a9d 61bd 7888 64bd
00000100: c237 813d 5c1a 513e e412 8dbd 60d6 803f
00000110: 49e3 58bc 9950 1f3d a904 c1bc 36c8 5abd
00000120: a63b 04bd 8535 c0bc f5cd 193e d51c 8d3c
00000130: ec10 e93d c9d9 2a3e 5af8 943d 2fea 7cbd
00000140: 1e29 253f ef67 3ebd d30a 703c 3a88 823d
00000150: 8ec8 d13c 821b 7d3f 02e0 25bd a660 bfbc
00000160: 580c d33c 78d6 1fbd 7300 873d be3f 343c
00000170: eff3 9dbb 5756 7ebd 29df 9abb 5d98 95bd
00000180: c3b8 1c3e 215d 823b c1d9 0e3e 3a5e bc3f
00000190: daa5 753f 88f0 7fbd 8a3e e33d 4f09 34bd
000001a0: 7fc5 613b a792 97bc d207 1a3e 4682 573f
000001b0: e279 4b3d 96d5 04bd b56f 7c3d d515 12bd
000001c0: e1f6 7bbd 534a 20bd 7130 fa3c 3556 3b3f
000001d0: 66fa 8fbd 3b7d 61bd ce4b 1f3d 0e9a 8dbd
000001e0: afc1 4c3d 0e5f ee3d a95c 693d 6f18 823e
000001f0: 83c2 853d 68f6 cfbb 6e27 27bd c0c3 c3bc
0.050311998 0.04960841 -0.034002554 -0.038986254 -0.050723694 0.092826046 0.041178983 0.06539816
1.0003572 0.12948313 0.019064598 -0.034671064 0.16529939 -0.023248073 0.032551363 0.3158822
0.8254738 -0.025336402 0.6224003 -0.013419336 0.20814082 0.0862362 0.01626751 0.051375676
0.17439525 0.05151326 0.66556084 0.06669272 0.051037576 -0.076448515 0.19848979 0.4729561
0.27646235 0.99918497 0.04843007 0.061565146 0.053911313 -0.0025816376 0.20538872 -0.030467132
0.9957128 0.2424817 -0.03341446 -0.00045864875 -0.038892336 -0.042401038 -0.041775305 -0.028210197
0.025939122 -0.042191092 -0.08415309 0.017011428 -0.065752015 -0.0070235687 -0.048978698 0.05857701
0.14166565 0.066013046 0.115527615 0.06643875 0.05862124 0.94252187 -0.055081822 -0.05579421
0.06309463 0.20420212 -0.06888369 1.0065422 -0.013237783 0.038895223 -0.023561792 -0.053413592
-0.032283448 -0.02346302 0.15019973 0.017225662 0.11380181 0.16684641 0.07273932 -0.061746772
0.64515865 -0.046485838 0.014651018 0.063736394 0.025608327 0.988701 -0.040496834 -0.023361515
0.025762722 -0.039022893 0.065918826 0.011001525 -0.004820339 -0.06209406 -0.00472631 -0.073044516
0.15304856 0.003978387 0.13950254 1.4716256 0.95956194 -0.062485248 0.11095913 -0.04395419
0.0034449992 -0.018502546 0.15042046 0.84183156 0.049676783 -0.032430254 0.06162997 -0.035665352
-0.06151474 -0.03913338 0.030540677 0.73178416 -0.070301816 -0.05505107 0.038890652 -0.06914149
0.0499894 0.11639224 0.056973133 0.25409266 0.06531241 -0.0063465126 -0.040809087 -0.023897052

layer3.weight f4 [3, 128]
00000000: 2fd3 3f3d 694d 2c3d 357f 663d 91fe 113d
00000010: 7a8a b93b 36de f03c 617a e53b 36d4 713d
00000020: 535c 813f ab9b 983d b8c5 713d 068b 753d
00000030: f595 0d3d 1add 39bd dd21 6e3d f118 be3d
00000040: 3c94 713f 62c8 673d 1839 933d 43ba 7cbd
00000050: 04e1 a73d 5441 113c 02c2 a5bc 3c46 003d
00000060: d9a4 02bc b058 b83d 67f9 903d ec7c 4dbd
00000070: 3a57 213d c07b 693d 365e 8a3a 433f 2f3d
00000080: ae6a d13d 654c 743f e16a bc3d 3fe3 6e3d
00000090: ab1d f3bc 3a9f 6a3d bf98 b43d 0e66 4dbd
000000a0: 7eb0 6a3f 3be1 2b3c 6f43 023c badd d43c
000000b0: 143e 8dbb a8ae 7bbd a03b a23b 4752 48bc
000000c0: a670 44bc fd4f a33d 214f 9dbd fac6 a63d
000000d0: 8edb a9bc 2439 9bbd 9435 1ebd f679 55bd
000000e0: d3fb 893d a5bb a0bd 8556 aa3d bbfc 453d
000000f0: e3c8 5dbd 90ad 7f3f 95f7 943d 7bab 1a3c
00000100: 86f6 d0bc bd83 733d 6c20 003d 8da8 803f
00000110: bd4e a6bb 1316 4d3c bdb0 abbc 234f 8d3d
00000120: 36d5 833c 220a e73a 59e3 643d aec1 8f3c
00000130: 40f4 a23d 02be 2dbc 62c8 083d 8d34 a83c
00000140: 359a 983e e9d5 83bd 9cf8 0ebd 45ae 97bd
00000150: 5bff 093d b74a 543f 5f49 7c3d ba68 04bd
00000160: 0f69 a5bd 5748 8d3b 8e25 8f3d a324 c2ba
00000170: bf2a 88bd c2db eabc 2b10 663d 2759 9fbd
00000180: ddb4 ce3d 2d89 983d 39bd 20bd b004 5a3f
00000190: 6479 703f 7ac6 ff3c 6df2 e53d c7b4 b53c
000001a0: f0f3 4bbc 0080 89bd d5be 443d 1ff3 783f
000001b0: b80c e9bc 05e5 c3bc 4774 f7bc a83a 953d
000001c0: f177 9abd db01 60bd 727c 30bc e811 9e3d
000001d0: e483 05bd c38c 1abd ddbb 923d e8c1 433d
000001e0: 2248 813d 1457 813d 180c 97bc 6e33 143e
000001f0: b2ed 6d3d aa60 2abd 7ec0 8ebb 99c9 9bbd
00000200: 26c5 cc3c 5736 0e3d 4280 033d 70f7 2c3d
00000210: 56f8 a03d bd67 733d 8580 993d 86f4 9a3b
00000220: b133 803f 4409 fe3d 72a7 aa3c f225 4bbd
00000230: f71f fa3c efa0 0abc e1ba a23b 9793 cf3d
00000240: 06ad 5e3f dc45 6abd 5494 f03d ca71 36bd
00000250: eda0 5f3d 32a7 993d e32d 93bd d67b 72bc
00000260: 6a3c 963d d74e cd3c e460 cc3d 48fb 41bd
00000270: 57aa dd3c 0eaf 87bc 4174 073d 9e53 003e
00000280: b536 d13d 7b90 883f ab09 df3c 2246 65bd
00000290: 0132 fd3b 6440 0d3d 0090 823d 7169 423d
000002a0: 29f1 803f 743c 653d 9b7f 87bc 33c9 5d3d
000002b0: 7935 a83c eb8c 373d 2832 dd3d da5f d8bb
000002c0: 7aec 6a3d 1f89 173c bb5f b5bc d6bc a03d
000002d0: 565f b1bc 01dd 203d fc3e ccbd 0976 1dbd
000002e0: 6a40 433c 3a5d ea3b 1497 30bd c5d3 41bd
000002f0: 08df 18bd 369d 7f3f b70c 88bd e575 16bd
00000300: d5b9 7a3d 5f03 aa3d c2e4 6fbd 5db7 783f
00000310: b286 30ba 1dde 543d bf92 ff3c fb33 dc3c
00000320: 220b 35bd 7541 e13c 7c1f 673d 7c22 a53d
00000330: 8d3f 27bd d2a6 193d 7747 0b3c b4fc 1c3c
00000340: 9cd5 9b3e accd 8abd d2fd f63a 5f38 a5bd
00000350: 3e72 cb3d 4c5d 593f 9302 823d 7d9f a53d
00000360: adc5 79bd 5756 b9bc 810e 243b 753e c53d
00000370: b3b0 72bd d4c5 07bd 2465 553c 2145 81bc
00000380: 6f64 c13d 734d 933d 9c68 aa3d 9eb8 453f
00000390: 711e 873f af1b 23bd 0f2e ab3d 5e3c af3c
000003a0: fd9a 98bd 82b0 d6bd 9505 90bb 19aa 583f
000003b0: 55da 04bd b794 b53d 0294 963d ff30 a23d
000003c0: 2777 c3bc 3b9f 123d 0f65 87bc 24ff 593d
000003d0: f71c 8e3d 10fa a03d c428 2d3d 13df 7ebc
000003e0: cbf0 443c e314 8a3d a56a 9b3d 82c8 bd3d
000003f0: 39f1 9c3c 89b1 973d a6ec a73d 0e14 3ebd
0.04683226 0.04206601 0.056273658 0.035643164 0.0056622596 0.029402833 0.007003114 0.05904027
1.01063 0.07451566 0.05902645 0.059947036 0.03456684 -0.045376875 0.058137763 0.09282101
0.9436681 0.056587584 0.07188624 -0.06170107 0.08197215 0.008865673 -0.020234112 0.03131698
-0.007973873 0.09001291 0.0707882 -0.050167963 0.039389826 0.057002783 0.0010556642 0.04278494
0.10225426 0.9542907 0.09200073 0.058322188 -0.029677233 0.057280757 0.088181965 -0.050146155
0.91675556 0.010490711 0.007950648 0.025984634 -0.004310379 -0.061445862 0.0049509555 -0.012226648
-0.011989748 0.07974241 -0.07681108 0.081434205 -0.020734575 -0.07579258 -0.038625315 -0.052118264
0.06737485 -0.0784829 0.083172835 0.048336726 -0.05414666 0.9987421 0.07273785 0.009440298
-0.025508177 0.059451807 0.03128092 1.0051438 -0.0050753043 0.01251747 -0.020958299 0.0689986
0.016092878 0.0017626921 0.055880878 0.017548408 0.07956743 -0.010604383 0.033394225 0.02053287
0.2980515 -0.064372845 -0.03490506 -0.07406286 0.03369079 0.82926506 0.06159341 -0.032326438
-0.08076679 0.004311602 0.06989585 -0.0014811944 -0.06648778 -0.028669242 0.056167763 -0.07780676
0.10093091 0.07448039 -0.039242957 0.851634 0.9393523 0.03122257 0.1122788 0.022180928
-0.012448296 -0.06713867 0.048033554 0.97245973 -0.028448448 -0.023912916 -0.030206813 0.072865784
-0.07542408 -0.05468927 -0.010771858 0.07718259 -0.032596484 -0.037731897 0.07164738 0.047792345
0.06312586 0.06315437 -0.018438384 0.14472744 0.058088012 -0.041596092 -0.004356443 -0.07606811
0.024996351 0.03471979 0.032104738 0.042228162 0.07859866 0.059425104 0.07495216 0.0047288565
1.0015775 0.12404111 0.020831797 -0.049596734 0.03053282 -0.008461221 0.0049661254 0.101355724
0.8698276 -0.05719553 0.11747041 -0.04454211 0.05459683 0.07502593 -0.071864866 -0.014800033
0.07335742 0.025062008 0.09979418 -0.04735878 0.027058763 -0.016562965 0.033069853 0.12531897
0.10215513 1.0669092 0.02722629 -0.055975087 0.007726908 0.034485236 0.06375122 0.047463838
1.0073596 0.055965856 -0.01654034 0.054146957 0.02053331 0.044812124 0.10800582 -0.0066032233
0.057354428 0.009249001 -0.022140374 0.078485176 -0.021651905 0.039273266 -0.09972951 -0.038442645
0.011917213 0.0071522268 -0.04311283 -0.0473211 -0.037322074 0.9984926 -0.0664305 -0.036733527
0.06121238 0.08301424 -0.05856777 0.9715479 -0.00067339384 0.051969636 0.031197904 0.026880255
-0.04420007 0.027497033 0.05642651 0.08063218 -0.04083209 0.037512608 0.008500925 0.0095817335
0.3043641 -0.0677751 0.0018843955 -0.080673926 0.09933899 0.84907985 0.06348147 0.080870606
-0.060979534 -0.022624178 0.002503306 0.09631053 -0.059250545 -0.033147648 0.013024602 -0.015780034
0.09442984 0.07192507 0.08320734 0.7723483 1.0556165 -0.039821323 0.08358394 0.02139109
-0.07451437 -0.10482885 -0.0043951967 0.8463455 -0.03243478 0.08866256 0.07352449 0.079195015
-0.023860527 0.035796385 -0.01652768 0.053221837 0.06939118 0.07860196 0.042275205 -0.015556115
0.0120203 0.06742265 0.075887 0.092667595 0.019157993 0.07406909 0.08199434 -0.046405844

layer3.bias f4 [3]
00000000: 0895 48bb be49 093c b0fb 5a3e
-0.0030606408 0.008379398 0.21385074
