models/rl_models/07.03.24_with_rewards_for_each_3_seconds/best_target_dqn_model_epoch_39.pt (torch, 74158 bytes, 6 tensors)

layer1.weight f4 [128, 6]
00000000: 9a01 41be 339c 36be cb33 61be f4d7 083d
00000010: 2ef3 26be fa11 213e c9bc 7c3c 0736 013e
00000020: 2648 323e 2b4e 01ba 8730 983e f3f7 8e3e
00000030: bbdd adbe 7b34 fd3d 3d53 9fbe 71d9 ab3e
00000040: 00a8 803e 6163 9abe 22c1 173d e6a5 5a3e
00000050: 2926 a73d 0712 a4be a55a b63e 1c3b 49be
00000060: 9b12 423d 85b5 a23e f6db 2b3e 2c13 953c
00000070: 3e87 b3bd b65c 743e 5ada f03c 513a c13e
00000080: be0a fe3d 4b3c 71be 946e 45be 8d17 a5be
00000090: 3ba0 373e 2a5a 67be a8d6 aabe 19a7 06be
000000a0: f498 b03e 0334 453e 7a3d ef3c be37 b6be
000000b0: d573 02be f751 9cbd 8cb0 c7bd 628a 4e3e
000000c0: be15 90bd c3b7 a6bd dd7e a53e 6fae 86be
000000d0: d1e5 3ebe 126c ea3c 2cb5 3d3e 82ba aebe
000000e0: 9b33 423e c223 c33d 0d3d 8cbe d84b 643e
000000f0: 7223 c23e 647a aabe 7a84 7e3e 27bb 833e
00000100: d5c8 3cbe 500f a2bd 1677 203e 5534 fdbd
00000110: cd50 d9bc 9f72 0dbe 97fa 5ebd 6571 91be
00000120: 496c bcbe c543 22be a31a c5bd b061 dc3d
00000130: 13b0 da3d 4cf6 083e 3598 9e3e 0e9a ffbd
00000140: 17a0 9dbd d9ff a33e dbba a73e 0ca0 453d
00000150: bbf1 5a3e e3c7 e53d 66f7 3cbe 591f 8abe
00000160: fcb5 703c 6323 4a3e 4d31 14be ef79 a53e
00000170: 986d bfbd 3e68 3bbe a344 08bd bc65 b8be
00000180: 5949 b63d 4a1c de3d 8ecb 12be 6748 903e
00000190: fcfd aa3e c84d 54be c1d8 40be 50f4 d13d
000001a0: da9b a53e c51f 9cbe 424d f43d 3362 24be
000001b0: 57f7 323e 6b2b b4be a1ec 68bc cea0 d43d
000001c0: 63d9 77bd b7e2 78bc 0c86 83bc f925 a23d
000001d0: 9aee 77be ebbd a83e c60e 9bbe 0ca5 34be
000001e0: b241 223e 167a b93e a533 61be 06d1 a6be
000001f0: 7a5c 6ebe 78ca 84be 9453 7dbe 478b 973e
00000200: c3cc b33e 93fd bbbd 8d85 9fbe 5b7f b0bd
00000210: 3d2b a7be e632 2fbe 1ff2 37be d102 99be
00000220: 4f8e 943e 096b 2a3e 97e9 b7be a868 03be
00000230: a56e 9a3e 7b96 43be 3d6d 29be 440e 083e
00000240: d8cf 593e 5f4a ccbc b1c1 8ebe 3c9a 1d3e
00000250: 744d 9f3e 4b04 a4be 417c bc3e 0b12 313d
00000260: 7099 38bd c9e1 fb3d 448c 523d 0355 033e
00000270: ac71 c43d 3060 ab3e ea68 a9be a6a5 f3bc
00000280: fdf2 44bc e040 b3bc a777 babb 43f1 b8be
00000290: 4f2d 913e 2fc0 11be e5d1 7d3e 038d bbbe
000002a0: ce53 903e 6424 8cbe 1ac6 82bd e069 a13e
000002b0: ead8 803e 6d5f a13d 77c7 4a3e 2095 a4be
000002c0: 6c2d 62be 93c5 a0be 5e63 62bd c181 933b
000002d0: 3485 56be 805e bd3e a75d c43c d97b a7be
000002e0: fc5d 23be 5252 ad3e a7b8 8cbe 3f72 b73e
000002f0: 92d3 b3be a429 0a3e b940 01be ffde 9d3e
00000300: 0670 ae3c 0108 91be 2f47 9c3e 6fb0 b63c
00000310: ea07 aabe a2e8 b13e 48af 4bbe a82f 4e3d
00000320: aedd 4e3e 4806 5cbe 632a f23d f800 58bc
00000330: 9bb4 43be d0f6 abbe 41f2 813e 56f2 4d3e
00000340: 623b 36be 0bcb b23c 3f39 90be 50ac 8fbe
00000350: 9fab 26be 3c69 783d af55 87bc 4b7b dcbd
00000360: db56 dfbd d342 46be 02a4 b93d 1a20 ad3e
00000370: 3644 1a3e aa1a 843e 9fd0 eb3d 010e 8e3e
00000380: 6438 2c3e 046d 6abd 51eb 0d3e d1dc 0fbd
00000390: c19a a43e d87e 923e 58b2 85be 70fd 42be
000003a0: 4ceb f13c 3d7a 473d bfac 9cbe eac3 ea3a
000003b0: 98aa 8abe db02 b2bc bcb5 8d3e 0f24 993e
000003c0: b6af cebd c64e abbe 4509 8fbe 1358 723e
000003d0: 8f22 b2be ff7f a93e f2ea 943e f1be 7c3d
000003e0: 907d 8fbe 945a c4bd 71e8 943e 0014 7d3e
000003f0: e29d babe bc28 883e 1d7a 8b3e da28 a83e
-0.18848267 -0.17833023 -0.21992414 0.033409074 -0.16303703 0.15729514 0.015425869 0.12618266
0.17410335 -0.00049326074 0.29724523 0.27923545 -0.3395823 0.123635255 -0.31118193 0.33564332
0.25128174 -0.30153945 0.03704942 0.21352348 0.08161575 -0.32045004 0.3561603 -0.19651455
0.047381025 0.31779113 0.16783127 0.018197618 -0.0876603 0.23863491 0.029400993 0.37739804
0.12404393 -0.23558156 -0.19280463 -0.3224453 0.17932217 -0.22592989 -0.33366895 -0.1314968
0.34491694 0.19258122 0.029204119 -0.35589403 -0.12739499 -0.07632821 -0.097504705 0.20169976
-0.07035397 -0.081405185 0.32323352 -0.26304957 -0.18642356 0.028615985 0.18526143 -0.3412667
0.18964998 0.09528305 -0.27390328 0.22294557 0.37917668 -0.33296502 0.24855223 0.25728723
-0.18435986 -0.07913077 0.15670428 -0.12363497 -0.026527787 -0.13813256 -0.0544382 -0.28406826
-0.36801365 -0.15846165 -0.09624221 0.1076082 0.10678115 0.13375205 0.309755 -0.124805555
-0.0769655 0.32031134 0.32759747 0.048248336 0.21381275 0.11219766 -0.1845375 -0.2697704
0.014691826 0.19740061 -0.14471932 0.3231959 -0.09347075 -0.18301484 -0.033268582 -0.36015117
0.08900709 0.108452395 -0.14335462 0.2818024 0.333969 -0.20732796 -0.18832685 0.10251677
0.32345468 -0.30492988 0.11928798 -0.16053085 0.17477165 -0.35189375 -0.014216573 0.103822336
-0.06051005 -0.015190772 -0.01605513 0.07917399 -0.24212113 0.32957396 -0.3028471 -0.17641085
0.15845373 0.36225957 -0.21992357 -0.32581347 -0.23277465 -0.2593572 -0.24738914 0.29598448
0.35117158 -0.09179225 -0.3115658 -0.08618041 -0.32650176 -0.1710926 -0.17963456 -0.2988496
0.29014823 0.16642393 -0.35920402 -0.12832892 0.3016254 -0.19100372 -0.16545577 0.13286692
0.21270692 -0.024937807 -0.2788215 0.15390867 0.3111378 -0.32034525 0.36813548 0.043230098
-0.045068204 0.122989245 0.0514033 0.12825398 0.09591994 0.33471823 -0.33087856 -0.029742073
-0.012020824 -0.02188152 -0.005690533 -0.36121568 0.2835488 -0.14233468 0.247871 -0.3663102
0.28188938 -0.27371514 -0.06385441 0.3152609 0.25165492 0.07879529 0.19802652 -0.32145023
-0.2208764 -0.31400737 -0.055270545 0.004501552 -0.2094925 0.3698616 0.023970438 -0.32711676
-0.15953821 0.33851868 -0.2748463 0.3582935 -0.35122353 0.13492447 -0.12622346 0.30834195
0.021293651 -0.2832642 0.3052306 0.022300927 -0.33209163 0.34747797 -0.19891083 0.050338417
0.20201752 -0.21486771 0.11824491 -0.013183825 -0.19111864 -0.3358674 0.25380138 0.20111975
-0.1779609 0.021825334 -0.28168675 -0.28061152 -0.16276406 0.060647234 -0.01652035 -0.10765704
-0.10905238 -0.19361429 0.09064485 0.33813554 0.15065083 0.25801593 0.11514401 0.2774506
0.16818386 -0.05723287 0.13859297 -0.035122696 0.32149318 0.286124 -0.26112628 -0.19041991
0.029531144 0.04870056 -0.30600545 0.001791117 -0.27083278 -0.021729877 0.27677715 0.29910323
-0.10092108 -0.33458537 -0.2793676 0.2366641 -0.3479199 0.33105466 0.290855 0.061705533
-0.28025484 -0.09587589 0.2908359 0.2471466 -0.3644858 0.26593578 0.27241603 0.32843667

layer1.bias f4 [128]
00000000: e022 80be 11ba 2b3f 5148 6d3f f7ac 45bd
00000010: d0ba b0be a681 36be 7f4c b0bc 5f9f b2be
00000020: 0ca9 c93f a4bb ccbd d097 863f e3a0 ea3f
00000030: 25f1 db3f 11ff aab8 2d04 bf3e d94c 58be
00000040: 3c09 433f 283e 7cbe d9be ddbd bc93 5a3b
00000050: 24b6 8abd 3a5f bb3f 8357 35be bf96 32bd
00000060: 90b8 9fbe 0b36 753f 3b1b 8e3f 5f7c 31be
00000070: 03c0 093f be8f c1b9 bf6e c43f 99a0 1bb8
00000080: e7b0 e3bc 1589 de3f df65 c53f f0fe dbbd
00000090: d2d4 0abd 9864 0b3e c8d6 9a38 2e42 d33f
000000a0: df19 df3f 3abb 34be b98e 803f 5b8e 9cbe
000000b0: c731 09be 3c7c 66be f31c 9539 435f 9fbe
000000c0: f1d7 cbbd 5a6f 6cbe 853d 2fbe 5e98 bb3f
000000d0: cd41 b9be 13f5 83bd 888d d53f d24c 24b9
000000e0: 1822 97be 17e3 cf3f 1bd2 7fbe 91d4 1dbd
000000f0: 0a29 93be 764d ba3f 8033 d73f 704f a43f
00000100: e3ec de3e 57b5 c83f d7ed de3f 9e9f 8fbe
00000110: 19cb dc3f 26ad 03bd 3e9e a9be 9843 d83f
00000120: 54f6 f5bd cc1f 00bd 47a4 8cbe 0863 8fbe
00000130: 9768 82bd c7ad df3f ed66 3cbe 7143 4abc
00000140: c1c9 04be d86e 38bc 8fc7 31be 66d1 e93f
00000150: df82 e73f d463 8a3f e2d0 dc3f e9c5 98be
00000160: 6b48 96bd b270 c43f ced1 a6be 05a5 5f3b
00000170: 8ee6 4bbe e276 e53f 8612 2cbc 7a5c f0bd
00000180: 2786 9fbc e28e f1bc ae16 8ab9 e148 8e3f
00000190: cc75 e93f 48ab 62bd cf7d 1dbe 44de 42be
000001a0: 9b85 a1bd a48b fbbc 0dd9 b23f 6d55 253f
000001b0: 748c d63f b518 f9bc 0ad6 c13c e8e1 4a3e
000001c0: 511b 7cbd 08e1 1bbd f753 e33f da58 48be
000001d0: 42d6 e43f 8488 e73f c114 0cbe 584f be3f
000001e0: 7493 513f 7d67 9a3f a16b 5c3f 183a a6bd
000001f0: 98aa 83be c718 e73f e8bd 93bd e56d 803b
-0.25026608 0.6708079 0.9268847 -0.048260655 -0.34517527 -0.17822894 -0.021520851 -0.34887215
1.5754714 -0.09996727 1.051508 1.8330349 1.7182966 -8.1537415e-05 0.37307873 -0.21123065
0.76185966 -0.24633086 -0.10827417 0.0033352217 -0.06773022 1.4638436 -0.17709164 -0.043600794
-0.31195498 0.9578559 1.110206 -0.173326 0.5380861 -0.00036918925 1.5346297 -3.7104448e-05
-0.027794315 1.7385584 1.5421714 -0.10741985 -0.033894368 0.13612592 7.383298e-05 1.6504571
1.742977 -0.17649546 1.0043555 -0.3057736 -0.13397895 -0.22508329 0.00028441063 -0.31127366
-0.09953297 -0.23089352 -0.17113312 1.4655874 -0.36183015 -0.064432286 1.6683817 -0.00015668877
-0.295182 1.6241177 -0.24982493 -0.038532797 -0.28742248 1.4554889 1.6812592 1.2836742
0.43540105 1.568034 1.7416333 -0.28051466 1.724948 -0.03214755 -0.33128542 1.6895628
-0.12009874 -0.031280324 -0.27469084 -0.28005242 -0.06367605 1.7474908 -0.18398638 -0.012345181
-0.12967588 -0.011256896 -0.17361282 1.8267028 1.8086814 1.0811715 1.7251246 -0.29838493
-0.073380314 1.5346892 -0.32581943 0.003412546 -0.19912168 1.7926905 -0.010502463 -0.117363885
-0.019473149 -0.029487077 -0.0002633831 1.1115991 1.8239074 -0.055339128 -0.15380023 -0.190301
-0.07886811 -0.030706234 1.3972489 0.64583474 1.6761613 -0.030407289 0.023661632 0.19812739
-0.06154949 -0.038056403 1.7759999 -0.19565144 1.7877886 1.8088536 -0.13679792 1.4867964
0.8186562 1.2062832 0.8610173 -0.08116549 -0.2571609 1.8054436 -0.07213956 0.0039193504

layer2.weight f4 [128, 128]
00000000: fed9 bdbc 834b f8bc a19c 8dbd 949f 833c
00000010: 6294 80bd 8d66 97bd 1c13 2dbb 8412 83bd
00000020: fc0f e8bc df18 a33d da44 40bc 1f4d 123d
00000030: 18ca a0bd ee7f 2dbd 833a 8c3d e743 b93c
00000040: bfda 423d 097b 45bb a7c8 c3bc c6f4 68bd
00000050: 429b f73b 0fe6 953d 35b4 97bd f0ee 5bbd
00000060: eb03 7abd a9fa 073c 2eb8 39bd d201 a13b
00000070: 5386 f73c 037d 67bd 7aa0 cdbc d402 cf3b
00000080: f2a4 d9bc c935 a4bd be48 633d ce7c 8ebd
00000090: 4354 f23c 4a09 743d 531b 9ebd 2381 2c3d
000000a0: 161f 9ebc 6bb6 2abd 7119 623d d9dc 043d
000000b0: da05 6c3d 830e 223d 6af8 6ebd c601 953d
000000c0: 7d4a 433d c7e8 b7bb 4dd9 85bd 1c3a debc
000000d0: 945d 9d3b c10b c3bc 3acd 69bd 0464 a03d
000000e0: 1a02 343c 4faa 1bbd 5324 9b3d 0b0a 333c
000000f0: 92aa 6e3a bb42 3dbd b2cd 623c 1a3b 76bd
00000100: f718 99bc 3aca eabc 5052 80bb bff9 153d
00000110: 0a44 463d 9a72 0ebd de28 853d 041b 5e3c
00000120: 8b2f 9ebd e9b4 7c3d 67e5 9d3d 33b1 bf3b
00000130: ba37 6fbd a45a bfbc 0e25 10bc 8186 1c3c
00000140: 7b80 323c e241 69bc 260a 383d 4256 1fbd
00000150: dbb4 733d 18ad 49bd 76a0 8d3d 8d32 033c
00000160: 3907 91bc 0c9e 5f3d f2a9 87bc 2925 bf3a
00000170: 5430 a3bc f5b8 9bbc 0258 2abd f27a 273d
00000180: 4f81 973d bf04 a3bd cea6 373d 73fd 383c
00000190: 8ba7 bb3c a333 9bbd 270f 83bd 38ce 783d
000001a0: 5a9a 6e3d 8f45 b83c 1a5f 82bd 5b63 36bd
000001b0: 27b0 85bd 48f0 48bc 313b 923c 1475 59bd
000001c0: 7df1 9fbd ab4d 12bd 8845 a7bc 205f dabc
000001d0: 0c14 973d 92d5 2dbd 521e 2dbd 5c89 863d
000001e0: f1f5 993d 0a93 68bd 740a d3bc 1fb9 ff3c
000001f0: 9bac 853d 5dc7 0e3d be0a 43bd 5fe9 c9bc
00000200: 1362 9dbd 8b96 60bc 5360 90bc 3ff1 aa3d
00000210: 270d 483d 06a4 823d 5ea6 a13c 4a15 6c3d
00000220: ba0b 743b 0a8a 59bc 0d20 f73c 7e5a 5f3d
00000230: bac2 83bd 81d5 fa3c be7b c93d fd69 a93c
00000240: d464 923d 0d03 19bd 3f4b 92bd 535e cd3d
00000250: 3f21 8a3c 9f3f 883d b0c5 d1bc bc47 533d
00000260: ef2f 00bd a33d 183d e16d c83d 7ef0 47bd
00000270: 01e9 0a3c b797 dabc 5659 07bd 176c 6ebb
00000280: 477f 323d fe59 3bbd 3a13 ac3c 4352 613b
00000290: 5b4b ae3d 9e3f 0a3d f463 1b3d 7944 9bbb
000002a0: f245 0d3d ce7a 52bc 9612 e03c 8505 833d
000002b0: 6ef9 7d3d f5a6 4a3d d08a a43d 2a12 003e
000002c0: 6fe8 cb3d 6adc 09bd 6751 7f3d 78f6 b0ba
000002d0: b62d 80bc 519c b03d 1992 8d3d 60c7 933a
000002e0: f2fa 393b de77 95bd fcbc 26bd c956 933c
000002f0: 3fe5 cb3d 2ca2 7e3d fd84 26bd 3d85 3fbd
00000300: b9cd b53d b9a3 6b39 b702 9fbd 2072 013c
00000310: 2c9e b4bd a133 813c be5d 95bc 8216 5fbd
00000320: 6ea4 f2bb ea7f 673d 1c1c 043d 88b5 e53d
00000330: 814b bd3d 6435 24bd 1663 9a3c 6db1 32bd
00000340: e103 a03d 72ff 10bd 2da3 14be af0f 263d
00000350: c0de a9bd 34ed 353d b669 85bd 95f2 4a3e
00000360: bf22 253d d963 85bd 80ed ae3d f6cb 76bc
00000370: 474a 293d 247c d3b9 e096 833d d468 a43b
00000380: 3bed c03d d922 83bc c455 28bd 7990 ac3d
00000390: e4dc 00bc 9b08 43bd 768a dd3c 17cf a6bc
000003a0: 33ee 743d d7c5 08bb d7ba 953d 80ee 073d
000003b0: 9d25 4bbd fa73 53bc fe8e fcbd 776a 41bd
000003c0: fd4b a5ba 2663 a2bd 09af 3dbd 7556 8d3d
000003d0: 4308 85bd f202 8b3c 8a6a 30bd d421 8f3d
000003e0: 0d9d 343c d76f 023e 0d19 b93d 024d 613d
000003f0: 276f 4c3d b658 383c d7e9 963d 2430 b93d
-0.023175236 -0.030309444 -0.0691464 0.016067304 -0.06278302 -0.07392607 -0.0026409095 -0.06400016
-0.028327934 0.07963728 -0.0117351655 0.03571808 -0.07851046 -0.04235833 0.06847098 0.022615386
0.047571894 -0.003013315 -0.02389939 -0.05687406 0.00755635 0.07319271 -0.07407419 -0.053694665
-0.061038893 0.008299508 -0.045341663 0.004913547 0.030215418 -0.056515705 -0.025100935 0.006317476
-0.02656791 -0.08018071 0.055489294 -0.06957398 0.029581195 0.05957917 -0.077200554 0.042115342
-0.019301932 -0.041677874 0.055200044 0.03243718 0.057622768 0.03956462 -0.058342375 0.07275729
0.04767846 -0.005612466 -0.065355875 -0.027127318 0.004802415 -0.023809316 -0.057080485 0.078315765
0.010986829 -0.038004216 0.07575288 0.010927687 0.00091043964 -0.046206217 0.013842987 -0.060114957
-0.018688662 -0.028660882 -0.0039160624 0.03661513 0.04840473 -0.03477726 0.065019354 0.013556246
-0.07723912 0.061695967 0.07709771 0.005849981 -0.058402754 -0.02335865 -0.008797897 0.009553553
0.01089489 -0.014236899 0.044931553 -0.03890062 0.05949865 -0.04923734 0.06915371 0.008007658
-0.01770364 0.054594085 -0.016560528 0.0014583218 -0.019920506 -0.019009093 -0.041587837 0.040888734
0.073977105 -0.079598896 0.04483681 0.011290896 0.02290704 -0.07578208 -0.063993745 0.06074354
0.05825267 0.022494106 -0.063657954 -0.044528347 -0.06527739 -0.012264319 0.01785049 -0.05309017
-0.07809732 -0.0357186 -0.020418897 -0.026656687 0.073768705 -0.042440005 -0.042265244 0.06569168
0.07517613 -0.056780852 -0.02576182 0.031216202 0.065270625 0.034858096 -0.047617666 -0.024647413
-0.07684722 -0.013707767 -0.017624056 0.08346795 0.048840668 0.06378941 0.01973265 0.05763749
0.0037238435 -0.01327754 0.03016665 0.05452966 -0.064336255 0.030619385 0.09838055 0.020680422
0.07148138 -0.037356425 -0.07143258 0.100277565 0.016861556 0.0665276 -0.02560696 0.051582083
-0.031295713 0.037168156 0.09786583 -0.048813336 0.008478404 -0.026683671 -0.03304418 -0.0036380345
0.043578412 -0.04574012 0.021005262 0.0034381307 0.08510467 0.033752076 0.03793712 -0.004738387
0.034490533 -0.012846662 0.027352612 0.06397537 0.062005453 0.04947563 0.08034289 0.12506929
0.099564426 -0.03365747 0.06233349 -0.0013501188 -0.015646797 0.08623565 0.069126315 0.0011274628
0.0028378335 -0.072982535 -0.040707573 0.017985718 0.099558346 0.062166378 -0.04065417 -0.046757925
0.08877129 0.00022472338 -0.0776419 0.007900745 -0.088192314 0.015771689 -0.018233176 -0.054464824
-0.0074048555 0.056518473 0.03225337 0.11216265 0.09242917 -0.04008998 0.018846076 -0.043626238
0.0781324 -0.03539986 -0.14515372 0.0405423 -0.08294439 0.044415668 -0.065143034 0.198191
0.04031634 -0.06513185 0.08541393 -0.0150632765 0.041330602 -0.00040337548 0.064252615 0.0050173793
0.09420248 -0.016007828 -0.041097417 0.084259935 -0.007865164 -0.04761563 0.027043562 -0.02036242
0.059797477 -0.0020869875 0.073110275 0.033186436 -0.049596418 -0.012906069 -0.12331961 -0.047220673
-0.0012611147 -0.07929067 -0.046309505 0.06901256 -0.064957164 0.016969178 -0.043070354 0.06988874
0.011023772 0.12737976 0.09037981 0.05500508 0.04991069 0.011251619 0.0736882 0.09042385

layer2.bias f4 [128]
00000000: 3460 4c3d 6ecd 5b3d 9ea5 eebc ad59 1ebd
00000010: e60f 4ebd 4f97 c83d d9ee 3f3d 2460 8a3d
00000020: d23e 813f c4a7 093e cbee bc3c 1a91 12bd
00000030: e49c 283e 1ede bcbc a1d1 0f3d 0b3d a33e
00000040: 98ba 563f 41ee f0bc d262 203f 9408 6bbc
00000050: bdca 583e 4577 b93d 512b 843c 65b2 503d
00000060: 422a 373e 76d7 613d 289a 2b3f 117e 873d
00000070: 3d78 5f3d d67e 9fbd 4154 4f3e 633e f33e
00000080: e53e 8f3e 7666 813f ed27 553d c61c 6a3d
00000090: 3cff 5a3d 51da 27bb fa11 563e 6b93 f7bc
000000a0: 3ded 803f c734 7c3e 7ac5 07bd ca84 eeb9
000000b0: c5fa 1dbd 54ba 1dbd f5e9 20bd 3246 e5bc
000000c0: 88ca d23c 317a 2bbd 1502 abbd 9d62 8a3c
000000d0: de90 85bd 1753 e4bb 4409 47bd 72fc 6d3d
000000e0: 6627 133e b919 863d c21a ea3d d86a 803d
000000f0: d22a 6e3d 25d0 733f 98ca 5fbd ada2 70bd
00000100: a21f 803d 7267 553e c4fa 8bbd ee24 823f
00000110: 28ff 3abc 840b 2e3d 0770 bfbc 200d 59bd
00000120: 8623 03bd 1729 a4bc 4257 1e3e b504 8c3c
00000130: 68a7 e43d d063 2e3e 685b 9a3d 0fd9 7abd
00000140: cb1f 273f 4fd3 3cbd d218 6e3c 1a70 813d
00000150: b9f7 cc3c 8bcf 803f 9e7c 0dbd cc8e 8dbc
00000160: 9858 d13c 1880 1ebd 748b 853d 1090 873c
00000170: afbc 9cbb 3845 7cbd 1e93 9bbb 1d61 94bd
00000180: da0c 213e 0145 813b ccc9 133e 8ed2 bd3f
00000190: a38d 763f 5cdf 7dbd 788a ea3d cf93 32bd
000001a0: 9ef2 5f3b 675b 96bc debc 1a3e f22f 5b3f
000001b0: efe1 493d 2858 d6bc 167c 853d 8af3 f8bc
000001c0: c1e5 79bd f1f3 1ebd da4f f73c d67d 3c3f
000001d0: beca 8ebd 5aaa 5fbd a993 2e3d b2e5 8cbd
000001e0: c6c6 583d febb f73d 0c19 803d 1da0 833e
000001f0: 63aa 843d bbe5 fdb9 9ebb 0ebd 202f c2bc
0.049896434 0.05366271 -0.029131707 -0.03865974 -0.05030813 0.09794485 0.046858642 0.067566186
1.0097296 0.13442904 0.023063084 -0.03578291 0.16466099 -0.023055132 0.035112027 0.3188251
0.8387847 -0.029410483 0.6265079 -0.014345307 0.21171089 0.09055952 0.016133936 0.05095138
0.17887214 0.05513712 0.670321 0.06615842 0.054558028 -0.07787864 0.20246984 0.47508535
0.27977672 1.0109394 0.05204003 0.057156347 0.053466067 -0.0025612304 0.20905295 -0.030221662
1.0072399 0.24629508 -0.033147313 -0.00045493833 -0.03856923 -0.038507774 -0.03928562 -0.027987573
0.02573134 -0.041864578 -0.083500065 0.016892726 -0.06521772 -0.006967913 -0.04859282 0.05810208
0.14370498 0.06547875 0.11430885 0.06270379 0.058146305 0.9523948 -0.054636568 -0.05874889
0.062560335 0.20840243 -0.06834939 1.016752 -0.011413373 0.04249145 -0.023368848 -0.052991033
-0.0320163 -0.020039124 0.15462974 0.017092088 0.11164743 0.17030263 0.075369656 -0.06124216
0.6528289 -0.046099957 0.014532285 0.0632021 0.025020467 1.0063337 -0.034542672 -0.017280005
0.02555494 -0.03869638 0.06520739 0.016548187 -0.004783235 -0.06158945 -0.0047477623 -0.072450854
0.15727559 0.0039449935 0.14432448 1.4829881 0.9630987 -0.06198059 0.11452192 -0.043597993
0.003417171 -0.01835413 0.1511111 0.85620034 0.049287733 -0.026165083 0.06517808 -0.030389566
-0.061010126 -0.03880686 0.030189443 0.7362951 -0.06972264 -0.05460582 0.04262129 -0.068797484
0.05292394 0.120964035 0.06254777 0.25708094 0.06477811 -0.00048427083 -0.034846894 -0.023704112

layer3.weight f4 [3, 128]
00000000: 8f3e 3e3d 5ce7 2e3d 96ac 693d 51c7 103d
00000010: fa14 b83b 2bb9 003d 07ad fd3b ea51 743d
00000020: 6127 823f 992e 983d 770d 753d 53dc 763d
00000030: 0dd9 363d 9a67 38bd 62ec 713d 5b7c bd3d
00000040: 2669 733f d234 693d eb77 943d 1a76 79bd
00000050: 4dec a83d 97f8 243c a26b a4bc 10b4 fd3c
00000060: 99f3 e3bb 037d b93d d507 923d 2cc9 4bbd
00000070: cd61 213d 06f7 673d de79 113b 2df1 373d
00000080: 4b5c d03d 5b21 763f 5d09 bd3d 6c4a 6c3d
00000090: ab2b f1bc fdb8 683d d69a b53d 4eb2 4bbd
000000a0: de84 6c3f b8ab 393c 4f2b 013c fa29 d33c
000000b0: f425 8cbb de26 78bd 0d04 bf3c a7bd 46bc
000000c0: 06dc 42bc 9df9 a13d e117 9cbd 92cc a53d
000000d0: 2e85 a8bc e401 9abd 33fc 1cbd 36c6 53bd
000000e0: 8bb6 8a3d 4365 9fbd e081 aa3d 6469 453d
000000f0: 03f6 5bbd d2a4 803f 55c0 933d 54aa 283c
00000100: c642 cfbc 137b 753d 1b2c fe3c ca73 813f
00000110: 6e39 53bb 3910 653c 5d5a aabc 0337 8c3d
00000120: 16bd 823c 86c1 443b 12cf 673d b497 8e3c
00000130: aa3b a33d 92ce 1ebc 64de 0a3d 2dde a63c
00000140: 55c5 983e c9bd 82bd 79e0 0dbd 0577 96bd
00000150: d4b2 093d 645e 563f 6261 7d3d 33cd f0bc
00000160: af12 a4bd 3730 8c3b a79a 8c3d 6ba6 74ba
00000170: 9f12 87bd baf1 e8bc d7c1 643d 4705 9ebd
00000180: 271b ce3d ed51 973d 754a 1bbd 01fa 5b3f
00000190: eb4d 723f 5bb5 fd3c c5f2 e73d 473f b43c
000001a0: 4453 4abc e067 88bd 4985 473d 0ca9 7a3f
000001b0: d839 e7bc 56c7 babc 016f f7bc 17c3 953d
000001c0: b140 99bd fa2e 5ebd f206 2fbc 3e97 9e3d
000001d0: c46b 04bd 8355 19bd 084d 933d ea82 453d
000001e0: 9dd3 813d e8a6 823d e4a5 83bc 758a 133e
000001f0: b2fb 6b3d c717 1dbd 3e56 dfba 5992 9abd
00000200: 8815 cb3c 3436 123d 8018 033d 10a1 2b3d
00000210: f4a1 9f3d 7113 733d fb42 9a3d 9e78 ad3b
00000220: c7de 803f b727 fe3d 3e8f ad3c cf0c 47bd
00000230: 199d 633d cf88 09bc f5ab bd3b 0403 d03d
00000240: ed60 603f 5ca9 66bd 4439 ef3d 5372 34bd
00000250: aa37 633d 93a2 993d a3f6 91bd 4195 6fbc
00000260: dba1 963d bc50 d13c 5458 cb3d a866 40bd
00000270: 23db d73c f907 86bc 4c9e 083d b415 003e
00000280: 9c13 d23d 903c 893f 4cf3 e43c 680e 6cbd
00000290: e220 fb3b 4428 0c3d 7244 843d d1d4 403d
000002a0: 3f9c 813f e285 673d 7b67 86bc 53f6 5b3d
000002b0: 19df a63c 93f4 313d dac3 203e 1aac d6bb
000002c0: 6901 693d df51 163c 3bea b3bc a08d 9e3d
000002d0: d6e9 afbc 9f86 1f3d f398 cabd c93e 1cbd
000002e0: af7c 473c 1d7b e83b 7b3e 2cbd 93c2 3bbd
000002f0: c8a7 17bd 307e 803f 97f4 86bd fa31 10bd
00000300: b5a8 783d eaa6 aa3d c2f2 6dbd 3f2d 7a3f
00000310: 7913 193a f844 4e3d a081 fd3c 2861 da3c
00000320: a295 33bd 6180 e53c 2c85 6a3d 1ccc a33d
00000330: e76e 20bd 7abe 193d a34a 133c 74c5 1b3c
00000340: cd4d 9e3e 8cb5 89bd d20b f53a ffe1 a3bd
00000350: 6b92 c83d d422 5b3f ed4d 833d 9d95 a03d
00000360: 1ac0 77bd d7e0 b7bc b9d4 153b c7e1 c53d
00000370: b3be 70bd b4ad 06bd 5461 4f3c 012d 80bc
00000380: 17a9 c23d 3316 923d bdba a93d d1a0 473f
00000390: cac9 873f 4fc5 21bd 92f9 aa3d dec6 ad3c
000003a0: bd63 97bd c2fc d4bd d24b 74bb 677b 5a3f
000003b0: 35c2 03bd a9fd b43d b9e6 933d c1dc a23d
000003c0: 87e2 c1bc fb67 113d 374c 86bc c24f 593d
000003d0: d704 8d3d aea3 9f3d 51ae 2f3d b0bc 75bc
000003e0: 175e 553c c282 893d 41de 983d db41 be3d
000003f0: f9b9 9b3c 5e37 973d f07b a63d 6e7f 3cbd
0.04644638 0.04270111 0.057049356 0.035346333 0.005617735 0.03142659 0.0077415737 0.05964843
1.0168267 0.07430763 0.059827294 0.06026871 0.04464059 -0.045020677 0.059063323 0.092522345
0.9508232 0.05693514 0.07249435 -0.060903646 0.08248196 0.010069034 -0.020070855 0.03096965
-0.0069565293 0.09057047 0.071304 -0.0497524 0.03939991 0.056632064 0.0022197883 0.044907738
0.101738535 0.96144646 0.092303015 0.05768816 -0.029439768 0.056817044 0.08867423 -0.04973059
0.9239024 0.011332445 0.007883861 0.025776852 -0.0042769853 -0.06058394 0.023317361 -0.012130178
-0.011893278 0.07908938 -0.07621742 0.08095659 -0.020571318 -0.07519892 -0.038326453 -0.0517027
0.067730986 -0.07782986 0.08325553 0.04819621 -0.053701412 1.0050299 0.07214419 0.010294516
-0.025300395 0.059931826 0.03102689 1.0113461 -0.0032230276 0.013980919 -0.020795042 0.0684643
0.015959304 0.0030022576 0.056593962 0.017406322 0.079703644 -0.009692805 0.033903494 0.020369614
0.29838052 -0.06383855 -0.034637902 -0.0734692 0.03361781 0.8373778 0.06186045 -0.029394722
-0.08011376 0.0042782086 0.06865435 -0.00093326595 -0.065953486 -0.028435577 0.055848923 -0.0771585
0.10063773 0.07388673 -0.037912805 0.8592835 0.94650143 0.030970266 0.113256015 0.02200283
-0.012348954 -0.066604376 0.048711095 0.97914195 -0.028225824 -0.022800129 -0.030204298 0.07312601
-0.07483042 -0.05424402 -0.010682808 0.07743691 -0.032329336 -0.037435066 0.07192427 0.048220553
0.0633919 0.06379491 -0.016070314 0.14408286 0.057613082 -0.038352754 -0.0017039252 -0.07547445
0.02479054 0.035696223 0.032005787 0.041901648 0.07794562 0.059344713 0.07532307 0.0052939197
1.0067986 0.12409919 0.021186467 -0.0485962 0.055569742 -0.008394434 0.005788321 0.10156825
0.87647897 -0.056313857 0.116808444 -0.04405434 0.055473007 0.07501712 -0.0712712 -0.014622987
0.0735509 0.025551192 0.09928957 -0.0469729 0.02634961 -0.016361224 0.03335409 0.12508279
0.102576464 1.0721607 0.027948044 -0.057630926 0.007663832 0.034218088 0.064583674 0.047077958
1.0125808 0.056524165 -0.016406765 0.05370171 0.020370053 0.043446135 0.15699711 -0.006551278
0.05688611 0.009174793 -0.021962276 0.077418566 -0.021473806 0.038946744 -0.09892454 -0.038145814
0.012175723 0.0070947544 -0.042051774 -0.045839857 -0.037025243 1.0038509 -0.065896206 -0.03520391
0.060707767 0.083326176 -0.05809284 0.9772529 0.00058393885 0.050358742 0.0309456 0.026657656
-0.043843873 0.028015317 0.05725591 0.07997915 -0.039168265 0.03753517 0.008989963 0.009507526
0.30918732 -0.067240804 0.0018695539 -0.0800209 0.09793552 0.8560002 0.064113475 0.078410365
-0.060485937 -0.02244608 0.0022862388 0.09662204 -0.058775615 -0.0328805 0.012657482 -0.01564646
0.095049076 0.071331404 0.082875706 0.7797976 1.0608456 -0.03949481 0.08348383 0.021212991
-0.073920704 -0.10399772 -0.0037276638 0.8534455 -0.032167632 0.08837444 0.07221741 0.07952262
-0.023667587 0.035499554 -0.016393764 0.05305458 0.06885689 0.07794891 0.04289085 -0.0149986
0.013022921 0.06714393 0.074642666 0.09289905 0.019009577 0.07383607 0.08129108 -0.046019964

layer3.bias f4 [3]
00000000: 1ad3 bfba d95d 6e3c dbaa 5b3e
-0.0014635057 0.014548742 0.21451895
