models/rl_models/03.03.24/best_target_dqn_model_epoch_28.pt (torch, 74158 bytes, 6 tensors)

layer1.weight f4 [128, 6]
00000000: 81f4 a9be d2e7 6d3e afe9 5cbd 1ec1 53be
00000010: 3829 5d3e 4b7b 1cbe 05eb a23e 8bbe 5f3e
00000020: 400a 5abe d6dd ca3d 5942 86bd 307c 5dbd
00000030: e719 a9bd ff02 adbe 66c5 af3d fe25 adbe
00000040: b8e0 a93e e3d3 40be 0b7b 96be b200 a9be
00000050: bcd6 8f3e 94e4 873e d2f3 0bbe 4e78 5c3e
00000060: d2fd bfbe 9287 b5bd 80b5 89bd 9bc9 ba3e
00000070: c267 6fbe f3a7 3a3e f5c1 71be f9a3 6bbd
00000080: 8ff0 0fbe 984d bd3d 2d5a 863e 15aa 74be
00000090: 5a2b a9be f2e2 053d efcb ba3e 64fd 67be
000000a0: 3050 f9bd 032a 4b3e 6370 5f3d d7ed b43e
000000b0: 40ec dabd e28f 76be 90ba 9ebe d3fb e33d
000000c0: 0158 b6bc 7128 bc3e ab50 613e 734c b7be
000000d0: d16f 07be e7e4 b53d c719 b8be 5723 1ebd
000000e0: ba4e 663e 19d9 9d3b 8ad3 b1bd c6b8 8fbe
000000f0: e95e 13bd c2db 67be 209d 55be 425d 81bd
00000100: 468a 42ba 99f8 99be fd72 893d a2a1 3e3e
00000110: 8de1 8b3e 6a1e efbd 82f5 76be 4acb 42be
00000120: 0eb4 6cbe 4804 993e f81c 9dbc e344 a23e
00000130: a848 53be dda8 53be 6501 98bd 1c0b 06be
00000140: db6d b03e 72d7 4e3c 2b63 333e d23f b93e
00000150: c3dc b8be 651a a5be 33fd 91bd ab8d 49bc
00000160: 0150 be3e ca08 60bc f4fb e03d 8a4e 08be
00000170: 3349 8dbe f62d b8bd 527c 6ebe 75a1 073e
00000180: b3dd f43d fade 693e 4ae2 59bd d818 b73e
00000190: 5df6 163e 8242 9ebe a7fb e63e fd9a 1fbd
000001a0: ae34 c73e b883 46bc 9ed0 cabe 3cdf 07be
000001b0: f81e 0cbe 4c97 223e 971b a6be 1e41 cfbd
000001c0: bdaf 853e 60ce a13e 9ba0 b53e da9a 6b3d
000001d0: 0140 523d 4ca6 b6be b82f b53d 8b68 b23d
000001e0: 4515 ac3e 6282 ae3c 7aaa 413e fb0a 86be
000001f0: 8997 c93e 518f 2abe c396 35be f491 78be
00000200: 5162 0c3e 372a cabd 2e0d 3ebe 647a 793e
00000210: def5 3fbe 37af a13c 7558 173c bfc6 a73e
00000220: 3768 8f3e 324e 80be 5b95 e0bd 2650 e7bd
00000230: 7516 96be a306 16be ef8b c73b 5f6d 89be
00000240: 86d0 99be 6c0b 893e e495 0bbe eeee 64be
00000250: 6e4c 49be e716 c83d 41ce 99be 0707 303d
00000260: cc71 84be ba99 a8bd 9385 72bd ea58 b1be
00000270: dece 8abe 8586 3cbe da9e 783e 3b32 8dbd
00000280: f3f5 383e d228 3bbe e2d9 bc3e f774 20bd
00000290: 32fc b23d 53da fe3d 51f4 d63d 16e8 93bd
000002a0: 3b94 b0be 4587 9bbe a8a6 543e 344e a83e
000002b0: 0e5f 073e 5bfb 36be 10a6 023f 58d2 0ebe
000002c0: 3d43 ce3e 1f8d d73e 9f46 15be 913c 8f3e
000002d0: 48e7 3ebe 91af 093e 7669 10be 94aa 6c3e
000002e0: 578d 943e 332d 3e3c 0f41 7cbd d9fb 3d3c
000002f0: c327 b43e 9521 a43e 7cb9 aa3e c3e0 513e
00000300: 60f3 a63e 4741 333e a0d4 81be 3104 9abd
00000310: 7184 24be 952b eb3d 77e6 7ebc 9a4d 353c
00000320: 7c4b 833e c179 953e e75a 363e 4683 0cbd
00000330: e061 0abc 45ec 773e 0f06 77be 068a 6a3e
00000340: 7dbb 903e 2766 0d3d 576a 883e 7346 30be
00000350: 5f72 983e 6c28 3a3e e618 773e 74a8 283b
00000360: 280f 8cbe 4ac2 29be 22bf aabe 1c45 5d3e
00000370: 639c bbbc 635c a63e 509f cbbd eef0 833e
00000380: 2bac a5be b154 293e 5fe9 b73e 2318 c23e
00000390: ff36 a93e f247 70bd e30c 883d 0e3e 27be
000003a0: 1b23 a83e 2a20 1dbe 2e99 803c 562c 04bd
000003b0: 3b40 373b 567d 0cbe 54cc 7fbe dacd 6a3e
000003c0: c8cf 80be 86dd 013e 3504 133e bb9d b6be
000003d0: 1232 6fba 2b02 383e 16ed ea3c 02c6 933e
000003e0: d6f9 623e 313f a2bd 51ee b13e 5a14 02be
000003f0: d83a 103e f847 f5bd d840 813c 335d d93e
-0.33194354 0.23232964 -0.053933796 -0.20679137 0.21597755 -0.15281408 0.3181993 0.2185003
-0.21292973 0.09905593 -0.065556236 -0.054073513 -0.082568936 -0.33791348 0.08582573 -0.33818048
0.3317926 -0.18830828 -0.2939075 -0.33008343 0.28093517 0.2654158 -0.13667229 0.21530268
-0.37498337 -0.088637486 -0.067240715 0.36481938 -0.23379424 0.1822813 -0.23609145 -0.057529423
-0.1405661 0.092433155 0.26240674 -0.23893006 -0.33040887 0.032687135 0.36483714 -0.22655255
-0.12173498 0.19840245 0.05455054 0.35337707 -0.10689592 -0.24078324 -0.3100171 0.11132016
-0.02225876 0.36749604 0.22003429 -0.35800514 -0.13226248 0.0888155 -0.35957167 -0.03860792
0.2249097 0.00481714 -0.08682926 -0.28070658 -0.035979185 -0.22642425 -0.2086072 -0.06316616
-0.0007421117 -0.30072477 0.067113854 0.18616346 0.2732052 -0.11675723 -0.24117091 -0.19022861
-0.2311556 0.2988608 -0.019178852 0.3169318 -0.20633185 -0.20669885 -0.07422141 -0.13090175
0.34458813 0.012624608 0.17518298 0.36181504 -0.36105928 -0.322467 -0.07128372 -0.012301843
0.37170413 -0.0136739705 0.10985556 -0.1331121 -0.2759491 -0.08993141 -0.23289612 0.13245185
0.11956348 0.22838965 -0.05319432 0.35761142 0.14742418 -0.30910116 0.4511387 -0.038966168
0.3890738 -0.012116365 -0.39612287 -0.13268751 -0.13683689 0.15878028 -0.32442924 -0.10119842
0.2611064 0.31602764 0.35474095 0.057520725 0.05133057 -0.3567375 0.08846992 0.08711346
0.33609977 0.021302406 0.18912688 -0.26180252 0.39373425 -0.16656233 -0.17733292 -0.24274427
0.1370938 -0.09871333 -0.18559715 0.24363095 -0.18746135 0.01973687 0.009237398 0.3276882
0.28009197 -0.25059658 -0.10965987 -0.11294584 -0.29314008 -0.14650969 0.0060896794 -0.26841256
-0.30041903 0.26766527 -0.13631397 -0.2235677 -0.19658062 0.09769993 -0.30040172 0.04297545
-0.2586807 -0.08232446 -0.059209418 -0.3463815 -0.27110952 -0.1841069 0.24279347 -0.06894346
0.18062572 -0.1827729 0.3688498 -0.039174046 0.08739509 0.12443986 0.104958184 -0.07222001
-0.3448809 -0.3037664 0.207667 0.32872164 0.13219854 -0.17869322 0.5103464 -0.13947427
0.40285674 0.42099854 -0.14577721 0.27975896 -0.18642914 0.1344588 -0.1410273 0.23111945
0.29014084 0.011607456 -0.061585482 0.01159569 0.35186586 0.3205687 0.33344638 0.20495896
0.32607555 0.1750537 -0.25357533 -0.07520331 -0.16066147 0.11482922 -0.015557877 0.011065865
0.25643528 0.29194453 0.17808114 -0.03430488 -0.008446187 0.24211223 -0.24123405 0.22904214
0.28268042 0.03452125 0.2664363 -0.17214374 0.29774758 0.18179482 0.24130592 0.0025735172
-0.27355313 -0.16578022 -0.33348948 0.21608394 -0.02290172 0.3249236 -0.09942496 0.25769752
-0.32357916 0.16536213 0.35920236 0.3790904 0.3304977 -0.058662362 0.06643083 -0.16332266
0.32839283 -0.15344301 0.015698042 -0.032268845 0.0027961868 -0.13719687 -0.24980289 0.22930089
-0.25158525 0.1268216 0.14357074 -0.35667214 -0.00091245875 0.17969577 0.028677505 0.28862005
0.22165617 -0.07922209 0.34752133 -0.12703076 0.14084947 -0.119766176 0.01577799 0.42453918

layer1.bias f4 [128]
00000000: 5d35 2240 57a3 15be 1708 14be 0dab 3140
00000010: cb15 70be 1a09 9ebe 84fd 2440 3847 7bbe
00000020: 0b98 8b3f d9ab 9fbe e223 bfbe 797f 1840
00000030: 26cc 28be 44b9 3fbc e888 bcbe 90bd 07be
00000040: b441 b73f 5a4a 38be 946e ffbb c581 65be
00000050: 5dfa f63f 063b 99be 0667 8cbe e3da 15bd
00000060: 3619 28be 1a83 cabc eb00 9abd 77b9 9bbe
00000070: 2223 70be af45 3dbe 8ac1 fd3f eb63 c43f
00000080: ffa0 88be 472a 2fb9 ccde b5be eb69 993f
00000090: d94b 1dbd ebf8 983f 6bd8 bf3e ed96 1dbe
000000a0: 1f37 3540 5df8 4f3f f966 a73f 1119 c13e
000000b0: c8d2 2c40 2328 bc3e 8aaf e7bd f337 3e40
000000c0: 6829 3740 8983 2a3f bcef 9ebe 43fc 69ba
000000d0: 43e2 0dbe b934 89be 4112 3440 87e6 67be
000000e0: db6a 2440 468a 0cbe c0c5 13ba 5832 acbd
000000f0: 1f0d 9fbe 21cb 15be 6302 c1bd 3e57 c0b9
00000100: ba56 6dbd 7878 2e40 c7a1 cd3f 0ec0 1d40
00000110: b208 3040 9a58 9cbe 170d 92b9 4ab9 64be
00000120: d215 7cbe 6fd6 3e40 7934 2840 6eb6 0840
00000130: bb59 2b40 9a73 8e3c 857d 883f b847 723f
00000140: b4ca 2340 1e77 da3f 1176 4bbc bf4c 2640
00000150: 76ac 3640 847c dab8 c805 9bbe 8f7a 88b9
00000160: 7542 5abe 2b9e 2dbd 0fe8 88bd 5736 b2bd
00000170: 5284 6abe c81b 3540 0074 803e f68f f6bd
00000180: e5bf 14be b44a c4be 7506 5cbc dd8e 123d
00000190: 457c 9cbd e2e9 3640 12e7 cdbc 2efc 3040
000001a0: b94f 46be 1b31 ce3f d1b5 83be 1d31 3e40
000001b0: 6e7e debd e2a0 7c3f a4d6 3540 3b44 30be
000001c0: 24f5 2fbe 6113 ed3e 5b68 3fbe 4e33 b8be
000001d0: b918 e13e ae1f 4b3f 2e89 fa3f 84af 253f
000001e0: 5cd4 af3f 6e23 9ebe b045 4fbe ca71 e3bd
000001f0: 7e13 2540 c709 b1be 89d9 3340 3397 c6bd
2.534507 -0.1461309 -0.14456211 2.776065 -0.23445813 -0.3086632 2.5779734 -0.24538887
1.0905775 -0.31185797 -0.37332064 2.3827803 -0.16484126 -0.011701886 -0.368232 -0.13255906
1.4316926 -0.17997113 -0.0077951644 -0.22412784 1.9295155 -0.29927844 -0.2742235 -0.0365857
-0.16415867 -0.024720717 -0.07519706 -0.30414936 -0.23450902 -0.18483613 1.9824688 1.5342993
-0.2668533 -0.0001670505 -0.35521543 1.1985449 -0.038402412 1.1950964 0.374698 -0.15389605
2.8314893 0.8123835 1.30783 0.37714437 2.700365 0.36749372 -0.11312778 2.9721649
2.8619022 0.66606957 -0.31042278 -0.00089258346 -0.13855843 -0.26798037 2.8136141 -0.22646533
2.569022 -0.13724622 -0.0005637072 -0.0840804 -0.31064698 -0.14628269 -0.09424283 -0.00036686094
-0.057944037 2.7261028 1.6064996 2.464847 2.7505307 -0.30536348 -0.00027857043 -0.22336307
-0.24617699 2.981838 2.6282027 2.1361346 2.6773517 0.017389107 1.0663306 0.94640684
2.559247 1.7067602 -0.012418286 2.5984342 2.8542762 -0.00010418243 -0.30277848 -0.00026031255
-0.21314414 -0.04238717 -0.06684887 -0.08701771 -0.22902039 2.8298206 0.250885 -0.12039177
-0.14526327 -0.38338244 -0.013429274 0.035780776 -0.0764089 2.858025 -0.025134597 2.7653918
-0.1936635 1.6108736 -0.25724652 2.9717476 -0.10863958 0.9868299 2.8412256 -0.17213528
-0.17183357 0.46303847 -0.18692152 -0.35976642 0.43964174 0.79345214 1.9573114 0.6472094
1.3736682 -0.30886406 -0.20241427 -0.11105688 2.5793147 -0.34577772 2.8101523 -0.09696808

layer2.weight f4 [128, 128]
00000000: f108 0e3d c84a dfbd f7f3 a3bc 808f c4bd
00000010: 4a8b a23d 46dd a73d b78b 133d 42e5 6cbd
00000020: 9c0a 43bd 2d69 e0bc 4f90 37bb 4f94 b33d
00000030: 8e46 94bd bcc6 643e 422f eabc dc0e 543b
00000040: fbd5 403d 2397 94bd b2bf 76bb 244f e53c
00000050: d4af 6fbc e3f3 89bd 721d 503d da30 103c
00000060: fe80 a8bd 50a5 a43b dd7f febc ce02 80bd
00000070: dacf 713d 822a 6cbe 97da b43d 1ec3 7bbd
00000080: 74e6 4d3c 4cce c63b ee81 fb3c f7e6 dfbb
00000090: 16fd 2ebc f8ee 133d 9b65 893c c04f 20bd
000000a0: 3fab c2bc 4ccb f2bc b4b0 26be 78c4 15bd
000000b0: 33af 943d 7efa 313a aea6 8abd b701 1b3d
000000c0: d266 0fbd 2d13 abbc 5af4 eebb 6309 9c3c
000000d0: c19e 8ebd 1a01 8c3c b390 1f3d 4177 21ba
000000e0: 6cf7 bf3c 5556 0c3b f316 3a3d 9e5a 3a3d
000000f0: aa08 763c 2d9e 1cbd 95e4 283b 2266 af3c
00000100: 3d11 09bd a06c 27bd a339 b33c 6c89 6dbd
00000110: 27e1 8ebd 92e0 6bbd 0511 9d3c 14d5 82bd
00000120: 7209 2c3d fb59 a2bd d97b e03b e140 113e
00000130: cbe6 be3a 524e 543b ceca 8cbc c407 5abd
00000140: d272 5b3d c235 79bd c0cd 0b3e fe3f 683d
00000150: e074 06bd 0116 09bd b7bb 95bc 6a86 6cbd
00000160: 277b 223d f232 b3bd 7cb4 52bd d993 913d
00000170: 368e 86bd fa22 6d3c c257 593d b454 953c
00000180: 532c 133e f07c bd3c ee87 7bbc 7c68 a4bd
00000190: 6cce e13c a5e8 1d3a 7a39 d93b ece5 50bc
000001a0: e31f 2a3c dd1a a73d 6bb0 bdbb c3cc b83d
000001b0: 4cb3 60bd a466 6fbc 1874 b2bd 98d2 e83b
000001c0: f3ce 743d 8ccb aebd e8ed 55bd b8a1 85bd
000001d0: 2942 273c 0e5a c4be d14e 0b3d e049 7f3d
000001e0: 6361 7dbd d7c1 1c3d 13db fc3c 00c8 aa3d
000001f0: bcfd 983c 851c 993d fe49 c03c 7dd5 9cbd
00000200: d672 093d 7268 d2bd 06bf 51bd c4a3 8ebd
00000210: ecb5 2a3d 7f10 ba3d 429d eb3d 56d0 9ebd
00000220: 98dd 8ebc f4a4 063c 094a 093a e26b c9bc
00000230: c204 ecbc aa03 203e d23f f83c dd13 893d
00000240: 6390 71ba bc77 cb3b da4b 463c 825b 77bd
00000250: b2e6 28bd 50cf 28bd 3052 da3c 8855 20bc
00000260: 2690 cf3c 1c26 2abd 2078 9ebc 0fcb 1cbe
00000270: fa2a cd3c 2650 01be 07c4 923d 200f c73c
00000280: 2816 0d3d 0226 f13c 351e 17bd a4c3 69bd
00000290: 9f1b 7b3d a0e7 593d 0b1b 17bc 485e 90bd
000002a0: c2c0 ed3c 941a d53c 3c34 08be ea3f dc3c
000002b0: a35f f13c bcae 5abc 8136 92bd 5ea8 b33c
000002c0: 0072 c2bc fae8 973c b48a d73c 12c7 50bd
000002d0: 1bfa 98bd dc4f d73c ec63 11bd 2871 5c3d
000002e0: c886 89bd a8ee 90bd 8d2b 96bc e519 c03c
000002f0: f06f a9bd c6c1 47bc 663b 543d 870d 3bbd
00000300: 5e8f 8fbc b9fa 1a3d 5a60 6d3d d795 80bd
00000310: b1b9 8cbd c440 833d c1f1 0bbd 8ba6 153c
00000320: 649b 283d e352 73bc aa24 643d e3a2 323e
00000330: 52e4 83bd 24fe 783d 1212 e43c 019b 423d
00000340: b3dd 953d 75fe 64bd 1902 dd3d 4085 c83c
00000350: 57ba 7c3d bf20 17bd a2d4 703d 4c63 91bd
00000360: da92 45bc 5b1f 70bd 0437 fdbc 0b98 9c3d
00000370: ef3c 9e3d cc23 88bd 1a0b 6a3d ba77 a03c
00000380: e821 043e 1454 25bc 14da 853d 42d0 743b
00000390: 8cbf 8b3d 2bea 82bd 651c a23d ba54 91bd
000003a0: 33da f13c 04b7 63bc 9e84 0bbd 27e3 193d
000003b0: e9ff 5bbd d6bf 22bd 2dba 7fbd 847d 533d
000003c0: aacf 723d a97d 07bd b350 a3bc 9e43 3e3d
000003d0: 6f76 db3c 476e 5cbe f5c0 04bd dd5f 69bc
000003e0: 6f4e 113d e6fc 8a3a fac2 c53c eee4 57bd
000003f0: 964e 8039 f267 4e3d cbda 143c 06c9 d23c
0.034676496 -0.10902935 -0.020013792 -0.09597683 0.079367235 0.081965014 0.036021914 -0.057835825
-0.04761754 -0.027393902 -0.0028009599 0.08768522 -0.0724002 0.22341436 -0.028586987 0.003235749
0.047079068 -0.072553895 -0.003765088 0.027991839 -0.014629323 -0.06735971 0.05080933 0.00880071
-0.08227728 0.0050245896 -0.03106683 -0.06250535 0.059036113 -0.2306309 0.08830755 -0.061465375
0.012567151 0.006067073 0.030701604 -0.006832953 -0.010680458 0.03611657 0.016772082 -0.039138556
-0.023763297 -0.029637955 -0.16278344 -0.03656432 0.07259979 0.00067893404 -0.06770073 0.037843432
-0.035010166 -0.020883167 -0.0072923126 0.019047445 -0.06963874 0.017090369 0.038956355 -0.0006159433
0.02343341 0.0021413763 0.045432042 0.045496576 0.015016714 -0.038236786 0.002577101 0.021411005
-0.033463705 -0.040875077 0.02187807 -0.057992384 -0.06976538 -0.057587214 0.019173155 -0.06388298
0.042001195 -0.07927319 0.0068507013 0.14184906 0.0014564631 0.0032395315 -0.017186549 -0.053230062
0.053576298 -0.060842283 0.13652706 0.056701653 -0.032826304 -0.03346825 -0.018277986 -0.057745375
0.03966823 -0.087499514 -0.051441655 0.07108278 -0.06570093 0.014473671 0.053062208 0.018228866
0.14372377 0.023130864 -0.015352232 -0.08027741 0.02756425 0.00060237414 0.006629166 -0.01275013
0.010383579 0.08159421 -0.005788853 0.0902343 -0.05485849 -0.014611874 -0.087135494 0.007105183
0.059767675 -0.08534917 -0.05222884 -0.06524986 0.010208645 -0.38349956 0.034010712 0.062326312
-0.061860453 0.038270798 0.030866181 0.08338928 0.018675677 0.07476143 0.023472782 -0.07657907
0.03355678 -0.102738276 -0.051207565 -0.069648296 0.0416774 0.09085178 0.11504604 -0.07754581
-0.017439649 0.008218039 0.00052371674 -0.024587575 -0.028810862 0.15626398 0.03030387 0.06693242
-0.00092149357 0.006209342 0.012103045 -0.060390003 -0.041235633 -0.041213334 0.026650518 -0.009786017
0.02533729 -0.04154025 -0.01934439 -0.15311836 0.025044907 -0.1262823 0.071662955 0.024299204
0.034444958 0.029437069 -0.036894042 -0.057071343 0.06130564 0.05319941 -0.009222756 -0.07049233
0.029022578 0.02601365 -0.13301176 0.026885945 0.029464548 -0.013347324 -0.07139302 0.02193087
-0.023736 0.01854371 0.026311256 -0.0509711 -0.07469579 0.026283197 -0.035495684 0.05381885
-0.067151606 -0.0707677 -0.018331314 0.023449847 -0.082733035 -0.012192195 0.05181446 -0.045667198
-0.017524417 0.037836764 0.057953216 -0.0627858 -0.06871355 0.064088374 -0.0341661 0.009133945
0.041163817 -0.014851305 0.055699028 0.17444949 -0.06440033 0.060789242 0.027840648 0.047511104
0.073176764 -0.05590673 0.10791416 0.024477601 0.061701145 -0.036896463 0.058796532 -0.070990175
-0.012058938 -0.058623653 -0.030910023 0.076461874 0.07726466 -0.06647453 0.057139494 0.01958834
0.12903559 -0.010090847 0.06535736 0.0037355577 0.06823644 -0.0639232 0.07915572 -0.070962384
0.02952299 -0.013898615 -0.03406202 0.037570145 -0.05371085 -0.03973373 -0.06243341 0.051633373
0.059280075 -0.033078823 -0.019935941 0.046451204 0.026789872 -0.21526442 -0.03241058 -0.014244047
0.03547519 0.0010603934 0.024140824 -0.05270856 0.00024472614 0.0503921 0.009085367 0.025730621

layer2.bias f4 [128]
00000000: 7401 75bc cf4a 3b3d ab03 3bbd 8c72 69bd
00000010: 1dcb 93bc d5e4 8939 cfae 8cbd 3231 d03e
00000020: d9fe b6bd 2097 5f3e e04d 00bd 0da5 2b3a
00000030: 46d8 543d 52a4 a4bd 07bb 11bd 144f 0abd
00000040: ff7b dc3e c750 af3d 8836 1440 890f 893c
00000050: 70ef aebc d65a 1840 a64f 933e f688 ae3f
00000060: 1551 b73e 8801 843e b5a8 26bd f9b0 40bd
00000070: 4d92 ae3e ecba 8a3c b319 cd3e c74a d3bc
00000080: 038d 3cbd f9d7 febc 01d5 84bd e978 62bd
00000090: 4533 c83c 1b24 2cbd a359 353d 9a74 1bbe
000000a0: ee3e da3e be53 58bd 414e 0d3d dd11 8e3f
000000b0: 8f00 853d 591b 44bc 9780 0abe 7015 03bd
000000c0: 6b9c d53e d078 0540 7731 733d 3ebf 18bd
000000d0: f9c1 0140 ea01 773d 6b43 96bc 9f7a 07bd
000000e0: c43b a23e ee08 813d c29f db3e 1cf5 a2bd
000000f0: 2d5b dc3d 50c1 c13e d35d 38bd 1f2a 973c
00000100: 74a3 6d3e affe 8f3f f3b7 9d3e 01bb 493d
00000110: 0cf7 4f3d 6987 153d 9b24 4b3d eb4a c53e
00000120: 4933 cd3b e11f 243d bb3a 703d 711e 3f3e
00000130: 9767 283d bdea 36bd 83e5 4abd 1837 a33d
00000140: f269 c0bd 4f64 21bd 1d09 173f 1488 0240
00000150: 6957 683d 5887 88bd 72f7 7ebd 129a 0f3e
00000160: 256b 0c3c 7a99 53bc b57e b43e 9d7a 8f3e
00000170: 2f66 1bbd 10bb 863d 4044 b0bd 7394 2d40
00000180: 1faa 813c a7be d63e a298 d83e 43c3 85bd
00000190: 2ace ee3f e4c5 003d ffdc 9fbc 24ed 2ebd
000001a0: 881f d53e 401d 293b f586 b63f 0666 fa3f
000001b0: 0835 60bd 4b74 783d 0541 2e3e d4a1 7b3d
000001c0: 8ae4 ea3f 83ba 27be e028 d73e 28f5 2040
000001d0: f01f 7cbd c319 53bd dcca 31bd 42c4 6abc
000001e0: 597a 843e d579 8bbd 4718 b53f e1ec bbbc
000001f0: ef29 9cbd fa64 723d dfb9 883f a247 e03e
-0.01495396 0.04572564 -0.045657795 -0.056994006 -0.018041188 0.0002630117 -0.068692796 0.40662533
-0.08935327 0.21834993 -0.031324267 0.0006547727 0.051964067 -0.08039154 -0.035578754 -0.03376682
0.43063352 0.08560329 2.3158283 0.01673104 -0.021354407 2.3805442 0.28771704 1.3635547
0.35804048 0.25782418 -0.040688235 -0.047043774 0.34095994 0.016934834 0.4005867 -0.025792493
-0.046032917 -0.031108843 -0.0648594 -0.05529109 0.02443851 -0.04202662 0.044274937 -0.15181199
0.42626137 -0.052814238 0.034498457 1.1099201 0.06494247 -0.011969411 -0.13525616 -0.032002866
0.417209 2.0854988 0.059373345 -0.037291758 2.0274642 0.06030456 -0.018342694 -0.033075925
0.31686223 0.06300531 0.42895323 -0.07956907 0.10759578 0.37842798 -0.045011353 0.018452702
0.23206884 1.1249598 0.30804405 0.049250606 0.05077271 0.03650609 0.049595457 0.3853372
0.006262217 0.040069465 0.05864976 0.18663956 0.041114416 -0.044657458 -0.049535286 0.07969493
-0.093952075 -0.039402302 0.5899828 2.0395555 0.056723986 -0.0666644 -0.0622477 0.14023617
0.008570467 -0.01291501 0.3525292 0.28023234 -0.037939247 0.06578648 -0.08606768 2.7121856
0.01582819 0.4194233 0.4230395 -0.06531384 1.8656666 0.031438723 -0.019514559 -0.042706624
0.4162562 0.0025804788 1.4259936 1.9562385 -0.054738075 0.06065778 0.1701699 0.06143363
1.8350995 -0.16379742 0.42023373 2.5149632 -0.061553895 -0.05153824 -0.043406352 -0.014329018
0.25874594 -0.06810347 1.4148034 -0.022940101 -0.07625186 0.05917833 1.0681723 0.43804651

layer3.weight f4 [3, 128]
00000000: 0f6c 1c3e cb26 9e3d d822 65bc d70e 843d
00000010: 2bc8 46bd 6ec7 a3bd 48b5 863d e1dd 47be
00000020: bd24 f93b e879 aebd 62c3 51bc 5ef0 2e3d
00000030: 3e17 163d f328 783b e840 9e39 1da6 903d
00000040: 70b5 4ebe f091 173d d0a1 d6bf 3818 99bd
00000050: 14d2 263e 171b b0bf 0567 3dbd e08a a3bf
00000060: 157e 12be aa13 1cbe 5859 0b3c b33c 66bd
00000070: 4341 43be 05b0 423d 4686 2bbe c2df 333d
00000080: 9cee 6ebb 2242 eb3d 473f b63d 4c83 1ebc
00000090: fa3e 50bc fb79 72bd b6df 203d 0dec 043e
000000a0: 7108 07be 85f9 183d 878f 38bd 7910 96bf
000000b0: 3cba 5b3d dc88 a13d b81d 623d 5af7 853c
000000c0: 9a6a dbbd a7b3 b6bf a5f7 adbd 8cc5 c43d
000000d0: ae46 c2bf 900e a03d ea55 cdbc bb97 f43b
000000e0: d620 3abe 7242 a23d 4f30 53be 40c9 943d
000000f0: 2c68 2cbe b60e 53be 16e7 813d bcfc 01bd
00000100: b992 ffbd 927d 94bf 8aad 7ebe 7426 003e
00000110: a7a0 363e b570 e2bc 24e7 6ebd a76a 46be
00000120: 88b4 2dbd ce8b 0f3e 8325 89bd da8b 21be
00000130: a343 653b 7f7c 663d 8ef0 8dbd 4fa3 9d3d
00000140: 1378 763d b2b1 c13d 6d5a 87be 24f0 bbbf
00000150: 59d8 5abb 33ad 713d 3f6d e33d 6a97 5fbd
00000160: 2883 92bc daa2 a33d 8bac 2fbe 730c 4cbe
00000170: 66b1 3dbd 1480 62bc 5289 ed3d b170 e1bf
00000180: 267c c93d a876 31be 1738 68be 92ff 6c3c
00000190: cc5a a8bf dc4f 56bc fc16 3f3d 0c43 123e
000001a0: cdaa 5ebe 9ee9 b83d f0c6 9abf f755 bbbf
000001b0: b09f 513b 14ca 81bc 6280 0fbe 6568 9abc
000001c0: 033d b3bf a19a 103e 7e3c 63be 82f2 d8bf
000001d0: 1a07 d73d 6330 593d 4176 0abd a518 16bd
000001e0: 7f5e 62be bb05 893d 7b4a b5bf 1586 78bd
000001f0: 1593 0fbd af33 853d 89f2 77bf 6c5f 0dbe
00000200: a725 0d3e 0111 443d 2b16 00bd b383 58bd
00000210: 16db 7dbd 6405 8abd 23e6 36bd 32a4 24be
00000220: aad7 2d3e a133 a2bc 9e8c 823c c2e7 75bd
00000230: 2877 cf3d c6fb cf3c 09f4 923d fa8b e63d
00000240: 6751 6cbe e3c0 7a3d 2924 b6bf 2036 073d
00000250: a80c 253e 1b27 e4bf 63a2 27be 199a 89bf
00000260: 61ed 6cbe 827c 04be 66e9 8f3d 3c7f 8e3d
00000270: e6ad 0abe f93e 0c3d b89a 5ebe 11eb 58bc
00000280: b50e e1bc ad3d 163e ed3c a03d bdef 8f3d
00000290: 2200 e1bc eacf 10bd 3d12 b63d 24b8 cd3d
000002a0: c696 20be ef6b 94bd 2ca0 4d3b d5eb 72bf
000002b0: d477 c1bc ef0b 183d ae66 fabb 998b 98bd
000002c0: 0d1f 6ebe e8cc c6bf 3e4b 66bd f2b4 d83d
000002d0: 8040 cdbf dde9 dc3c 3378 193d ea51 d0bc
000002e0: dc18 39be 75ae 2a3d 454d 4bbe 5248 6a3d
000002f0: 04d7 80bd 604d 4abe be29 913d 711e 9c3d
00000300: c23d 15bd a88c 77bf eae7 55be 5d1c a63d
00000310: 0c8f b53d a4b8 093d 2e49 393d 13f1 36be
00000320: fc09 473d 45de bc3d 671a 9bbd 9c44 3abd
00000330: 9686 1e3d e7dc c2bc e7b8 3f3d da4f 8fbd
00000340: 3944 a73d 9345 b43d 542e e6be 0667 bcbf
00000350: a1d0 91bd a292 e23c 9c17 093e a3c7 cfbc
00000360: c22f 8ebc 0011 5d3d f9ec 05be f2f1 b9bd
00000370: 52e9 713d 5797 17bd 0b32 ad3d ce3e 06c0
00000380: 0f9f 8b3d ca9d 93be 2c3c 35be ab9f 08bd
00000390: 24cb a2bf 623b 6bbd 02be aeba 6977 273e
000003a0: 6b35 4dbe bad8 ef3d b2be 8fbf a7fd a3bf
000003b0: 0fdf c73d 37f7 31bd a66e 0cbe efe7 9abd
000003c0: dab4 a5bf 8c9f 883e c805 32be c7b4 f4bf
000003d0: 3851 a73d 8c73 a83d 5f6f 033d 7bd4 8bbd
000003e0: e4d6 0ebe 732f 27bc fe6a 90bf acf2 27bd
000003f0: 24ab 19ba 402b a9bc 55d3 6fbf 80d6 59be
0.15275596 0.07722243 -0.013985358 0.06448143 -0.04853074 -0.079970226 0.065775454 -0.19518234
0.0076032565 -0.085193455 -0.012802931 0.0427097 0.03664326 0.0037866205 0.00030184467 0.070629336
-0.201864 0.03700441 -1.6768131 -0.074753225 0.16291076 -1.3758267 -0.046240825 -1.2776756
-0.14305909 -0.15241876 0.008505188 -0.05621023 -0.19067864 0.047531147 -0.1675044 0.043914564
-0.003645814 0.11487223 0.08898788 -0.009674858 -0.012710327 -0.05919836 0.039275847 0.12980671
-0.13186814 0.037347335 -0.045058753 -1.1723777 0.053644404 0.07887432 0.055204123 0.016353298
-0.10713692 -1.4273576 -0.084945 0.096079916 -1.517782 0.078152776 -0.025065381 0.0074643767
-0.18176588 0.0792283 -0.20623897 0.07264948 -0.16836613 -0.2061108 0.06342904 -0.031735167
-0.12479157 -1.1600821 -0.24870887 0.12514669 0.17834722 -0.027641634 -0.0583259 -0.19376622
-0.042408496 0.14018175 -0.06696608 -0.15776005 0.0034982942 0.056271072 -0.06930648 0.07697164
0.060173105 0.09457721 -0.26436177 -1.468266 -0.0033393113 0.059003066 0.111048214 -0.05458776
-0.017884806 0.07990046 -0.17155664 -0.19926624 -0.04631176 -0.0138244815 0.115984574 -1.7612516
0.098381326 -0.1733042 -0.22677647 0.01446523 -1.3152709 -0.013080563 0.04665278 0.14283389
-0.21744843 0.09028934 -1.2091961 -1.4635609 0.003198605 -0.015843429 -0.14013818 -0.018848607
-1.4002994 0.14121486 -0.22191045 -1.6949008 0.104994014 0.05302466 -0.033804182 -0.036644597
-0.2210636 0.06690546 -1.4163355 -0.060674746 -0.035052378 0.065039985 -0.96854454 -0.13805932
0.13783894 0.04786778 -0.03127114 -0.052859973 -0.061976515 -0.067393094 -0.04465307 -0.1607826
0.169768 -0.01980001 0.015936192 -0.060035475 0.10130149 0.02538861 0.07175452 0.11257167
-0.23077928 0.061219107 -1.4229785 0.033010602 0.16118109 -1.7824434 -0.1637054 -1.0750152
-0.23137428 -0.12938121 0.07026939 0.06957862 -0.135429 0.034239743 -0.21738708 -0.013239638
-0.027472833 0.14671965 0.07824121 0.07028148 -0.027465884 -0.035354532 0.088901974 0.10044888
-0.15682516 -0.07247149 0.0031375987 -0.948911 -0.023616709 0.037120756 -0.007641635 -0.07448501
-0.23254032 -1.5531282 -0.0562241 0.105813876 -1.6035309 0.026966983 0.037468147 -0.025429685
-0.1807589 0.04167028 -0.19853695 0.057197876 -0.06291011 -0.19756079 0.0708804 0.07622994
-0.03643585 -0.96699 -0.2088925 0.081108786 0.08865175 0.033623353 0.045235805 -0.178654
0.048593506 0.09222082 -0.07573395 -0.045475587 0.03870257 -0.023786975 0.046807196 -0.06997652
0.08167309 0.08802333 -0.4495722 -1.471894 -0.07119871 0.02765781 0.13387913 -0.025363749
-0.017356757 0.05397129 -0.13078679 -0.090793505 0.059060402 -0.037009563 0.084568106 -2.0975833
0.068174474 -0.2883132 -0.17698735 -0.033355396 -1.2718244 -0.05742968 -0.0013331773 0.16354145
-0.20039909 0.11711259 -1.123007 -1.2811784 0.09759342 -0.043448653 -0.13714084 -0.07563769
-1.2945817 0.26684225 -0.17385018 -1.9117669 0.08169788 0.08225164 0.032088634 -0.06827637
-0.13949162 -0.010204184 -1.1282651 -0.041002914 -0.0005861989 -0.020650506 -0.9368184 -0.21273232

layer3.bias f4 [3]
00000000: 24ae 9dbe 4529 80be 24a4 0fbe
-0.3079692 -0.25031486 -0.14027458
