models/rl_models/03.03.24/best_target_dqn_model_epoch_26.pt (torch, 74158 bytes, 6 tensors)

layer1.weight f4 [128, 6]
000000 ca 88 aa be 82 bf 6e 3e e4 b3 5d bd d8 7d 54 be
       -0.33307487 0.23315242 -0.054126635 -0.2075113
000010 6d f3 5d 3e 19 02 1d be 2f 82 9e 3e e3 6d 51 3e
       0.21674891 -0.15332831 0.30958697 0.20452075
000020 69 f5 5a be d6 e5 b7 3d 40 06 a5 bd 33 88 5f bd
       -0.21382679 0.089793846 -0.08057833 -0.05457325
000030 30 ae a9 bd ec a0 ad be 2b 67 b0 3d fa c6 ad be
       -0.08285177 -0.33911836 0.08613428 -0.3394087
000040 01 75 aa 3e 22 83 41 be d9 01 97 be fb 94 a9 be
       0.33292392 -0.1889768 -0.29493597 -0.33121476
000050 8a 5d 90 3e e7 5d 88 3e 25 6d 0c be 83 42 5d 3e
       0.28196365 0.26634142 -0.1371351 0.21607403
000060 11 ad c0 be 56 29 b6 bd d3 2e 8a bd 5f 6b bb 3e
       -0.3763204 -0.08894603 -0.06747212 0.36605355
000070 72 3f 70 be b7 49 3b 3e ad 93 71 be b0 63 6b bd
       -0.23461702 0.18289839 -0.2359149 -0.057468116
000080 5b ae 0f be 0a 09 c0 3d 91 f6 86 3e bd b8 74 be
       -0.14031355 0.09376724 0.2635999 -0.23898597
000090 a3 bf a9 be 45 5c 06 3d b3 6d bb 3e 99 c7 68 be
       -0.3315402 0.03280284 0.3660713 -0.2273239
0000a0 5a 35 fa bd 2c e4 4b 3e f6 22 61 3d cc bc b5 3e
       -0.12217207 0.1991126 0.054964982 0.35495603
0000b0 80 ff da bd 92 67 77 be d9 4e 9f be 08 c6 e4 3d
       -0.10693264 -0.24160603 -0.31114843 0.11170584
0000c0 9c df ae bc fb 68 bd 3e 52 3f 63 3e 37 ee b7 be
       -0.02134686 0.36994156 0.22192124 -0.3592393
0000d0 24 e9 07 be ab 86 b6 3d 8b bb b8 be 91 b7 1e bd
       -0.1327253 0.089124046 -0.36080584 -0.03874928
0000e0 ef 18 67 3e 71 66 9e 3b 4e 75 b2 bd 94 3f 90 be
       0.22568105 0.0048339893 -0.0871378 -0.28173506
0000f0 b7 e5 13 bd f7 a5 68 be da 59 56 be 95 d6 81 bd
       -0.036107745 -0.2271956 -0.20932713 -0.063397564
000100 85 39 43 ba 67 7f 9a be 2d ea 8a 3d ca f0 3f 3e
       -0.0007447231 -0.30175325 0.06782947 0.18744197
000110 f7 aa 8c 3e 1a f6 ef bd 32 cd 77 be 89 7a 43 be
       0.27474186 -0.11716862 -0.2419937 -0.19089712
000120 13 fd 69 be 70 44 99 3e 3b 91 99 bc 5d 94 a4 3e
       -0.22850446 0.29935026 -0.01874601 0.32144442
000130 1c cf 54 be 84 16 54 be 33 88 98 bd 6f 84 06 be
       -0.20782131 -0.20711714 -0.07447853 -0.13136457
000140 9f 0f b1 3e 2c 94 4f 3c ef 04 34 3e 96 e1 b9 3e
       0.3458223 0.012669604 0.17580007 0.3630492
000150 87 7e b9 be ae ae a5 be 01 84 92 bd ea 3c 4a bc
       -0.36229345 -0.32359833 -0.07154084 -0.012343625
000160 40 ff be 3e ff d2 60 bc 29 c6 e1 3d dd c7 08 be
       0.37304115 -0.01372218 0.11024124 -0.13357492
000170 86 c2 8d be ba cf b8 bd 02 54 6f be c8 1a 08 3e
       -0.27687472 -0.09023996 -0.2337189 0.13291466
000180 16 85 fb 3d c4 04 69 3e 49 4e 5c bd e5 46 b9 3e
       0.122812435 0.22755724 -0.053785596 0.361869
000190 33 d5 15 3e 4a 03 9f be c8 bd e6 3e 65 c0 17 bd
       0.1463211 -0.31057197 0.45066667 -0.037048716
0001a0 3f 83 c7 3e d1 8e 85 bc 1d 3e cb be 68 95 09 be
       0.3896732 -0.016303452 -0.39695826 -0.134359
0001b0 1a e8 08 be d9 c8 21 3e ad 92 a6 be 4e a2 c8 bd
       -0.1336979 0.15799274 -0.3253378 -0.09796582
0001c0 f0 69 85 3e 53 75 a2 3e 7e 9f b7 3e 77 f3 64 3d
       0.26057386 0.31730136 0.3586387 0.05589625
0001d0 2b ca 50 3d fd c6 b5 be 98 67 b2 3d 13 29 b2 3d
       0.050974052 -0.3550338 0.08711165 0.086992405
0001e0 e9 1c ae 3e 80 3c 9c 3c 56 39 42 3e 6e ec 84 be
       0.34006432 0.019071817 0.18967184 -0.25961632
0001f0 a6 37 c9 3e a9 3d 2b be 87 38 36 be 1f 77 79 be
       0.3930027 -0.1672274 -0.17795001 -0.24361847
000200 a4 db 0c 3e 75 d9 ca bd 6d bc 3e be 90 5f 7a 3e
       0.13755661 -0.09904758 -0.18626566 0.24450517
000210 84 83 3c be 27 19 97 3c 77 f5 1b 3c cf 6b aa 3e
       -0.18409544 0.01844461 0.009518973 0.33285376
000220 f8 3c 8f 3e d6 a6 80 be 90 5f e1 bd 5b 1a e8 bd
       0.27976203 -0.25127286 -0.11004555 -0.11333152
000230 43 9d 96 be 71 8d 16 be 2d 3b c8 3b b2 e6 89 be
       -0.29416856 -0.14702393 0.00611057 -0.2693382
000240 54 57 9a be bf 84 89 3e 37 0f 0c be 23 b9 65 be
       -0.3014475 0.2685909 -0.13677679 -0.22433905
000250 ae fb 49 be 25 c6 c8 3d 0f 55 9a be cb a8 30 3d
       -0.19724914 0.09803418 -0.3014302 0.043129724
000260 1f eb 84 be 03 2e a9 bd 43 5d 73 bd ae fa b1 be
       -0.25960633 -0.08260729 -0.059415113 -0.34761566
000270 31 48 8b be c4 35 3d be 05 84 79 3e 8e ab 8d bd
       -0.27203515 -0.18477541 0.24366768 -0.06917487
000280 b7 97 39 3e 96 ca 3b be d4 2b b9 3e 50 ff 57 bd
       0.18124281 -0.18338999 0.3616625 -0.05273372
000290 8b 5e b3 3d 1d a0 ee 3d b5 56 bc 3d d9 ce 94 bd
       0.08758267 0.11651633 0.091962256 -0.072660156
0002a0 ff 35 b1 be 13 0e 9c be 62 63 55 3e 7d e2 a8 3e
       -0.34611508 -0.30479488 0.20838693 0.32985297
0002b0 61 d8 07 3e 1f 9d 37 be a5 c1 00 3f 67 99 1d be
       0.13266136 -0.1793103 0.5029548 -0.1539055
0002c0 2b e7 ce 3e 10 9d d3 3e 47 24 24 be 30 9a 8f 3e
       0.40410742 0.41330767 -0.16029464 0.28047323
0002d0 70 ca 3c be 3e c7 08 3e 0f 4d 11 be 57 4e 70 3e
       -0.18436599 0.13357255 -0.14189552 0.23467384
0002e0 6b 63 94 3e c4 06 39 3c 59 41 71 bd eb d4 24 3c
       0.289821 0.011293117 -0.05890021 0.010060529
0002f0 3a 99 b4 3e 5c 31 a6 3e ba 7f aa 3e e6 3c 52 3e
       0.35273153 0.32459533 0.33300573 0.20531043
000300 06 9e a8 3e a2 39 31 3e c3 6c 82 be 80 a5 95 bd
       0.32933062 0.17307141 -0.25473604 -0.07306957
000310 58 71 27 be da 96 eb 3d f6 1f 56 bc 75 19 21 3c
       -0.16351831 0.11503382 -0.0130691435 0.00983273
000320 c9 9d 83 3e 84 45 97 3e a9 72 35 3e 02 fe 0e bd
       0.25706318 0.29545224 0.1771952 -0.03491021
000330 90 46 94 bb 7b 66 77 3e fb a3 77 be c8 8b 6f 3e
       -0.0045250133 0.24160187 -0.24183647 0.23393166
000340 52 8d 90 3e e0 c8 0e 3d b1 5d 89 3e bb 11 35 be
       0.2823282 0.034859538 0.26829293 -0.17682545
000350 cd cf 98 3e 8c 35 3c 3e 8b 3b 74 3e 05 47 0f 3b
       0.2984604 0.18379802 0.23850839 0.00218624
000360 7b 88 8c be 93 56 2a be 6b 53 ab be 51 0f 5e 3e
       -0.27447876 -0.16634588 -0.3346208 0.2168553
000370 81 3e bc bc ac f0 a6 3e ac 41 c5 bd 06 ad 83 3e
       -0.022979023 0.32605493 -0.096316665 0.25717944
000380 d5 47 a6 be 60 72 2d 3e c2 af b7 3e 14 aa c2 3e
       -0.32476678 0.16938162 0.3587628 0.38020384
000390 e8 b0 ab 3e 51 f1 75 bd 21 fb 88 3d c9 fe 23 be
       0.33533406 -0.06004459 0.06688524 -0.16015162
0003a0 44 0f a8 3e a4 7d 1d be 81 12 81 3c a9 a5 04 bd
       0.32824147 -0.1537996 0.015755894 -0.03238455
0003b0 ff e1 37 3b a9 f6 0c be f9 5d 80 be 8a a5 6b 3e
       0.0028058288 -0.13765968 -0.25071695 0.23012367
0003c0 1b 49 81 be d9 56 02 3e 03 8b 13 3e 7f 3f b7 be
       -0.25251088 0.12728442 0.14408498 -0.3579063
0003d0 c2 09 70 ba ef a3 38 3e d0 94 05 3d 95 ac 93 3e
       -0.00091567275 0.18031286 0.03261262 0.28842607
0003e0 74 f6 63 3e e6 ce 9a bd 59 de b1 3e 43 6f 02 be
       0.22261983 -0.07558994 0.3473995 -0.12737755
0003f0 63 7d 08 3e ba 41 08 be 3f 6f 7f 3c 69 f3 d5 3e
       0.13329081 -0.13306323 0.015590488 0.4178727

layer1.bias f4 [128]
000000 ca db 1f 40 ba 6f 16 be e5 8e 14 be a7 5e 2f 40
       2.4977899 -0.14691058 -0.14507635 2.7401521
000010 7b ed 70 be 40 37 9e be ca a3 22 40 a8 d1 7b be
       -0.23528092 -0.30901527 2.541247 -0.24591696
000020 ee fc 86 3f 24 40 a0 be 21 d3 bf be f3 17 16 40
       1.0545938 -0.31298935 -0.37465766 2.3452117
000030 91 fd 28 be 85 68 40 bc 27 38 bd be e3 36 08 be
       -0.16502978 -0.011743669 -0.36956903 -0.13302188
000040 01 13 b6 3f 33 bb 39 be d9 6b fd bb ad f9 66 be
       1.422455 -0.18137817 -0.0077338037 -0.22556181
000050 8f 3c f4 3f d4 c1 99 be 45 d3 8c be b1 61 16 bd
       1.9080981 -0.30030692 -0.27504936 -0.03671426
000060 7f ad 28 be 5f 32 cb bc b9 87 9a bd dd 5f 9c be
       -0.16472434 -0.024804292 -0.07545418 -0.30541888
000070 d2 fa 70 be 30 44 3e be da 02 f9 3f e2 0b c1 3f
       -0.2353318 -0.18580699 1.9453995 1.5081751
000080 75 48 89 be 1f 58 ab b9 ef 76 b6 be 34 dd 96 3f
       -0.26813093 -0.00032681317 -0.35637614 1.1786256
000090 a7 d2 1d bd bb 07 97 3f 61 f9 be 3e 00 1e 1e be
       -0.03853097 1.1799234 0.37299636 -0.15441132
0000a0 9b ea 32 40 ce 54 4c 3f 81 2a a4 3f 28 1f c1 3e
       2.7955692 0.798169 1.2825471 0.37719083
0000b0 dc 77 2a 40 5a 64 bb 3e bf 79 e8 bd 55 f7 3b 40
       2.6635656 0.366 -0.11351346 2.936971
0000c0 ec dc 34 40 ba df 29 3f 10 ac 9f be f5 5c 10 ba
       2.825984 0.66357005 -0.3118596 -0.0005507016
0000d0 26 9d 0e be 77 d3 89 be bd c5 31 40 cb 14 69 be
       -0.13927135 -0.26919147 2.777694 -0.22761838
0000e0 a8 10 22 40 99 03 0d be 08 40 f9 b9 18 a9 ac bd
       2.5322666 -0.13770904 -0.00047540688 -0.084306896
0000f0 e3 fd 9f be 79 70 16 be 0a c0 c1 bd 06 cb 93 b9
       -0.31248388 -0.14691342 -0.09460457 -0.0002818929
000100 58 b2 6d bd 8d 26 2c 40 ad 93 c8 3f 0c 5d 1b 40
       -0.05803141 2.689853 1.5670067 2.4275541
000110 33 bc 2d 40 29 13 9d be b6 92 11 b9 93 08 66 be
       2.7146118 -0.3067868 -0.00013882932 -0.22464208
000120 26 3e 7d be 3b 97 3c 40 8b dc 25 40 51 41 06 40
       -0.24730739 2.9467304 2.5915859 2.0977366
000130 c0 ff 28 40 04 b5 05 3d 31 72 87 3f 29 cd 71 3f
       2.6406097 0.032643333 1.0581723 0.94453675
000140 0c 71 21 40 ac 7b d6 3f 90 d0 47 bc f2 f2 23 40
       2.5225248 1.6756492 -0.012195721 2.5617032
000150 07 60 34 40 74 fe 83 b9 c2 cd 9b be de c8 95 b9
       2.818361 -0.0002517585 -0.30430418 -0.00028569152
000160 ef 0a 5b be b3 6b 31 bd 62 61 89 bd 1b d8 b2 bd
       -0.2139089 -0.0433156 -0.067080274 -0.08732625
000170 02 5c 6b be 4e cf 32 40 9d 4a 81 3e dc 44 f8 bd
       -0.22984317 2.7939029 0.25252238 -0.12122509
000180 5b cb 14 be a5 e9 c4 be aa d0 5c bc 4d 4c d7 3c
       -0.14530699 -0.38459507 -0.013477484 0.0262815
000190 13 03 9d bd 5a 9d 34 40 29 81 ca bc b4 af 2e 40
       -0.07666602 2.822104 -0.024719791 2.729474
0001a0 ad fa 46 be c4 bb cb 3f 24 2f 84 be a7 ee 3b 40
       -0.19431563 1.5916677 -0.25817215 2.9364412
0001b0 a3 48 df bd a2 c7 77 3f 18 8a 33 40 ab d1 30 be
       -0.10902526 0.9678899 2.8053036 -0.17267482
0001c0 53 e7 30 be da 56 ec 3e 9c 17 40 be 12 d5 b8 be
       -0.17275743 0.46160012 -0.18759006 -0.3610006
0001d0 e3 12 d3 3e 73 b3 48 3f e5 96 f6 3f 9f 5c 25 3f
       0.41225347 0.7839882 1.9264799 0.64594454
0001e0 3a bc ad 3f 78 6d 9e be 6a 02 50 be bd 32 e6 bd
       1.3573067 -0.30942893 -0.20313421 -0.11240146
0001f0 c0 b7 22 40 8b ab b1 be fe 8c 31 40 72 46 c7 bd
       2.5424652 -0.3470119 2.7742305 -0.09730233

layer2.weight f4 [128, 128]
000000 44 82 0e 3d ff 14 e0 bd 40 88 a4 bc bf 3e c5 bd
       0.0347922 -0.10941505 -0.0200845 -0.096311085
000010 93 1f a3 3d 8f 71 a8 3d 85 12 14 3d f2 bc 6d bd
       0.07965007 0.082247846 0.036150474 -0.05804152
000020 db b9 43 bd 62 33 e1 bc 13 32 38 bb 13 36 b4 3d
       -0.047784667 -0.027490322 -0.0028106018 0.08799376
000030 5c cd 94 bd f1 90 65 3e f2 06 eb bc 96 cb 54 3b
       -0.07265732 0.22418572 -0.028689835 0.003246998
000040 3a 85 41 3d f1 1d 95 bd 62 97 77 bb 59 19 e6 3c
       0.047246195 -0.072811015 -0.003777944 0.028088259
000050 84 87 70 bc 36 6d 8a bd 2c da 50 3d a8 b7 10 3c
       -0.014680747 -0.067591116 0.050989315 0.00883285
000060 47 15 a9 bd 99 39 a5 3b 07 65 ff bc 20 7c 80 bd
       -0.082560115 0.0050422666 -0.031176103 -0.06273675
000070 8a a7 72 3d 32 02 6d be 5b 7c b5 3d 48 a8 7c bd
       0.05924181 -0.23145369 0.088616095 -0.061683923
000080 2e a3 4e 3c 8b 7d c7 3b 19 67 fc 3c 2c b1 e0 bb
       0.012612147 0.006087964 0.03081088 -0.006857058
000090 da 9e 2f bc c6 75 14 3d ee de 89 3c 09 e4 20 bd
       -0.0107190255 0.03624513 0.016829934 -0.03927997
0000a0 7e 5a c3 bc fc a2 f3 bc fd 44 27 be 46 4b 16 bd
       -0.023846861 -0.029740803 -0.1633491 -0.03669288
0000b0 01 36 95 3d 42 9c 32 3a 01 20 8b bd 85 88 1b 3d
       0.07285691 0.00068134454 -0.06793214 0.037971992
0000c0 a0 ed 0f bd 76 a7 ab bc 0a cc ef bb 31 90 9c 3c
       -0.035138726 -0.020953875 -0.0073180245 0.019111725
0000d0 0c 19 8f bd 6d 7a 8c 3c fe 24 20 3d 8a 0b 22 ba
       -0.06987199 0.01714822 0.03909778 -0.0006181529
0000e0 ad a6 c0 3c a8 cf 0c 3b b7 b8 3a 3d 62 fc 3a 3d
       0.023516977 0.0021486077 0.045586314 0.045650847
0000f0 5a e0 76 3c fb 24 1d bd de 78 29 3b e7 07 b0 3c
       0.015068138 -0.038365345 0.0025859396 0.021488143
000100 90 8a 09 bd e9 00 28 bd 67 db b3 3c 1c 61 6e bd
       -0.03357941 -0.041016493 0.021955205 -0.05819808
000110 d5 62 8f bd 42 b8 6c bd d3 97 9d 3c 67 4e 83 bd
       -0.070012726 -0.05779291 0.019237434 -0.064114384
000120 bb 9d 2c 3d 44 ee a2 bd 0e 46 e1 3b af c7 11 3e
       0.04214261 -0.07955602 0.0068748062 0.1423633
000130 0a 96 bf 3a 0c 0b 55 3b 21 44 8d bc 11 cc 5a bd
       0.0014616859 0.0032507805 -0.0172444 -0.05341727
000140 07 3d 5c 3d ec 1a 7a bd 13 47 0c 3e 33 0a 69 3d
       0.053769138 -0.06106083 0.13698988 0.056894492
000150 33 ee 06 bd 54 8f 09 bd 85 42 96 bc 1a 5e 6d bd
       -0.03294201 -0.033583954 -0.018342266 -0.05795107
000160 70 0f 23 3d b6 d4 b3 bd 36 71 53 bd a7 1a 92 3d
       0.039809644 -0.08780806 -0.05162164 0.0713399
000170 89 07 87 bd aa fa 6d 3c 7c 14 5a 3d 82 db 95 3c
       -0.06593234 0.014525095 0.05324219 0.018293146
000180 21 b3 13 3e 2f 2c be 3c 19 6d 7c bc c5 fc a4 bd
       0.14423801 0.023214428 -0.01540687 -0.080560245
000190 a1 98 e2 3c 8c 77 1e 3a 34 f6 d9 3b a6 a2 51 bc
       0.02766067 0.00060450356 0.006651664 -0.012795126
0001a0 2c b4 2a 3c 26 af a7 3d aa 5f be bb 87 6e b9 3d
       0.010418933 0.08187704 -0.005809744 0.090542845
0001b0 81 7d 61 bd 54 3e 70 bc dc 15 b3 bd 3a a0 e9 3b
       -0.05505133 -0.014663298 -0.08744404 0.007129696
0001c0 a3 a6 75 3d 50 6d af bd a2 aa 56 bd 0b 1b 86 bd
       0.05997337 -0.085657716 -0.052408822 -0.06548127
0001d0 72 d6 27 3c 4d 09 c5 be 24 c8 0b 3d f4 18 80 3d
       0.010243999 -0.38483658 0.034126416 0.062547594
0001e0 8e 46 7e bd a5 48 1d 3d 3e c0 fd 3c 49 5c ab 3d
       -0.062079005 0.038399357 0.030975457 0.08367211
0001f0 8a 84 99 3c 53 a3 99 3d 3d f9 c0 3c 4b 5c 9d bd
       0.018739957 0.07501855 0.023556346 -0.07683619
000200 29 ec 09 3d 2c 25 d3 bd c0 7b 52 bd a2 1e 8f bd
       0.033672486 -0.10309824 -0.05138755 -0.069882646
000210 35 4a 2b 3d 43 b2 ba 3d f2 74 ec 3d 9f 64 9f bd
       0.041818816 0.09116032 0.11545743 -0.07782864
000220 e4 5e 8f bc 47 1e 07 3c 5c c3 09 3a 22 1b ca bc
       -0.017501302 0.008246965 0.0005255246 -0.024671141
000230 72 dc ec bc f3 97 20 3e 6a 21 f9 3c 30 8d 89 3d
       -0.02891371 0.15682964 0.03041144 0.067163825
000240 13 68 72 ba 76 34 cc 3b 19 fb 46 3c 32 33 78 bd
       -0.00092470756 0.00623184 0.012144827 -0.0605957
000250 fb 7a 29 bd 99 63 29 bd b0 1b db 3c d1 e9 20 bc
       -0.04137705 -0.04135475 0.0267466 -0.009821371
000260 e0 4c d0 3c 65 ba 2a bd 69 0c 9f bc dd 51 1d be
       0.025427282 -0.041681666 -0.019415097 -0.1536326
000270 b4 e7 cd 3c 79 c9 01 be d5 4a 93 3d 5f be c7 3c
       0.025134899 -0.12674512 0.071920075 0.024382768
000280 7b 8f 0d 3d b2 fd f1 3c 03 a5 17 bd 54 9b 6a bd
       0.03456066 0.029539917 -0.0370226 -0.05727704
000290 ca 00 7c 3d a6 a9 5a 3d d9 a1 17 bc 16 e5 90 bd
       0.06152419 0.053384446 -0.009254896 -0.07074945
0002a0 72 98 ee 3c 4e d7 d5 3c 8f ad 08 be 1f 0a dd 3c
       0.029125426 0.026103642 -0.13347457 0.026982365
0002b0 53 37 f2 3c f1 78 5b bc 4f bd 92 bd 22 4a b4 3c
       0.029567396 -0.013395534 -0.07165014 0.022008006
0002c0 3f 21 c3 bc c8 6f 98 3c 6e 47 d8 3c cc 83 51 bd
       -0.023819564 0.018607989 0.026401248 -0.051151082
0002d0 e9 80 99 bd 96 0c d8 3c ba ea 11 bd 5d 3b 5d 3d
       -0.07495291 0.026373189 -0.035624243 0.05401169
0002e0 1b 00 8a bd 76 75 91 bd 5b b2 96 bc 24 c9 c0 3c
       -0.06738301 -0.07102482 -0.018395593 0.023533411
0002f0 39 04 aa bd 05 71 48 bc 20 f8 54 3d 4b af 3b bd
       -0.08301587 -0.012233977 0.051994443 -0.04582147
000300 2c 16 90 bc 87 81 1b 3d 0a 38 6e 3d 2a 0f 81 bd
       -0.017588697 0.037965324 0.05815891 -0.063017204
000310 04 33 8d bd 17 ba 83 3d 14 6b 0c bd 59 2d 16 3c
       -0.06894496 0.06431978 -0.034281805 0.009166085
000320 ad 2f 29 3d 93 2a 74 bc df ee 64 3d a7 44 33 3e
       0.041305233 -0.014902729 0.055891868 0.17506658
000330 a5 5d 84 bd 4e e3 79 3d 47 dc e4 3c 40 4a 43 3d
       -0.06463174 0.06100779 0.027937068 0.047678232
000340 81 64 96 3d aa c8 65 bd 4e cc dd 3d 7f 34 c9 3c
       0.07343388 -0.05609957 0.10829984 0.024561165
000350 83 9f 7d 3d 8d a7 17 bd 52 ac 71 3d 1a ea 91 bd
       0.0619197 -0.037025023 0.059002228 -0.071247295
000360 19 42 46 bc 0b f7 70 bd 2f 1c fe bc d9 1e 9d 3d
       -0.01210072 -0.05882935 -0.031019298 0.07671899
000370 38 d1 9e 3d 1f 9d 88 bd ca e2 6a 3d 03 0c a1 3c
       0.07754749 -0.066705935 0.05734519 0.019659048
000380 3b 9b 04 3e 5d e8 25 bc 67 53 86 3d f2 a7 75 3b
       0.1294984 -0.0101262005 0.065588765 0.0037484136
000390 df 38 8c 3d 7e 63 83 bd ae b0 a2 3d 88 db 91 bd
       0.06846785 -0.06415461 0.07943855 -0.071219504
0003a0 e3 b1 f2 3c 39 81 64 bc f1 fd 0b bd f5 69 1a 3d
       0.029625839 -0.013946825 -0.034177724 0.037698705
0003b0 1e ca 5c bd 1f 54 23 bd 5d 54 80 bd 3e 3a 54 3d
       -0.05390369 -0.039875146 -0.06266091 0.051813357
0003c0 5a a7 73 3d fc f6 07 bd fc e4 a3 bc dd f2 3e 3d
       0.05948577 -0.033194527 -0.02000665 0.04661833
0003d0 a4 40 dc 3c 7c 38 5d be 48 3a 05 bd c4 36 6a bc
       0.026886292 -0.21603578 -0.032526284 -0.014295284
0003e0 3d d5 11 3d 39 76 8b 3a 39 72 c6 3c a8 a1 58 bd
       0.03560375 0.0010640091 0.024224387 -0.052888542
0003f0 e9 c7 80 39 ac 24 4f 3d 99 61 15 3c c0 85 d3 3c
       0.00024563007 0.050572082 0.009117507 0.025820613

layer2.bias f4 [128]
000000 24 d9 75 bc 93 ec 3b 3d 6f a5 3b bd 0d 75 68 bd
       -0.015005384 0.04587991 -0.045812067 -0.056752253
000010 eb 51 94 bc 28 5e 8a 39 22 28 8d bd 63 c9 ce 3e
       -0.018105468 0.00026391563 -0.0689242 0.4038802
000020 91 8d b7 bd 35 23 5e 3e 33 c7 00 bd 56 39 2c 3a
       -0.089625485 0.21693118 -0.03143997 0.0006569823
000030 00 95 55 3d 9b 38 a5 bd d5 41 12 bd 1a 95 0a bd
       0.05214405 -0.08067437 -0.035707314 -0.0338336
000040 a2 bc da 3e 18 42 ae 3d be d5 11 40 dc 88 89 3c
       0.4272204 0.085087 2.2786708 0.016788892
000050 34 91 af bc 4d fa 15 40 76 da 90 3e fb 66 a9 3f
       -0.021431543 2.3434021 0.28291672 1.3234552
000060 fd dc b5 3e 24 57 81 3e fe 3c 27 bd 38 60 41 bd
       0.35520163 0.25261796 -0.04082965 -0.047210902
000070 05 74 ac 3e e8 fb 84 3c a7 83 cb 3e 71 0c d4 bc
       0.33682266 0.0162334 0.3974888 -0.025884839
000080 0c d7 40 bd 24 bd ff bc 54 4e 85 bd c4 ec 64 bd
       -0.047080085 -0.031218119 -0.065090805 -0.05588986
000090 b6 72 c9 3c 64 b8 2c bd 3a 74 35 3d 68 fb 1b be
       0.024590831 -0.042168036 0.044300295 -0.15232623
0000a0 16 0a d8 3e 78 10 59 bd 94 c7 0d 3d 33 d6 88 3f
       0.42195195 -0.05299422 0.03461416 1.0690368
0000b0 57 91 84 3d e0 33 3c bc ea f9 0a be c3 8e 03 bd
       0.06473034 -0.011486977 -0.13571897 -0.03211857
0000c0 8c 80 d4 3e be 0b 03 40 a1 88 7e 3d 0c 46 19 bd
       0.41504323 2.0475917 0.06214202 -0.037420318
0000d0 8a a0 fe 3f 1e c1 7a 3d 39 ca 96 bc f2 f3 07 bd
       1.9892743 0.061219327 -0.018406974 -0.03319163
0000e0 53 bd a0 3e 1a 3c 81 3d fe a7 d9 3e 65 89 a3 bd
       0.31394443 0.063102916 0.4251098 -0.0798519
0000f0 b1 09 c1 3d be 09 c0 3e 6c ce 36 bd 00 11 93 3c
       0.094256766 0.37507433 -0.044630453 0.017952442
000100 26 5d 6a 3e 8b c3 8a 3f 29 fd 9b 3e 9a 6a 4a 3d
       0.22887096 1.0840925 0.30466583 0.04941807
000110 08 d3 50 3d 37 0e 16 3d ec 89 4c 3d 7b d4 c3 3e
       0.050982505 0.03663465 0.04993622 0.38248047
000120 06 33 b1 3b 2a b4 24 3d 6b 12 71 3d 5b e2 3c 3e
       0.005407694 0.04021088 0.058855455 0.18445723
000130 e0 fb 28 3d de af 36 bd 68 9a 4b bd 61 cb a3 3d
       0.04125583 -0.044601314 -0.0497078 0.07997776
000140 31 19 c1 bd 96 f8 21 bd 5b e2 15 3f 6a 17 00 40
       -0.09428633 -0.03954371 0.58548516 2.001429
000150 9e 21 69 3d b4 9b 8a bd a1 dc 7f bd a6 88 0d 3e
       0.056916825 -0.06767979 -0.062466267 0.13821658
000160 61 7c de 3b c0 ba 53 bc c4 c9 b2 3e cb 65 8d 3e
       0.0067897295 -0.012922943 0.3491956 0.27616724
000170 fd ec 1b bd 63 34 87 3d 04 e6 b0 bd 66 4e 2b 40
       -0.038067807 0.06601789 -0.08637622 2.67666
000180 72 23 82 3c 4b 51 d5 3e 06 29 d7 3e 96 3c 86 bd
       0.015886042 0.41663584 0.42023486 -0.065545246
000190 2b e6 e9 3f 37 3f 01 3d 4a 71 a0 bc e8 8e 2f bd
       1.8273367 0.031554427 -0.01958527 -0.042860895
0001a0 3f dd d2 3e bc ee 29 3b 27 70 b1 3f 6e 85 f5 3f
       0.41184422 0.002592965 1.3862351 1.9181345
0001b0 c5 e5 60 bd fd 58 79 3d a9 a8 26 3e ff 86 7c 3d
       -0.054906625 0.06087588 0.16275276 0.06165218
0001c0 dc e5 e5 3f cc 4e 28 be 98 59 d5 3e a6 a7 1e 40
       1.7960773 -0.16436309 0.41669917 2.4789824
0001d0 1c 05 7d bd 71 4e 51 bd 20 58 3d bd f2 9b 6b bc
       -0.06177245 -0.0511002 -0.04622662 -0.014380442
0001e0 35 74 82 3e 28 f3 8b bd 6d f5 af 3f 00 0d ef bc
       0.25479284 -0.06833488 1.3746773 -0.029181004
0001f0 39 d5 9e bd aa 3c 73 3d a3 7e 83 3f 34 3f df 3e
       -0.07755513 0.059384026 1.0273021 0.43602908

layer3.weight f4 [3, 128]
000000 dd f2 1c 3e 14 bb 9e 3d 0d ed 65 bc 3f 89 87 3d
       0.1532702 0.07750526 -0.014033568 0.066179745
000010 6a 77 47 bd b7 5b a4 bd 9b 2e 87 3d 3e 18 41 be
       -0.048697866 -0.08025306 0.06600686 -0.18856904
000020 e7 09 fa 3b c1 a5 a8 bd 1c 80 52 bc 22 92 2f 3d
       0.007630575 -0.0823474 -0.0128479265 0.042863972
000030 0c 9e 16 3d 1f 09 79 3b 31 d5 9e 39 2c 2d 91 3d
       0.03677182 0.0037999821 0.00030294948 0.07088694
000040 b4 55 47 be 0b e5 18 3d 25 da d3 bf 06 9f 99 bd
       -0.19466287 0.037327807 -1.6550947 -0.075010344
000050 5d 66 27 3e 38 3a ad bf 46 0d 2d bd 80 93 a0 bf
       0.16347642 -1.3533392 -0.042248987 -1.2545013
000060 9c e5 0b be 57 a6 16 be ab d2 0b 3c e8 06 67 bd
       -0.13661808 -0.14711891 0.008534114 -0.05640307
000070 90 dc 3c be 9c a0 4b 3d 11 7a 24 be 76 32 3e 3d
       -0.18443513 0.049713716 -0.1606219 0.046434842
000080 2e 52 31 bb d2 19 ec 3d 0b e1 b6 3d 25 9f 11 bc
       -0.002705704 0.11528362 0.08929642 -0.008888041
000090 b4 fb 50 bc ab 51 73 bd b6 ed 28 3d 60 65 05 3e
       -0.012755323 -0.059404057 0.041242324 0.13026953
0000a0 f1 ea 00 be 53 80 19 3d 4b 31 39 bd cd 08 93 bf
       -0.12589623 0.037475895 -0.045213025 -1.1487061
0000b0 a1 67 66 3d b6 cf a3 3d ed e7 62 3d ad 70 86 3c
       0.056251172 0.07998602 0.055396963 0.01641115
0000c0 1b 11 cf bd ff cf b3 bf 75 5d 9b bd cb 74 c5 3d
       -0.101106845 -1.404785 -0.07586185 0.09641417
0000d0 8a 70 bf bf 3b ee a2 3d a4 12 ce bc 6b 6f f5 3b
       -1.4956219 0.07955595 -0.025155373 0.0074900887
0000e0 37 3d 33 be a3 4f a6 3d 9c 1c 4c be 0e 50 95 3d
       -0.1750382 0.08120658 -0.19932789 0.0729066
0000f0 64 1f 23 be 5d 5a 4b be 86 5d 85 3d f2 e9 fa bc
       -0.15929943 -0.1985869 0.06511979 -0.030629132
000100 23 4c f8 bd 00 76 91 bf f2 9d 77 be c7 9f 00 3e
       -0.12123897 -1.1364136 -0.24181345 0.1256095
000110 6b 42 37 3e ea 3a e3 bc 73 0e 70 bd 93 de 3e be
       0.1789643 -0.027738053 -0.05860753 -0.18639593
000120 7c c4 2b bd 9d 12 10 3e d6 9e 89 bd d1 46 1e be
       -0.04193543 0.140696 -0.06719749 -0.15456702
000130 d8 0d 66 3b 88 f6 6b 3d e1 69 8e bd 48 2b 9e 3d
       0.0035103466 0.057608157 -0.069537885 0.07723099
000140 c3 4f 77 3d f1 60 c2 3d 39 aa 85 be 1d 0b b9 bf
       0.0603788 0.09491146 -0.26106432 -1.4456517
000150 8e a2 5b bb e2 71 77 3d 74 37 e4 3d dd 85 53 bd
       -0.0033513638 0.06041134 0.11143389 -0.051641334
000160 bd c7 3f bc b0 37 a4 3d a0 14 2b be 6d 6b 47 be
       -0.011705336 0.08018434 -0.16707087 -0.19474573
000170 a5 60 3e bd 49 4a 63 bc 02 61 ee 3d f3 b9 de bf
       -0.046478886 -0.013872691 0.116395965 -1.7400497
000180 66 2b ca 3d 55 7b 2a be 6c a7 61 be 42 d7 6d 3c
       0.09871559 -0.1664861 -0.22036523 0.0145166535
000190 03 68 a5 bf 96 0c 57 bc 3b c6 3f 3d da c9 12 3e
       -1.2922367 -0.013125559 0.046819907 0.14334813
0001a0 bb f3 57 be 62 8b b9 3d 51 c3 97 bf cb 70 b8 bf
       -0.2108907 0.09059788 -1.1856481 -1.4409422
0001b0 6a 5c 52 3b 67 43 82 bc c0 f1 09 be 33 ef 9a bc
       0.003209854 -0.01590128 -0.13471127 -0.018912887
0001c0 b3 56 b0 bf 6f 21 11 3e 57 76 5c be fd 2c d6 bf
       -1.3776459 0.1417291 -0.21529518 -1.6732479
0001d0 d4 c3 d7 3d 7f c7 5c 3d d0 45 04 bd 73 9f 16 bd
       0.10535398 0.05390119 -0.03229314 -0.036773156
0001e0 42 a9 5b be 0e 7f 89 3d fe 61 b2 bf bd e9 6b bd
       -0.21451285 0.06713687 -1.3936155 -0.057595957
0001f0 40 36 a3 bc 02 ad 85 3d f3 a9 71 bf 59 37 07 be
       -0.01992333 0.06527139 -0.94399947 -0.13204707
000200 fa 9e 0d 3e 40 c0 44 3d 7e 8f 00 bd 98 df 58 bd
       0.13830176 0.048034906 -0.031386845 -0.05294761
000210 40 c0 7e bd b7 7e 8a bd e7 87 37 bd ba 01 1e be
       -0.062195063 -0.0676245 -0.04480734 -0.15430346
000220 6e 79 2e 3e cc 5f 8f bc f1 05 83 3c 72 bf 76 bd
       0.17038509 -0.017501734 0.015994044 -0.06024117
000230 e2 33 d0 3d 80 b8 d0 3c d7 7a 93 3d 1e 5a e7 3d
       0.10166146 0.025478601 0.07201164 0.11296485
000240 23 68 65 be 03 62 7c 3d 51 1b b3 bf 73 af 07 3d
       -0.22403006 0.06161691 -1.3992711 0.033126306
000250 f1 a0 25 3e 1b 47 e1 bf 5d 39 24 be 63 66 86 bf
       0.16174676 -1.7599825 -0.16037507 -1.0499996
000260 b6 cf 66 be 45 3b fe bd 35 70 90 3d 92 f8 8e 3d
       -0.22540173 -0.124136485 0.07052652 0.06981005
000270 13 19 04 be 2a 12 14 3d 3e dd 57 be 6d 3a 40 bc
       -0.1290019 0.036150135 -0.21080491 -0.01173268
000280 eb 0c e2 bc 7b c4 16 3e 36 d1 a0 3d ec 60 92 3d
       -0.02759405 0.14723389 0.07852404 0.07147393
000290 ac ca e1 bc b8 56 11 bd cc 48 ba 3d de 74 ce 3d
       -0.027562462 -0.035483092 0.09095916 0.100808844
0002a0 95 34 1c be bd f2 94 bd e6 5c 4e 3b 47 67 6c bf
       -0.15254433 -0.07272861 0.0031488477 -0.9234509
0002b0 0e b3 b1 bc be 2c 1b 3d d8 4b fb bb 67 12 99 bd
       -0.021691825 0.037884466 -0.0076689534 -0.07474213
0002c0 f0 81 68 be 06 d1 c3 bf 37 9c 3e bd ac 71 d9 3d
       -0.22705817 -1.5298164 -0.046535697 0.10617384
0002d0 0b 4e ca bf 2a ab e4 3c 01 ff 19 3d a4 0e d1 bc
       -1.5805067 0.027913649 0.037596706 -0.025519677
0002e0 a6 73 32 be 7c 26 31 3d 47 5a 44 be 02 20 6b 3d
       -0.17426929 0.043249592 -0.19175063 0.057403572
0002f0 37 19 55 bd a7 dd 42 be 39 4b 94 3d 0d 7f 9f 3d
       -0.052026 -0.19029866 0.0724091 0.07787905
000300 75 1a 0a bd 2f 08 71 bf 2f fc 4e be a6 b0 a6 3d
       -0.033716638 -0.9415311 -0.20213388 0.08139162
000310 d0 30 b6 3d f7 31 0a 3d aa ea 39 3d d8 c3 2f be
       0.08896029 0.033739056 0.04538981 -0.17164552
000320 16 25 48 3d 84 8d bd 3d 35 a1 9b bd 7a 6e 2b bd
       0.048863493 0.092555076 -0.07599107 -0.041853406
000330 df 1a 1f 3d 12 cf be bc 28 68 40 3d a8 d6 8f bd
       0.038843986 -0.023292098 0.04697433 -0.07023364
000340 82 d8 a7 3d 57 e7 b4 3d 6d 79 e5 be 58 5e b9 bf
       0.081955925 0.08833187 -0.44819203 -1.4481916
000350 6f 57 92 bd 16 91 eb 3c ef 90 09 3e 54 e1 b9 bc
       -0.07145583 0.028755706 0.13434194 -0.022690453
000360 b2 c2 3a bc 7d e2 5d 3d 89 6d 02 be 6e 26 b0 bd
       -0.011398958 0.054171074 -0.12737097 -0.0860108
000370 02 c1 72 3d 25 1e 18 bd bc d3 ad 3d 41 e3 04 c0
       0.059266098 -0.037138123 0.08487651 -2.0763705
000380 62 18 8c 3d f0 76 90 be 65 d6 2e be fe 18 09 bd
       0.06840588 -0.28215742 -0.17073973 -0.0334711
000390 e0 b3 9f bf 12 13 6c bd c6 5f af ba b2 0b 28 3e
       -1.2476768 -0.057635374 -0.0013379983 0.16410711
0003a0 5f a3 46 be 6b b0 f0 3d c4 8e 8c bf 5f e6 a0 bf
       -0.19398259 0.11752399 -1.0981069 -1.2570304
0003b0 4d 8e c8 3d fb 98 32 bd 89 f5 06 be bd 6e 9b bd
       0.09792767 -0.043602925 -0.13179602 -0.07589481
0003c0 35 9d a2 bf df 18 89 3e 65 5e 2b be 4d e2 f1 bf
       -1.2704226 0.26776788 -0.16735227 -1.8897187
0003d0 81 e5 a7 3d 1f 33 aa 3d 3a 8d 0c 3d ce 4d 8c bd
       0.08198071 0.08310532 0.03431437 -0.068507776
0003e0 6a d3 07 be bc c3 27 bc c8 3d 8d bf 0b 1d 1b bd
       -0.13264242 -0.010239538 -1.1034479 -0.037869494
0003f0 78 a9 cb 3c 89 bf a9 bc 1e 4d 69 bf 50 12 54 be
       0.024861082 -0.020721214 -0.91133296 -0.2071011

layer3.bias f4 [3]
000000 5b fd 9a be 0c f4 7b be d8 1a 10 be
       -0.3027142 -0.24604815 -0.1407274
