models/rl_models/03.03.24/best_target_dqn_model_epoch_16.pt (torch, 74158 bytes, 6 tensors)

layer1.weight f4 [128, 6]
000000 74 00 af be 63 06 75 3e 57 96 63 bd dc fb 59 be
       -0.34180033 0.23928218 -0.055563297 -0.21287483
000010 e0 d5 63 3e 67 36 21 be 1b 47 86 3e 72 38 17 3e
       0.22249556 -0.15743409 0.26226124 0.14767626
000020 c5 d3 67 be bb fc 14 3d 25 09 15 be 30 cc 7f bd
       -0.22639377 0.036373835 -0.1455427 -0.062450588
000030 f8 11 ae bd 14 56 b2 be 53 1c b5 3d 22 7c b2 be
       -0.08499521 -0.34831297 0.08843293 -0.3486033
000040 dc ea ae 3e b8 9c 46 be 25 ee 9a be 78 f6 ad be
       0.34163558 -0.19395721 -0.30259815 -0.33977103
000050 d6 49 94 3e c5 e5 8b 3e 8e 0e 10 be f6 24 63 3e
       0.28962582 0.27323738 -0.14068052 0.22182068
000060 a7 c6 c5 be 7e de ba bd b1 b6 8d bd 8d 73 c0 3e
       -0.38628122 -0.09124468 -0.06919611 0.37588158
000070 52 86 76 be 17 4f 40 3e 16 d0 78 be 68 ed 77 bd
       -0.24074677 0.1878017 -0.24298128 -0.060529143
000080 a0 ba 0d be f5 5f c3 3d 94 b7 89 3e b1 41 75 be
       -0.13840723 0.09539787 0.26897871 -0.2395084
000090 04 25 ae be 23 e4 09 3d 11 76 c0 3e b2 03 6f be
       -0.34012616 0.033664834 0.37590078 -0.23341253
0000a0 f1 76 00 be 30 62 51 3e 5f f0 35 3d 7d 0e b5 3e
       -0.12545373 0.20447612 0.04441869 0.35362616
0000b0 2e 8f f6 bd c9 01 7e be 95 9f a3 be bc bd ea 3d
       -0.12039028 -0.24805368 -0.3195769 0.1146197
0000c0 bc 5b fb bc 08 c0 be 3e 70 a0 61 3e f4 ab bc be
       -0.03068339 0.37255883 0.22033858 -0.3684994
0000d0 02 71 0b be d3 3b bb 3d 65 8a bd be 4d 08 23 bd
       -0.13617328 0.0914227 -0.3701965 -0.039802838
0000e0 52 38 6d 3e 2d b7 a2 3b 76 2a b7 bd e0 2b 94 be
       0.23166016 0.004965684 -0.08943646 -0.28939724
0000f0 03 d2 17 bd d2 df 6e be 1c f3 5b be 73 5e 85 bd
       -0.037065517 -0.23327568 -0.21479458 -0.065121554
000100 1a 53 48 ba 6b 73 9e be 34 e5 84 3d 3e a3 41 3e
       -0.00076417776 -0.30947432 0.064890295 0.18909928
000110 40 81 8e 3e fb 3c f6 bd c4 6d 7e be 1e 94 48 be
       0.27832985 -0.1202335 -0.2484656 -0.19587752
000120 47 dd 6c be 0d 03 9c 3e 50 da d7 bc e0 ac aa 3e
       -0.23131286 0.30471078 -0.026349217 0.33335018
000130 63 9b 5c be 56 e0 60 be 7f 74 9c bd 4d 0c 0a be
       -0.2154365 -0.21960577 -0.07639407 -0.13481255
000140 c7 c4 b5 3e 30 12 55 3c 17 ba 38 3e f0 c8 be 3e
       0.35501692 0.0130048245 0.18039738 0.37262678
000150 a2 5d be be 68 ff a9 be 4d 70 96 bd 22 a6 4f bc
       -0.3718081 -0.33202672 -0.073456384 -0.0126738865
000160 d8 18 c4 3e 71 b5 66 bc 9b a8 e7 3d bb 4f 0c be
       0.38300204 -0.014081345 0.11311456 -0.1370229
000170 da 89 91 be 41 a0 bd bd e2 9a 75 be a6 a2 0b 3e
       -0.28425485 -0.09259082 -0.23984864 0.13636264
000180 06 43 00 3e e8 4a 68 3e 78 0e 84 bd 94 6d be 3e
       0.12525567 0.22684824 -0.06448072 0.37192976
000190 33 52 14 3e d3 7d a7 be 62 10 de 3e 89 1d f0 bc
       0.14484482 -0.32713184 0.43371874 -0.029310958
0001a0 5e 88 c2 3e ab 69 2c bd 29 8d c8 be 7f 2e 21 be
       0.37994665 -0.04209296 -0.39170197 -0.15740393
0001b0 9d 4d 0a be 18 7d 24 3e 49 e8 aa be a3 8e c9 bd
       -0.1350617 0.16063344 -0.33380345 -0.09841659
0001c0 36 16 88 3e 6f b7 a6 3e 3b c3 bb 3e 52 df 54 3d
       0.26579446 0.32561824 0.36672387 0.051970787
0001d0 4e d8 2f 3d 58 3a ba be 9a 4b af 3d df 7c a6 3d
       0.042930894 -0.36372638 0.08559342 0.08129286
0001e0 25 7e b2 3e e1 3e 51 3c 8e 3d 3e 3e 6e 45 88 be
       0.34861866 0.012771339 0.18578169 -0.2661547
0001f0 83 69 cb 3e 40 55 38 be af ed 3a be 3b 12 80 be
       0.39728937 -0.1800127 -0.18254732 -0.2501391
000200 54 89 10 3e b8 4e d0 bd 05 d6 43 be 49 8d 80 3e
       0.14114887 -0.101712644 -0.1912461 0.25107792
000210 2e 16 3e be 42 b0 5c 3c 82 11 2e 3b 2c a0 b0 3e
       -0.18563148 0.0134697575 0.0026560728 0.344972
000220 29 66 90 3e 4a ca 87 be 02 42 e7 bd ea 4a ee bd
       0.28202942 -0.26521522 -0.11291887 -0.116353825
000230 8f 89 9a be bd 79 1a be e0 7c cd 3b 90 6e 8d be
       -0.30183074 -0.15085502 0.00627099 -0.27623415
000240 fd 95 9d be 34 7c 8d 3e d4 b9 0e be 12 c1 6b be
       -0.30778494 0.27633822 -0.13938075 -0.23022869
000250 e0 5f 4f be 88 12 ce 3d df 44 9e be f3 5d 35 3d
       -0.20251417 0.10062128 -0.3091192 0.04427905
000260 fd 72 88 be 24 86 ad bd db b6 79 bd d6 af b6 be
       -0.2665023 -0.08472851 -0.0609654 -0.35681027
000270 0f d0 8e be 5c 4f 42 be 0f 19 80 3e 58 70 91 bd
       -0.2789311 -0.18975586 0.25019118 -0.07101506
000280 e9 78 3e 3e b2 da 40 be 81 d1 a2 3e 38 07 ea bd
       0.18600811 -0.18833426 0.31800464 -0.11427158
000290 a6 43 a9 3d 62 a7 87 3d d1 86 09 3d da 37 a6 bd
       0.08264856 0.066237226 0.033575837 -0.081161216
0002a0 27 eb b5 be fc 29 a0 be 08 eb 5a 3e c9 33 ad 3e
       -0.3553097 -0.31282032 0.2137872 0.3382857
0002b0 3f 60 0b 3e 1a 54 3c be e1 8e ec 3e 95 50 5f be
       0.13610934 -0.18391457 0.46202758 -0.21808083
0002c0 b4 0d d1 3e 37 50 bd 3e 10 aa 66 be 74 82 90 3e
       0.40830767 0.36975262 -0.22525811 0.28224528
0002d0 85 3f 40 be d0 90 0c 3e 9d 35 19 be 48 0b 78 3e
       -0.18774231 0.13727117 -0.14961858 0.24223053
0002e0 28 70 98 3e 8d 25 fb 3b a4 33 71 bd 11 76 08 3c
       0.29773068 0.0076643885 -0.05888714 0.0083289305
0002f0 aa d7 b5 3e 8a 45 ab 3e 7f e3 ad 3e 73 cd 50 3e
       0.355161 0.33451492 0.33962628 0.20390873
000300 29 44 ab 3e d2 f5 2b 3e fd ea 89 be 52 ca 9c bd
       0.3345044 0.16792992 -0.26937094 -0.07655777
000310 ac ef 33 be 09 89 e3 3d bb e2 43 bc 74 51 05 3c
       -0.17571896 0.11110122 -0.011955912 0.008137096
000320 4b d9 83 3e 93 68 9c 3e fc 07 39 3e ba 86 2a bd
       0.2575172 0.30548534 0.18069452 -0.04163239
000330 7a 59 ee ba 7b 44 78 3e 3c 09 83 be 55 86 79 3e
       -0.0018184625 0.24244873 -0.25592983 0.2436765
000340 76 0c 92 3e 56 46 eb 3c 43 20 89 3e d8 49 47 be
       0.28525132 0.028720062 0.26782426 -0.19461763
000350 66 d7 98 3e 8a a4 3b 3e e7 54 6f 3e 22 54 9e bb
       0.29851836 0.18324485 0.23372231 -0.0048318068
000360 e8 2c 90 be ac c9 2e be 80 dd af be c4 f1 63 3e
       -0.2815926 -0.17069119 -0.3434868 0.22260195
000370 e6 57 c1 bc 66 41 ab 3e f8 13 ca bd 73 92 84 3e
       -0.023601484 0.33448333 -0.0986709 0.25892982
000380 8c ac ae be e2 12 33 3e 4f 04 ba 3e 35 f4 c3 3e
       -0.34116018 0.17487672 0.36331412 0.38272253
000390 05 54 b2 3e de 4a 85 bd 1a 60 80 3d 1f d3 23 be
       0.34829727 -0.065084204 0.0626833 -0.15998505
0003a0 97 d2 aa 3e 46 86 27 be 5f 9a 84 3c 87 2d 08 bd
       0.33363792 -0.16359815 0.016186891 -0.033246543
0003b0 b9 9e 3c 3b 54 a7 10 be d7 e5 83 be 6a ec 71 3e
       0.002878113 -0.1412633 -0.2576129 0.23625341
0003c0 f9 d0 84 be b7 de 05 3e 4f 77 17 3e a7 f4 bb be
       -0.25940683 0.1307324 0.14791606 -0.36710092
0003d0 a2 50 76 ba d1 70 3d 3e 12 24 0e 3d d2 45 95 3e
       -0.00093961705 0.18500067 0.034702368 0.2915483
0003e0 30 c1 61 3e f5 f4 9a bd 80 78 b4 3e 14 ac 0d be
       0.22046351 -0.07566253 0.35248184 -0.13835174
0003f0 c1 cd af 3d 6b 8e 47 be 5e 42 23 3c f2 7b c1 3e
       0.08584166 -0.19487922 0.009964554 0.37789875

layer1.bias f4 [128]
000000 fc a5 08 40 64 21 22 be 31 7b 18 be 78 8f 18 40
       2.135131 -0.1583305 -0.14890744 2.3837566
000010 5b 34 77 be c2 7c 9f be 1b 83 0b 40 a1 c2 86 be
       -0.24141066 -0.3114987 2.179877 -0.26320365
000020 61 38 36 3f de 90 a4 be b9 ec c4 be 02 de fc 3f
       0.7117978 -0.32141775 -0.38461855 1.9755251
000030 db 6d 35 be 1b 82 45 bc bf 51 c2 be c1 be 0b be
       -0.17717688 -0.012054945 -0.37952992 -0.13646986
000040 8f ac aa 3f 63 ae 53 be d7 90 04 bc 34 5d 77 be
       1.3333911 -0.20671992 -0.008091173 -0.24156648
000050 53 57 da 3f 20 ae 9d be 4f 96 94 be fd 4d 1a bd
       1.7057899 -0.3079691 -0.29020926 -0.03767203
000060 1d 1f 2c be 72 ae d0 bc 97 7c 9e bd 66 94 a4 be
       -0.16808744 -0.025473807 -0.077386074 -0.3214447
000070 b2 41 77 be a9 b2 4a be fd 56 cb 3f c6 0c a4 3f
       -0.24146155 -0.19794716 1.5885922 1.2816398
000080 c2 32 91 be e2 ed ce b8 33 81 bf be 84 a6 81 3f
       -0.28359038 -9.8671546e-05 -0.3740326 1.0128942
000090 d5 1b 22 bd 8b f3 83 3f 6e 93 b2 3e 6b 6e 22 be
       -0.039577324 1.0308698 0.34878105 -0.15862434
0000a0 0d 35 1c 40 5e 92 26 3f 48 5b 89 3f c6 96 bc 3e
       2.440738 0.6506709 1.0730982 0.3683378
0000b0 b4 20 13 40 25 84 af 3e aa b0 ee bd c0 75 25 40
       2.298871 0.34280506 -0.1165479 2.585312
0000c0 ff 3a 1e 40 0a 0c 22 3f a8 5d a7 be 9a 5c f7 b8
       2.4723508 0.6329962 -0.32688642 -0.00011795126
0000d0 0a 34 1c be 9b ec 90 be f7 01 1b 40 68 73 77 be
       -0.15254226 -0.28305516 2.421995 -0.24165118
0000e0 38 96 0a 40 b4 b5 10 be 53 2c db b8 6e 32 c1 bd
       2.1654186 -0.14131814 -0.0001045099 -0.09433447
0000f0 21 d3 a7 be b8 a7 21 be a0 63 d4 bd d2 de a0 b8
       -0.32778266 -0.15786636 -0.103705645 -7.670898e-05
000100 ed 51 8f bd d1 3b 15 40 12 b4 94 3f f1 f8 03 40
       -0.06998048 2.331776 1.1617453 2.0620692
000110 b8 d7 16 40 88 83 a5 be 65 95 1c b8 a3 4e 72 be
       2.3569164 -0.32326913 -3.7332433e-05 -0.2366281
000120 53 d5 83 be 60 08 26 40 20 e8 0e 40 8b d0 db 3f
       -0.2574869 2.5942612 2.2329178 1.7173017
000130 de 02 12 40 66 c7 0d 3e cb 84 7a 3f f6 24 6b 3f
       2.281425 0.13845596 0.97858876 0.9185327
000140 d0 47 0a 40 58 b6 b4 3f ca 9c cc bb 4c e5 0c 40
       2.160633 1.4118147 -0.0062442767 2.2014952
000150 16 c1 1d 40 e0 ae 1d bb 3e 04 a2 be 09 fa 76 b8
       2.46491 -0.0024060532 -0.31643862 -5.8883834e-05
000160 62 ed 60 be f2 1c 50 bd 40 e9 8c bd 43 8d b7 bd
       -0.21965554 -0.050808854 -0.068804264 -0.089624904
000170 e2 a2 71 be fa 1c 1c 40 5b b1 87 3e ee d7 07 be
       -0.23597291 2.4392686 0.265025 -0.13265964
000180 fe 56 15 be 71 d2 ca be 1d b3 62 bc 96 4e 1e bb
       -0.14583966 -0.3961368 -0.013836649 -0.0024155728
000190 79 37 a1 bd 87 f3 1d 40 ae d4 79 bc 16 d9 17 40
       -0.07871909 2.4679887 -0.015248461 2.3726249
0001a0 19 ed 55 be 80 ed b5 3f 02 b7 87 be ff d6 24 40
       -0.20891227 1.4213104 -0.2650681 2.5756223
0001b0 16 2b e5 bd 4a 7d 52 3f d7 d8 1c 40 f0 c8 3d be
       -0.111898586 0.82222426 2.4507349 -0.18533683
0001c0 4a af 43 be b3 2b e0 3e 32 31 45 be 0b a6 bd be
       -0.19109836 0.4378334 -0.19257048 -0.37040743
0001d0 bf b4 8b 3e 8e 02 34 3f 7d ef d2 3f 88 5c 20 3f
       0.27286336 0.703164 1.6479336 0.6264119
0001e0 5b 73 9c 3f fb 41 a1 be 6e 80 55 be de b5 fe bd
       1.2222704 -0.31495652 -0.20849773 -0.12437032
0001f0 27 f6 0a 40 b3 60 b6 be 00 c5 1a 40 50 75 cc bd
       2.171274 -0.3562065 2.418274 -0.09983313

layer2.weight f4 [128, 128]
000000 2f 95 1e 3d 71 f7 e5 bd fa d8 a8 bc 8f 10 c6 bd
       0.03871649 -0.11228836 -0.020611275 -0.09671127
000010 4d 70 a7 3d 49 c2 ac 3d 81 09 23 3d d2 03 74 bd
       0.081757165 0.084354945 0.039803986 -0.059573956
000020 7e c6 48 bd d4 15 e7 bc 79 f5 3c bb d7 f9 b8 3d
       -0.049017422 -0.02820865 -0.0028832837 0.09032028
000030 a8 b9 98 bd 32 96 6b 3e d2 4d f1 bc a8 49 5a 3b
       -0.07457286 0.23006514 -0.029456053 0.0033308063
000040 fb 9e 46 3d 3d 0a 99 bd 96 34 7e bb b2 27 ec 3c
       0.04849146 -0.07472656 -0.0038788668 0.028827522
000050 33 cc 76 bc 14 f5 8d bd 30 58 56 3d f4 a3 14 3c
       -0.015063333 -0.069315106 0.052330196 0.009072293
000060 28 6b ad bd 53 8a a9 3b d4 35 03 bd fe 03 84 bd
       -0.08467704 0.0051739602 -0.032033756 -0.06446074
000070 c1 f5 78 3d 13 49 73 be af 31 ba 3d b8 c2 81 bd
       0.060781244 -0.23758344 0.09091508 -0.06335968
000080 32 21 54 3c a8 b0 cc 3b 56 a0 01 3d 29 91 e6 bb
       0.0129473675 0.006246645 0.03164705 -0.0070363474
000090 03 54 34 bc 3b 62 18 3d f5 66 8d 3c c3 34 25 bd
       -0.011006358 0.037203055 0.017261008 -0.04033352
0000a0 c8 f7 b7 bc b3 00 fa bc 4c 95 2b be 42 37 1a bd
       -0.022457018 -0.030517912 -0.16756171 -0.037650354
0000b0 cd 3d 99 3d 6f 5b 37 3a df a7 8e bd 9f 0d 27 3d
       0.07482491 0.00069945207 -0.069656126 0.040784474
0000c0 90 5c 0b bd f4 38 b0 bc eb 12 f6 bb 1f b9 a0 3c
       -0.03402382 -0.021511532 -0.0075095794 0.019619523
0000d0 58 05 93 bd 5a 1d 90 3c 0a 17 2d 3d 44 5c 26 ba
       -0.071787536 0.01759212 0.0422583 -0.0006346146
0000e0 8b c3 c6 3c 02 7c 10 3b 00 b2 3f 3d 4e fb 3f 3d
       0.024263164 0.002204657 0.046800613 0.046870522
0000f0 1e 72 7d 3c c7 5c 21 bd d2 d7 2d 3b 0f bd b4 3c
       0.015469102 -0.03939512 0.0026526344 0.022062806
000100 6e 12 0d bd 91 d9 22 bd 2f 92 b8 3c c4 a2 74 bd
       -0.034441404 -0.03975827 0.022530643 -0.059725538
000110 07 48 8e bd 23 ff 72 bd 1d db a1 3c 45 d6 86 bd
       -0.06947332 -0.05932535 0.019757802 -0.065838374
000120 db 45 31 3d c1 a0 a3 bd ce d9 e7 3b 87 b4 15 3e
       0.04327951 -0.07989646 0.007075525 0.14619647
000130 79 b7 86 3b 86 8c 5a 3b 26 fd 90 bc 62 ae 60 bd
       0.004111227 0.0033347919 -0.017698836 -0.054853804
000140 3a 18 6e 3d a3 68 80 bd 48 e4 0f 3e 63 bc 7a 3d
       0.058128573 -0.06269958 0.14051926 0.061214816
000150 dd 4c 02 bd 32 17 0d bd d1 2e 9a bc fa a4 73 bd
       -0.031811584 -0.03444595 -0.018821152 -0.059483506
000160 2a 60 27 3d de 89 b8 bd 3a ef 58 bd f3 06 96 3d
       0.040863194 -0.09010671 -0.05296252 0.07325544
000170 67 8f 8a bd 05 ae 8b 3c 08 f2 5f 3d ce c7 99 3c
       -0.06765633 0.017050752 0.05467418 0.018772032
000180 6d 9f 17 3e c7 45 c3 3c 83 a3 81 bc 6c 4d a9 bd
       0.1480691 0.023836983 -0.015825039 -0.0826672
000190 13 7b e8 3c 34 fb 2c 3b 7e d1 df 3b 20 74 31 bc
       0.028378999 0.0026394846 0.0068303933 -0.010830909
0001a0 ca 2f 2f 3c 0a 00 ac 3d 42 79 c3 bb a5 92 be 3d
       0.010692546 0.08398445 -0.005965383 0.09305314
0001b0 f3 5f 67 bd b3 83 76 bc dc b7 b3 bd 1a e7 ef 3b
       -0.05648799 -0.015046048 -0.08775303 0.0073212506
0001c0 cf 24 7c 3d 70 22 b4 bd a8 49 5c bd e9 a2 89 bd
       0.06155854 -0.08795631 -0.05378118 -0.06720526
0001d0 53 29 2c 3c a0 22 ca be a8 57 0f 3d d2 a0 83 3d
       0.010507899 -0.39479542 0.034995705 0.064271584
0001e0 0f 9e 82 bd 03 84 21 3d 0f 57 02 3d 2e e7 af 3d
       -0.063778035 0.039432537 0.031821307 0.08589016
0001f0 d3 3a 9e 3c 9f 8f 9d 3d f6 2a d7 3c 9b 99 a1 bd
       0.019315159 0.07693409 0.026265603 -0.07890626
000200 07 74 0d 3d 30 a3 d8 bd c4 f9 57 bd ee 0a 93 bd
       0.03453448 -0.105780005 -0.05272843 -0.07179819
000210 74 d3 2f 3d 02 ab bf 3d d2 bb f2 3d 5b b5 a3 bd
       0.042926267 0.09358789 0.1185223 -0.07993575
000220 30 4b 93 bc 25 a6 0a 3c 3a 4b 0d 3a be 81 cf bc
       -0.017980188 0.0084624635 0.0005389933 -0.02533042
000230 53 23 f3 bc ad e8 24 3e ba cc ff 3c 0e 15 8d 3d
       -0.02967993 0.16104384 0.03122555 0.068887815
000240 54 b2 78 ba 7a b2 d1 3b 2c 24 4c 3c 24 da 7e bd
       -0.0009487022 0.00639945 0.012459796 -0.062219754
000250 1c da 2d bd 9c c0 2d bd 24 fe e0 3c 8b 3a 25 bc
       -0.042444333 -0.042420015 0.027464934 -0.0100847585
000260 e4 ca d5 3c 90 36 2f bd 25 5d a3 bc 2a 8e 21 be
       0.026097722 -0.042776644 -0.019941876 -0.15776888
000270 b8 65 d3 3c 57 51 05 be 21 37 97 3d 78 f6 cc 3c
       0.02580534 -0.1301931 0.07383562 0.02501987
000280 2b 51 11 3d 92 44 f8 3c 4f 91 1b bd 34 e2 70 bd
       0.0354778 0.030306134 -0.037980374 -0.058809474
000290 2c 6a 81 3d 19 8c 60 3d 25 8e 1b bc 62 d1 94 bd
       0.06319079 0.054821108 -0.009494339 -0.07266499
0002a0 52 df f4 3c 41 67 db 3c 6d 35 0c be 93 ec e2 3c
       0.029891644 0.026782634 -0.13692255 0.027700698
0002b0 a5 7e f8 3c 63 5b 61 bc 9b a9 96 bd 4a ff b8 3c
       0.030333826 -0.013754698 -0.073565684 0.022582669
0002c0 d5 3a c8 bc 14 5c 9c 3c f3 03 de 3c d0 01 57 bd
       -0.024442116 0.019086875 0.027101493 -0.052491963
0002d0 35 6d 9d bd e7 c4 dd 3c 06 d7 15 bd d0 1d 63 3d
       -0.07686845 0.02707143 -0.036582015 0.055448353
0002e0 f9 87 8d bd c2 61 95 bd a7 9e 9a bc ba e2 c5 3c
       -0.069107 -0.072940364 -0.01887448 0.024155963
0002f0 d4 6f ae bd da b6 4d bc 23 78 5a 3d 21 bd 40 bd
       -0.08517423 -0.012555802 0.053337228 -0.047055367
000300 78 02 94 bc 64 8f 1f 3d eb 7e 74 3d 08 97 84 bd
       -0.018067583 0.038955107 0.05969135 -0.064741194
000310 66 ea 90 bd f5 41 87 3d 40 0c 10 bd a5 19 1a 3c
       -0.07075958 0.06604377 -0.035167933 0.009405528
000320 fa 87 2d 3d 00 91 7a bc 52 e9 6a 3d cf f9 37 3e
       0.042366005 -0.01529336 0.057351418 0.17966388
000330 83 e5 87 bd 81 4b 80 3d 7a d5 ea 3c d5 63 48 3d
       -0.06635573 0.06264401 0.028666247 0.048923332
000340 cd 50 9a 3d 9c d1 6b bd c1 ae e3 3d 60 89 ce 3c
       0.07534943 -0.057572946 0.11117316 0.02521199
000350 bb 45 82 3d d9 93 1b bd 32 f3 77 3d 66 d6 95 bd
       0.06360956 -0.037982795 0.060534663 -0.07316284
000360 f0 5c 4b bc eb 3d 77 bd bc 87 02 bd 0c 56 a1 3d
       -0.012412295 -0.060361784 -0.031867728 0.0787774
000370 f4 21 a3 3d fd 24 8c bd ab 29 71 3d bd 5c a5 3c
       0.079654604 -0.068429925 0.05887763 0.020185823
000380 19 23 08 3e 17 39 2a bc 45 db 89 3d 30 26 7c 3b
       0.13294639 -0.010389588 0.067312755 0.003847491
000390 78 d4 8f 3d 5c eb 86 bd 68 01 a7 3d d4 c7 95 bd
       0.07022947 -0.0658786 0.08154565 -0.07313505
0003a0 c1 00 f9 3c 54 74 6a bc 00 93 0f bd d8 5b 1e 3d
       0.030395867 -0.014309961 -0.0350523 0.038661808
0003b0 92 ac 62 bd d9 a4 27 bd 3b dc 83 bd 42 b8 59 3d
       -0.055340357 -0.040928695 -0.0643849 0.053154238
0003c0 8e 05 7a 3d da 7e 0b bd b6 35 a8 bc 75 0c 44 3d
       0.061040454 -0.034056522 -0.020533424 0.047863442
0003d0 17 23 e2 3c ee 1a 63 be 26 c2 08 bd a4 7d 70 bc
       0.027604623 -0.22178242 -0.03338828 -0.014678393
0003e0 89 c1 15 3d 1e fe 8e 3a c4 90 cb 3c 9e 64 5e bd
       0.036561523 0.0010909473 0.024849303 -0.054295175
0003f0 c7 4f 84 39 b0 a2 54 3d e5 4d 19 3c c4 03 d9 3c
       0.0002523644 0.051912963 0.00935695 0.026491053

layer2.bias f4 [128]
000000 a9 19 7b bc 84 ff 40 3d 72 b2 40 bd bb 38 54 bd
       -0.015325942 0.04711868 -0.04704518 -0.051811915
000010 37 3e 98 bc 06 e6 8d 39 4a de 90 bd 75 e0 bf 3e
       -0.018584354 0.00027064997 -0.07073648 0.37475935
000020 fe e1 bb bd 4d e7 47 3e 11 4f 04 bd 50 d8 30 3a
       -0.09173964 0.19521828 -0.032301966 0.00067461
000030 6e ef 55 3d 55 89 a9 bd 21 2e 16 bd 87 8d 1b bd
       0.05223029 -0.08278147 -0.036665086 -0.037976768
000040 32 c2 c9 3e 11 97 a6 3d d4 32 ff 3f ba 10 8d 3c
       0.39405972 0.081342824 1.9937387 0.01721989
000050 bc 6b b3 bc f7 0a 03 40 8f 0e 7a 3e f4 27 7b 3f
       -0.021901958 2.0475442 0.24419616 0.9810784
000060 8b 09 a7 3e 32 af 51 3e b8 8d 2b bd ce 79 46 bd
       0.32624468 0.20476988 -0.0418832 -0.048456006
000070 26 17 98 3e 2f 8c 8b 3c 1c 95 bb 3e 76 72 c0 bc
       0.2970516 0.017034618 0.366372 -0.02349208
000080 eb 2c 3e bd 7a 64 03 bd 32 d6 88 bd 97 c1 62 bd
       -0.046429556 -0.032078244 -0.066814795 -0.055360403
000090 48 6c d0 3c ec 62 31 bd 82 fc 49 3d 15 06 20 be
       0.025442258 -0.04330723 0.049313076 -0.1562732
0000a0 cc 58 c5 3e 5c db 5e bd 83 8f 11 3d 5d 81 34 3f
       0.3854431 -0.054408416 0.035537254 0.7050989
0000b0 33 0b 84 3d 31 78 b4 bb c8 81 0e be a1 16 07 bd
       0.064474486 -0.005507492 -0.13916695 -0.032980565
0000c0 fb 2b c8 3e 2d a2 df 3f a0 b3 67 3d 0d da 1c bd
       0.39096054 1.7471367 0.056567788 -0.038293887
0000d0 22 dd d7 3f d3 a3 8d 3d 85 b6 9a bc d0 7b 0b bd
       1.6864359 0.069160126 -0.01888586 -0.034053624
0000e0 09 31 91 3e 31 d4 8a 3d 92 19 c7 3e 1f da a7 bd
       0.28357723 0.067787535 0.38886696 -0.081959
0000f0 39 b7 b1 3c 1d 37 af 3e b2 52 23 bd 2a 22 ca 3c
       0.021693813 0.34221736 -0.039873786 0.024674494
000100 8c 8c 46 3e 34 46 38 3f 57 09 8b 3e 86 0e 50 3d
       0.19389552 0.7198212 0.27155563 0.0507951
000110 4e 62 56 3d 83 fa 19 3d c0 97 52 3d a4 c7 b4 3e
       0.052339844 0.037592422 0.05141425 0.35308564
000120 fa 80 24 3b 24 1f 22 3d 4b 59 77 3d cf 2f 21 3e
       0.002510129 0.03958048 0.06038789 0.15740894
000130 74 4f 2d 3d 03 b1 1e bd 9f fd 46 bd 1b 1c a8 3d
       0.0423121 -0.03874303 -0.048581716 0.08208486
000140 bc 1a c6 bd 6e 8d 3b bd 3c e9 0c 3f a1 f6 d8 3f
       -0.09673068 -0.045789175 0.5504339 1.6950265
000150 ba 63 6f 3d 9a 2f 90 bd 23 75 83 bd a4 7c ec 3d
       0.058444716 -0.07040329 -0.064188264 0.11547211
000160 ac 0f b8 3a 37 2b 8f bc 16 7c a1 3e bc 5e 72 3e
       0.0014042757 -0.017476661 0.31539983 0.23668951
000170 95 05 20 bd 41 bc 8a 3d 94 74 b5 bd 0f 7e 1a 40
       -0.039067823 0.06774188 -0.08860126 2.413944
000180 50 ab 85 3c 50 da c6 3e da 40 c8 3e 74 c4 89 bd
       0.01631704 0.38838434 0.39111978 -0.067269236
000190 a4 b7 c1 3f 15 c7 04 3d 04 c2 a4 bc 10 44 34 bd
       1.5134168 0.032416422 -0.020112045 -0.044010222
0001a0 14 64 be 3e 0a 4e 2f 3b f2 7d 85 3f ae f2 ce 3f
       0.3718573 0.0026749396 1.042906 1.616781
0001b0 a8 7a 66 bd 4a 02 80 3d 12 05 e1 3d 39 b1 81 3d
       -0.056269318 0.062504366 0.10987295 0.06332631
0001c0 a0 03 bd 3f 86 9f 2c be 5e d0 c3 3e 87 70 0d 40
       1.4766731 -0.16857728 0.3824491 2.2099931
0001d0 b9 1f 89 bd 65 be 3b bd 0a fc 5b bd d3 e2 71 bc
       -0.06695504 -0.04583587 -0.05370716 -0.014763552
0001e0 57 df 5d 3e 02 87 8f bd c6 25 85 3f 37 5e 4f bd
       0.21667229 -0.070081726 1.0402153 -0.05062696
0001f0 57 cf a2 bd 33 94 79 3d 84 62 23 3f 9a 2b d3 3e
       -0.07949703 0.06093235 0.638222 0.41244203

layer3.weight f4 [3, 128]
000000 a5 25 21 3e d0 0b a3 3d 72 f8 6b bc 33 e6 90 3d
       0.15737016 0.079612374 -0.014402496 0.07075157
000010 0e aa 4c bd 71 ac a8 bd 79 b6 8a 3d 68 de 0f be
       -0.049966864 -0.082360156 0.06773085 -0.14049685
000020 9b 6e 00 3c f7 96 7a bd 20 fe 57 bc 4a 47 34 3d
       0.00783887 -0.061179128 -0.013183147 0.0440133
000030 9e eb 19 3d 6d b4 7f 3b ed 25 a3 39 71 ac 9b 3d
       0.037578218 0.0039017454 0.0003111804 0.0760125
000040 64 42 13 be f0 ff 1e 3d b0 f2 b9 bf 52 8b 9d bd
       -0.14380795 0.0388183 -1.4527187 -0.07692589
000050 18 b7 2b 3e ff 93 92 bf 97 8a 67 bc dd 40 83 bf
       0.16769063 -1.1451415 -0.0141321635 -1.025417
000060 86 7d b5 bd d2 dc e3 bd f2 62 0f 3c 12 25 6d bd
       -0.08861832 -0.111261025 0.008751618 -0.05789668
000070 78 58 0e be c4 0f 64 3d dd 86 e2 bd 40 85 58 3d
       -0.13900936 0.055679098 -0.110608794 0.052861452
000080 76 8f a4 bb b3 60 f2 3d 33 96 bb 3d 5d 18 03 bc
       -0.0050219847 0.1183485 0.091595076 -0.008001414
000090 98 a5 56 bc 85 aa 79 bd dd b5 2c 3d 80 ed 08 3e
       -0.013101004 -0.060953636 0.042165626 0.13371849
0000a0 71 64 be bd 9f 6c 1d 3d f6 09 3e bd 1c 50 6a bf
       -0.092965014 0.038433667 -0.04639622 -0.9152849
0000b0 6f 8e 88 3d 44 48 a6 3d 5f ca 68 3d 8b f8 89 3c
       0.06667792 0.08119252 0.05683362 0.016842147
0000c0 d1 c0 65 bd b1 9e 98 bf b2 66 d5 bc 60 8e ca 3d
       -0.056092087 -1.1923429 -0.026049946 0.09890437
0000d0 ed 9d a4 bf 25 be a5 3d a8 90 d3 bc 25 ea fb 3b
       -1.2860695 0.08092908 -0.025825813 0.0076878243
0000e0 c8 02 01 be 49 3c ae 3d cd dd 18 be 5a 3c 99 3d
       -0.12598717 0.08507592 -0.1492836 0.07482214
0000f0 4d d5 d6 bd 51 5f 15 be 59 c9 86 3d a3 65 11 bd
       -0.10489903 -0.14587142 0.06581373 -0.03549732
000100 55 ea c3 bd 01 12 67 bf 18 cd 45 be a5 27 04 3e
       -0.0956618 -0.90261847 -0.19316518 0.12905748
000110 93 f7 3b 3e 5c 1d e9 bc 8b 55 76 bd 21 16 0a be
       0.18356161 -0.028456382 -0.060140174 -0.13485004
000120 dc 51 3d bd 2a e1 13 3e b4 26 8d bd ef 2f 00 be
       -0.046220645 0.14441362 -0.06892148 -0.12518285
000130 6a 1b 6c 3b 1f 2b 6e 3d ca 43 92 bd 04 7c a2 3d
       0.0036027082 0.058146592 -0.07141836 0.0793381
000140 80 e8 7d 3d 29 da c7 3d 5b eb 72 be e0 b7 9d bf
       0.061989307 0.097584076 -0.23722593 -1.2321739
000150 01 85 61 bb 45 a4 85 3d a4 25 ea 3d 11 c3 f9 bc
       -0.0034411552 0.065254726 0.11432961 -0.030488523
000160 04 42 75 3c cf 5d ad 3d 22 84 0e be ed 9a 22 be
       0.014969353 0.08465158 -0.13917592 -0.15879412
000170 3d 7a 43 bd bb 2c 69 bc eb a7 f4 3d 5d be c5 bf
       -0.047723997 -0.014231856 0.1194609 -1.5448719
000180 44 93 cf 3d ed a3 f1 bd 4b b0 31 be 22 1e 74 3c
       0.101355106 -0.117988445 -0.17352407 0.014899762
000190 77 73 89 bf a0 b2 5c bc d3 df 44 3d 26 b6 16 3e
       -1.0738362 -0.013470322 0.048065018 0.14717922
0001a0 a2 ed 28 be 8d 6b be 3d b1 b6 74 bf d3 0c 9d bf
       -0.164969 0.092978574 -0.95591265 -1.2269539
0001b0 6e da 57 3b 45 cb 85 bc 2a bb d4 bd 6d ee 9e bc
       0.003293659 -0.016332278 -0.10387261 -0.0194008
0001c0 35 81 94 bf bb 0d 15 3e a4 59 2b be 1e ba bc bf
       -1.1601931 0.14556019 -0.16733414 -1.4744298
0001d0 47 19 dd 3d 85 2c 57 3d 0b 4a f5 bc bf 8b 1a bd
       0.10795837 0.05253269 -0.029942533 -0.03773093
0001e0 7b a3 2a be ec 06 8d 3d 97 f0 95 bf 56 2a 40 bd
       -0.16663925 0.06886086 -1.1714047 -0.046915375
0001f0 20 87 a7 bc e0 34 89 3d ce 28 34 bf 00 ec b1 bd
       -0.020450175 0.06699538 -0.70374763 -0.086875916
000200 5c 62 11 3e d6 d9 49 3d 5c 17 04 bd ae 4c 6e bd
       0.14197677 0.04928001 -0.03224884 -0.058178596
000210 98 de 82 bd 95 06 8e bd 5c 3d 3c bd a9 31 dc bd
       -0.06390113 -0.06934849 -0.045956954 -0.107516594
000220 cf 2e 33 3e 66 5e 8e 3b cf 8d 86 3c 29 4f 7d bd
       0.17498325 0.0043447493 0.016425041 -0.06184307
000230 34 ce d5 3d 84 36 d6 3c 23 67 97 3d 1e a0 fe 3d
       0.10439721 0.026149042 0.07392719 0.12432884
000240 6e 31 36 be a0 05 87 3d db e5 95 bf 51 37 0b 3d
       -0.17792293 0.0659287 -1.1710771 0.0339883
000250 aa f1 29 3e ca 9a c5 bf d6 bc 0d be 4b fc 4e bf
       0.16596094 -1.5437863 -0.13841566 -0.8085372
000260 f0 49 3a be 3d e2 b5 bd 81 5c 94 3d 58 e2 92 3d
       -0.18192267 -0.08881042 0.07244206 0.07172078
000270 76 4c aa bd 0a a9 24 3d f1 2d 29 be 32 87 43 bc
       -0.08315365 0.04020027 -0.16521432 -0.011934089
000280 91 e0 04 bd c7 b0 1a 3e f0 21 a5 3d 8e c6 9a 3d
       -0.032440726 0.15106498 0.08063114 0.075574026
000290 d2 ad e7 bc 04 43 15 bd 63 af be 3d ea f2 d3 3d
       -0.028281126 -0.036440864 0.09310796 0.103490666
0002a0 7f 9c fd bd 09 df 98 bd ea da 53 3b 2e 3b 2d bf
       -0.12383365 -0.074644156 0.0032326528 -0.67668426
0002b0 da 47 8b bc 80 ef 15 3d 61 0a 01 bc b3 fe 9c bd
       -0.017002035 0.036605358 -0.00787601 -0.076657675
0002c0 50 b4 3e be 8a f1 a6 bf 27 fb 75 3b 80 43 df 3d
       -0.18623471 -1.3042462 0.0037533732 0.109015465
0002d0 69 99 ad bf 98 80 d2 3c 4d eb 1d 3d a8 8c d6 bc
       -1.3562442 0.025696084 0.03855448 -0.026190117
0002e0 72 ba 02 be d8 e4 33 3d 82 c2 14 be e3 66 71 3d
       -0.12766436 0.043919414 -0.14527324 0.05893601
0002f0 c7 4c 35 3c cf b9 11 be 28 d2 92 3d a5 11 9d 3d
       0.011065668 -0.14231037 0.071689904 0.07669381
000300 2f de 0e bc 69 f7 31 bf 2e d1 1f be 60 01 ab 3d
       -0.008719965 -0.6951814 -0.1560714 0.08349872
000310 f8 e5 ba 3d d5 b9 0d 3d c6 d2 3e 3d 8b 20 fd bd
       0.09125894 0.03460105 0.046587728 -0.12359723
000320 22 6c 5b 3d 8c 55 c3 3d 38 b2 9f bd 65 3d 1f bc
       0.05356992 0.09537801 -0.077976644 -0.009719227
000330 9b 6b 23 3d e8 7e f4 bc 77 cc 45 3d f4 c2 93 bd
       0.039897542 -0.02984567 0.048290696 -0.07214919
000340 3c 29 ac 3d 0b c1 bc 3d 7d b7 de be 4a 22 9c bf
       0.08406302 0.092165075 -0.43499365 -1.2197964
000350 bb 43 96 bd 2e 41 00 3d cd 18 0d 3e 14 77 00 bb
       -0.07337137 0.03131216 0.13778992 -0.0019602226
000360 54 74 4d 3c d6 9c 7c 3d a0 6b d1 bd ef 6f 48 bd
       0.012539942 0.061673008 -0.10225606 -0.048934873
000370 d1 10 79 3d 71 0a 1c bd e4 88 b2 3d 66 a4 ef bf
       0.060807053 -0.038095895 0.08717516 -1.8722045
000380 68 b0 8f 3d f7 73 75 be 5c 4e 00 be dc a0 0c bd
       0.07016069 -0.23970018 -0.12529892 -0.034333095
000390 72 c1 81 bf f3 59 72 bd ee 14 b4 ba 6c 5c 2c 3e
       -1.013716 -0.059167814 -0.0013739148 0.16832131
0003a0 bd d8 18 be 4b f7 f6 3d c0 c2 5b bf 63 04 83 bf
       -0.14926429 0.12058886 -0.8584404 -1.0235714
0003b0 66 d6 cd 3d 23 4e 37 bd 9a bb ce bd b1 7a 9f bd
       0.10050659 -0.04475225 -0.10094376 -0.077870734
0003c0 30 b5 84 bf bd a0 8c 3e e9 9f f7 bd b6 ad d6 bf
       -1.0367794 0.27466384 -0.12091047 -1.6771762
0003d0 18 23 ae 3d 63 8c a7 3d 9a ef 2e 3d b6 eb 8f bd
       0.08502787 0.081810735 0.04270897 -0.0702738
0003e0 2e 34 ae bd 76 14 2c bc dc 45 5d bf 55 23 e4 bc
       -0.08506046 -0.010502925 -0.8643472 -0.027848879
0003f0 9c 27 d1 3c e4 24 ae bc d1 c5 29 bf 32 02 29 be
       0.025531583 -0.021257825 -0.6631747 -0.16504744

layer3.bias f4 [3]
000000 6c b5 87 be 0f bc 5d be 23 d4 04 be
       -0.265056 -0.2165377 -0.12971549
