models/rl_models/03.03.24/best_target_dqn_model_epoch_21.pt (torch, 74158 bytes, 6 tensors)

layer1.weight f4 [128, 6]
-0.33660358 0.23571877 -0.054728124 -0.20975685 0.21915486 -0.15498422 0.28378826 0.17167106
-0.2170921 0.061155535 -0.11712225 -0.05594908 -0.083733946 -0.34296787 0.087096654 -0.3432582
0.33645263 -0.19106194 -0.2981439 -0.33474347 0.28517157 0.26922855 -0.13857867 0.21847998
-0.3804907 -0.089908406 -0.068193905 0.370091 -0.23718336 0.18490641 -0.23957129 -0.05862586
-0.14054604 0.093721226 0.26597062 -0.2401808 -0.3350689 0.03316373 0.37011018 -0.22984913
-0.12353545 0.20135814 0.051852554 0.3556533 -0.11127938 -0.24426758 -0.3146772 0.11290881
-0.02368587 0.37256086 0.22278345 -0.36308882 -0.13416886 0.09008642 -0.36465535 -0.039190378
0.22809675 0.0048891264 -0.08810018 -0.28494298 -0.036508735 -0.22971228 -0.21157268 -0.06411935
-0.0007528682 -0.30496117 0.06758001 0.18909824 0.27720776 -0.1184518 -0.24467948 -0.19298227
-0.22648008 0.30200347 -0.019822951 0.3294876 -0.21073443 -0.21035048 -0.07528051 -0.13280813
0.3496718 0.012809951 0.17772482 0.36689872 -0.36614296 -0.32712704 -0.07234282 -0.012479013
0.3772115 -0.013872552 0.11144421 -0.13501848 -0.2798006 -0.09120233 -0.23628524 0.13435823
0.12688711 0.22770432 -0.056581758 0.36901793 0.14605083 -0.31591937 0.44689584 -0.033617835
0.3845886 -0.025425246 -0.39617613 -0.14537628 -0.13344446 0.15866263 -0.32906273 -0.097336434
0.26229268 0.32057664 0.36506522 0.05457797 0.049316082 -0.3555707 0.08675779 0.08631728
0.34651178 0.01640233 0.18974054 -0.25943866 0.3947824 -0.17091176 -0.17987476 -0.2463452
0.13900018 -0.100153655 -0.18835084 0.2472319 -0.18184194 0.016539387 0.0081959525 0.34068093
0.28087577 -0.25557974 -0.11124852 -0.11457212 -0.29737648 -0.14862789 0.006175731 -0.27222532
-0.30465543 0.27147803 -0.13822035 -0.226745 -0.1993962 0.09907676 -0.30463812 0.04361091
-0.26249346 -0.08348947 -0.060056698 -0.35146517 -0.27492228 -0.18686056 0.24639441 -0.069901496
0.18316756 -0.18543896 0.33759257 -0.08725751 0.087298796 0.08925223 0.058271956 -0.07448773
-0.3499646 -0.3080028 0.21063247 0.33338168 0.13410492 -0.18123506 0.4801051 -0.18956457
0.40774754 0.38901755 -0.19660309 0.2830245 -0.18253572 0.13538067 -0.14376087 0.24100937
0.29339293 0.011152692 -0.05550833 0.009690161 0.3557142 0.33213356 0.3360584 0.20669013
0.3327814 0.16895926 -0.25925064 -0.07291193 -0.17024086 0.11500677 -0.009287868 0.009644145
0.25921446 0.30290934 0.17900129 -0.035877902 -0.00057915744 0.24211866 -0.24607517 0.24078043
0.28362414 0.03381634 0.26892045 -0.18700175 0.30033514 0.18487546 0.23413356 0.0010584105
-0.2773659 -0.16811024 -0.33815005 0.21926126 -0.023239572 0.32958364 -0.09391227 0.2584125
-0.32978678 0.17504081 0.36101535 0.38294435 0.34344256 -0.062093943 0.06662131 -0.157363
0.33044273 -0.15644515 0.01593634 -0.03274544 0.002835903 -0.13910325 -0.25360408 0.23269
-0.255398 0.12872799 0.14568894 -0.36175582 -0.0009256975 0.18223761 0.036950417 0.29003838
0.22347233 -0.07220656 0.34966102 -0.13036217 0.10744806 -0.16799903 0.014995549 0.3951849
00000000: 4e57 acbe 4360 713e 992a 60bd 80ca 56be
00000010: 226a 603e 2fb4 1ebe b24c 913e 8aca 2f3e
00000020: 644d 5ebe 3a7e 7a3d cadd efbd dd2a 65bd
00000030: b47c abbd 7c99 afbe bb5f b23d 8abf afbe
00000040: 8543 ac3e bea5 43be 51a6 98be 7f63 abbe
00000050: 0202 923e 53d8 893e 91e7 0dbe 37b9 5f3e
00000060: adcf c2be e621 b8bd 3fa9 8bbd 917c bd3e
00000070: 32e0 72be 1b58 3d3e 2d52 75be ab21 70bd
00000080: 4deb 0fbe eaf0 bf3d 4d2d 883e f5f1 75be
00000090: 278e abbe b1d6 073d 157f bd3e 925d 6bbe
000000a0: 2700 fdbd d430 4e3e 5863 543d 3018 b63e
000000b0: 72e6 e3bd 4821 7abe 5f1d a1be bc3c e73d
000000c0: df08 c2bc 4cc0 be3e 5821 643e c7e6 b9be
000000d0: 9063 09be 3b7f b83d 1bb4 babe 1786 20bd
000000e0: 3292 693e f734 a03b de6d b4bd 0ce4 91be
000000f0: 2f8a 15bd b239 6bbe 82a6 58be 0151 83bd
00000100: 215c 45ba df23 9cbe 6367 8a3d f8a2 413e
00000110: 2dee 8d3e db96 f2bd 428d 7abe 259d 45be
00000120: 65ea 67be 33a0 9a3e be63 a2bc 99b2 a83e
00000130: c4ca 57be 1e66 57be ab2c 9abd dbfe 07be
00000140: 2f08 b33e d4e0 513c 7ffd 353e 26da bb3e
00000150: 1777 bbbe 327d a7be 7928 94bd c674 4cbc
00000160: de21 c13e b349 63bc dd3c e43d 4942 0abe
00000170: 0642 8fbe 4ac8 babd c2f4 71be 3495 093e
00000180: b2ee 013e 522b 693e 46c2 67bd ebef bc3e
00000190: 598e 153e 2fc0 a1be 88cf e43e dbb2 09bd
000001a0: cce8 c43e 9b48 d0bc 99d7 cabe 85dd 14be
000001b0: aaa5 08be 7578 223e e97a a8be 5358 c7bd
000001c0: 3a4b 863e 9f22 a43e d4e9 ba3e 268d 5f3d
000001d0: a9ff 493d 5d0d b6be 11ae b13d 1dc7 b03d
000001e0: fe69 b13e 2e5e 863c 584b 423e 25d5 84be
000001f0: eb20 ca3e 7e03 2fbe 1731 38be eb41 7cbe
00000200: 1056 0e3e 5c1d cdbd 0bdf 40be 5c2a 7d3e
00000210: c634 3abe 9c7d 873c 5148 063c bb6d ae3e
00000220: f3ce 8f3e 59db 82be 44d6 e3bd caa4 eabd
00000230: bb41 98be e931 18be c95d ca3b 1e61 8bbe
00000240: ccfb 9bbe 2bff 8a3e a389 0dbe d72f 68be
00000250: 842e 4cbe c2e8 ca3d 87f9 9bbe 5ba1 323d
00000260: 8b65 86be 87fc aabd 03fe 75bd 3ef3 b3be
00000270: 9dc2 8cbe 6058 3fbe d14e 7c3e 8428 8fbd
00000280: 4790 3b3e b6e3 3dbe efd8 ac3e 11b4 b2bd
00000290: b6c9 b23d e0c9 b63d 93ae 6e3d 068d 98bd
000002a0: 8f2e b3be 8bb2 9dbe 0ab0 573e 01b1 aa3e
000002b0: cd52 093e af95 39be 56d0 f53e 371d 42be
000002c0: 49c4 d03e 4f2d c73e 5252 49be 96e8 903e
000002d0: a5ea 3abe 3ba1 0a3e 0d36 13be 29cb 763e
000002e0: 9937 963e c8b9 363c b45c 63bd 7bc3 1e3c
000002f0: 2c20 b63e 690d aa3e d90f ac3e 94a6 533e
00000300: 5362 aa3e a803 2d3e 80bc 84be da52 95bd
00000310: 9f53 2ebe ab88 eb3d 242c 18bc 7a02 1e3c
00000320: c2b7 843e ef16 9b3e 1d4c 373e b5f4 12bd
00000330: 99d2 17ba f4ed 773e 21fb 7bbe 258f 763e
00000340: 2f37 913e 0183 0a3d f1af 893e 637d 3fbe
00000350: 87c5 993e fe4f 3d3e b5c0 6f3e 5dba 8a3a
00000360: e702 8ebe 1725 2cbe 0122 adbe 0686 603e
00000370: ea60 bebc 30bf a83e 1455 c0bd a54e 843e
00000380: d0d9 a8be e63d 333e 01d7 b83e 4811 c43e
00000390: b4d7 af3e 3856 7ebd c170 883d c423 21be
000003a0: ca2f a93e 2833 20be ed8c 823c 1520 06bd
000003b0: 8fda 393b 1571 0ebe 65d8 81be 4a46 6e3e
000003c0: 87c3 82be 45d1 033e 7b2f 153e 0f38 b9be
000003d0: 82aa 72ba 7f9c 3a3e 5259 173d e97f 943e
000003e0: eed5 643e 08e1 93bd c506 b33e a97d 05be
000003f0: ba0d dc3d f007 2cbe e4af 753c ad55 ca3e

layer1.bias f4 [128]
2.359401 -0.149684 -0.14668031 2.6044383 -0.23784725 -0.31104377 2.4036758 -0.2518228
0.92458385 -0.31651807 -0.37882802 2.2060947 -0.16798624 -0.011873991 -0.37373933 -0.13446544
1.3912451 -0.192957 -0.008119297 -0.23056968 1.8334576 -0.30351484 -0.2797289 -0.03711525
-0.16648869 -0.02508406 -0.07625616 -0.31025726 -0.23789814 -0.18903646 1.809301 1.4213761
-0.2729471 -9.04814e-05 -0.3621206 1.1153404 -0.038964856 1.125871 0.36544213 -0.15617447
2.6608753 0.7412503 1.2006582 0.3760574 2.5272803 0.35960406 -0.114766195 2.8030505
2.6918342 0.65369016 -0.31627184 -0.00034872128 -0.14310914 -0.27284253 2.6426458 -0.23147862
2.394445 -0.1391526 -6.9216054e-05 -0.08672348 -0.31710225 -0.14960581 -0.09647702 -0.00012828861
-0.061758462 2.5534232 1.4179893 2.2899613 2.5783474 -0.31227377 -0.000106581494 -0.22766623
-0.2516443 2.8129218 2.455814 1.9557556 2.504167 0.078205116 1.0300395 0.93697715
2.3846002 1.5733942 -0.011277083 2.4244933 2.684107 -0.0011376219 -0.31055823 -6.965202e-05
-0.21631484 -0.04467031 -0.06780206 -0.08828863 -0.2324095 2.659188 0.2599184 -0.12408529
-0.14665532 -0.3902596 -0.013627855 0.005429601 -0.07749415 2.687897 -0.023398073 2.593532
-0.19950965 1.5271851 -0.26105928 2.8024356 -0.11022824 0.9098517 2.6707845 -0.17595467
-0.17947519 0.45485583 -0.18967521 -0.3648501 0.3416678 0.75331676 1.8217767 0.6406241
1.3057332 -0.31292364 -0.20537975 -0.11541314 2.4048417 -0.3508614 2.6391082 -0.0983449
00000000: 6d00 1740 c346 19be 5d33 16be 1eaf 2640
00000010: 3b8e 73be 2141 9fbe d3d5 1940 ebee 80be
00000020: 87b1 6c3f a80e a2be bff5 c1be a830 0d40
00000030: 9604 2cbe 218b 42bc c35a bfbe 4fb1 09be
00000040: 5214 b23f 8596 45be cd06 05bc 751a 6cbe
00000050: bdae ea3f 4c66 9bbe a038 8fbe 2906 18bd
00000060: 037c 2abe 167d cdbc 312c 9cbd 0ada 9ebe
00000070: 929b 73be c692 41be 2d97 e73f a7ef b53f
00000080: b9bf 8bbe d5c0 bdb8 df67 b9be 79c3 8e3f
00000090: 9d99 1fbd 8a1c 903f 3b1b bb3e 33ec 1fbe
000000a0: c84b 2a40 94c2 3d3f 2baf 993f 988a c03e
000000b0: f6be 2140 061e b83e 8a0a ebbd 2e65 3340
000000c0: 0347 2c40 3d58 273f 62ee a1be 94d4 b6b9
000000d0: 348b 12be 04b2 8bbe 1c21 2940 bb08 6dbe
000000e0: 963e 1940 057e 0ebe 1628 91b8 149c b1bd
000000f0: 3a5b a2be 4432 19be be95 c5bd 3685 06b9
00000100: 71f6 7cbd 496b 2340 ac80 b53f ba8e 1240
00000110: a503 2540 59e2 9fbe 8184 dfb8 5621 69be
00000120: 86d7 80be e906 3440 0e2c 1d40 3356 fa3f
00000130: 4644 2040 012a a03d 56d8 833f bcdd 6f3f
00000140: 4a9d 1840 fb64 c93f 84c3 38bc e62a 1b40
00000150: 69c8 2b40 421c 95ba 7d01 9fbe 2512 92b8
00000160: a381 5dbe 37f8 36bd cedb 8abd abd0 b4bd
00000170: c2fc 6dbe 2330 2a40 0614 853e 6e20 febd
00000180: d02c 16be 1bd0 c7be 5e47 5fbc cbea b13b
00000190: 41b5 9ebd 8106 2c40 51ad bfbc 6efc 2540
000001a0: 424c 4cbe cd7a c33f 90a9 85be 1b5b 3340
000001b0: 58bf e1bd 0aec 683f 22ee 2a40 762d 34be
000001c0: 58c8 37be dde2 e83e 383a 42be a2cd babe
000001d0: 15ef ae3e 5ed9 403f fb2f e93f f1ff 233f
000001e0: 4422 a73f 8737 a0be 124f 52be b95d ecbd
000001f0: ede8 1940 1ba4 b3be 26e7 2840 0d69 c9bd

layer2.weight f4 [128, 128]
0.03747355 -0.11061802 -0.020305045 -0.09573438 0.080532245 0.083130024 0.038601935 -0.058683105
-0.048296005 -0.027791064 -0.002840676 0.088977866 -0.0734593 0.22659166 -0.029010627 0.0032820846
0.047767613 -0.073612995 -0.0038197087 0.028389001 -0.014840733 -0.0683129 0.0515507 0.008933097
-0.08344229 0.0050974027 -0.031532653 -0.06345853 0.059883393 -0.23402002 0.08957874 -0.062365413
0.012752494 0.006153125 0.031151721 -0.006932016 -0.0108393235 0.036646236 0.017010441 -0.03972106
-0.022567779 -0.030061517 -0.1651122 -0.037093647 0.07369957 0.0006889774 -0.06865392 0.03977026
-0.03397223 -0.021177484 -0.007398223 0.019313289 -0.07067397 0.017328667 0.041170582 -0.0006250449
0.023873674 0.0021711634 0.046076797 0.046146702 0.015232471 -0.038782652 0.0026135077 0.021728737
-0.0339403 -0.039665498 0.022196418 -0.05883579 -0.06898601 -0.058434494 0.019451568 -0.06483617
0.042611368 -0.07907224 0.006966395 0.1439689 0.003481386 0.0032858704 -0.01742475 -0.054018643
0.056616735 -0.061742067 0.13843344 0.059689265 -0.031760603 -0.033944845 -0.018542761 -0.058592655
0.040250733 -0.088770434 -0.052183025 0.07214188 -0.06665412 0.016326 0.053838987 0.018493641
0.14584197 0.023475075 -0.015577291 -0.08144228 0.027961412 0.002158269 0.0067259967 -0.011172216
0.010529205 0.08275947 -0.0058749057 0.091602735 -0.055652816 -0.014823411 -0.08686596 0.0072098942
0.060614955 -0.08662003 -0.05297021 -0.06620305 0.010354688 -0.38900527 0.03448759 0.06326938
-0.06277586 0.03882007 0.031320203 0.084554724 0.019014344 0.07582053 0.025414646 -0.077681325
0.034033377 -0.104221016 -0.051948935 -0.07068463 0.042259928 0.09214026 0.1167406 -0.07871083
-0.017701797 0.008337188 0.00053116353 -0.024940673 -0.029234502 0.158594 0.030752283 0.06788561
-0.0009347323 0.006302013 0.012275149 -0.06127322 -0.04181814 -0.04179584 0.027047344 -0.0099316435
0.025707975 -0.042122755 -0.019635646 -0.155319 0.025415592 -0.12818868 0.072722055 0.024643412
0.034921687 0.029860709 -0.037423592 -0.057918623 0.062205873 0.05398593 -0.009355144 -0.07155143
0.029446218 0.026384335 -0.13491814 0.027283108 0.029888188 -0.013545905 -0.07245212 0.0222486
-0.024080208 0.018808484 0.026683906 -0.05171247 -0.07575489 0.026654007 -0.036025234 0.054613177
-0.068104796 -0.0718268 -0.018596089 0.023794055 -0.083898045 -0.012364299 0.05255583 -0.046331543
-0.017789192 0.038366314 0.0588005 -0.06373899 -0.06966674 0.065041564 -0.034642696 0.009266333
0.041746322 -0.015063125 0.056493353 0.17699133 -0.06535352 0.061689477 0.02823781 0.04819952
0.074235864 -0.056701057 0.109502815 0.024822243 0.062607355 -0.037426013 0.059643812 -0.072049275
-0.012231041 -0.059470933 -0.031366624 0.07755247 0.078429684 -0.06742772 0.057986774 0.019879593
0.13094197 -0.010236473 0.06631055 0.0037885127 0.06918963 -0.06487639 0.08032073 -0.072021484
0.02994663 -0.014097196 -0.034538615 0.038099695 -0.054505177 -0.040316235 -0.06338269 0.052374743
0.060127355 -0.03355542 -0.020227194 0.047139626 0.027187034 -0.21844172 -0.032887176 -0.01445568
0.03600474 0.001075287 0.02448503 -0.053460002 0.00024844953 0.05113347 0.009217755 0.026101306
00000000: dd7d 193d b38b e2bd c456 a6bc 6310 c4bd
00000010: 17ee a43d 1340 aa3d 101d 1e3d b25d 70bd
00000020: 08d2 45bd 16aa e3bc a32a 3abb 073a b63d
00000030: d471 96bd a507 683e b2a7 edbc 3e18 573b
00000040: f9a7 433d 69c2 96bd 1454 7abb 0d90 e83c
00000050: 8c26 73bc a2e7 8bbd d426 533d 205c 123c
00000060: cbe3 aabd 1d08 a73b 6228 01bd 8cf6 81bd
00000070: 4a48 753d f2a2 6fbe 0f75 b73d e072 7fbd
00000080: d6ef 503c 27a0 c93b e531 ff3c f725 e3bb
00000090: 6b97 31bc 5d1a 163d 7b59 8b3c 8db2 22bd
000000a0: 10e0 b8bc 9243 f6bc 2c13 29be 82ef 17bd
000000b0: cdef 963d 7e9c 343a 6d9a 8cbd 24e6 223d
000000c0: 7726 0bbd 677c adbc cb6c f2bb e736 9e3c
000000d0: 84bd 90bd d9f4 8d3c 7ca2 283d 0eda 23ba
000000e0: b992 c33c 144a 0e3b 06bb 3c3d 5304 3d3d
000000f0: 9d91 793c 8fda 1ebd 6247 2b3b 7700 b23c
00000100: fc04 0bbd 4a78 22bd 43d5 b53c ccfd 70bd
00000110: 8a48 8dbd 0259 6fbd e558 9f3c d3c8 84bd
00000120: 4289 2e3d a0f0 a1bd 5b46 e43b 956c 133e
00000130: f727 643b c257 573b 59be 8ebc a742 5dbd
00000140: f3e6 673d 40e5 7cbd 7fc1 0d3e bb7c 743d
00000150: 6817 02bd c009 0bbd fde6 97bc dafe 6fbd
00000160: f4dd 243d 46cd b5bd debd 55bd 1fbf 933d
00000170: f581 88bd 1bbe 853c 4586 5c3d fa7f 973c
00000180: 9957 153e cd4e c03c e537 7fbc 36cb a6bd
00000190: 550f e53c bf71 0d3b c065 dc3b ac0b 37bc
000001a0: b082 2c3c cc7d a93d 4882 c0bb 379a bb3d
000001b0: 35f4 63bd e4dd 72bc c8e6 b1bd fa40 ec3b
000001c0: 6347 783d d865 b1bd 4af7 58bd 7795 87bd
000001d0: b6a6 293c b32b c7be dc42 0d3d 6093 813d
000001e0: a190 80bd cb01 1f3d 9d49 003d 072b ad3d
000001f0: f8c3 9b3c cb47 9b3d 6032 d03c 6317 9fbd
00000200: 9566 0b3d d471 d5bd 68c8 54bd 1ac3 90bd
00000210: bf18 2d3d 08b4 bc3d b215 ef3d 2533 a1bd
00000220: 5c03 91bc b398 083c c83d 0b3a 6250 ccbc
00000230: 327d efbc 7766 223e 36ec fb3c 9c07 8b3d
00000240: d308 75ba 1e81 ce3b b51d 493c a1f9 7abd
00000250: 7f49 2bbd 1d32 2bbd 6492 dd3c 55b8 22bc
00000260: 8899 d23c e988 2cbd efda a0bc f20b 1fbe
00000270: 5c34 d03c e543 03be 4def 943d fbe0 c93c
00000280: 0b0a 0f3d 729e f43c 7b49 19bd 143c 6dbd
00000290: 96cb 7e3d 5a20 5d3d 5146 19bc 8e89 92bd
000002a0: 3239 f13c f623 d83c fb27 0abe d380 df3c
000002b0: 13d8 f43c a5ef 5dbc c761 94bd b242 b63c
000002c0: db43 c5bc 4014 9a3c 3598 da3c 74d0 53bd
000002d0: 6125 9bbd 8159 da3c 328f 13bd 11b2 5f3d
000002e0: 877a 8bbd ee19 93bd d356 98bc c0eb c23c
000002f0: bdd2 abbd a193 4abc c844 573d 25c6 3dbd
00000300: a4ba 91bc ff25 1d3d cbd8 703d 9689 82bd
00000310: 70ad 8ebd 8334 853d 80e5 0dbd d1d1 173c
00000320: 31fe 2a3d 53cb 76bc 9365 673d 373d 353e
00000330: 11d8 85bd 1bae 7c3d fb52 e73c dc6c 453d
00000340: f908 983d 5e3f 68bd 0343 e03d 0458 cb3c
00000350: 4938 803d 054c 19bd 124d 743d 928e 93bd
00000360: b464 48bc cb97 73bd 4a7a 00bd d4d3 9e3d
00000370: be9f a03d 8b17 8abd 8a83 6d3d 87da a23c
00000380: a715 063e e1b6 27bc d3cd 873d b248 783b
00000390: 4bb3 8d3d eadd 84bd 327f a43d 0080 93bd
000003a0: a352 f53c edf7 66bc 5d78 0dbd 6d0e 1c3d
000003b0: d240 5fbd a322 25bd c9ce 81bd e686 563d
000003c0: 1a48 763d 6871 09bd 80b3 a5bc 7b15 413d
000003d0: 58b7 de3c 30af 5fbe b4b4 06bd 84d7 6cbc
000003e0: b579 133d a5f0 8c3a d494 c83c e0f8 5abd
000003f0: 5542 8239 5471 513d 1106 173c 68d2 d53c

layer2.bias f4 [128]
-0.015110554 0.046394855 -0.046321355 -0.055946782 -0.018305963 0.0002667351 -0.069645986 0.3941794
-0.090581834 0.21081732 -0.031800862 0.00066417037 0.052705437 -0.08155655 -0.036108304 -0.03615311
0.41550872 0.08264384 2.1561403 0.016969338 -0.021593451 2.2188606 0.26740074 1.1789498
0.34539422 0.23523948 -0.04127074 -0.04773219 0.32270727 0.01669344 0.3866526 -0.02479389
-0.050344992 -0.03157714 -0.06581259 -0.05597666 0.02491944 -0.04263909 0.045881398 -0.15388846
0.4084433 -0.053573243 0.03498047 0.9208326 0.06594588 -0.010093648 -0.13716254 -0.03247946
0.40726197 1.9198582 0.060044106 -0.037792176 1.8604093 0.06268366 -0.01860747 -0.03355252
0.30365697 0.06417564 0.41219994 -0.08073408 0.057973173 0.36366555 -0.044516902 0.018349558
0.21718575 0.93591607 0.29317847 0.050015606 0.05154389 0.03703564 0.050634757 0.37261277
0.0031709005 0.04065202 0.05949704 0.17596088 0.04169692 -0.044834927 -0.050269186 0.08085994
-0.095328845 -0.042536095 0.5715336 1.870834 0.057553865 -0.068831675 -0.06318606 0.1311256
0.0059083207 -0.0154734105 0.33767453 0.2622715 -0.038468797 0.06673967 -0.08731994 2.5663226
0.016066488 0.4070583 0.41045964 -0.06626703 1.6934606 0.03191532 -0.019805815 -0.043342084
0.39746422 0.002633954 1.2419559 1.7888812 -0.05550811 0.061557565 0.13963595 0.062333863
1.659963 -0.16612744 0.40477505 2.3650222 -0.06308597 -0.050046 -0.051252794 -0.014540838
0.24136193 -0.06905666 1.2323285 -0.044201076 -0.078364 0.06002561 0.8774515 0.42866313
00000000: 4292 77bc 8808 3e3d 76bb 3dbd 7428 65bd
00000010: 63f6 95bc 94d8 8b39 8ea2 8ebd e2d1 c93e
00000020: f882 b9bd 7fe0 573e 9f41 02bd b81b 2e3a
00000030: a8e1 573d 1f07 a7bd 4de6 13bd 4915 14bd
00000040: 8fbd d43e 2c41 a93d 34fe 0940 4803 8b3c
00000050: c0e4 b0bc d001 0e40 c0e8 883e d4e7 963f
00000060: 83d7 b03e 9ee2 703e 820b 29bd d482 43bd
00000070: e339 a53e aec0 883c 54f7 c53e 8e1c cbbc
00000080: 8d36 4ebd 0857 01bd c0c8 86bd c847 65bd
00000090: da23 cc3c 54a6 2ebd 22ee 3b3d f094 1dbe
000000a0: 7b1f d13e 9e6f 5bbd ae47 0f3d afbb 6b3f
000000b0: a20e 873d d45f 25bc 5674 0cbe 2f09 05bd
000000c0: a484 d03e eabd f53f cff0 753d f8cb 1abd
000000d0: e421 ee3f 4a60 803d b16e 98bc 5e6e 09bd
000000e0: ed78 9b3e 856e 833d df0b d33e e957 a5bd
000000f0: 4775 6d3d 5f32 ba3e 5b57 36bd d051 963c
00000100: f165 5e3e 3298 6f3f 7d1b 963e 2add 4c3d
00000110: b01f 533d afb2 173d 6466 4f3d 1ac7 be3e
00000120: e2ce 4f3b bc82 263d 2bb3 733d 172f 343e
00000130: 64ca 2a3d d4a4 37bd 10e7 4dbd e599 a53d
00000140: c53b c3bd 543a 2ebd 0750 123f 7d77 ef3f
00000150: 9abd 6b3d 9ff7 8cbd b167 81bd ca45 063e
00000160: 969a c13b 3084 7dbc ade3 ac3e 7348 863e
00000170: 7591 1dbd cfae 883d ccd4 b2bd a13e 2440
00000180: de9d 833c f269 d03e c427 d23e 02b7 87bd
00000190: 51c3 d83f a3b9 023d ce3f a2bc 7887 31bd
000001a0: 6e80 cb3e 6a9e 2c3b 69f8 9e3f 0ffa e43f
000001b0: 795c 63bd c923 7c3d bafc 0e3e cb51 7f3d
000001c0: ab79 d43f 501d 2abe ad3e cf3e 865c 1740
000001d0: 3833 81bd 09fd 4cbd 73ee 51bd b23c 6ebc
000001e0: 9527 773e 946d 8dbd f1bc 9d3f 300c 35bd
000001f0: 4e7d a0bd 6add 753d a9a0 603f bc79 db3e

layer3.weight f4 [3, 128]
0.1549203 0.078387454 -0.014183939 0.06866844 -0.049219154 -0.081135236 0.066728644 -0.16470905
0.007715786 -0.07343341 -0.012988273 0.04334516 0.03717281 0.0038425876 0.00030639555 0.072863296
-0.16865776 0.038142897 -1.5772465 -0.075812325 0.16524078 -1.2719448 -0.030099396 -1.1714191
-0.11275969 -0.13045555 0.008624337 -0.05700583 -0.16187134 0.05287556 -0.13524045 0.04979366
-0.0029643185 0.11656679 0.0902588 -0.008235566 -0.01290613 -0.06004564 0.042388096 0.13171408
-0.11293346 0.037876885 -0.045694213 -1.0642616 0.062119357 0.0807948 0.05599845 0.016591595
-0.07915406 -1.3240132 -0.054891687 0.097456746 -1.415715 0.08048013 -0.025436066 0.0075702867
-0.15045314 0.08342545 -0.17391317 0.07370858 -0.13148084 -0.17140603 0.06602145 -0.032203987
-0.11013178 -1.0517596 -0.21691523 0.12705307 0.18088906 -0.028038796 -0.059249323 -0.15991686
-0.042896274 0.14229997 -0.06791927 -0.14169623 0.0035479395 0.058117803 -0.070304796 0.07811318
0.061042774 0.09603673 -0.25264835 -1.3652241 -0.0033889567 0.06283499 0.112636864 -0.043058164
0.0017936607 0.0819456 -0.15527532 -0.17859945 -0.04700018 -0.014023063 0.11767914 -1.6631937
0.09979612 -0.14226043 -0.19712774 0.01467705 -1.2101315 -0.013265906 0.0473412 0.14495209
-0.18802047 0.09156026 -1.102144 -1.360497 0.0032449407 -0.016081726 -0.11928323 -0.019113382
-1.2962602 0.14333306 -0.19153877 -1.595712 0.10644847 0.053572573 -0.03039974 -0.037174147
-0.189999 0.06785865 -1.3123155 -0.052391253 -0.020143911 0.065993175 -0.85721153 -0.110110044
0.13974965 0.048556194 -0.031747736 -0.054115348 -0.06289892 -0.068346284 -0.04528853 -0.13174245
0.17230986 -0.007391645 0.01617449 -0.06089654 0.10278423 0.025759295 0.07281362 0.116653286
-0.20162942 0.06339125 -1.3134774 0.033487197 0.16351111 -1.6786124 -0.14923543 -0.95833087
-0.20414889 -0.106653094 0.0713285 0.070607215 -0.106692046 0.038840376 -0.18847542 -0.010464656
-0.028073357 0.14883785 0.07940622 0.07364928 -0.027863204 -0.035884082 0.09332413 0.101931676
-0.14021455 -0.07353059 0.0031839344 -0.82924104 -0.018267104 0.03799753 -0.0077541643 -0.07554411
-0.20707922 -1.4451351 -0.026970876 0.10734512 -1.4961925 0.02778622 0.037997697 -0.02580037
-0.15168902 0.04461387 -0.16911371 0.058045156 -0.023496844 -0.16706134 0.073247634 0.078315206
-0.022177326 -0.84752285 -0.17969966 0.082273796 0.08992267 0.034099948 0.045870997 -0.14836487
0.051603466 0.09359765 -0.07679305 -0.027226232 0.039285082 -0.02546384 0.04749562 -0.07103562
0.0828381 0.089687765 -0.44254386 -1.3622226 -0.07225781 0.03037086 0.1357855 -0.01363853
-2.6029388e-06 0.05655337 -0.11579776 -0.06861065 0.059907682 -0.037539113 0.085838884 -1.9997914
0.069127664 -0.26124248 -0.1488646 -0.03383199 -1.159212 -0.05827696 -0.0013530354 0.16587147
-0.17220542 0.11880716 -1.0071362 -1.1688194 0.09897025 -0.044084113 -0.115459844 -0.07669679
-1.1821086 0.270655 -0.14496264 -1.8099878 0.08303948 0.08325546 0.038387872 -0.06922956
-0.10937746 -0.01034981 -1.0126982 -0.031194126 0.025141835 -0.020941759 -0.81651825 -0.18684283
00000000: 6da3 1e3e 9a89 a03d c163 68bc 0aa2 8c3d
00000010: 069a 49bd 3b2a a6bd 07a9 883d 7da9 28be
00000020: b4d4 fc3b 4164 96bd c4cc 54bc b28a 313d
00000030: 8442 183d ecd3 7b3b b7a3 a039 5a39 953d
00000040: 9fb4 2cbe ba3b 1c3d 37e3 c9bf 7e43 9bbd
00000050: e134 293e 16cf a2bf 0293 f6bc 10f1 95bf
00000060: 8dee e6bd 2496 05be 174d 0d3c f27e 69bd
00000070: 9ac1 25be 0b94 583d 797c 0abe 70f4 4b3d
00000080: 0345 42bb 92ba ee3d 9bd9 b83d 78ee 06bc
00000090: 3c74 53bc 6bf2 75bd 249f 2d3d 0ee0 063e
000000a0: a849 e7bd cb24 1b3d db29 3bbd b939 88bf
000000b0: de70 7e3d be77 a53d a15e 653d 19eb 873c
000000c0: 861b a2bd 4479 a9bf 1bd6 60bd 6797 c73d
000000d0: 2636 b5bf c4d2 a43d 4c5f d0bc 2b10 f83b
000000e0: 6310 1abe f6da aa3d 4b16 32be 86f4 963d
000000f0: eaa2 06be 1085 2fbe 4136 873d 54e8 03bd
00000100: c58c e1bd 0fa0 86bf 071f 5ebe 331a 023e
00000110: fb3a 393e 9eb1 e5bc 6baf 72bd 3fc1 23be
00000120: 01b4 2fbd 15b7 113e 4219 8bbd d118 11be
00000130: 8c84 683b ef0c 6e3d f6fb 8fbd cef9 9f3d
00000140: fd07 7a3d e8ae c43d 205b 81be aabf aebf
00000150: 4219 5ebb a2af 803d 28ae e63d c25d 30bd
00000160: 4419 eb3a 18d3 a73d 7e00 1fbe c6e2 36be
00000170: 4383 40bd fdc0 65bc c301 f13d 88e3 d4bf
00000180: e861 cc3d b8ac 11be dbdb 49be 0278 703c
00000190: 97e5 9abf 3e59 59bc d9e8 413d 526e 143e
000001a0: 7088 40be f283 bb3d 0e13 8dbf c424 aebf
000001b0: 12a9 543b d3bd 83bc c44a f4bd ab93 9cbc
000001c0: dbeb a5bf e7c5 123e bd22 44be 4a40 ccbf
000001d0: a801 da3d ea6e 5b3d e008 f9bc eb43 18bd
000001e0: 198f 42be 7af9 8a3d f4f9 a7bf 3698 56bd
000001f0: d804 a5bc 6e27 873d 3772 5bbf 6081 e1bd
00000200: 881a 0f3e dce2 463d ea09 02bd 0ea8 5dbd
00000210: 26d1 80bd 23f9 8bbd 7780 39bd 7ee7 06be
00000220: ff71 303e 9d35 f2bb 5d80 843c a66e 79bd
00000230: 8a80 d23d 2805 d33c 4f1f 953d ebe7 ee3d
00000240: f177 4ebe 46d3 813d 0720 a8bf df29 093d
00000250: 756f 273e c5dc d6bf 2cd1 18be 2c55 75bf
00000260: 680c 51be f06c dabd ad14 923d 849a 903d
00000270: 5c81 dabd 1617 1f3d b3ff 40be f373 2bbc
00000280: 19fa e5bc f368 183e ba9f a23d 6fd5 963d
00000290: 6041 e4bc 30fb 12bd b920 bf3d 8ec1 d03d
000002a0: 6794 0fbe 3597 96bd 8ea9 503b 2449 54bf
000002b0: e5a4 95bc 4ca3 1b3d a516 febb dfb6 9abd
000002c0: 930c 54be 30fa b8bf 07f2 dcbc c2d7 db3d
000002d0: 3c83 bfbf ed9f e33c 79a3 1b3d 4c5b d3bc
000002e0: 5e54 1bbe 09bd 363d 252c 2dbe c2c0 6d3d
000002f0: 747c c0bc 2112 2bbe db02 963d b963 a03d
00000300: 39ad b5bc 42f7 58bf 3003 38be 2a7f a83d
00000310: 6029 b83d 63ac 0b3d 3ae3 3b3d f6ec 17be
00000320: 285e 533d 20b0 bf3d ad45 9dbd 8c09 dfbc
00000330: 65e9 203d 8b99 d0bc c48a 423d 207b 91bd
00000340: 06a7 a93d 38ae b73d 1c95 e2be 4f5d aebf
00000350: e7fb 93bd 4fcc f83c 5b0b 0b3e 2474 5fbc
00000360: 26ae 2eb6 82a4 673d 6027 edbd be83 8cbd
00000370: c261 753d 9dc2 19bd 4ccc af3d 2af9 ffbf
00000380: ce92 8d3d 93c1 85be f66f 18be 6a93 0abd
00000390: 0f61 94bf d2b3 6ebd 5658 b1ba 36da 293e
000003a0: 9e56 30be 2b51 f33d d7e9 80bf e09b 95bf
000003b0: eab0 ca3d 8b91 34bd 3676 ecbd 3513 9dbd
000003c0: 564f 97bf 4b93 8a3e 1671 14be aead e7bf
000003d0: 9a10 aa3d d781 aa3d 9a3c 1d3d 3ac8 8dbd
000003e0: 4a01 e0bd 4092 29bc 18a0 81bf d38a ffbc
000003f0: 40f6 cd3c 0d8e abbc 5707 51bf ba53 3fbe

layer3.bias f4 [3]
-0.28687277 -0.23331058 -0.13994549
00000000: fde0 92be f8e8 6ebe df4d 0fbe
